Lab1/model/model_CIFAR10/conv_params_c3_24.pth (torch, 352772 bytes, 10 tensors)

conv_layers.0.weight f4 [6, 3, 5, 5]
0	0x3f65c0db	0.897474
1	0x3ef15685	0.47136322
2	0x3e1da1a2	0.1539369
3	0x3ebc5147	0.3678076
4	0xbd83f071	-0.06442345
5	0x3f6f06a5	0.93369514
6	0x3f897ee2	1.0741847
7	0x3e871f9a	0.26391298
8	0x3ee5945e	0.44839758
9	0x3e84a9be	0.25910753
10	0xbeab6f12	-0.33483177
11	0x3feff1c3	1.8745655
12	0x4013fe78	2.3124065
13	0x3f211954	0.6292927
14	0x3d67dc07	0.05660632
15	0xbfdf5cd7	-1.7450207
16	0xc021e49e	-2.5295787
17	0xbfde1f75	-1.735335
18	0xbe9b6967	-0.30353853
19	0xbead21a4	-0.33814728
20	0xbf6c0a2b	-0.92203015
21	0xbf63e709	-0.89024407
22	0xbf89d418	-1.0767851
23	0xbf07ec6f	-0.53095144
24	0x3d1838e8	0.037163645
25	0xbe4612d1	-0.19343115
26	0xbfa42c72	-1.2826064
27	0xbf748e4c	-0.9552963
28	0x3e971e39	0.29515246
29	0xbe5d13b8	-0.21589553
30	0xbd22db80	-0.039760113
31	0xbe040943	-0.12894158
32	0xbed32642	-0.41240126
33	0x3ebf3c61	0.37350753
34	0x3e1c24b1	0.15248372
35	0x3f3179e7	0.69326633
36	0x40425b5d	3.0368264
37	0x40417523	3.0227745
38	0x3f69093f	0.91029733
39	0xbea6a095	-0.3254439
40	0xbf9fa690	-1.2472706
41	0xbfd18651	-1.6369115
42	0xbfa549e7	-1.2913178
43	0xbd1d9603	-0.03847314
44	0xbf76432e	-0.9619626
45	0xbc0898e7	-0.008337236
46	0xbe7ea110	-0.24866128
47	0xbf298ea4	-0.6623328
48	0xbe78fa01	-0.24314119
49	0x3e58bb71	0.21165253
50	0xbe8bdd84	-0.2731744
51	0xbf87423a	-1.0567086
52	0xbfa39ab7	-1.278159
53	0xbe73b526	-0.23799571
54	0xbc83df72	-0.016097758
55	0xbf00b55b	-0.50276726
56	0xbf3cb4af	-0.737132
57	0xbfd36ab3	-1.6516937
58	0xbf39938b	-0.7249076
59	0x3e0cab41	0.13737203
60	0x3ed61975	0.41816297
61	0x3feb0f6e	1.8364084
62	0x3ffd8124	1.9805036
63	0x3f4b65df	0.7945232
64	0x3f1a7381	0.60332495
65	0xbe0b4a1e	-0.13602492
66	0xbf77669d	-0.9664095
67	0xbf1778e3	-0.59168833
68	0x3ed9c6de	0.42534536
69	0xbe30a5f7	-0.1725081
70	0x3f7a44c9	0.9776121
71	0x3f9965a7	1.1984147
72	0x3e8dd743	0.27703294
73	0x3ec0e1f0	0.37672377
74	0x3eeda762	0.46416765
75	0x3ec5eda7	0.38657877
76	0xbcb7bfc8	-0.022430316
77	0x3e78b3c9	0.24287333
78	0xbeafd6f9	-0.343437
79	0x3e3329fd	0.17496486
80	0x3f8ca849	1.0988857
81	0xbfc8cd26	-1.5687606
82	0xbea44a2c	-0.3208784
83	0x3f042a24	0.516268
84	0xbc27d388	-0.010243304
85	0x3fc5de17	1.5458401
86	0xc0544794	-3.3168688
87	0x3e4729de	0.19449565
88	0x3fdad8cd	1.7097412
89	0x3e1ad0f7	0.15118776
90	0x3eea5d93	0.45774516
91	0xbff7b994	-1.9353509
92	0x3fcd4e9f	1.6039618
93	0x3efcbadb	0.4936131
94	0xbf104afd	-0.56364423
95	0x3da5821a	0.080814555
96	0x3d815f00	0.06316948
97	0x3f1b768b	0.6072776
98	0xbe3dffb7	-0.18554579
99	0xbec53ad6	-0.3852145
100	0x3f474306	0.77836645
101	0xbf3cae28	-0.7370324
102	0xbf5764a6	-0.8413795
103	0x3e974abc	0.29549205
104	0x3ec5ee20	0.38658237
105	0x3fc3f702	1.5309756
106	0xc001b2c8	-2.026537
107	0xbf5fa346	-0.8735851
108	0x3fbcf4c8	1.4762201
109	0xbd5b01af	-0.053468402
110	0x3fb40dcf	1.4066714
111	0xc05ea7ae	-3.4789844
112	0xbe41c8d4	-0.18924266
113	0x3ff31c5b	1.8993028
114	0xbe83d995	-0.2575194
115	0x3e2f80a1	0.17138912
116	0xc0067dae	-2.1014209
117	0x3fac7fd2	1.3476508
118	0x3f79d662	0.9759275
119	0xbcadca47	-0.021214617
120	0xbe79ec73	-0.24406604
121	0xbf0dce17	-0.55392593
122	0x3c89236a	0.01674052
123	0x3e7d846f	0.2475755
124	0xbe81d6b2	-0.25359112
125	0xbeed8ced	-0.4639658
126	0xbe67a874	-0.22622854
127	0x3ec93338	0.3929689
128	0xbd9c316a	-0.076266125
129	0xbe51bd76	-0.2048243
130	0x3f8c9ce2	1.0985377
131	0xbfd15536	-1.6354129
132	0xbde11902	-0.10991098
133	0x3f7a83ec	0.97857547
134	0xbed9a277	-0.42506763
135	0x3fba67b1	1.4562894
136	0xc038646e	-2.8811297
137	0x3ed03630	0.40666342
138	0x400267b4	2.0375795
139	0xbf472203	-0.7778627
140	0xbf0d25e6	-0.55135953
141	0xbfcca21b	-1.5986971
142	0x3fc7dc49	1.5614101
143	0x3f7d0754	0.98839307
144	0xbf244664	-0.6416991
145	0xbed3ef8e	-0.41393703
146	0x3ef4ef33	0.47838745
147	0x3f33343e	0.7000159
148	0x3eb5a8d6	0.35480374
149	0xbdd2848b	-0.10279187
150	0xbe1174eb	-0.14204757
151	0xbe0c5dc1	-0.1370764
152	0xbed90b08	-0.4239123
153	0x3f645446	0.8919109
154	0x3f576009	0.84130913
155	0x3f154ebb	0.5832326
156	0x3f81c7f1	1.0139142
157	0x3f4820ef	0.7817525
158	0x3f35f85f	0.7108211
159	0x3f32f984	0.6991198
160	0x3d8062dc	0.06268856
161	0x3f5755d2	0.84115326
162	0x3f2a5135	0.6653016
163	0xbecc4666	-0.3989746
164	0x3ea3dfea	0.3200677
165	0x3f17ec9f	0.5934543
166	0x3f229960	0.6351528
167	0xbe515b17	-0.20444904
168	0xbf78ad0b	-0.9713904
169	0xbe371efb	-0.17882912
170	0xbe8bb779	-0.27288416
171	0x3e4a36bb	0.1974744
172	0xbf826738	-1.018775
173	0xbe7cf747	-0.24703704
174	0xbeff52b8	-0.49867797
175	0x3e81c4b5	0.25345388
176	0xbeea3468	-0.45743108
177	0xbfaa0d3f	-1.3285292
178	0xbf024f54	-0.50902295
179	0xbf0fcafa	-0.5616909
180	0xbd12c846	-0.035835527
181	0xbe60af71	-0.21941926
182	0xbf42c460	-0.76080894
183	0xbf4d981b	-0.8031022
184	0xbf7927aa	-0.9732615
185	0x3e5cdf50	0.21569562
186	0xbdf1f1ec	-0.11813721
187	0xbf0ed0e8	-0.55787516
188	0xbfaa18bb	-1.3288797
189	0xbf953829	-1.1657764
190	0x3f4a7140	0.79079056
191	0xbce7e8a4	-0.028309174
192	0xbf2fccc7	-0.6867184
193	0xbf9aaa93	-1.2083305
194	0xbf29c311	-0.6631327
195	0x3ee6b7ab	0.45062003
196	0x3e8bc857	0.27301285
197	0xbea7d143	-0.32776842
198	0x3e92a6df	0.28642938
199	0xbdb3f2a1	-0.08786512
200	0xbf405a17	-0.75137466
201	0x3f00200a	0.5004889
202	0x3e248916	0.16067919
203	0x3f7e8cb5	0.9943345
204	0x3f294785	0.66124755
205	0xbf15ff7b	-0.5859296
206	0x3eabe433	0.3357254
207	0xbe962449	-0.29324558
208	0xbd867ca6	-0.065667436
209	0xbeed0669	-0.46293953
210	0x3f3bc581	0.7334824
211	0x3f72eb99	0.94890743
212	0xbe5a9c12	-0.21348599
213	0xbf5b0e7c	-0.85568976
214	0xbf41b93b	-0.75673264
215	0x3f6f97d5	0.9359105
216	0x3ed8b97e	0.4232902
217	0xbf3addf3	-0.7299492
218	0xbf40015f	-0.7500209
219	0xbefac819	-0.48980787
220	0x3e2e431f	0.17017792
221	0x3f0a9b86	0.5414356
222	0xbf0927bd	-0.5357626
223	0x3f1d6099	0.6147552
224	0xbeb03c9a	-0.34421235
225	0x3e268d6d	0.16264887
226	0x3f042be2	0.5162946
227	0x3dbcc48e	0.09217177
228	0x3e40a437	0.18812643
229	0x3fa3e1f9	1.2803336
230	0x3d17148a	0.036884822
231	0x3d9d185e	0.07670663
232	0xbeb32874	-0.349918
233	0xbee5672b	-0.44805273
234	0x3ce15c9e	0.027509984
235	0x3e177811	0.14791895
236	0xbecc8dd7	-0.39951965
237	0xbf702601	-0.9380799
238	0xbfac8779	-1.3478843
239	0xbf2d17fe	-0.67614734
240	0x3f08b27d	0.5339735
241	0xbdcd6ad9	-0.10030145
242	0xbf33f0c0	-0.7028923
243	0xbf3ba3ed	-0.73297006
244	0x3cabf7a3	0.020992106
245	0x3ee3ec5c	0.44516265
246	0x3dc105a5	0.09424905
247	0xbe4e0e11	-0.20122553
248	0xbc956955	-0.018238703
249	0x3efe8d7f	0.49717328
250	0x3cf3408c	0.029693864
251	0x3d8ad8db	0.06779643
252	0x3d6f7b4d	0.0584672
253	0xbf020f55	-0.50804645
254	0xbefcac97	-0.49350426
255	0xbee30062	-0.4433623

conv_layers.0.bias f4 [6]
0	0xc002db0e	-2.04462
1	0xbfa36631	-1.2765561
2	0xc0052ab3	-2.0807312
3	0x3e53f122	0.20697454
4	0xbfa32a92	-1.2747366
5	0xbed2fcad	-0.412084

conv_layers.1.weight f4 [24, 6, 5, 5]
0	0x3f5ddf0e	0.8666848
1	0xbe5a3c03	-0.21311955
2	0xbee1ab4a	-0.44075996
3	0xbf6967e2	-0.9117414
4	0x3f29222a	0.66067755
5	0x3ec7e596	0.39042348
6	0xbb689b02	-0.0035492782
7	0xbf80c0fe	-1.0058897
8	0xbf0c6c5d	-0.5485285
9	0xbcfa610d	-0.030563856
10	0xbd951701	-0.07279778
11	0x3e7e952c	0.24861592
12	0xbdec654f	-0.115427606
13	0x3e0d3a06	0.13791665
14	0xbdc90cd7	-0.09816902
15	0x3ef95a96	0.48701924
16	0xbe659f3e	-0.22424027
17	0xbefde780	-0.49590683
18	0x3ca06747	0.019580496
19	0x3e97dddb	0.2966145
20	0xbec4db54	-0.38448584
21	0xbf4bc033	-0.7959015
22	0x3e091f4b	0.13390844
23	0xbeee6bb9	-0.4656656
24	0x3e840491	0.25784734
25	0xbfea1d3f	-1.8290175
26	0xbea33b84	-0.31881344
27	0xbf51f4f9	-0.82014424
28	0xbf9c55fb	-1.2213739
29	0xbdd7b4d2	-0.105325356
30	0x3e95bba4	0.2924472
31	0x3d80ee49	0.06295449
32	0xbf6bb333	-0.9207031
33	0xbfaa310e	-1.329622
34	0xbedb83c6	-0.42873973
35	0xbeb5f017	-0.35534737
36	0xbfaa18fd	-1.3288876
37	0xbfaee3e3	-1.3663296
38	0xbfb4cdfa	-1.4125359
39	0xbd8c42a7	-0.068486504
40	0xbf27e6a6	-0.65586317
41	0xbf8e9a40	-1.1140823
42	0xbeda4ed7	-0.42638275
43	0xbeeeb0ce	-0.46619266
44	0xbf7f5b76	-0.99748933
45	0xbee20a47	-0.44148466
46	0x3eabff8c	0.33593404
47	0x3ebba439	0.3664873
48	0xbf048176	-0.5176004
49	0xbef51b12	-0.47872216
50	0x3f5bf029	0.8591333
51	0x3eb313b5	0.34975973
52	0x3ebafe8a	0.36522323
53	0x3e5a1dc4	0.21300417
54	0x3d1f9dd6	0.038968883
55	0x3f5085ee	0.8145436
56	0x3f0a3d25	0.5399955
57	0x3e5f3bd2	0.21800163
58	0xbec8f61c	-0.39250267
59	0x3e641beb	0.22276275
60	0xbe6991ad	-0.22809477
61	0xbf852c34	-1.0404115
62	0xbee4ae3e	-0.44664186
63	0xbf54ef4d	-0.83177644
64	0x3e7ab358	0.24482477
65	0x3e20841e	0.15675399
66	0xbd2e373f	-0.042533156
67	0x3f0639f9	0.5243221
68	0xbd616266	-0.05502548
69	0x3f1b8ce1	0.6076184
70	0xbf30fa3f	-0.69131845
71	0xbf6bbb72	-0.92082894
72	0xbf2aeebf	-0.6677055
73	0xbd2dadf9	-0.04240224
74	0x3bd43e5e	0.0064771613
75	0x3ed6272a	0.41826755
76	0xbe01ed72	-0.12688234
77	0xbecfa283	-0.40553674
78	0x3e9b6027	0.30346796
79	0x3f25cff8	0.6477046
80	0x3e1e9668	0.15487063
81	0xbdbbfc70	-0.09179008
82	0xbecd50e9	-0.40100792
83	0xbe0e7e88	-0.13915455
84	0x3b882e2b	0.0041558943
85	0xbe71dfef	-0.2362058
86	0xbef0b35b	-0.47011837
87	0xbe1c042c	-0.15235966
88	0xbcfa7339	-0.03057252
89	0x3eca0da2	0.39463526
90	0xbd210f76	-0.039321385
91	0xbd8efb0f	-0.069814794
92	0x3efbf82e	0.49212784
93	0x3f1a4b1e	0.6027087
94	0x3e22a48a	0.15883079
95	0x3e656eb2	0.22405508
96	0x3f18ca13	0.5968334
97	0x3e6129a8	0.21988547
98	0x3e7c88da	0.2466158
99	0x3ed90ab4	0.42390978
100	0x3c64349b	0.013928558
101	0xbf59d697	-0.85093063
102	0xbe0e3e06	-0.13890848
103	0xbec5088e	-0.3848309
104	0x3db2eea7	0.087369256
105	0xbf4b404c	-0.79394984
106	0x3cc3582b	0.023845753
107	0xbf89ee39	-1.0775825
108	0xbed0bfa3	-0.40771207
109	0x3e427af1	0.18992211
110	0x3b8a3a2b	0.00421836
111	0xbf692f6a	-0.91087973
112	0xbf2819e4	-0.65664506
113	0xbe48c25b	-0.1960539
114	0xbfa6e401	-1.3038331
115	0x3e3251e1	0.17414047
116	0xbe866698	-0.26250148
117	0xbe629e45	-0.22130688
118	0xbf7c99fa	-0.9867245
119	0xbdc2b4ac	-0.09507117
120	0x3eb708c1	0.35748866
121	0xbf416ec4	-0.7555964
122	0xbeb409b7	-0.35163662
123	0xbea6088e	-0.32428402
124	0x3ecdd42e	0.40200943
125	0xbd8cc4e4	-0.068734914
126	0x3dc105c0	0.09424925
127	0xbd9045d1	-0.070445664
128	0x3e4ed765	0.20199354
129	0x3e565b23	0.20933203
130	0xbea98328	-0.33107877
131	0xbd8d52b8	-0.06900543
132	0xbdd20d5f	-0.102564566
133	0xbf5ad466	-0.85480344
134	0x3f02a16c	0.5102756
135	0x3e96778e	0.29388088
136	0xbf19a068	-0.60010386
137	0xbf1a5aba	-0.6029469
138	0x3eafe36e	0.34353203
139	0x3ed31807	0.4122927
140	0x3f784dac	0.9699352
141	0xbed6cf7c	-0.41955173
142	0xbea1291c	-0.31476676
143	0x3edf17bb	0.43572792
144	0xbf0c5a59	-0.5482536
145	0x3fb9fe25	1.4530684
146	0x3e1d9a64	0.15390927
147	0x3ec8c9cf	0.39216468
148	0x3cfbb70a	0.030726928
149	0x3e8e3a7f	0.27779004
150	0xbebac572	-0.36478764
151	0x3f4f693b	0.81019944
152	0xbe9a1cdb	-0.3010014
153	0x3e72b1ab	0.23700587
154	0x3e66136e	0.2246835
155	0xbdedde42	-0.11614658
156	0xbdfe3e3f	-0.12414216
157	0xbf4e46ce	-0.8057679
158	0xbeb99593	-0.3624693
159	0xbe18bc98	-0.14915693
160	0x3f03dcde	0.5150889
161	0x3f187486	0.595528
162	0x3f8efe53	1.1171364
163	0x3f97c78c	1.1857772
164	0x3e91300a	0.28356963
165	0x3f853b94	1.0408807
166	0x3f55c8dc	0.8350961
167	0x3e4a3d18	0.19749868
168	0xbe366bd7	-0.17814575
169	0xbf6c7fb8	-0.92382383
170	0x3f288652	0.65829957
171	0xbe1bc2bd	-0.15211006
172	0xbea25949	-0.31708744
173	0xbf5957c3	-0.8489954
174	0xbed902d4	-0.4238497
175	0xbe9a6c06	-0.3016054
176	0xbe32a48e	-0.17445585
177	0x3ebff552	0.37491852
178	0xbe61b02d	-0.22039862
179	0x3e429acd	0.19004364
180	0xbdf23095	-0.118256725
181	0xbeee2a3f	-0.46516606
182	0xbe4cdb54	-0.20005542
183	0xbee066d7	-0.4382846
184	0xbe89285d	-0.26788607
185	0xbf333390	-0.70000553
186	0xbf9ebf89	-1.2402202
187	0xbf856533	-1.0421509
188	0xbf219619	-0.63119656
189	0x3af23d5a	0.0018481419
190	0xbf664526	-0.8994926
191	0xbfaff636	-1.3747013
192	0xbf739927	-0.95155567
193	0xbd2c2977	-0.04203173
194	0x3f6b34e9	0.9187761
195	0xbf367f42	-0.7128793
196	0xbedaa697	-0.42705223
197	0xbdeebf71	-0.11657608
198	0xbe44574c	-0.19173926
199	0x3f3ff094	0.7497647
200	0x3e1e6459	0.15467967
201	0xbecb1f8c	-0.39672506
202	0xbf312103	-0.69190997
203	0xbf352cca	-0.7077147
204	0x3d55b79a	0.05217705
205	0xbe87abef	-0.26498362
206	0x3e13b2e2	0.14423707
207	0x3e846022	0.25854594
208	0xbe3b1f5a	-0.18273678
209	0x3f11b6bd	0.5691946
210	0xbe865a6c	-0.2624086
211	0xbe27eaf7	-0.16398226
212	0x3e8030e0	0.2503729
213	0x3e9b700b	0.3035892
214	0x3f28f2f3	0.6599571
215	0xbd975a72	-0.07390298
216	0x3ef8c32b	0.485864
217	0x3f2b9081	0.6701737
218	0xbef535dd	-0.47892657
219	0xbdd46a48	-0.10371834
220	0x3e2c6dbb	0.16838734
221	0xbeeff63d	-0.46867552
222	0xbe97041c	-0.29495323
223	0xbe0ac226	-0.13550624
224	0xbf86c176	-1.052779
225	0xbe50333b	-0.20332043
226	0xbf3af160	-0.7302456
227	0x3ec8c187	0.3921015
228	0xbd9324c3	-0.07184746
229	0xbcad80db	-0.021179607
230	0x3e067e5f	0.13134144
231	0x3d44f576	0.048085652
232	0x3eb79aa3	0.35860166
233	0xbda614c0	-0.081094265
234	0xbed6af9a	-0.41930848
235	0x3fa6a5d5	1.3019358
236	0x3f43ebab	0.76531476
237	0x3ef0f9d3	0.470656
238	0xbd356242	-0.04428316
239	0xbf54f0c8	-0.83179903
240	0x3eddaa20	0.43293858
241	0xbc62bd71	-0.013839112
242	0xbf5d1b5e	-0.86369884
243	0xbf84a65f	-1.0363272
244	0xbedbb605	-0.42912307
245	0xbf0ee1fd	-0.5581358
246	0xbed673a7	-0.4188511
247	0xbf83b631	-1.0289975
248	0xbf98298f	-1.1887683
249	0x3e78e597	0.24306332
250	0x3e2e770f	0.17037605
251	0xbe556817	-0.20840488
252	0xbe9f661d	-0.31132594
253	0xbf2404f0	-0.64070034
254	0x3e14b0e6	0.14520606
255	0x3e027a3c	0.12741941

conv_layers.1.bias f4 [24]
0	0x40acfc1e	5.405776
1	0xc029264a	-2.642962
2	0xbf9a54c5	-1.205712
3	0x3ed2f904	0.4120561
4	0xc0bf2007	-5.9726596
5	0xc07ee5bc	-3.9827719
6	0xbf819572	-1.0123732
7	0x3eb9ba88	0.36275125
8	0xc09edb55	-4.964274
9	0xc090f7ec	-4.530264
10	0xbfbe8590	-1.488451
11	0xbf6c2722	-0.9224721
12	0xbdd4f0b7	-0.10397475
13	0x3fd8efcd	1.6948181
14	0xbefc69a7	-0.49299356
15	0x3f15ee81	0.58567053
16	0x40a42b41	5.13028
17	0x3f061113	0.52369803
18	0xbf8d8480	-1.1056061
19	0xc0a2dfbf	-5.0898128
20	0xbfa51dc0	-1.2899704
21	0xbf452929	-0.7701593
22	0x400093b5	2.0090153
23	0x3e455e00	0.1927414

fc_layers.0.weight f4 [120, 600]
0	0xbebeed5f	-0.37290475
1	0xbe7b0c77	-0.24516474
2	0x3db0d81a	0.08634968
3	0x3b805f79	0.003917631
4	0xbf33f9f0	-0.7030325
5	0xbea53b38	-0.32271743
6	0xbeefe710	-0.46855974
7	0xbea92eb0	-0.33043432
8	0x3e8712c7	0.26381513
9	0xbef3bc9a	-0.4760483
10	0xbeb2a218	-0.34889293
11	0xbe346589	-0.17616858
12	0x3f221afb	0.6332242
13	0x3e04a1d3	0.12952356
14	0xbe838bfe	-0.25692743
15	0x3bdf0a66	0.0068066595
16	0x3dce435c	0.100714415
17	0x3ea177a1	0.31536582
18	0x3d9e255a	0.07721968
19	0xbe901c44	-0.28146565
20	0xbf39bd9c	-0.72554946
21	0xbe6fe88a	-0.2342855
22	0x3e980290	0.29689455
23	0xbdd1deab	-0.10247549
24	0xbe0c476f	-0.13699125
25	0x3dca0440	0.09864092
26	0xbd05c52b	-0.032658737
27	0x3e21500e	0.15753195
28	0x3dd61ae4	0.10454348
29	0x3e646ba5	0.22306688
30	0xbece4293	-0.40285167
31	0xbe764d49	-0.2405292
32	0xbe2abd36	-0.1667374
33	0xbe27af3a	-0.16375437
34	0xbe35a3e5	-0.17738302
35	0x3e84a642	0.25908095
36	0x3f3993ec	0.72491336
37	0xbe0b881a	-0.13626137
38	0xbea2424f	-0.31691214
39	0xbe7f4ae2	-0.2493091
40	0xbe8c714a	-0.27430183
41	0xbe259ee9	-0.161739
42	0xbe282e79	-0.16423978
43	0xbdaeb16f	-0.085299365
44	0xbe62efcf	-0.22161792
45	0x3ef5e158	0.48023486
46	0xbe780d5a	-0.24223843
47	0xbe61ea9d	-0.22062154
48	0x3d3c6011	0.045990054
49	0xbf15c255	-0.5849965
50	0x3ebf97b9	0.37420443
51	0xbf3848eb	-0.71986264
52	0xbf24471e	-0.64171016
53	0x3da3325e	0.07968591
54	0x3d27e005	0.040985126
55	0x3e8116e1	0.25212768
56	0xbc6cba2d	-0.014448685
57	0xbdd92928	-0.10603553
58	0xbd918ceb	-0.07106956
59	0x3e5da114	0.21643478
60	0x3eebaf64	0.4603225
61	0x3e780d42	0.24223807
62	0xbd889d24	-0.06670597
63	0xbe7f1cb3	-0.24913292
64	0x3da4b2af	0.08041894
65	0x3ce26d69	0.027640061
66	0x3e018dd6	0.12651762
67	0xbe067fac	-0.1313464
68	0x3e8a01b2	0.26954418
69	0x3d034daf	0.032056507
70	0xbe01d29b	-0.12677996
71	0x3eeb93f2	0.4601131
72	0x3e171491	0.14753939
73	0xbdc67cd2	-0.09691776
74	0xbe759278	-0.23981655
75	0xba5900a1	-0.0008277987
76	0xbf0dcd92	-0.553918
77	0xbf43305d	-0.7624567
78	0xbc62f3f5	-0.013852109
79	0x3eca4b86	0.39510745
80	0xbe190221	-0.14942218
81	0xbea26c75	-0.3172337
82	0xbe3c3962	-0.18381265
83	0xbd8697b4	-0.06571904
84	0x3e995e48	0.29954743
85	0x3e49fe03	0.19725804
86	0xbd7d6a03	-0.06186868
87	0xbf14f8db	-0.58192223
88	0xbf5bca07	-0.85855144
89	0xbe66cef2	-0.22539881
90	0xbe7000d0	-0.2343781
91	0x3ec15be1	0.3776541
92	0x3dff503e	0.12466477
93	0xbed930a6	-0.42419928
94	0x3df74cb0	0.12075174
95	0xbd3930e8	-0.045212656
96	0x3e4780f9	0.19482793
97	0xbc8c7049	-0.017143385
98	0xb96e517d	-0.00022727805
99	0xbd6920f0	-0.056916177
100	0x3d0c26c7	0.03421667
101	0x3cef3e45	0.029204497
102	0x3e2aee89	0.16692556
103	0xbe3d6bea	-0.18498197
104	0x3d96277a	0.07331748
105	0x3de492b3	0.11160793
106	0xbd11acf6	-0.03556534
107	0x3da29be4	0.0793989
108	0xbea8e5ac	-0.32987726
109	0xbdd4e06a	-0.10394366
110	0xbe9db59c	-0.3080262
111	0xbc18ca96	-0.009325644
112	0xbe691b10	-0.2276423
113	0xbe0ca3db	-0.13734381
114	0x3c92111f	0.01783043
115	0xbe858e7b	-0.26085266
116	0x3eb799db	0.3585957
117	0xbe6fba4b	-0.23410909
118	0xbd158ba7	-0.036510136
119	0xbe0400da	-0.1289095
120	0xbd8d51ab	-0.069003426
121	0x3e2b73a2	0.16743329
122	0xbee1bbf9	-0.44088724
123	0x3eb676e5	0.35637584
124	0x3cb7099a	0.022343446
125	0xbe244850	-0.1604321
126	0x3ef85e74	0.48509562
127	0xbd87d465	-0.06632308
128	0xbd082c34	-0.03324528
129	0xbe52f150	-0.20599866
130	0xbe411bc7	-0.18858252
131	0xbe1f35f2	-0.15547922
132	0xbe85627c	-0.260517
133	0x3e2efdbe	0.17088982
134	0xbe754100	-0.23950577
135	0xbe6f0e06	-0.23345193
136	0xbef8c056	-0.4858424
137	0x3cd49988	0.025952116
138	0xbe0e057e	-0.13869283
139	0xbea18515	-0.31546846
140	0xbe12b94d	-0.14328499
141	0x3db2d81e	0.08732627
142	0xbec5b8f2	-0.38617665
143	0x3e050cb6	0.1299313
144	0x3d49c5c8	0.049260885
145	0xbe2f460e	-0.17116567
146	0x3e5d986d	0.21640177
147	0xbeb182ba	-0.3467005
148	0x3ea52396	0.32253712
149	0x3f0ec593	0.55770224
150	0x3dc345b3	0.095347784
151	0xbd92216f	-0.07135283
152	0x3e91e22d	0.2849287
153	0xbd6f3d48	-0.05840805
154	0x3ca1c021	0.019744935
155	0x3eec63d9	0.46169928
156	0x3eb76608	0.3582003
157	0x3f390d3d	0.72285825
158	0x3ef88940	0.48542213
159	0x3c5b5e8a	0.013389239
160	0x3db73ee7	0.089475445
161	0xbdd4be73	-0.10387888
162	0xbd44f3e7	-0.048084166
163	0xbe6c2d98	-0.23064268
164	0x3e6a186d	0.2286088
165	0x3e8944d2	0.26810318
166	0xbe9bb1b7	-0.30409023
167	0xbe49e421	-0.1971593
168	0xbe856580	-0.26054
169	0x3ec9e384	0.39431393
170	0x3e6da41f	0.23207138
171	0x3ea2dac0	0.31807518
172	0x3e908779	0.28228357
173	0xbeeb4181	-0.45948413
174	0x3e2029f2	0.15641001
175	0x3d733054	0.05937226
176	0xbe7196fa	-0.23592749
177	0xbe32d1a9	-0.17462792
178	0xbf38fb14	-0.72258115
179	0x3d074b73	0.03303094
180	0xbdc3deec	-0.09564003
181	0x3ee3c839	0.44488695
182	0x3f367952	0.7127887
183	0xbef553bc	-0.47915447
184	0xbd3b5cba	-0.045742728
185	0xbef63ca9	-0.48093155
186	0x3e0cf456	0.13765082
187	0xbd83bfa1	-0.06433035
188	0xbc905168	-0.017616943
189	0x3ed71394	0.42007124
190	0xbe037506	-0.1283761
191	0x3c283b74	0.010268081
192	0x3b55c7fe	0.0032620425
193	0x3ec5ca1f	0.3863077
194	0xbe11bc88	-0.14232075
195	0xb9d871f5	-0.00041283635
196	0x3efc77c3	0.4931012
197	0xbca46826	-0.020069193
198	0xbf0aa231	-0.54153734
199	0x3e460e73	0.1934145
200	0xbe17c39c	-0.14820713
201	0xbeca585d	-0.3952054
202	0xbe37f46d	-0.17964335
203	0xbea94653	-0.33061466
204	0xbd8f8e64	-0.07009581
205	0xbe5c2359	-0.21497859
206	0xbcccc51b	-0.024996331
207	0xbe32746e	-0.17427227
208	0x3e04de83	0.12975506
209	0x3e0bdc0f	0.13658164
210	0xbf14c448	-0.58112
211	0xbe82a775	-0.25518385
212	0xbe8190b8	-0.25305724
213	0xbec37a83	-0.38179407
214	0x3b60cff1	0.003430363
215	0xbe90be70	-0.28270292
216	0xbe2f5a45	-0.17124279
217	0x3dca4a46	0.09877448
218	0xbd35e505	-0.044407863
219	0xbe0f0ae8	-0.13969004
220	0x3dd68246	0.104740664
221	0xbe772bc1	-0.24137785
222	0xbeb5f639	-0.35539415
223	0x3db43167	0.08798485
224	0xbe1d5f0e	-0.15368292
225	0x3f662b6a	0.89909995
226	0x3c829bd3	0.015943443
227	0x3e80cebe	0.25157732
228	0x3d134b94	0.03596075
229	0xbd2206f8	-0.039557427
230	0xbeeb4950	-0.4595437
231	0x3f23834c	0.6387222
232	0xbce8aaac	-0.028401695
233	0x3f0618b3	0.5238144
234	0xbeb0a27a	-0.3449896
235	0x3daf7aea	0.08568366
236	0x3de016b7	0.109418325
237	0x3bccd194	0.0062505696
238	0x3e6ae650	0.2293942
239	0xbe5f60ae	-0.21814224
240	0x3da9b16d	0.082857944
241	0xbe8e57ad	-0.27801266
242	0xbea4d90c	-0.32196844
243	0xbe0c2e9a	-0.13689652
244	0xbe46b3d2	-0.19404534
245	0xbe32abce	-0.17448351
246	0x3e614c8a	0.22001854
247	0xbe88c37c	-0.26711643
248	0xbd1cf767	-0.03832188
249	0xbee3c4f5	-0.44486204
250	0xbe34b501	-0.17647173
251	0x3f39c238	0.7256198
252	0xbef487ec	-0.4775995
253	0x3e96b259	0.29432943
254	0x3e9d5d8c	0.30735433
255	0xbe7e08d4	-0.24808055

fc_layers.0.bias f4 [120]
0	0xbe6edd00	-0.23326492
1	0x3f2a72eb	0.665816
2	0x3e687853	0.2270215
3	0x3e8cab25	0.27474323
4	0x3ed5d4a8	0.41763806
5	0xbeaf381a	-0.3422249
6	0xbcc5c567	-0.02414198
7	0x3e79e6d9	0.24404468
8	0x3e049f1d	0.12951322
9	0xbb34bb2b	-0.002757738
10	0xbdfd36d6	-0.12363975
11	0x3f4bd3a2	0.796198
12	0x3c5d34a1	0.013501317
13	0xbe9f1c12	-0.31076103
14	0xbe564be2	-0.20927384
15	0x3c724e21	0.014789135
16	0xbea0477e	-0.31304544
17	0xbecce28c	-0.40016592
18	0xbf8a5d7e	-1.0809782
19	0xbe87d37a	-0.2652853
20	0xbf00618e	-0.50148857
21	0xbca502a2	-0.020142857
22	0x3f290436	0.6602205
23	0xbea5fd2b	-0.32419714
24	0x3e8e5076	0.27795762
25	0xbebc6e19	-0.36802748
26	0xbf30aa29	-0.69009644
27	0xbf39b78a	-0.72545683
28	0x3ed3aa29	0.4134076
29	0xbe91dec6	-0.28490275
30	0xbddb78c0	-0.107163906
31	0x3f72dfe8	0.94872904
32	0xbec6404d	-0.38720933
33	0x3eeb403f	0.45947453
34	0x3f9ca956	1.2239177
35	0xbea85d14	-0.32883513
36	0x3ee4887b	0.44635376
37	0xbc7d0591	-0.015443222
38	0xbef4090f	-0.4766316
39	0x3dd3b9df	0.103381865
40	0xbec76f94	-0.38952315
41	0x3f416755	0.755483
42	0x3dbbebe7	0.09175854
43	0xbe32fbac	-0.17478818
44	0x3ebf8c58	0.3741176
45	0x3ed64345	0.41848198
46	0xbe2a138f	-0.16609024
47	0xbec8e731	-0.39238885
48	0x3f664bd2	0.8995944
49	0x3f1f87a6	0.6231636
50	0xbea36f4a	-0.31920844
51	0x3eceb7e1	0.40374663
52	0xbe38c0ba	-0.1804227
53	0xbe845e21	-0.25853065
54	0xbe888fbf	-0.2667217
55	0xbea7c05a	-0.3276394
56	0xbf3079ad	-0.6893566
57	0xbd92c3e8	-0.071662724
58	0xbef5d546	-0.48014277
59	0xbdbe7cec	-0.09301171
60	0x3f01e828	0.5074487
61	0xbdec8895	-0.115494885
62	0xbcfa0a50	-0.030522496
63	0x3e4e37a4	0.20138413
64	0xbe74726f	-0.23871778
65	0x3c858599	0.016299056
66	0xbed7a635	-0.42118993
67	0xbf4ef946	-0.8084911
68	0x3f07e42b	0.5308253
69	0xbec29b8b	-0.38009295
70	0xbf0b1af1	-0.54337984
71	0x3dd723e7	0.10504895
72	0xbf1dde4f	-0.6166734
73	0x3eb39917	0.35077736
74	0xbcf498e4	-0.02985806
75	0x3e6672a5	0.22504671
76	0xbecaca20	-0.39607334
77	0xbe84080c	-0.2578739
78	0xbf0faecd	-0.561261
79	0xbf280d03	-0.65644854
80	0xbe175e52	-0.14782074
81	0x3ebc7069	0.36804512
82	0x3e616fe7	0.22015344
83	0xbce6ccac	-0.028173767
84	0x3eaea6aa	0.3411153
85	0xbcb47c13	-0.02203182
86	0xbf1be2e1	-0.60893065
87	0xbde3615a	-0.11102553
88	0xbf06f0ff	-0.5271148
89	0xbe79250b	-0.24330537
90	0xbc6adcee	-0.0143349
91	0xbe8963df	-0.26834008
92	0xbd93725c	-0.07199547
93	0x3e68301d	0.22674604
94	0xbf30d4af	-0.6907453
95	0x3dd7129e	0.10501598
96	0xbe4de457	-0.20106636
97	0x3f6789aa	0.90444434
98	0xbd39e596	-0.045384966
99	0xbe29d88b	-0.16586511
100	0x3c243709	0.010022887
101	0x3e3f6622	0.18691304
102	0xbe19f91b	-0.15036432
103	0x3ea68935	0.32526556
104	0x3f685faa	0.9077097
105	0x3f0e7910	0.55653477
106	0x3dd995e9	0.10624296
107	0x3e1a024b	0.15039937
108	0x3e9d0732	0.30669552
109	0xbeb12c2e	-0.3460402
110	0xbe606113	-0.21912031
111	0x3e771bd7	0.24131714
112	0xbf2dcc89	-0.6789022
113	0x3f12d5fb	0.5735776
114	0xbe253123	-0.16132025
115	0xbf02bbe0	-0.51067924
116	0xbea32271	-0.31862214
117	0xbecf2ec3	-0.40465364
118	0x3f0fa7f0	0.5611563
119	0x3f2d7632	0.67758477

fc_layers.1.weight f4 [84, 120]
0	0xbeafc2e6	-0.34328383
1	0xbdddfdd2	-0.10839428
2	0xbf11421f	-0.5674152
3	0xbeaaa2c9	-0.3332732
4	0x3e51c975	0.20487006
5	0x3df8e3f7	0.12152856
6	0xbe4b979b	-0.19882052
7	0xbe8c024c	-0.27345502
8	0xbf063f7e	-0.5244063
9	0xbebb345e	-0.3656339
10	0xbe5479ff	-0.20749663
11	0xbee4b652	-0.4467035
12	0xbeddc54c	-0.43314588
13	0xbeadc8d2	-0.33942276
14	0xbeaa85ac	-0.3330511
15	0x3e8ee641	0.27910045
16	0xbe86e60c	-0.26347387
17	0xbf5e7896	-0.8690275
18	0xbef33192	-0.47498757
19	0xbe371012	-0.17877224
20	0x3e8b6b15	0.27230135
21	0xbeea85b4	-0.45805132
22	0xbf118d2d	-0.5685604
23	0x3e9cc53f	0.30619237
24	0xbf17cb94	-0.5929501
25	0x3dce2c93	0.100670956
26	0xbe9e4a7a	-0.30916196
27	0x3e5533cc	0.2082054
28	0xbf0f2d6b	-0.5592868
29	0xbe792880	-0.24331856
30	0xbf2aed95	-0.6676877
31	0xbdeabf86	-0.114623114
32	0x3e857c68	0.26071477
33	0x3e85963f	0.2609119
34	0xbf127ddb	-0.5722329
35	0xbdcffed8	-0.101560295
36	0xbe7377dc	-0.23776191
37	0x3de3f0d5	0.111299194
38	0xbac8c8d8	-0.0015318645
39	0xbe52f42e	-0.2060096
40	0x3daa436b	0.0831364
41	0xbdca98c8	-0.09892422
42	0xbe481fd6	-0.19543394
43	0xbe84edb1	-0.25962594
44	0xbe65db7d	-0.2244701
45	0x3bd97dfb	0.0066373325
46	0x3e4e980b	0.20175187
47	0xbf12726a	-0.5720583
48	0xbe9d770a	-0.30754882
49	0xbe828bb0	-0.25497198
50	0x3cf1bcce	0.029508974
51	0xbe56fe7c	-0.20995516
52	0xbe8f98bd	-0.28046218
53	0xbed8ab8c	-0.4231838
54	0xbf050957	-0.51967376
55	0xbe018a14	-0.12650329
56	0xbe6ea298	-0.23304212
57	0xbe95c0a6	-0.29248542
58	0x3ecc709a	0.39929658
59	0xbe9edcb6	-0.31027764
60	0xbf0ade8e	-0.5424584
61	0x3e917f30	0.2841735
62	0xbf0440da	-0.51661456
63	0xbd144e9c	-0.03620778
64	0x3ddf4ed0	0.10903704
65	0xbe9041b4	-0.28175128
66	0x3e31aa2e	0.17350075
67	0xbec84425	-0.3911449
68	0xbe5a3cc9	-0.2131225
69	0xbe48189e	-0.1954064
70	0x3afe811f	0.0019417143
71	0x3e9140a0	0.28369617
72	0xbe5374fa	-0.20650092
73	0xbf1c4d9f	-0.6105594
74	0xbf0f06fc	-0.5587003
75	0xbf474a35	-0.77847606
76	0x3e48af79	0.19598188
77	0xbe913cb2	-0.2836662
78	0xbe73d3b5	-0.23811229
79	0xbee57005	-0.44812027
80	0xbf21ef8f	-0.6325616
81	0x3dd2d6a1	0.102948435
82	0xbd49b9f0	-0.04924959
83	0xbef5b2ff	-0.47988126
84	0xbdb4eab7	-0.08833831
85	0x3e3b07ad	0.18264647
86	0x3e21c562	0.15797952
87	0xbef6a575	-0.4817311
88	0xbe91126b	-0.28334364
89	0xbe28a4de	-0.16469142
90	0x3d4200c0	0.047363997
91	0xbe2cf9c1	-0.16892149
92	0xbe8c4bf1	-0.2740169
93	0xbe261197	-0.16217647
94	0xbf127260	-0.5720577
95	0xbe88c706	-0.26714343
96	0x3c5b2270	0.01337491
97	0xbec97d90	-0.3935361
98	0x3e784d23	0.24248175
99	0xbe559774	-0.20858556
100	0xbe7a355a	-0.24434415
101	0x3e309097	0.17242657
102	0xbedd240b	-0.4319156
103	0xbef48e28	-0.47764707
104	0xbe98f0be	-0.29871172
105	0xbe922caf	-0.28549716
106	0xbe97fdf0	-0.29685926
107	0xbc1973af	-0.00936596
108	0xbe9b93be	-0.30386156
109	0xbe73e3e5	-0.23817404
110	0xbd262688	-0.04056409
111	0xbe613307	-0.21992122
112	0x3e0a0f73	0.13482456
113	0xbf47c061	-0.7802792
114	0xbd0335bc	-0.032033667
115	0x3e28430f	0.16431831
116	0xbe0b141c	-0.1358189
117	0x3ea4903f	0.321413
118	0xbe246dbe	-0.16057488
119	0xbe2bef51	-0.1679051
120	0xbe41467f	-0.18874548
121	0xbce51576	-0.027964335
122	0x3e34e9ef	0.17667364
123	0x3dabc7fa	0.08387752
124	0xbf006c87	-0.501656
125	0xbeb1e55f	-0.3474531
126	0xbe06665f	-0.13124989
127	0xbd2dff3f	-0.04247975
128	0x3ea6f385	0.32607666
129	0x3e32aad2	0.17447975
130	0xbdce537d	-0.10074518
131	0xbe58bec3	-0.2116652
132	0x3e3a1ec2	0.18175796
133	0xbe59cca3	-0.21269469
134	0xbed5e32f	-0.4177489
135	0xbe3525bc	-0.17690176
136	0x3d60c10a	0.054871596
137	0xbd3dba96	-0.04632052
138	0xbf087bc6	-0.53313863
139	0xbeaa04e8	-0.33206868
140	0xbeab76cb	-0.3348907
141	0xbe03c6b9	-0.12868775
142	0xbf25fb7a	-0.6483685
143	0x3d3b47e5	0.04572286
144	0xbef3e006	-0.47631854
145	0xbe3d6f75	-0.18499549
146	0x3d0d054a	0.034428872
147	0xbe204bf2	-0.15653971
148	0xbe6a4149	-0.22876467
149	0x3e8858ac	0.2663015
150	0xbd9d0732	-0.07667388
151	0xbdcf8761	-0.10133243
152	0xbd5228eb	-0.051308554
153	0xbeddc1b9	-0.4331186
154	0xbcc53786	-0.024074327
155	0xbd844a86	-0.06459527
156	0xbf0f71bf	-0.5603294
157	0xbea80115	-0.32813326
158	0xbdd4b676	-0.10386364
159	0x3d80ffed	0.06298814
160	0xbea4bf33	-0.32177123
161	0xbea47d56	-0.32126874
162	0x3dbe5c35	0.09294931
163	0x3d8c9af1	0.0686549
164	0xbe9b448c	-0.30325735
165	0xbeda91db	-0.42689404
166	0x3c13ea25	0.009027992
167	0xbcd0bf3c	-0.025481813
168	0xbf3e23d2	-0.7427341
169	0xbd81cb51	-0.06337608
170	0xbe0a00cf	-0.13476871
171	0xbe2dc40e	-0.1696932
172	0xbec78c47	-0.3897421
173	0xbe11ab53	-0.14225511
174	0x3e80b90e	0.25141186
175	0xbc7c70e0	-0.015407771
176	0xbebd3c13	-0.36959895
177	0x3e15f9c0	0.14646053
178	0xbec5e1ad	-0.3864874
179	0xbe66dc16	-0.22544894
180	0xbf02e077	-0.51123756
181	0xbec6dd00	-0.38840485
182	0xbc16c0e0	-0.009201258
183	0x3d677e83	0.056517135
184	0x3dbc3138	0.09189075
185	0x3e44013b	0.19141094
186	0x3e830ae3	0.25594243
187	0x3d7f366e	0.062307768
188	0xbe285ae8	-0.16440928
189	0x3e760d17	0.24028431
190	0xbf0a242e	-0.53961456
191	0xbd950b2e	-0.07277523
192	0xbddca28d	-0.107731916
193	0x3bdbca55	0.0067074695
194	0xbed52611	-0.41630605
195	0xbe96a7d9	-0.29424933
196	0xbe663c12	-0.22483853
197	0xbdae995e	-0.08525346
198	0xbda880c9	-0.08227689
199	0xbe32644c	-0.17421073
200	0xbd8f84c8	-0.07007748
201	0xbe7feb64	-0.24992138
202	0xbdeef9f9	-0.11668772
203	0xbe6c6417	-0.23085056
204	0xbb8aef89	-0.0042399806
205	0xbe25cb23	-0.16190772
206	0xbebd03b7	-0.36916897
207	0xbec32a46	-0.3811819
208	0x3e3c959c	0.18416446
209	0xbeb07365	-0.3446304
210	0xbe60538a	-0.21906868
211	0x3b852019	0.004062664
212	0x3d805b5f	0.06267428
213	0x3e53391a	0.20627251
214	0x3d6c7deb	0.057737272
215	0xbd53ef7c	-0.051742062
216	0xbecb8782	-0.39751822
217	0xbe5e3f81	-0.21703912
218	0x3bc37336	0.005964662
219	0xbe2b7932	-0.16745451
220	0x3c861665	0.0163681
221	0xbe0c47a6	-0.13699207
222	0x3d9a998c	0.07548818
223	0xbf21f1f8	-0.6325984
224	0x3cee7499	0.029108332
225	0xbe8e2c83	-0.27768335
226	0xbe20464b	-0.15651815
227	0xbc1ece33	-0.009692716
228	0x3c494558	0.012284599
229	0xbed2ac89	-0.4114726
230	0xbe96c20d	-0.29444924
231	0xbdce0cba	-0.10061021
232	0xbec09787	-0.37615606
233	0xbcf25294	-0.029580392
234	0x3d5de17c	0.054170117
235	0xbe4abfc0	-0.1979971
236	0x3debf0be	0.11520527
237	0xbe157896	-0.14596781
238	0x3d0f2304	0.034945503
239	0xbe6157ee	-0.22006199
240	0xbdfa7c23	-0.122307085
241	0x3ec10b32	0.37703854
242	0xbe340dfe	-0.17583463
243	0x3e1f4688	0.1555425
244	0xbec5a879	-0.38605097
245	0x3de34e9d	0.11098979
246	0xbe45889d	-0.19290395
247	0xbe5aafcf	-0.21356128
248	0x3c883048	0.016624585
249	0xbe1197c2	-0.14218047
250	0xbdd30752	-0.103041306
251	0x3d6a670a	0.057227172
252	0xbe1f9d2f	-0.15587305
253	0x3c5fad56	0.013652166
254	0xbed8ce28	-0.42344785
255	0xbeb5c3e2	-0.3550101

fc_layers.1.bias f4 [84]
0	0xbf3effcd	-0.7460907
1	0x3f7720f9	0.9653469
2	0x3ee45d3f	0.4460239
3	0xbeb07511	-0.34464315
4	0xbf1bbe3f	-0.6083717
5	0xbee987a2	-0.45611292
6	0xbf33901f	-0.70141786
7	0x403f2305	2.9865124
8	0x3f854825	1.0412642
9	0x3f1fe4a6	0.62458265
10	0xbf11cd54	-0.5695393
11	0x3e28fc49	0.16502489
12	0xbf0a5e3f	-0.5405006
13	0xba98ba39	-0.0011652178
14	0xbf398cd5	-0.7248052
15	0x3fe70381	1.8047944
16	0x3e2978e2	0.1655002
17	0xbfbb3ff2	-1.462889
18	0x3eb3c89d	0.35113993
19	0x3d6b6b29	0.057475243
20	0x3fa0c115	1.2558924
21	0x3f0b5cdc	0.5443857
22	0xbefd183f	-0.4943256
23	0xbf229527	-0.6350884
24	0x3eea6bd9	0.45785406
25	0xbf35eada	-0.7106148
26	0xbf819d84	-1.0126195
27	0xbe200417	-0.1562656
28	0xbed51ccf	-0.41623542
29	0x3f1537aa	0.5828806
30	0x3de27a30	0.11058462
31	0xbedbaea7	-0.42906687
32	0xbedac7f6	-0.42730683
33	0xbd4af153	-0.04954655
34	0xbf617b6e	-0.88078964
35	0x3ee918a6	0.45526618
36	0xbdf7756f	-0.120829456
37	0xbf1efea4	-0.621073
38	0x4024c2dd	2.5743935
39	0xbdf64e3f	-0.12026643
40	0xbf6d289b	-0.92640084
41	0xbe29e70e	-0.16592047
42	0xbf98305a	-1.1889756
43	0xbf917cdf	-1.1366233
44	0xbea5839d	-0.32326975
45	0x3f77e9c2	0.9684106
46	0x3f26b203	0.65115374
47	0xbe1fcd7b	-0.15605728
48	0xbf1671f3	-0.5876762
49	0xbd71904a	-0.058975495
50	0x3f20efce	0.6286591
51	0x3f965ee6	1.1747711
52	0xbeecc5c6	-0.4624464
53	0x3e99fe80	0.3007698
54	0xbec8f710	-0.39250994
55	0x3e88cd56	0.2671916
56	0x3ed50054	0.41601813
57	0x3e8827ea	0.26592952
58	0xbd2fa0b3	-0.042877864
59	0xbed99394	-0.42495406
60	0x3ea1c17a	0.31592923
61	0xbf08fc24	-0.53509736
62	0xbe9f6f7d	-0.31139746
63	0x3f74b749	0.9559217
64	0xbe336dfb	-0.17522423
65	0xbe4a45ae	-0.19753143
66	0xbeae35df	-0.34025475
67	0x3d74fcff	0.05981159
68	0xbeb81846	-0.3595602
69	0xbf2439d0	-0.64150715
70	0xbd8fd7ec	-0.07023606
71	0x3f33ad77	0.7018656
72	0xbda9bd2c	-0.08288035
73	0xbf09119c	-0.53542495
74	0x3da152e1	0.07877136
75	0xbdef1fb3	-0.11675968
76	0x3f27b7f9	0.65515095
77	0xbdaa9263	-0.08328702
78	0xbf49483a	-0.78625834
79	0x3f85064e	1.0392549
80	0xbf15df3f	-0.5854377
81	0xbef334b4	-0.47501147
82	0x3f864303	1.04892
83	0xbe0399f9	-0.12851705

output_layer.weight f4 [10, 84]
0	0x3e206c06	0.15666208
1	0xbcabce0c	-0.020972274
2	0x3db1a365	0.08673743
3	0xbc953838	-0.018215284
4	0x3e1c0fc7	0.15240394
5	0xbddcce87	-0.107815795
6	0x3c806c51	0.01567665
7	0xbd7b9101	-0.061417583
8	0xbcc2d5ec	-0.023783647
9	0x3e4f76db	0.20260184
10	0xbd737677	-0.05943915
11	0x3ccbfa29	0.02489956
12	0x3d3775b7	0.044789996
13	0x3e22f954	0.15915424
14	0x3dca661e	0.098827586
15	0x3ccc1418	0.024911925
16	0xbcae4186	-0.021271478
17	0x3e94225d	0.28932467
18	0x3bf0f61d	0.0073535577
19	0x3d855f99	0.065123744
20	0x3c0b7ee9	0.008514144
21	0xbdf20f4b	-0.11819323
22	0xbe310333	-0.17286377
23	0x3e51458b	0.20436685
24	0x3d68fc20	0.05688107
25	0x3d6a05b8	0.05713436
26	0xbac04fff	-0.0014672278
27	0xbcca91e1	-0.024727764
28	0x3e0f95c2	0.14021972
29	0x3d87e6ab	0.06635793
30	0x3dadb940	0.08482599
31	0xbc8c1438	-0.017099485
32	0xbe3eeda8	-0.18645346
33	0xbdb0baf7	-0.08629411
34	0xbc6dc7d0	-0.014512971
35	0x3dc9efc7	0.09860187
36	0xbd8d8e77	-0.06911939
37	0x3e9ca9b5	0.30598226
38	0xbe248017	-0.16064487
39	0xbd8a2240	-0.06744814
40	0x3d9378b4	0.07200757
41	0xbb83848b	-0.004013603
42	0x3c1cc40a	0.009568224
43	0x3e3132a9	0.17304482
44	0x3c391c89	0.011298307
45	0xbd826fd1	-0.063689835
46	0x3d178264	0.036989585
47	0xbe57407b	-0.21020691
48	0xbc8f9964	-0.017529197
49	0xbcf590bc	-0.029976241
50	0xbcabeb0d	-0.020986104
51	0xbc6f693b	-0.014612491
52	0x3d771f18	0.060332388
53	0xbd0e0aa2	-0.03467811
54	0x3e8d0141	0.2754002
55	0x3c81d709	0.015849607
56	0xbcd62a2c	-0.026143156
57	0xbd823108	-0.06357008
58	0xbdeb10d4	-0.11477819
59	0x3d0a5093	0.033768248
60	0xbcb2d5b2	-0.021830413
61	0xbdf04068	-0.117310345
62	0x3e0b5974	0.13608342
63	0x3e4cdc7b	0.20005982
64	0x3e3800f0	0.17969108
65	0xbe32d133	-0.17462616
66	0x3d7d9744	0.061911836
67	0xbdfe2763	-0.12409856
68	0xbdefb42d	-0.11704288
69	0xbdc30a1f	-0.09523415
70	0xbdfa5bb2	-0.12224521
71	0x3c89a7ad	0.016803587
72	0x3e53451b	0.2063183
73	0x3e854048	0.26025605
74	0xbd7d2362	-0.06180132
75	0xbd9516b2	-0.072797194
76	0xbe1a7487	-0.15083514
77	0x3e1fb2c6	0.1559554
78	0xbc97acb0	-0.018514961
79	0xbdc9ea84	-0.098591834
80	0x3e0bc9da	0.13651219
81	0x3e765124	0.2405439
82	0xbdd35d10	-0.10320485
83	0x3c424139	0.011856371
84	0x3e8ae465	0.27127376
85	0xbe25823c	-0.16162962
86	0xbe0d49b3	-0.13797645
87	0xbdf207d4	-0.11817899
88	0xbdad4242	-0.08459903
89	0x3c450dd7	0.012027225
90	0xbda269c1	-0.07930327
91	0xbc595c0d	-0.0132665755
92	0xbccdd12d	-0.025124157
93	0xbdcc84a6	-0.09986238
94	0x3ed4cfb7	0.41564724
95	0xbc786d3c	-0.015162762
96	0xbd87b743	-0.06626751
97	0x3c4da061	0.012550444
98	0x3dd42a72	0.10359658
99	0xbe2ea186	-0.17053804
100	0xbdbe1014	-0.092804104
101	0xbd944dbd	-0.0724139
102	0xbddab230	-0.10678518
103	0xbe0eb976	-0.13937935
104	0x3d4e79b5	0.050409038
105	0xbe0cb5cc	-0.13741225
106	0x3d861e75	0.06548778
107	0xbe04efbb	-0.12982075
108	0xbe433018	-0.19061315
109	0x3e265d32	0.16246489
110	0x3e33aeee	0.17547199
111	0xbc2eb3c3	-0.010662976
112	0xbd9cee4c	-0.07662639
113	0x3d68f127	0.056870606
114	0x3c7d45cc	0.015458535
115	0xbdf9bbd3	-0.12194028
116	0xbe1ac6d5	-0.15114911
117	0xbe34c76b	-0.17654197
118	0x3e4c684d	0.19961663
119	0x3c61c064	0.01377878
120	0x3de01c8a	0.109429434
121	0x3d97335a	0.073828414
122	0xbd7c0f8d	-0.061538268
123	0x3d59d51b	0.05318175
124	0x3e9d4388	0.30715585
125	0xbd3c0c35	-0.04591008
126	0x3e9caa44	0.30598652
127	0x3c55ce63	0.013049695
128	0xbcdfe997	-0.027333064
129	0xbdeed807	-0.11662298
130	0xbe2ad511	-0.16682841
131	0x3dcb8a8c	0.09938535
132	0xbe4c3e78	-0.19945705
133	0xbe3f218f	-0.18665145
134	0xbe87767c	-0.26457584
135	0xbe485b9a	-0.19566193
136	0xbd49917c	-0.04921101
137	0xbce0a535	-0.027422527
138	0xbcc5823b	-0.02410995
139	0xbe14f5cd	-0.1454689
140	0xbd4f9b5d	-0.050685275
141	0xbbe68d33	-0.007035875
142	0xbc8ee6d4	-0.017444052
143	0x3dfb6c2f	0.12276494
144	0x3ca2ce18	0.019873664
145	0x3c9aaf42	0.018882398
146	0x3cd6520e	0.026162174
147	0x3e8c4471	0.27395967
148	0xbcb105b7	-0.02160917
149	0xbdad586f	-0.08464133
150	0x3e33b938	0.17551124
151	0xbd8eab56	-0.069662735
152	0xbdd8e966	-0.10591392
153	0xbd3e9f6f	-0.046538766
154	0xbe50b5ff	-0.20381926
155	0xbd8cf334	-0.06882325
156	0x3aaa67e7	0.0013000936
157	0xbda506cb	-0.08057936
158	0xbdd1b0e3	-0.102388166
159	0x3da911a0	0.08255315
160	0xbdf24552	-0.11829628
161	0x3d299d1b	0.041409593
162	0x3d4bc98c	0.049752757
163	0xbe278228	-0.16358244
164	0xbe14eabf	-0.14542674
165	0x3d1034db	0.035206657
166	0xbe8c2139	-0.27369097
167	0x3d3938a4	0.045220032
168	0xbcf5d66f	-0.030009476
169	0x3e150005	0.14550789
170	0x3cf17704	0.029475696
171	0x3e318799	0.17336883
172	0xbdfc37f8	-0.12315363
173	0x3a3f4db2	0.0007297649
174	0x3d5edf34	0.05441208
175	0x3d00f625	0.03148474
176	0xb91e1a47	-0.00015077843
177	0x3ce0beb3	0.027434682
178	0xbddbb91e	-0.10728668
179	0xbccd6234	-0.025071241
180	0x3e62bc53	0.22142152
181	0xbdb4d8e3	-0.0883043
182	0x3e20a2d3	0.15687113
183	0x3d3f97c3	0.04677559
184	0xbcc4500d	-0.023963952
185	0x3d8466a4	0.0646489
186	0x3dcc2ee4	0.09969881
187	0xbd3c7b9c	-0.04601632
188	0xbd591aef	-0.0530042
189	0x3d6fe5be	0.05856871
190	0x3d4613d0	0.04835874
191	0x3e1e2b3d	0.15446182
192	0x3c8cb158	0.017174408
193	0xbc032936	-0.008005431
194	0xbb8b9f12	-0.004260906
195	0x3d0d389f	0.034477826
196	0x3e1ef762	0.15524057
197	0xbe1ebbd9	-0.15501346
198	0xbcfe78ea	-0.031063516
199	0xbce8927d	-0.028390164
200	0x3e1da731	0.1539581
201	0x3df4005d	0.11914132
202	0xbdca3201	-0.09872819
203	0x3c019fdc	0.007911649
204	0x3c7e5c9f	0.015525012
205	0x3da56a29	0.08076889
206	0xbcbdb1d4	-0.023156084
207	0x3e6f0218	0.23340642
208	0xbd9b3b1a	-0.07579632
209	0x3de24060	0.11047435
210	0xbdd27636	-0.10276453
211	0x3e214cf1	0.15752007
212	0x3e92b4a0	0.2865343
213	0x3ccb3485	0.024805317
214	0xbcc783a1	-0.024354758
215	0xbd9bf6bb	-0.076154195
216	0x3e2b6c1e	0.16740462
217	0x3e547a82	0.20749858
218	0x3d2b430e	0.041811995
219	0xbd9406d8	-0.07227868
220	0x3bc02ea4	0.005864935
221	0xbd86b97a	-0.065783456
222	0xbd640d5b	-0.0556768
223	0x3e70653e	0.23476121
224	0xbdcc8dc6	-0.09987979
225	0xbe1fbd03	-0.15599446
226	0x3d0b5011	0.034011904
227	0xbdf4dc02	-0.11956026
228	0x3d0fab99	0.035075758
229	0x3cd4ce5a	0.025977302
230	0xbe22de3a	-0.15905085
231	0xbce988c9	-0.028507607
232	0xbce97d2e	-0.028502073
233	0x3e0b66e8	0.13613474
234	0xbd355059	-0.04426608
235	0xbc890d09	-0.016729848
236	0xbdaae84d	-0.08345089
237	0x3e124f27	0.14288007
238	0x39b307d9	0.00034147387
239	0x3d6b1df1	0.0574016
240	0x3c8158d0	0.01578942
241	0x3e309932	0.1724594
242	0xbc13250c	-0.008981001
243	0xbdc88a19	-0.09791965
244	0x3e41045c	0.18849319
245	0xbc4abfdf	-0.012374847
246	0xbe14426f	-0.14478467
247	0x3e117a77	0.14206873
248	0xbcaa0e36	-0.02075873
249	0x3d9cb74a	0.07652147
250	0x3e113f67	0.14184342
251	0x3cd3ea33	0.02586851
252	0xbdc7cf81	-0.09756375
253	0x3dc9ccb3	0.098534964
254	0x3ac3b54f	0.0014931354
255	0x3d523179	0.051316712

output_layer.bias f4 [10]
0	0xbe2e3548	-0.17012513
1	0xbf48fad4	-0.78507733
2	0x3e39aba3	0.1813188
3	0x3f515291	0.8176661
4	0x3eacd328	0.3375485
5	0x3eb98b7b	0.36239228
6	0xbe716a08	-0.23575604
7	0xbf0c2c72	-0.5475532
8	0xbe5b2a61	-0.21402885
9	0xbc8e4c0e	-0.01737025
