Lab1/model/model_CIFAR10/conv_params_c1_10.pth (torch, 259588 bytes, 10 tensors)

conv_layers.0.weight f4 [10, 3, 5, 5]
0	0xbf05d55f	-0.52278703
1	0xbdc55157	-0.09634655
2	0x3eeeaacf	0.46614692
3	0x3e9633ab	0.29336295
4	0xbe1325b2	-0.14369848
5	0x3df1cf82	0.11807157
6	0x3f8e5e9f	1.1122626
7	0x3fe11cb7	1.7586888
8	0x3f6bb7d2	0.9207736
9	0xbe955ffb	-0.2917479
10	0x3e427860	0.18991232
11	0x3fdaa405	1.7081305
12	0x3feba67a	1.841018
13	0x3f95c8ee	1.1701944
14	0x3efd8e1a	0.49522477
15	0xbf0fa976	-0.5611795
16	0x3f5377d8	0.8260474
17	0x3f5402a5	0.82816535
18	0x3d97c27b	0.07410141
19	0xbf517816	-0.8182386
20	0xbfa39cf9	-1.2782279
21	0x3dc6fe7b	0.09716507
22	0x3f0185e1	0.5059491
23	0xbf263e79	-0.64939076
24	0xbf71c7e2	-0.9444562
25	0x3e8dbbe2	0.27682406
26	0xbf16ef32	-0.58958733
27	0xbf3d2fb0	-0.7390089
28	0xbfa9cb72	-1.3265212
29	0xbdfcab43	-0.12337353
30	0xbd6825e1	-0.05667675
31	0xbf7f62ce	-0.9976014
32	0xbf3c372f	-0.73521703
33	0xbf88443b	-1.0645822
34	0xbefebcf5	-0.49753538
35	0xbf2a2599	-0.6646362
36	0xbfa131ed	-1.2593361
37	0xbf968d0c	-1.1761794
38	0xbf8a58f4	-1.0808396
39	0x3b4b4645	0.0031017226
40	0xbf0cfc7c	-0.5507276
41	0xbf1bfcf0	-0.60932827
42	0x3d723660	0.059133887
43	0x3d7cfef0	0.061766565
44	0x3eb7c9ef	0.3589625
45	0x3c5d85c5	0.013520663
46	0x3c216318	0.009850286
47	0x3eb01b28	0.3439572
48	0x3eb29517	0.34879372
49	0x3ed141da	0.40870553
50	0x3f591ded	0.8481129
51	0xbd759c56	-0.059963547
52	0x3e314154	0.17310077
53	0x3e4b44d9	0.19850482
54	0x3f693402	0.9109498
55	0x3f15460b	0.5831
56	0xbf49d9ca	-0.78847945
57	0xbee4fd7e	-0.4472465
58	0xbe043608	-0.12911236
59	0x3e730391	0.23731829
60	0x3e561ea9	0.20910133
61	0xbf873dd5	-1.0565745
62	0xbf855e32	-1.0419371
63	0xbef3e36b	-0.47634444
64	0x3f003078	0.5007396
65	0x3eb1daaf	0.34737155
66	0xbea846ce	-0.3286652
67	0xbe88c2d2	-0.26711136
68	0x3e8d2433	0.2756668
69	0x3f3bb0c3	0.7331659
70	0x3f36d8a1	0.714243
71	0x3d35522f	0.04426783
72	0xbe59e1a5	-0.21277483
73	0x3de4deac	0.11175284
74	0x3f174267	0.59085697
75	0xbeef84f0	-0.4678111
76	0x3d3616b9	0.044455264
77	0x3eae96a8	0.34099317
78	0xbe42b63d	-0.19014831
79	0xbe988e47	-0.2979605
80	0xbe8b9bd2	-0.2726732
81	0x3ea72d97	0.3265197
82	0x3e8e2b6d	0.27767506
83	0xbe2cf78e	-0.1689131
84	0x3e7c786a	0.2465531
85	0x3c3b31e2	0.011425467
86	0xbe010535	-0.12599643
87	0xbcedb048	-0.029014722
88	0xbc151636	-0.009099534
89	0x3ec985eb	0.39359984
90	0xbea2ff23	-0.3183528
91	0xbcfcca35	-0.030858139
92	0x3eb3f3ba	0.35146886
93	0xbc7fa202	-0.0156025905
94	0x3ed39d49	0.41330937
95	0x3e450ccc	0.19243163
96	0x3f41553d	0.7552069
97	0x3f075365	0.52861625
98	0xbd96ed27	-0.07369452
99	0x3edc292f	0.4300017
100	0x3ea916d5	0.33025232
101	0x3d2b0afb	0.04175852
102	0xbf3c3d0f	-0.7353067
103	0x3cbd1176	0.023079615
104	0x3e73941b	0.23786967
105	0x3f3607a3	0.711054
106	0x3db2aec3	0.087247394
107	0xbf0cb133	-0.54957885
108	0xbe3d17e0	-0.18466139
109	0xbcc9831a	-0.024598647
110	0x3bfdb9fa	0.0077431174
111	0xbe92ff62	-0.28710467
112	0xbdef9817	-0.11698931
113	0xbe80f12d	-0.25184003
114	0x3d12b266	0.035814665
115	0xbe69fc2a	-0.22850099
116	0x3ef348fe	0.47516626
117	0x3f32b949	0.6981397
118	0xbe337a66	-0.1752716
119	0x3d4d862c	0.050176784
120	0xbf1ca832	-0.61194146
121	0x3ecf53d2	0.40493637
122	0x3eb79cfc	0.35861957
123	0x3e72fa9b	0.23728411
124	0x3ef9e531	0.48807672
125	0x3ea528c6	0.3225767
126	0x3dafa8ee	0.08577143
127	0xbee8f871	-0.45502046
128	0x3f12e38b	0.57378453
129	0x3dd817e3	0.10551431
130	0x3f32a4a6	0.69782484
131	0x3f826cd5	1.0189463
132	0x3ef3e020	0.4763193
133	0x3f017ad8	0.5057807
134	0xbf047217	-0.5173659
135	0xbd9a212c	-0.07525858
136	0x3f40529d	0.7512606
137	0x3f6f574c	0.9349258
138	0x3f2149d0	0.63003254
139	0xbf64318d	-0.8913811
140	0xbf2d7f61	-0.6777249
141	0x3f5372a8	0.82596827
142	0x3f4d69a0	0.80239296
143	0x3e07250f	0.1319773
144	0xbfaf1e4c	-1.3681121
145	0xbf42e7dd	-0.76135045
146	0xbe7a09d9	-0.24417819
147	0xbf06d452	-0.52667725
148	0x3e4fad9d	0.20281072
149	0xbf088126	-0.53322065
150	0xbf806b11	-1.0032674
151	0xbedc60a7	-0.4304249
152	0xbe075f45	-0.13219936
153	0xbe9a8266	-0.3017761
154	0xbf3ab200	-0.72927856
155	0xbf55ed19	-0.8356491
156	0xbf885096	-1.0649593
157	0xbfb1b060	-1.388195
158	0xbf85012d	-1.0390984
159	0xbfb0e96f	-1.3821238
160	0x3f876a65	1.0579344
161	0x3f61a1ef	0.88137716
162	0x3f5bae0b	0.85812443
163	0x3f838267	1.0274171
164	0x3f703329	0.93828064
165	0x3ec25cb1	0.37961343
166	0xbeba7fb3	-0.36425552
167	0xbee8c04e	-0.45459217
168	0xbe2c4b73	-0.16825657
169	0x3f465826	0.77478254
170	0x3ee3d3e3	0.44497594
171	0x3dae7faf	0.085204475
172	0x3dfebdce	0.12438546
173	0x3db5b78c	0.088728994
174	0x3ee84e1d	0.45372096
175	0xbf477484	-0.77912164
176	0xbe49ac9b	-0.1969475
177	0xbec19b83	-0.3781396
178	0xbf098298	-0.53714895
179	0xbec78193	-0.38966045
180	0xbdc10671	-0.09425057
181	0x3c6a75d5	0.01431032
182	0xbe86ab3c	-0.26302516
183	0xbec86ca7	-0.39145395
184	0xbf21f726	-0.63267744
185	0x3f5589ad	0.834132
186	0x3fb0497b	1.3772424
187	0x3fbb2bf9	1.4622794
188	0x3f95aa38	1.1692572
189	0x3efb9363	0.49135885
190	0xbe0447f9	-0.1291808
191	0xbcefcb4f	-0.02927175
192	0xbdbeddee	-0.093196735
193	0xbe945fe3	-0.28979406
194	0xbe92da4f	-0.2868218
195	0x3dfcf54b	0.123514734
196	0x3d29b078	0.04142806
197	0x3eac7f8d	0.33691064
198	0x3e546250	0.20740628
199	0x3e1d0ba3	0.1533647
200	0x3ebc5f7a	0.36791593
201	0x3e93dbc9	0.2887862
202	0xbbdc84fc	-0.00672972
203	0x3d13a7bc	0.036048636
204	0x3e4daa10	0.20084405
205	0x3d31c94b	0.04340486
206	0xbdb77810	-0.08958447
207	0xbe0ce88a	-0.13760582
208	0xbeb1116d	-0.34583607
209	0xbe85ff3b	-0.26171288
210	0x3ee34374	0.443874
211	0x3f1aed08	0.6051793
212	0x3fa5b53e	1.2945936
213	0x3f6a5b4a	0.91545546
214	0x3eaa4e0d	0.33262673
215	0xbeb85ca9	-0.36008194
216	0xbf2915ae	-0.66048706
217	0xbea11ccd	-0.31467286
218	0xbf63b926	-0.8895439
219	0xbf2f4c03	-0.6847536
220	0xbe8d63cf	-0.2761521
221	0xbf0d8c0f	-0.5529184
222	0xbdb38762	-0.087660566
223	0xbea8d739	-0.32976702
224	0xbdd0a42f	-0.101875655
225	0xbd91483b	-0.07093855
226	0xbf7fb509	-0.9988561
227	0x3e557e3c	0.20848936
228	0x3f8e1729	1.1100818
229	0xbee6666e	-0.45000023
230	0x3eaf1ebb	0.34203133
231	0xbf4a4875	-0.7901681
232	0xbfaf9893	-1.3718437
233	0x3fde865a	1.7384751
234	0x3dae1128	0.08499366
235	0x3f6fd9ee	0.9369191
236	0x3f0369d7	0.51333374
237	0xbffff033	-1.9995178
238	0xbf80b710	-1.0055866
239	0x3fde3499	1.7359802
240	0xbed4eb82	-0.41585928
241	0x3fa770bf	1.3081282
242	0x3f0d06eb	0.5508868
243	0xc0138e8e	-2.3055758
244	0x3eaf94d6	0.3429324
245	0xbe4184f9	-0.18898381
246	0x3ee8e269	0.45485237
247	0x3f2f01d9	0.68362194
248	0xbf1c2837	-0.60998863
249	0x3d02ddd4	0.031949833
250	0xbea44599	-0.3208435
251	0xbdf9663b	-0.12177702
252	0x3e56b645	0.20967968
253	0x3f18697f	0.59535974
254	0xbe9b9389	-0.30385998
255	0x3d87179f	0.06596302

conv_layers.0.bias f4 [10]
0	0xbfeaa291	-1.8330861
1	0xbeaf7321	-0.34267524
2	0xbfd95b27	-1.6980942
3	0xbfc562ba	-1.5420754
4	0xbfdbbeb5	-1.7167574
5	0xc044b9fe	-3.073852
6	0xbd808de4	-0.062770635
7	0xbf66077b	-0.89855164
8	0xbfc1eb31	-1.51499
9	0xbfc3ffa5	-1.5312392

conv_layers.1.weight f4 [16, 10, 5, 5]
0	0xbdb56e58	-0.08858937
1	0xbc7c96a1	-0.015416772
2	0xbe25ce05	-0.16191871
3	0x3e8f5347	0.27993223
4	0x3ef8f38c	0.48623312
5	0xb99e32b7	-0.00030173894
6	0xbd356aba	-0.044291236
7	0xbc8eb124	-0.017418452
8	0x3f298924	0.66224885
9	0xbd32a100	-0.043610573
10	0x3f2c00f4	0.67188954
11	0xbe8d5649	-0.27604893
12	0x3e56a4f8	0.20961368
13	0xbf0f86a5	-0.56064826
14	0xbf4e688c	-0.80628276
15	0xbd454acc	-0.048167035
16	0x3e55e880	0.20889473
17	0x3f060174	0.5234597
18	0x3f19ce12	0.60080063
19	0x3ec955fc	0.39323413
20	0xbf85b592	-1.0446036
21	0xbf7a798c	-0.97841716
22	0xbee91880	-0.45526505
23	0xbe40ae71	-0.18816544
24	0xbe301427	-0.17195188
25	0x3d21c388	0.039493114
26	0x3ecfef12	0.40612084
27	0xbe7f419b	-0.2492737
28	0xbf6950fb	-0.9113919
29	0xbe77d2e0	-0.24201536
30	0xbe4338f5	-0.19064696
31	0x3da27286	0.07932
32	0x3c4c5e3f	0.012473642
33	0x3c789050	0.0151711255
34	0x3ea0ce57	0.31407425
35	0xbea0206e	-0.31274742
36	0x3ef931b6	0.4867074
37	0x3f382ea2	0.71946156
38	0x3ef1d0a5	0.47229496
39	0xbda462fb	-0.080266915
40	0xbe223654	-0.15841037
41	0xbf4bcc33	-0.7960846
42	0x3d5a2b46	0.053263925
43	0xbc89a724	-0.016803332
44	0xbf209929	-0.62733704
45	0xbf81ad1c	-1.0130954
46	0xbe347bf1	-0.17625405
47	0xbf740103	-0.95314044
48	0xbf2bbc08	-0.6708379
49	0x3e18c941	0.14920522
50	0xbf64c14b	-0.8935744
51	0x3e964d10	0.2935567
52	0xbe6fe40f	-0.23426841
53	0xbd83cd51	-0.06435645
54	0xbe2d670e	-0.16933843
55	0xbe737b6d	-0.23777552
56	0xbdc474ce	-0.09592591
57	0xbe23e6a2	-0.16005948
58	0xbd0e2006	-0.03469851
59	0x3e7f3bee	0.24925205
60	0xbdcc46e1	-0.099744566
61	0xbdae8b55	-0.08522669
62	0xbe92815f	-0.28614327
63	0xbdf23434	-0.11826363
64	0xbd99ede4	-0.07516077
65	0xbef28f51	-0.47374967
66	0x3e34bdea	0.17650571
67	0x3de6e629	0.11274368
68	0xbe9a263d	-0.30107298
69	0xbe9e0211	-0.30860952
70	0xbf264799	-0.64953
71	0xbed9391a	-0.42426378
72	0x3eb20816	0.34771794
73	0xbefaa9dc	-0.48957717
74	0x3ebd8aa9	0.37019852
75	0xbd0350be	-0.032059424
76	0x3e7ac7c3	0.24490266
77	0x3eeba4de	0.4602422
78	0xbf0d9880	-0.5531082
79	0xbeb19f4e	-0.34691852
80	0xbe830b0a	-0.2559436
81	0x3f4b7fd7	0.79491943
82	0xbf5b5847	-0.85681576
83	0x3e57f962	0.21091226
84	0xbebd005d	-0.3691434
85	0x3cf63cdf	0.030058322
86	0xbf614c3c	-0.8800695
87	0x3f01e56c	0.50740695
88	0x3e4a5803	0.19760136
89	0x3e0cf2e1	0.13764526
90	0x3f33fa46	0.7030376
91	0x3e9b7468	0.30362248
92	0xbdb3f638	-0.08787197
93	0xbf37a278	-0.7173228
94	0x3ee77e2a	0.45213443
95	0x3ebe63e7	0.37185594
96	0x3f2d21e2	0.67629826
97	0x3f46a36d	0.7759312
98	0x3e3ef1d3	0.18646936
99	0xbf50f170	-0.81618404
100	0x3e4068c8	0.18789971
101	0xbdfcd6c7	-0.12345653
102	0x3d9abacf	0.07555162
103	0x3da54427	0.0806964
104	0x3eb11c7d	0.34592047
105	0xbe25839a	-0.16163483
106	0x3e36a284	0.17835432
107	0xbe9a121d	-0.30091944
108	0x3b6e1e6f	0.0036334058
109	0x3ef7dada	0.48409158
110	0x3e9de3e9	0.30837944
111	0x3f13b704	0.57701135
112	0xbdcaee67	-0.09908753
113	0xbe07df70	-0.13268828
114	0xbc7b1cf0	-0.015326723
115	0xbbdd2599	-0.0067488668
116	0x3fd3a769	1.6535465
117	0xbd2111b7	-0.039323535
118	0x3dbe35ff	0.09287643
119	0x3d3c8d7d	0.04603337
120	0xbf0d7576	-0.55257356
121	0x3dbe56a5	0.0929387
122	0x3e8a6ab1	0.27034524
123	0x3ff606f1	1.9220868
124	0x3f0663da	0.5249611
125	0xbf3a13d5	-0.7268651
126	0x3e675e78	0.2259463
127	0xbe889b7d	-0.26681128
128	0xbf0ff9cc	-0.56240535
129	0x3cae9cd2	0.021315012
130	0xbf02aaec	-0.51042056
131	0xbe06f4a5	-0.13179262
132	0xbddedf1c	-0.108823985
133	0x3dfbb774	0.1229085
134	0xbb463eb8	-0.0030249786
135	0x3f6de357	0.9292502
136	0xbeee5a07	-0.4655306
137	0xbf5d6ada	-0.8649117
138	0xbe588b34	-0.21146852
139	0xbea33e93	-0.31883678
140	0x3fa3e4fa	1.2804253
141	0x3db33e7e	0.08752154
142	0xbf70eca7	-0.941111
143	0xbf85d49c	-1.0455508
144	0xbd66e382	-0.056369312
145	0xbedd52ad	-0.4322714
146	0x3e40ff0a	0.1884729
147	0x3f7ae7d9	0.9801002
148	0x3f5280c0	0.82227707
149	0x3e821616	0.25407475
150	0x3dc6b3a7	0.09702235
151	0xbe44e9a2	-0.19229749
152	0x3ed80ca3	0.4219714
153	0xbd71cf5f	-0.059035655
154	0xbee39742	-0.44451338
155	0x3d7d6cca	0.061871327
156	0x3ceb1104	0.028694637
157	0x3e889dfb	0.2668303
158	0x3e3e0c30	0.18559337
159	0xbbd9b209	-0.006643538
160	0xbe881d9d	-0.26585093
161	0xbe343b98	-0.17600858
162	0xbe53c576	-0.20680794
163	0x3f7e0a9d	0.99234945
164	0x3f15701a	0.5837418
165	0x3e40f64b	0.18843953
166	0xbd91e95b	-0.07124587
167	0x3e19d4cc	0.15022582
168	0x3f12d1c2	0.57351315
169	0xbecf69a6	-0.4051029
170	0xbed7b7d2	-0.4213243
171	0xbf2271e4	-0.63455033
172	0xbf09688b	-0.53675145
173	0xbf15f70e	-0.585801
174	0xbe803463	-0.25039968
175	0xbdca15a6	-0.0986741
176	0xbe81921d	-0.25306788
177	0xbeb892a6	-0.36049384
178	0xbe2b8959	-0.16751613
179	0xbd6df106	-0.058091186
180	0x3ec4484d	0.3833641
181	0x3ebcdb82	0.3688622
182	0x3f1f955f	0.623373
183	0x3cf70ecb	0.030158421
184	0x3e6ba29e	0.23011252
185	0x3ed800f0	0.42188215
186	0x3e8ddaa4	0.27705872
187	0x3f594b27	0.848803
188	0x3e9bca09	0.30427578
189	0xbeeb8361	-0.45998672
190	0xbe878178	-0.26465964
191	0xbed45cc9	-0.4147704
192	0xbb7a6544	-0.0038207332
193	0xbe5dff94	-0.21679527
194	0x3da2baf1	0.079458125
195	0xbec23f43	-0.3793889
196	0xbc512c5a	-0.012766922
197	0xbddf8c9a	-0.109154895
198	0xbe4d7182	-0.20062831
199	0x3e0dcb50	0.13847089
200	0x3ebb11a8	0.36536908
201	0x3f07d983	0.5306627
202	0xbe80c844	-0.2515279
203	0x3e1d2c33	0.15348892
204	0x3e1436e5	0.14474066
205	0xbd63f092	-0.055649348
206	0xbddee87e	-0.10884188
207	0xbeb6be89	-0.35692242
208	0x3e076bab	0.13224666
209	0x3e2ff3d0	0.17182851
210	0xbf5669f5	-0.8375543
211	0xbf19bf88	-0.6005788
212	0x3e648da6	0.2231966
213	0xbd66f6f5	-0.05638786
214	0xbe49e7cb	-0.19717328
215	0xbec6a2cc	-0.3879608
216	0xbf1514db	-0.5823495
217	0xbb94f2bc	-0.0045455378
218	0xbe8fcded	-0.28086796
219	0x3ec141e7	0.37745592
220	0x3b3eeaaf	0.0029131582
221	0x3d45c88f	0.04828697
222	0xbef00652	-0.46879822
223	0xbe1a3df3	-0.15062694
224	0xbd47f5cc	-0.048818395
225	0x3e48e7cb	0.19619672
226	0xbee522aa	-0.4475301
227	0x3e308479	0.17238034
228	0xbe0c3fba	-0.13696185
229	0x3e99bcf3	0.3002697
230	0xbf53e277	-0.8276743
231	0xbef54ad3	-0.4790865
232	0xbeb574cc	-0.3544067
233	0xbf1c3d4a	-0.6103102
234	0xbdb0288e	-0.08601485
235	0xbf13de12	-0.5776073
236	0xbe6c2e43	-0.23064522
237	0xbf337ebb	-0.7011525
238	0xbeb4e6b8	-0.35332274
239	0x3ec3a27f	0.38209912
240	0x3f27ee3a	0.6559788
241	0xbefb3235	-0.49061742
242	0xbf6efd5f	-0.93355364
243	0xbcc34cd5	-0.023840347
244	0x3ea5b4a0	0.32364368
245	0x3e2fe0d3	0.17175607
246	0xbe9d351f	-0.3070459
247	0xbf431788	-0.7620778
248	0xbee444eb	-0.4458383
249	0xbe67f547	-0.2265216
250	0x3e13d48d	0.1443655
251	0x3ee44599	0.4458435
252	0xbe5a2ee8	-0.21306956
253	0x3f0821bd	0.5317648
254	0x3ef08106	0.46973437
255	0xbd44546c	-0.047932073

conv_layers.1.bias f4 [16]
0	0xc039d1e0	-2.9034348
1	0xc09719a5	-4.7218804
2	0x3f7b29e2	0.98110783
3	0x407dcdc0	3.965683
4	0x3f701bd0	0.9379244
5	0xbf7870a3	-0.9704687
6	0x3f51d5c0	0.8196678
7	0xbed6cd9b	-0.4195374
8	0x404873f2	3.1320767
9	0xbedb8691	-0.42876104
10	0xbfd3b6da	-1.6540177
11	0xc01cd0eb	-2.4502513
12	0xc0400554	-3.0003252
13	0xbfd7e48a	-1.686662
14	0xc0624bfb	-3.5358875
15	0x4018096d	2.3755753

fc_layers.0.weight f4 [120, 400]
0	0xbf1dec0d	-0.6168831
1	0xbdcf98f4	-0.10136595
2	0xbe003028	-0.1251837
3	0x3e43c308	0.19117367
4	0x3e923a63	0.2856017
5	0xbe8b38aa	-0.2719167
6	0xbe7930b1	-0.2433498
7	0x3ed1b123	0.40955457
8	0x3eefc42e	0.4682936
9	0x3d4cd715	0.050009806
10	0xbd27c9d9	-0.04096398
11	0xbe7a2b2e	-0.24430534
12	0xbef73c10	-0.48288012
13	0x3d249942	0.04018522
14	0x3f0a596b	0.5404269
15	0x3e7c773d	0.24654861
16	0xbec58fe7	-0.3858635
17	0xbf04cd06	-0.5187534
18	0xbdd59063	-0.1042793
19	0x3e8d4508	0.2759173
20	0xbedd7900	-0.43256378
21	0x3da9cb14	0.08290687
22	0xbd8422d4	-0.064519554
23	0xbeb42580	-0.3518486
24	0xbd84280a	-0.06452949
25	0xbe6ef042	-0.23333839
26	0xbe4a8d69	-0.19780506
27	0xbc932ac6	-0.017964732
28	0x3c969fd8	0.018386766
29	0xbf0707f7	-0.5274653
30	0xbd9ee3ee	-0.07758318
31	0xbe7313aa	-0.2373797
32	0xbe4266da	-0.18984547
33	0xbdf0f1b9	-0.11764855
34	0xbed1992c	-0.40937173
35	0x3e1ce6a3	0.15322356
36	0xbd327f3f	-0.043578383
37	0xbe3cae7c	-0.18425936
38	0xbe9d6276	-0.30739182
39	0xbf1bcf86	-0.6086353
40	0x3ea41160	0.32044506
41	0x3eb16ecb	0.3465484
42	0xbccdf298	-0.025140092
43	0xbcdf3941	-0.02724898
44	0xbe438740	-0.19094563
45	0xbeb4075d	-0.35161868
46	0xbd5475c3	-0.05187012
47	0xbd4be092	-0.049774714
48	0xbf0f4ea6	-0.55979383
49	0xbf53cd98	-0.82735586
50	0xbe7d0b3f	-0.24711321
51	0x3e780c82	0.24223521
52	0xbecbd366	-0.39809722
53	0xbeedeff2	-0.46472126
54	0x3ecad6c3	0.39616975
55	0xbdc23e07	-0.09484487
56	0x3e4b74b3	0.19868736
57	0xbe667745	-0.22506435
58	0x3f0df114	0.5544598
59	0xbebe9c3a	-0.37228566
60	0xbe23f01c	-0.16009563
61	0x3e6256aa	0.22103372
62	0x3cc6c500	0.024263859
63	0xbc8b6d4e	-0.017019894
64	0xbd51cc1c	-0.051220044
65	0xbd7b638b	-0.06137423
66	0x3e3ce6e9	0.1844746
67	0x3f102e58	0.56320715
68	0x3e8311f3	0.25599632
69	0xbe5473fb	-0.20747368
70	0xbf1b792c	-0.6073177
71	0xbc071ed6	-0.008247098
72	0xbe27b531	-0.16377713
73	0xbe9193a2	-0.28432947
74	0xbec8756c	-0.39152086
75	0xbe219a52	-0.15781525
76	0x3d881ed1	0.06646503
77	0xbded0f48	-0.1157518
78	0x3ee623cc	0.44949186
79	0xbe7bcf6e	-0.24590847
80	0x3cfab3f7	0.030603392
81	0x3d062889	0.0327535
82	0x3d495878	0.049156636
83	0xbe0fe481	-0.14052011
84	0x3e6c9607	0.23104106
85	0x3deff85b	0.11717292
86	0x3ec010a9	0.3751271
87	0xbde82eca	-0.11337049
88	0xbedeb8fe	-0.43500513
89	0x3dddbf8c	0.1082755
90	0xbe1b9a8a	-0.1519567
91	0x3e1270a9	0.14300789
92	0xbde26df3	-0.110561274
93	0xbf08e866	-0.5347961
94	0x3eaac028	0.3334973
95	0x3e2e52c4	0.1702376
96	0x3ea12ee5	0.3148109
97	0x3e2870b6	0.16449246
98	0x3d52aeaf	0.051436123
99	0xbdfea168	-0.124331295
100	0xbe58438d	-0.21119519
101	0xbe149801	-0.1451111
102	0xbf067175	-0.5251687
103	0x3f3a3941	0.7274361
104	0xbf3887b1	-0.7208205
105	0xbc960110	-0.018311054
106	0x3e67c28e	0.2263281
107	0xbe59f574	-0.21285039
108	0x3f426aed	0.75944406
109	0x3e7d7c22	0.24754384
110	0x3df1668d	0.11787138
111	0x3e13d9b4	0.14438516
112	0x3da0ca65	0.07851104
113	0xbe718c24	-0.23588616
114	0xbe6bd9a1	-0.23032238
115	0x3d68eb4e	0.05686503
116	0x3dfae6e5	0.12251071
117	0x3ebd4025	0.36963
118	0xbd8fe8b2	-0.07026805
119	0x3de3963f	0.111126415
120	0xbdf1e3b2	-0.118110076
121	0x3dc74a1f	0.09730934
122	0xbd8059f8	-0.0626716
123	0xbe86d5db	-0.26335034
124	0xbc0da4a1	-0.008645208
125	0x3e3943ca	0.18092266
126	0x3d4d56f5	0.050131757
127	0xbd3846b7	-0.044989314
128	0xbece9721	-0.40349677
129	0x3d17f7b2	0.037101455
130	0x3e1e1cb9	0.15440644
131	0x3e7107c2	0.23538116
132	0x3d458f93	0.048232626
133	0x3ed7b6f5	0.42131773
134	0xbef099a3	-0.46992216
135	0x3de350ea	0.110994175
136	0x3e3ebfdc	0.18627876
137	0x3dfaf251	0.122532494
138	0xbf3cc24b	-0.7373397
139	0x3ea5b2fc	0.32363117
140	0xbebc4307	-0.36769888
141	0xbeed0bcd	-0.46298066
142	0x3d702df4	0.058637574
143	0xbe6eb64b	-0.23311727
144	0x3e2de0e5	0.16980322
145	0xbf15120e	-0.58230674
146	0x3e11ab6d	0.1422555
147	0x3d1bb9c8	0.03801897
148	0x3c3c3e41	0.011489452
149	0x3efb3300	0.49062347
150	0x3e682e77	0.22673975
151	0x3ec2bc44	0.3803426
152	0xbe7c90ca	-0.24664608
153	0xbed0da88	-0.40791726
154	0xbe73ebfc	-0.2382049
155	0x3e0b6310	0.13612008
156	0xbd0deb72	-0.034648366
157	0x3e0e7a2e	0.13913795
158	0xbe5de494	-0.21669227
159	0xbf069861	-0.5257626
160	0xbd83066a	-0.06397708
161	0xbeb14b88	-0.34627938
162	0xbeb62a05	-0.35578933
163	0xbdedae10	-0.116054654
164	0xbf6dfe9f	-0.92966646
165	0xbef5db57	-0.48018906
166	0x3d06e2cb	0.03293113
167	0xbef0d238	-0.47035384
168	0xbeddd21d	-0.43324366
169	0xbe28b3ce	-0.1647484
170	0xbd3c42c2	-0.045962103
171	0x3d231132	0.03981132
172	0xbf0c5a34	-0.5482514
173	0x3e1ca636	0.1529778
174	0xbe9ce25e	-0.30641454
175	0xbd0d5549	-0.034505162
176	0x3dbe150a	0.09281357
177	0xbe70da26	-0.23520717
178	0x3b8313b1	0.00400015
179	0xbc8cd6bf	-0.017192243
180	0xbe74a692	-0.23891667
181	0x3e113bef	0.14183019
182	0xbda281b9	-0.07934899
183	0xbeb59e68	-0.35472417
184	0xbf1929ef	-0.5982961
185	0xbf230733	-0.6368286
186	0x3f0522d2	0.52006257
187	0xbf34fcca	-0.70698225
188	0x3e44abe9	0.19206204
189	0xbd38499d	-0.044992078
190	0xbe79946e	-0.24373028
191	0x3f1266f4	0.57188344
192	0x3eb096a1	0.3448992
193	0xbe9b4cb5	-0.3033196
194	0x3e3da89e	0.18521354
195	0xbdecfe06	-0.115718886
196	0xbe9bf086	-0.30456942
197	0x3c6a546d	0.014302355
198	0x3ef5be4d	0.4799675
199	0x3f2a7aca	0.6659361
200	0xbe818175	-0.2529408
201	0xbe0b22f4	-0.13587552
202	0x3ebcb29c	0.36855018
203	0xbdcb0982	-0.09913923
204	0xbf5c10d6	-0.8596319
205	0xbe76733f	-0.240674
206	0xbee33433	-0.44375762
207	0x3f66316f	0.8991918
208	0xbf27bb6a	-0.65520346
209	0xbe82a4b3	-0.2551628
210	0xbc6ce3b4	-0.0144585855
211	0x3da74fd5	0.081695236
212	0xbe9936fd	-0.29924765
213	0xbdc095d5	-0.09403578
214	0xbe072ebe	-0.13201424
215	0x3e27d787	0.16390811
216	0xbd40e3e7	-0.047092345
217	0xbdb7705e	-0.08956979
218	0x3e84bb73	0.25924262
219	0xbe4b5545	-0.19856746
220	0x3eacea64	0.33772576
221	0x3df38540	0.1189065
222	0x3d6a3498	0.057179064
223	0xbc9306c8	-0.01794757
224	0x3ec694de	0.38785452
225	0xbf1ddc5d	-0.6166437
226	0x3ed2b745	0.4115545
227	0x3f0910cd	0.5354126
228	0x3e12d700	0.14339828
229	0x3c24abce	0.010050727
230	0xbee85cc8	-0.45383286
231	0xbe7a04a9	-0.2441584
232	0xbedfdbd2	-0.43722397
233	0x3f00f920	0.50380135
234	0x3e481014	0.19537383
235	0xbdcb6222	-0.09930827
236	0x3ea3e78b	0.3201259
237	0x3d5e2699	0.05423603
238	0x3e4398f1	0.19101311
239	0x3db1443f	0.08655595
240	0x3e27a5ae	0.16371796
241	0xbdea5d00	-0.114435196
242	0xbf3e606d	-0.74365884
243	0x3f5441d0	0.8291292
244	0xbe658241	-0.22412969
245	0x3ea1f59a	0.31632692
246	0x3ec0982f	0.37616107
247	0xbe55521e	-0.20832106
248	0x3ce307df	0.027713714
249	0xbc9977eb	-0.01873394
250	0xbe8152ba	-0.25258428
251	0x3f1f9e4d	0.6235092
252	0xbd93a958	-0.07210034
253	0xbe8272c4	-0.25478184
254	0xbe9c6766	-0.30547637
255	0x3df83807	0.12120061

fc_layers.0.bias f4 [120]
0	0xbdbe527d	-0.09293077
1	0x3e3f0f82	0.1865826
2	0xbefedce1	-0.49777892
3	0xbe9dd8ee	-0.30829567
4	0x3e831d04	0.25608075
5	0xbdae2e4c	-0.08504924
6	0xbd4d1708	-0.050070792
7	0xbe0d5aff	-0.13804244
8	0x3eb11070	0.34582853
9	0xbf138b8b	-0.576348
10	0x3df5b775	0.11997882
11	0x3e600ba9	0.21879448
12	0x3ee28a2e	0.44246048
13	0x3f4f7a8f	0.81046385
14	0xbf04fe1e	-0.5195025
15	0x3f005537	0.5013003
16	0x3dfa7e74	0.1223115
17	0x3df40496	0.11914937
18	0x3e88e5e2	0.26737887
19	0xbe149a48	-0.14511979
20	0xbed16c6b	-0.4090303
21	0xbdc313b5	-0.09525243
22	0xbf28aac0	-0.65885544
23	0x3f09c9b7	0.5382342
24	0xbe6ff113	-0.23431806
25	0x3ec12324	0.37722123
26	0xbeca17e6	-0.39471358
27	0xbf07d65d	-0.5306147
28	0x3ef8dad8	0.48604465
29	0x3daae184	0.08343795
30	0x3f252868	0.6451478
31	0x3f5fc373	0.87407607
32	0xbe3f25a4	-0.18666703
33	0x3e5c3d40	0.2150774
34	0xbe04efb7	-0.12982069
35	0xbdf5358d	-0.119731046
36	0x3e5ba0be	0.21448037
37	0x3ed6f13e	0.41980928
38	0x3ddfeada	0.10933466
39	0x3f0891d2	0.53347504
40	0xbe9436a5	-0.2894794
41	0xbd818759	-0.06324644
42	0xbd6e9650	-0.058248818
43	0xbf424b51	-0.75896174
44	0x3dd7d264	0.10538176
45	0xbf27ce93	-0.6554958
46	0xbe381b5d	-0.17979188
47	0xbf158a0f	-0.58413786
48	0xbf025e7b	-0.50925416
49	0x3eb9a215	0.3625647
50	0x3f4337a9	0.76256806
51	0x3f426678	0.75937605
52	0xbe3fef99	-0.18743743
53	0xbca86767	-0.020557119
54	0xbda48d6f	-0.08034789
55	0xbf618634	-0.880954
56	0x3d9e3fd7	0.0772702
57	0x3e6db54b	0.23213689
58	0xbeadab61	-0.33919814
59	0x3e01227e	0.12610814
60	0xbe54f1ca	-0.2079536
61	0x3e137559	0.14400233
62	0x3e653f2e	0.22387382
63	0xbed73c12	-0.42038018
64	0x3d4a877e	0.04944562
65	0x3edc2f31	0.43004754
66	0x3f3a86f0	0.7286215
67	0x3f1583bb	0.5840413
68	0xbea1cb46	-0.31600398
69	0xbea304e7	-0.31839678
70	0xbe9fd6e9	-0.3121865
71	0xbea12069	-0.3147004
72	0xbf438c8d	-0.7638634
73	0xbdb2fb9e	-0.087393984
74	0xbda910a4	-0.08255127
75	0xbd3d8d54	-0.04627736
76	0xbee69ffa	-0.45043927
77	0xbee07489	-0.4383891
78	0x3ec71fa3	0.38891324
79	0xbeae1993	-0.34003887
80	0xbeb73d56	-0.35788983
81	0x3e7a38c4	0.24435717
82	0xbdd0a372	-0.10187425
83	0xbe974747	-0.29546568
84	0xbf03edc6	-0.5153469
85	0x3e8558d3	0.2604433
86	0xbea9e753	-0.331843
87	0xbe54d972	-0.20786074
88	0x3dec4ed0	0.1153847
89	0xbdda07c2	-0.10646011
90	0x3ededa3b	0.43525872
91	0xbcb9ae67	-0.02266617
92	0x3e9670c2	0.29382902
93	0xbc2348e3	-0.009966108
94	0xbe98e188	-0.29859567
95	0x3d8aec8d	0.067834
96	0xbf2c9b98	-0.6742492
97	0x3f5e5558	0.86848974
98	0xbe893523	-0.26798353
99	0xbee4abda	-0.44662362
100	0x3cacc2eb	0.021089038
101	0xbea6f876	-0.32611436
102	0xbe2ff6e2	-0.17184022
103	0xbea97e38	-0.3310411
104	0x3dbb2d1f	0.091394655
105	0xbea4d7a2	-0.32195765
106	0x3f2dd7b2	0.6790725
107	0x3d7660ce	0.060150914
108	0x3eee0be5	0.4649345
109	0x3f2147df	0.6300029
110	0x3ce67f46	0.02813686
111	0x3f972593	1.1808342
112	0x3eaf31c6	0.34217662
113	0xbe826c97	-0.25473472
114	0x3f046d85	0.51729614
115	0x3f0f9227	0.56082386
116	0xbdb4cd4a	-0.08828218
117	0x3cf51a3f	0.029919742
118	0xbd73acfc	-0.059491143
119	0x3ee9591e	0.45575804

fc_layers.1.weight f4 [84, 120]
0	0xbe370fae	-0.17877075
1	0xbe544c8f	-0.2073233
2	0x3f03a996	0.5143064
3	0xbe8248ce	-0.2544617
4	0xbe5881c6	-0.21143255
5	0x3e10b4cb	0.14131467
6	0x3cd6643c	0.026170842
7	0xbd969a07	-0.07353597
8	0xbdce3bf7	-0.10070031
9	0xbeb13d53	-0.346171
10	0xbe8b9b5d	-0.2726697
11	0xbe958797	-0.2920501
12	0x3c6a7c29	0.014311829
13	0x3c3bfd78	0.011474006
14	0x3eb14c2e	0.34628433
15	0xbf1a8d56	-0.6037191
16	0xbf0622b1	-0.52396685
17	0xbdf2fdc2	-0.11864807
18	0xbf0eec2c	-0.5582912
19	0xbf0ea564	-0.55721116
20	0xbead1449	-0.3380454
21	0xbe8d19e6	-0.2755882
22	0xbda23a5c	-0.079212874
23	0x3d121fc5	0.03567483
24	0xbe51c7bc	-0.20486349
25	0x3e1454f4	0.14485532
26	0xbdc26f2f	-0.09493863
27	0x3e1fb3c6	0.15595922
28	0x3e7ace52	0.24492767
29	0xbebdece4	-0.37094796
30	0xbf24bbf6	-0.64349306
31	0xbe458ad5	-0.19291241
32	0xbeca5226	-0.395158
33	0xbe957ffb	-0.29199204
34	0xbdbc25f7	-0.09186929
35	0xbed366c8	-0.41289353
36	0xbed3e8e9	-0.41388634
37	0x3df095f8	0.11747354
38	0x3da96b6e	0.08272444
39	0xbeae8ac1	-0.34090236
40	0x3e6c7ee5	0.23095281
41	0xbeadddce	-0.33958286
42	0xbdd95447	-0.10611778
43	0xbd894ff2	-0.067047015
44	0xbe36d0ae	-0.17853042
45	0x3ea5d538	0.32389235
46	0xbebe3f47	-0.37157652
47	0xbe0ee07f	-0.13952826
48	0x3e5a2bcb	0.21305768
49	0xbeb5791d	-0.35443965
50	0xbeef0c65	-0.46689144
51	0xbedb0b16	-0.42781895
52	0xbf011f80	-0.5043869
53	0xbe89d4a2	-0.26920038
54	0xbed71244	-0.42006123
55	0xbec6d23a	-0.38832265
56	0xbe8b5a80	-0.27217484
57	0xbd0f6972	-0.03501267
58	0xbe0034fd	-0.12520213
59	0xbeaf4bbd	-0.3423747
60	0xbe89f1c5	-0.26942268
61	0xbd9df373	-0.0771245
62	0xbeb85fb0	-0.36010504
63	0xbef292c3	-0.47377595
64	0x3e874a10	0.26423693
65	0xbd5e4b30	-0.054270923
66	0xbe3dfd6a	-0.18553701
67	0xbe4d36ed	-0.20040484
68	0xbf0db0bd	-0.55347806
69	0xbeb91a37	-0.36152813
70	0x3d6397c9	0.055564675
71	0xbe838e50	-0.25694513
72	0xbd20df3d	-0.039275397
73	0xbe10c93c	-0.14139265
74	0xbec8bae1	-0.39205077
75	0xbe86dbdb	-0.2633961
76	0xbc8659f4	-0.016400315
77	0xbf182c2e	-0.5944241
78	0x3e507ad5	0.20359357
79	0x3e2c7fce	0.16845629
80	0xbe24d1e4	-0.16095692
81	0xbd747266	-0.05967941
82	0xbb579c76	-0.0032899654
83	0xbf25aced	-0.6471699
84	0xbe5bf37c	-0.214796
85	0xbe9044f5	-0.2817761
86	0x3cf04de7	0.029334022
87	0xbe048402	-0.12940982
88	0xbe9f547e	-0.3111915
89	0x3ebe991e	0.37226194
90	0xbe286e9d	-0.16448446
91	0xbec84e04	-0.3912202
92	0xbe84a895	-0.25909868
93	0x3d07fd4f	0.03320056
94	0xbed31975	-0.4123036
95	0xbe23afe0	-0.1598506
96	0xbe92afd3	-0.28649768
97	0xbf3c4b48	-0.7355237
98	0xbea465a0	-0.32108784
99	0x3e9ae0c4	0.30249608
100	0x3e566ab6	0.20939144
101	0x3dc7e90b	0.09761246
102	0xbe84ac9d	-0.25912943
103	0xbdc3de34	-0.09563866
104	0xbe869c72	-0.26291233
105	0xbeca57d2	-0.39520127
106	0xbef58bb9	-0.47958162
107	0xbf2dc25c	-0.67874694
108	0xbf0675d8	-0.52523565
109	0x3db70256	0.089359924
110	0x3e84a66a	0.25908214
111	0x3d681bbb	0.05666707
112	0xbe8f4c49	-0.27987888
113	0xbe67b527	-0.22627698
114	0xbe136b84	-0.14396483
115	0xbdee1a93	-0.116261624
116	0xbf2cc4ca	-0.67487776
117	0xbe880e99	-0.26573637
118	0x3e6536fd	0.22384258
119	0xbeefd37d	-0.4684104
120	0xbe61a339	-0.22034921
121	0x3e7b9561	0.24568702
122	0xbed0d13b	-0.4078463
123	0x3e22b636	0.1588982
124	0xbe8727db	-0.26397595
125	0xbddf3c34	-0.10900155
126	0xbeb9ebdf	-0.36312768
127	0xbe0f0899	-0.13968123
128	0xbc1162c0	-0.0088736415
129	0xbdea9a1b	-0.114551745
130	0xbe99a577	-0.30009052
131	0xbe41fca5	-0.18944032
132	0xbecf5ab6	-0.40498894
133	0xbe1594eb	-0.14607589
134	0xbedbcf94	-0.42931807
135	0xbe6f7b56	-0.23386893
136	0xbe0016a0	-0.12508631
137	0x3e39da4d	0.18149681
138	0x3e86b16b	0.26307234
139	0xbe421b4f	-0.1895573
140	0x3d8aa3d9	0.06769533
141	0x3dacce4e	0.08437787
142	0x3e1763b8	0.14784133
143	0x3e374f12	0.17901257
144	0xbeae5434	-0.34048617
145	0xbe7e04e6	-0.24806556
146	0xbed59bce	-0.41720432
147	0xbde35668	-0.11100465
148	0xbe94f2e5	-0.29091564
149	0xbcba5655	-0.022746244
150	0xbda5bd35	-0.08092729
151	0xbe88cef4	-0.26720393
152	0xbda59014	-0.08084121
153	0xbec89a44	-0.39180195
154	0xbcd60c72	-0.026128981
155	0xbef0e2b4	-0.4704796
156	0xbe888646	-0.26664943
157	0xbc08e091	-0.008354322
158	0x3d2dcabe	0.04242968
159	0x3ecf2b93	0.40462932
160	0xbeba0821	-0.36334327
161	0xbe859a7f	-0.26094434
162	0xbe6a2a3f	-0.22867678
163	0xbe83d8da	-0.25751382
164	0x3e107cfe	0.1411018
165	0xbe8b7de2	-0.27244478
166	0xbee341ec	-0.44386232
167	0xbe061e14	-0.13097411
168	0xbf07cd42	-0.53047574
169	0xbc75fe6c	-0.015014272
170	0x3d212bed	0.03934853
171	0xbd3c6fca	-0.046005048
172	0xbe17709e	-0.14789054
173	0xbf030a3d	-0.511875
174	0xbeafb239	-0.3431566
175	0xbccb2691	-0.024798663
176	0x3cbc99f6	0.023022633
177	0xbf0fbf4d	-0.56151277
178	0xbea84441	-0.32864574
179	0xbeb1a0c1	-0.34692958
180	0xbdd4c061	-0.10388256
181	0xbeaa272d	-0.33233014
182	0xbe255bb2	-0.1614826
183	0x3e2ea056	0.17053351
184	0xbe13d6d9	-0.14437427
185	0xbdc82564	-0.09772757
186	0xbd3454fb	-0.044026356
187	0x3d13cc03	0.036083233
188	0xbd2989ba	-0.041391112
189	0xbe7f6352	-0.24940231
190	0x3e1d0c9c	0.15336841
191	0xbe85c63b	-0.261278
192	0xbf151a73	-0.58243483
193	0xbe688807	-0.2270814
194	0xbda4a1fc	-0.080387086
195	0x3e351942	0.17685416
196	0xbe8ad898	-0.27118373
197	0xbecf862a	-0.40532047
198	0xbd78d662	-0.060751326
199	0xbea1a3d6	-0.3157031
200	0x3e022ba6	0.12711963
201	0x3e7947e3	0.24343829
202	0x3e115ed4	0.1419633
203	0xbecacb1e	-0.3960809
204	0xbf22efbe	-0.6364707
205	0xbee96592	-0.45585304
206	0xbcbe0a54	-0.023198284
207	0xbc4e93c8	-0.012608476
208	0xbed06c77	-0.40707752
209	0xbd9b0444	-0.07569173
210	0xbeaa1f6b	-0.33227095
211	0xbc926d9b	-0.01787453
212	0xbd39c26e	-0.04535144
213	0xbbbe052e	-0.0057989573
214	0xbee8b909	-0.4545367
215	0xbe0d1281	-0.1377659
216	0xbe7b94b9	-0.24568452
217	0xbe900a70	-0.28132963
218	0xbe4d2920	-0.20035219
219	0x3d2e469c	0.042547807
220	0xbed3334e	-0.4125008
221	0xbe297761	-0.16549446
222	0xbeb7f236	-0.3592698
223	0xbd862549	-0.0655008
224	0xbe52f5cd	-0.20601578
225	0x3d6ca5d8	0.05777535
226	0xbe4c32b7	-0.19941221
227	0xbe3a8d29	-0.18217911
228	0xbec763d6	-0.38943356
229	0x3e461fc2	0.19348052
230	0xbe61938f	-0.22028945
231	0xbda8f985	-0.08250717
232	0x3c30ce2c	0.010791343
233	0x3e2c0fa2	0.16802838
234	0xbccbb9ea	-0.024868924
235	0xbdf96441	-0.12177325
236	0xbeb0191d	-0.3439416
237	0xbe859fa5	-0.26098362
238	0xbe9eb8b9	-0.31000307
239	0xbbaf8704	-0.0053566713
240	0xbdb8d897	-0.09025686
241	0xbdae241c	-0.08502981
242	0xbf19f0bd	-0.6013296
243	0xbe51cbb8	-0.20487869
244	0xbe8bf714	-0.27336943
245	0x3cde2948	0.027119294
246	0xbe211316	-0.15729937
247	0xbde099dc	-0.10966846
248	0xbc095a8c	-0.008383404
249	0x3d207ed8	0.039183468
250	0xbdb31dad	-0.087458946
251	0xbd8ac343	-0.067755245
252	0x3dcefcf7	0.10106843
253	0xbe26e7d5	-0.16299374
254	0x3dacf101	0.08444405
255	0xbf451d68	-0.76997995

fc_layers.1.bias f4 [84]
0	0xbee129bc	-0.43977153
1	0x3f25b9cf	0.64736646
2	0x3ed5c672	0.41752964
3	0xbe777235	-0.2416466
4	0x3ea37d6f	0.31931636
5	0x3f0498e5	0.517958
6	0xbf8fdf44	-1.124001
7	0xbec793c6	-0.3897993
8	0x3fb3a295	1.4033991
9	0xbf272d60	-0.6530361
10	0xbf5ff515	-0.8748334
11	0xbeee569c	-0.46550453
12	0xbe603a19	-0.21897162
13	0xbcb95e34	-0.022627927
14	0xbe6c635d	-0.23084779
15	0xbed2196d	-0.41035023
16	0x3f767a51	0.9628039
17	0xbdbfe64b	-0.09370097
18	0xbee59833	-0.4484268
19	0x3eee9724	0.46599686
20	0x3ed7eed3	0.42174396
21	0x3e9b9569	0.30387428
22	0xbee9a53c	-0.45633876
23	0xbf6b33d6	-0.9187597
24	0x3e93c2ad	0.28859463
25	0xbecebd84	-0.40378964
26	0xbea0f63b	-0.3143786
27	0x3fb173be	1.3863447
28	0xbf69c615	-0.91317874
29	0xbf5f862d	-0.8731411
30	0xbef78d03	-0.4834977
31	0x3f0ecc76	0.5578073
32	0xbe8d05a7	-0.27543375
33	0x3fd3d74f	1.6550082
34	0xbe01dd0d	-0.1268198
35	0x3da91d0d	0.08257494
36	0x3f35859d	0.70907
37	0x3e9477d3	0.2899767
38	0x3f9c3e86	1.2206581
39	0x3d797cc4	0.06091
40	0xbde51d89	-0.11187274
41	0x3dfc5e3f	0.123226635
42	0x3eec1568	0.46110082
43	0xbbd0d029	-0.006372471
44	0x400ee03a	2.2324357
45	0xbefd422a	-0.49464542
46	0x3f68f6f7	0.9100184
47	0xbf25084b	-0.6446578
48	0xbc8381a2	-0.016053025
49	0xbe8f868b	-0.28032336
50	0x3f1fdade	0.6244334
51	0x3ea7515d	0.32679263
52	0x3f0e5edd	0.556135
53	0xbeca770c	-0.3954395
54	0x3e73d016	0.23809847
55	0xbead3b8c	-0.33834493
56	0x3ebe208d	0.3713421
57	0xbeaf0aff	-0.34188077
58	0x3e4c7c1d	0.1996922
59	0xbf8f9fdb	-1.1220659
60	0xbe8fb073	-0.28064308
61	0xbf4ecba8	-0.80779505
62	0x3e065b6a	0.13120809
63	0x3eb5989f	0.35468003
64	0xbefd16ba	-0.49431401
65	0xbf0d2be3	-0.5514509
66	0xbf5acfc6	-0.8547329
67	0xbea56821	-0.32306007
68	0x3f596627	0.849215
69	0xbf0537cc	-0.52038264
70	0xbf8882ac	-1.0664878
71	0xbf03971f	-0.5140247
72	0x3d13caf1	0.036082212
73	0xbd820f1b	-0.063505374
74	0xbe3f6db4	-0.18694192
75	0x401cd9be	2.45079
76	0xbdbc3db3	-0.09191456
77	0x3fbd8561	1.4806329
78	0xbe90240b	-0.281525
79	0xbea04818	-0.31305003
80	0xbd8e4edc	-0.06948635
81	0x3f0f6c28	0.5602441
82	0x3f9537d3	1.1657661
83	0xbeb2a302	-0.3488999

output_layer.weight f4 [10, 84]
0	0xbdcd1405	-0.10013584
1	0xbdd98224	-0.106205255
2	0xbd1027c9	-0.035194192
3	0x3e02c932	0.12772062
4	0xbe386774	-0.18008214
5	0xbd74355d	-0.059621204
6	0xbc687c3f	-0.014189779
7	0xbd3b306f	-0.045700487
8	0xbe65d4a5	-0.22444399
9	0xbcf2a99e	-0.029621895
10	0x3df0d05e	0.11758493
11	0xbd3f8e63	-0.04676665
12	0xbd00d176	-0.031449758
13	0xbd27024c	-0.040773675
14	0x3c9b5c44	0.018964894
15	0x3d8d24f9	0.068918176
16	0x3d22bbfe	0.039730065
17	0xbd02c9a0	-0.031930566
18	0xbe1c36b7	-0.15255247
19	0x3cd45a32	0.025921915
20	0xbe31398f	-0.17307113
21	0xbe7fbaba	-0.24973574
22	0xbd666d4d	-0.05625658
23	0xbde7694c	-0.11299381
24	0x3dd2ae15	0.1028711
25	0x3d5e45e7	0.054265883
26	0xbd568d3a	-0.052380778
27	0xbe172e50	-0.1476376
28	0xbd2d0dfc	-0.042249665
29	0xbd48f21c	-0.04905902
30	0x3b364f61	0.002781831
31	0xbe4f1f65	-0.2022682
32	0x3e75b8ad	0.2399623
33	0x3ddc59c1	0.10759307
34	0x3e62646c	0.2210862
35	0x3c5cc15a	0.013473833
36	0x3dfa6eed	0.12228189
37	0x3e52e1a1	0.20593883
38	0xbdcbf1a7	-0.09958201
39	0xbe9ab456	-0.3021571
40	0xbdcf9754	-0.101362854
41	0xbdb7ebf3	-0.089805506
42	0x3d3cd756	0.046103798
43	0x3d04fd57	0.032468166
44	0x3d4c1cd0	0.049832165
45	0x3d8ad9b5	0.067798056
46	0xbe293cc1	-0.16527082
47	0x3dff9cf6	0.1248111
48	0xbd853fc1	-0.06506301
49	0x3d6a9b33	0.057276916
50	0x3e2a6710	0.16640878
51	0x3e6cc3e2	0.23121598
52	0x3c56d144	0.013111416
53	0xbcd5e018	-0.026107833
54	0xbe2fc77c	-0.17165941
55	0x3e731be3	0.23741107
56	0x3e8f1a6e	0.27949852
57	0x3e854b77	0.26034138
58	0x3cedcfd2	0.02902976
59	0x3e453ef4	0.19262296
60	0x3e4d6a9e	0.20060202
61	0x3cdad6a6	0.02671368
62	0xbcb28e45	-0.021796355
63	0xbd8529e5	-0.065021314
64	0x3df02272	0.1172532
65	0x3da35330	0.07974851
66	0xbd5ce868	-0.053932577
67	0xbde791f4	-0.11307135
68	0x3c94c2e3	0.018159335
69	0x3e3198f3	0.17343502
70	0x3e35e26c	0.17762154
71	0x3e45fa42	0.19333747
72	0x3da5315d	0.08066056
73	0x3de7680d	0.11299143
74	0x3d95c9d7	0.073138885
75	0xbdc3f2d5	-0.09567801
76	0x3d0eb4ca	0.034840383
77	0xbd9da492	-0.07697405
78	0x3e3d349c	0.184771
79	0xbc0b65d2	-0.008508163
80	0x3e020476	0.12697014
81	0xbd9bf54b	-0.07615145
82	0xbdebc6af	-0.11512505
83	0x3e3b406a	0.18286291
84	0x3d8118b6	0.06303541
85	0xbdd2e25a	-0.102970794
86	0xbd37ddcc	-0.044889256
87	0x3e927a33	0.28608856
88	0xbca25bcb	-0.01981916
89	0x3de734f3	0.11289396
90	0xbc06fcf3	-0.008239019
91	0x3e254a5b	0.16141646
92	0xbe313634	-0.17305833
93	0x3d9d2b57	0.07674282
94	0xbdf98412	-0.121833935
95	0xbd69459c	-0.05695115
96	0x3e931161	0.28724197
97	0x3e2ad63a	0.16683283
98	0x3e36634d	0.17811318
99	0x3e8bbe25	0.27293506
100	0xbdce6e67	-0.10079651
101	0x3cb1c1df	0.02169889
102	0x3cd24905	0.025669584
103	0x3d6daaff	0.058024403
104	0xbd93f8cf	-0.07225191
105	0xbd311c49	-0.043239865
106	0x3d8c2aa8	0.068440735
107	0x3e774e25	0.24150904
108	0xbd605c15	-0.054775316
109	0xbe043959	-0.12912501
110	0xbd4315e5	-0.047628302
111	0xbdc189d5	-0.094501175
112	0x3e3baca8	0.18327582
113	0xbdd52e61	-0.10409237
114	0x3e21b19a	0.15790406
115	0xbc9b13d0	-0.018930346
116	0xbd448573	-0.04797883
117	0xbd5221a7	-0.051301625
118	0x3d4dfc62	0.05028952
119	0x3dcf6cf2	0.101282015
120	0x3d1f4e2f	0.03889292
121	0xbd179ec0	-0.03701663
122	0xbc831516	-0.016001265
123	0x3e64fb21	0.22361423
124	0xbb58d05f	-0.0033083183
125	0xbc2ed430	-0.010670707
126	0xbd913e59	-0.0709197
127	0xbe08cbe2	-0.13359025
128	0x3d4a015c	0.049317703
129	0xbe0fe13c	-0.14050764
130	0xbe5637ce	-0.20919725
131	0x3eb07f08	0.34471917
132	0xbe0eb382	-0.13935664
133	0xbd82d6bb	-0.06388613
134	0xbd833c1d	-0.0640795
135	0x3db407a2	0.08790518
136	0xbe376f55	-0.17913564
137	0xbc64b069	-0.013958075
138	0xbe3bb631	-0.1833122
139	0x3ce44995	0.027867118
140	0xbb799430	-0.0038082711
141	0xbd8d8afb	-0.06911274
142	0xbdd8bbca	-0.10582693
143	0xbd7490bc	-0.059708342
144	0xbe0ac726	-0.13552532
145	0x3c9b5018	0.01895909
146	0xbe45074b	-0.19241063
147	0xbe77dbfc	-0.24205011
148	0xbe231ad8	-0.15928209
149	0x3d09bbb6	0.03362628
150	0x3e0e20d4	0.1387971
151	0xbe072c78	-0.13200557
152	0x3c6b79f9	0.014372342
153	0xbd44f446	-0.04808452
154	0x3e68883e	0.22708222
155	0x3c847e84	0.016173609
156	0x3e6edf2a	0.23327318
157	0xbe6fdf6f	-0.23425077
158	0xbb8310b9	-0.003999796
159	0xbe42b386	-0.19013795
160	0xbd72cda8	-0.05927816
161	0xbe5ee002	-0.2176514
162	0x3cc53494	0.024072923
163	0x3dce1a98	0.10063666
164	0xbcd4dec4	-0.02598513
165	0x3e13c9ec	0.14432496
166	0xbde5427d	-0.11194322
167	0x3c4b4b19	0.012408041
168	0x3d676a71	0.056497995
169	0xbde9f9fd	-0.114246346
170	0xbd0d372f	-0.034476455
171	0xbd9cba8a	-0.07652767
172	0xbd2dde9e	-0.042448632
173	0xbdbccd0d	-0.09218798
174	0x3dee87a5	0.11646966
175	0xbd8ee863	-0.06977918
176	0x3dffee2e	0.12496601
177	0x3dcd61d6	0.10028426
178	0x3e2d7521	0.16939212
179	0x3cb22862	0.021747772
180	0x39c38c4d	0.0003729783
181	0xbdaa9fba	-0.08331247
182	0x3d4b5b80	0.049647808
183	0xbcd0bf6b	-0.0254819
184	0x3d9d2fde	0.076751456
185	0xbc840540	-0.016115785
186	0xbd3cd46b	-0.046101015
187	0xbc34f012	-0.011043565
188	0x3c935250	0.017983586
189	0x3c81bcc9	0.01583709
190	0x3e153a72	0.14573076
191	0x3d864f31	0.06558073
192	0xbd19d2f3	-0.037554692
193	0x3cd98e2a	0.026557047
194	0x3e8f2e9c	0.27965248
195	0xbd33392e	-0.043755703
196	0xbca14e0c	-0.019690536
197	0x3e8289e3	0.25495824
198	0xbc589dae	-0.0132211875
199	0x3e21298a	0.15738502
200	0xbda23b15	-0.07921425
201	0xbd9ad3ab	-0.07559904
202	0x3ca2df98	0.019882008
203	0xbc64c2ae	-0.013962431
204	0xbda5c14b	-0.08093508
205	0xbd3aab71	-0.045573656
206	0xbd46be88	-0.04852155
207	0x3d396200	0.045259476
208	0xbd3a4aa7	-0.04548135
209	0x3d78a6d0	0.06070596
210	0x3d990508	0.07471663
211	0xbc0f341f	-0.008740454
212	0x3c27b40f	0.0102358
213	0x3dcb7853	0.099350594
214	0x3e281908	0.16415799
215	0xbd85dae5	-0.065358914
216	0xbd7f1eb8	-0.062285155
217	0x3e285637	0.16439138
218	0x3d870b0a	0.065939024
219	0x3dff05b4	0.1245226
220	0x3e83de1b	0.2575539
221	0xbca0e54c	-0.019640587
222	0x3da85ca5	0.082207955
223	0x3c4b8c90	0.012423649
224	0xbdaaeac4	-0.08345559
225	0x3e2027b6	0.15640149
226	0x3e090eb8	0.13384521
227	0x3ca0b385	0.019616852
228	0xbd09aeab	-0.033613842
229	0x3e3b2fed	0.18280001
230	0x3cd0dde9	0.02549644
231	0x3c1004a4	0.008790169
232	0xbd54593f	-0.051842924
233	0xbdb527d0	-0.08845484
234	0x3e6fa648	0.23403275
235	0x3e5ff56d	0.21870966
236	0xbce6ebc3	-0.028188592
237	0x3e43d9ac	0.19126004
238	0xbd3e3e6d	-0.046446253
239	0xbce3a40d	-0.027788186
240	0xbb872552	-0.004124322
241	0x3e1b757b	0.15181534
242	0x3dc76de3	0.09737756
243	0x3d2bb388	0.04191926
244	0xbc8aa74b	-0.016925475
245	0x3d804f20	0.06265092
246	0xbdfba11b	-0.12286588
247	0xbcae749f	-0.021295844
248	0xbd8d97d5	-0.06913725
249	0xbd35d23e	-0.044389956
250	0x397dc8d2	0.00024202772
251	0xbb677311	-0.0035316388
252	0x3ce4ce1a	0.027930308
253	0x3e8e3231	0.27772668
254	0x3c4b9843	0.012426439
255	0xbd8518c2	-0.06498863

output_layer.bias f4 [10]
0	0xbd7a78d6	-0.061150394
1	0xbf7af763	-0.9803373
2	0xbc485c9f	-0.012229114
3	0x3f82d6c3	1.022179
4	0x3ec13eb0	0.3774314
5	0x3ee0fbcb	0.43942103
6	0xbe27e64b	-0.16396444
7	0xbf115f97	-0.56786484
8	0xbc4d6750	-0.012536839
9	0xbd38a960	-0.045083404
