Lab1/model/model_CIFAR10/conv_params_c3_28.pth (torch, 403140 bytes, 10 tensors)

conv_layers.0.weight f4 [6, 3, 5, 5]
00000000: d6df a1be 8045 353f 5acd eb3f ce63 c33f
00000010: 5950 833f baff 0b3e 8c0a d53e 4f30 373f
00000020: 07d9 203f 0b36 2a3f 3250 823e f89b 3abd
00000030: 7b32 21bf ed87 4fbf e5e1 4f3d 2d5b 613e
00000040: b281 87be 0d8d 59be 406b a4bf 951c 17bf
00000050: c4dc 74be efdd 86bf 775d c6bf 3e00 94bf
00000060: e529 c4be 12df 3f3e 137e a03e c092 b63e
00000070: 6059 07bf b7e7 6bbf 8103 3dbe 1290 d0be
00000080: 8aa2 82bf f6e2 54bf 6f93 24bf 3da3 473e
00000090: 2269 5abf 1a1f d4bf 17b9 65bf 9e26 8c3e
000000a0: 2734 50be 3871 71bf fc0e cdbe 9370 1fbf
000000b0: cbc3 a9bd 0638 703e 853c b2be 6e14 a7bd
000000c0: a185 1e3f 3bf4 1a3f 8c12 57bf ddf0 35bf
000000d0: c9a6 703d c95a 84be 0a37 973d 62d5 5f3d
000000e0: 6770 a8be 593b 07bf fcaf ddbe 1074 5cbe
000000f0: a331 223f e2cf 14bf 6280 a2bf a01f 833d
00000100: e55f f73e d996 ca3e 0b8b 7fbe 69f2 c43d
00000110: 4cd5 89bc fd0d b23e 6358 543f cac2 8a3f
00000120: 9ba6 773f 99a6 703f bd7f 333e 605c 5bbf
00000130: 534e b73f 2e07 463e f50d a6be d988 823e
00000140: 6c8a 203f dafa 4c3e 4d3f 3fc0 67fa 9abe
00000150: 9330 00bc b083 ab3e 3ca2 49c0 6e87 98bf
00000160: 4d17 0b40 e39c 873e e550 98bf 226d 74be
00000170: fbc8 e03f feff 52bd d826 bdbe 723b 3a3e
00000180: d6b9 1a3f 928a 403d a6b0 80bf 2476 b83e
00000190: 1012 553e 25e1 bb3f 2eca d23e aaa6 39bf
000001a0: 9c2d 03bf e56b 0140 cf4c 083f 313a 0dc0
000001b0: d352 17be 67f3 be3e d8b2 583f 771b 2bc0
000001c0: 4d49 c93e 6661 1640 8baa 243f b7f2 a9be
000001d0: a4d6 a33e 1768 4140 518b 1b3f fb62 b0be
000001e0: 8eb3 5fbe 2eaf 8ebd 8c64 943d c77f 2dbf
000001f0: 5006 9cbe 6a2d 77bf 22f0 c23e 6432 1bbe
00000200: 0363 24bf 583c 46be f2bf 6e3f f61f 513d
00000210: af3e 1bc0 5a17 773e 0a4f 743f a83a 72be
00000220: 2beb 3bc0 f0c1 ddbe d6fe 0540 f08b e93e
00000230: b7a8 a0bf 4472 edbd f07c ff3f 12d4 c1be
00000240: 73de 03bf 1ac9 50be 78db 913e f8a7 44bd
00000250: 8404 85bf 826f 683f f530 24bd 57bc 00bf
00000260: 7226 bebe 9a83 823d 64bf 94be 109c a83d
00000270: 2b05 99be aac8 e7bd d3bc 453e 17d1 a4bd
00000280: 29ff 3a3f 4e5a 44be b506 1e3d eb06 343e
00000290: f0c5 153f 2cdb f73e 609d e03d 6028 00be
000002a0: 3aa9 393f 5c29 143e 55d0 603f fd31 423f
000002b0: bfc2 1b3f 6508 6a3e 3349 dcbe a9ca 2abe
000002c0: 45a5 383e 9a71 2ebe 6643 ac3e 2bda 79be
000002d0: ca01 2fbf 5a39 35bf 7c84 3bbe dafb 173f
000002e0: cdb0 3bbe ef09 6abe 3e9d 12bf fb53 e13d
000002f0: 888d 243e abf3 0abe cedd 0fbe 50fb 973d
00000300: 1768 443e e876 893f 50aa dfbe c4ab 8e3e
00000310: c83c 293e bd98 653e 5491 fabe 9e8d 5ebf
00000320: 981a 39bf 3700 2f3e e7d0 f83d 4352 b63e
00000330: 835a 733d 114b e5be c92c d03e 906d 553f
00000340: cd9f b13f d922 6d3f e99a 0bbf 0c90 443e
00000350: 2c00 7a3f 349f a23f 2a70 803f 6363 89bf
00000360: dbc3 883e 5b33 d63e ceb0 4b3f 36a2 afbe
00000370: 2d15 27bf 8e4d 1b3e 9091 ccbc db00 70bf
00000380: 8373 80be ee6b d03e 21a3 0fbf 596e 88be
00000390: 6b63 103f 6f0b 913f e8e6 a6be b5c3 95bf
000003a0: a949 ddbe 0025 92be ae94 5c3c 15d3 e2be
000003b0: c01f c3bf e2d5 81bf 0ff6 77bf 53cd eebe
000003c0: d194 86bf 1e13 b8bf fef3 a6bf 78c8 05bf
000003d0: 9a4a 683e 679a 49bf 7b88 18bf 77dd 33bf
000003e0: 5f6f edbd c7ac 7d3f 221d 0dbf 027f 2a3e
000003f0: 2779 5bbe 71ac 74be 2c27 49bf 98d2 ce3e
-0.31616086 0.70809174 1.8422043 1.5264833 1.0258895 0.1367177 0.4160961 0.7155809
0.6283116 0.66488713 0.2545181 -0.0455589 -0.6296765 -0.8106678 0.05075254 0.22007437
-0.26466137 -0.21245213 -1.284523 -0.5902799 -0.2391234 -1.0536479 -1.5497273 -1.1562574
-0.38313213 0.18737438 0.31346187 0.35658836 -0.5287075 -0.92150444 -0.18458368 -0.40734917
-1.0205853 -0.83158815 -0.64287466 0.19495864 -0.8531667 -1.6571991 -0.8973555 0.27373213
-0.20332395 -0.94313383 -0.40050495 -0.6228115 -0.08289298 0.23458871 -0.34811798 -0.081581935
0.6192265 0.60528916 -0.84012675 -0.71070653 0.05875281 -0.25850514 0.07383545 0.054646857
-0.32898256 -0.5282493 -0.43298328 -0.2152865 0.6335699 -0.58129704 -1.2695429 0.06402516
0.4831535 0.39568213 -0.24955384 0.096165486 -0.01682534 0.34776297 0.8294737 1.0840695
0.96738595 0.9400421 0.17529197 -0.8568783 1.4320778 0.19338676 -0.32432523 0.2549503
0.62711215 0.20017567 -2.9882386 -0.30269167 -0.007824081 0.33498907 -3.150527 -1.191633
2.1732972 0.26486883 -1.1899687 -0.23869756 1.7561334 -0.051513664 -0.36943698 0.18186739
0.60439813 0.04700715 -1.0053909 0.36027634 0.20807672 1.4678084 0.41169876 -0.72519934
-0.5124147 2.0222104 0.532422 -2.2066767 -0.14777689 0.37295076 0.84647894 -2.6735513
0.39313737 2.3496947 0.6432273 -0.3319299 0.31999695 3.0219781 0.60759455 -0.34450516
-0.21845838 -0.069670066 0.0724574 -0.677731 -0.30473566 -0.9655367 0.38073832 -0.15155941
-0.6421358 -0.19358957 0.93261635 0.05105587 -2.425701 0.24130002 0.95433104 -0.23655188
-2.9362285 -0.43312025 2.093679 0.45614576 -1.2551488 -0.1159406 1.9960003 -0.3785711
-0.51511306 -0.20389214 0.28487754 -0.04801175 -1.0392003 0.9079515 -0.04008575 -0.50287384
-0.37138706 0.06372757 -0.2905227 0.082328916 -0.29886755 -0.113175705 0.19310312 -0.08047693
0.73045594 -0.19175074 0.038580615 0.17580764 0.58505154 0.48409402 0.10967517 -0.12515402
0.72523844 0.14468902 0.8781789 0.75857526 0.60844034 0.22854765 -0.43024597 -0.16678871
0.18031795 -0.17035523 0.3364517 -0.2439963 -0.68362105 -0.70790637 -0.18312258 0.5936867
-0.18329163 -0.22855352 -0.5727118 0.11002346 0.16069615 -0.13569514 -0.14049456 0.07420981
0.19180332 1.0739412 -0.43684626 0.27865422 0.16527092 0.22421546 -0.48939002 -0.8693484
-0.72306204 0.17089926 0.1214922 0.35609636 0.05941249 -0.44783834 0.40659168 0.83370304
1.3876892 0.926313 -0.5453325 0.19195575 0.9765651 1.2704835 1.003423 -1.0733455
0.26711926 0.41836056 0.7956666 -0.34303445 -0.65266687 0.15166304 -0.024971753 -0.93751305
-0.25088128 0.40707344 -0.5610829 -0.2664669 0.564017 1.1331614 -0.32598042 -1.170035
-0.4322026 -0.28543854 0.013463182 -0.44301668 -1.5244064 -1.0143397 -0.9685983 -0.46641025
-1.0514165 -1.4380834 -1.304321 -0.52259016 0.22684708 -0.78751224 -0.5958325 -0.70259804
-0.11593508 0.9909176 -0.5512258 0.16650012 -0.21432935 -0.23893906 -0.78575397 0.40395045

conv_layers.0.bias f4 [6]
00000000: f099 1dc0 9e51 a1bf 5780 2ebf e881 efbe
00000010: b036 a9bf 9a2b cebf
-2.4625206 -1.2603033 -0.6816458 -0.46778798 -1.3219814 -1.6107056

conv_layers.1.weight f4 [28, 6, 5, 5]
00000000: b5ee 223d a1e1 38be 8e7c 39bf a6cd cabf
00000010: 84b1 b23f 4b70 d23d a232 35bf 3735 67bf
00000020: 5d4c 063f 179e d53f 86bd 20bf b68c 89bf
00000030: be4f bf3e 533b 0d40 1f8a 8a3e 228b 08bf
00000040: ea00 513e 7109 bc3f cecc 4fbe 548a 59bf
00000050: 1a0a bd3d 10a2 7f3f 85cc 953e fda7 8dbf
00000060: a52d 29bf 1eef 68be 51d6 073f 1780 903e
00000070: 7bc2 e53d a8a1 bbbe a927 d7be 25f1 123e
00000080: 22aa 1c3f 9b8d 4ebf 3205 0c3f 392a a3be
00000090: 1fff e6bd e04e 82bf c0e9 953f 5e97 fa3e
000000a0: fdf8 063d b364 acbe bd61 74bd 09b4 683e
000000b0: a96d 74bd e1c8 0abf 75a3 14bf 49c5 5ebe
000000c0: afcb 2b3f ef7a ef3e d64c 40be 6277 233f
000000d0: 3907 10bf 2913 353e 1040 d5be 65a2 1e3e
000000e0: fd14 36be 7ab9 783f 21fc a03d cd66 52bf
000000f0: 7686 9a3e 1882 743f cefe 9b3d d9d0 cbbf
00000100: fd34 a8bf a979 483f ef47 473e 6278 00c0
00000110: 8e03 92bf 7eb2 263e 5b15 94bd 5ee0 a73c
00000120: d850 09bf 5d56 073f 244c bf3e 54e3 b93e
00000130: 5606 f33d c3e2 cb3d d043 db3d 5662 6b3f
00000140: 1a50 c83c c796 0ebe 9905 92be 25ae 4c3e
00000150: fe84 a43e c74c 41bf 1ca1 383e 9f24 183f
00000160: 7254 b6bc acdd 77bf 3cae 9e3e 48cb dd3e
00000170: 7bf6 82be bcb5 e0bf 0f41 cabe 3f08 14bf
00000180: 6596 463e 1387 fbbe ee1a e4bc 2835 5f3f
00000190: 5938 ae3e a4a2 6d3d ba8a 55be 91f3 56bf
000001a0: a1ef 28bf a02f 69be c2d1 0e3e cb26 dcbe
000001b0: a0e2 05bf 76ca 293e c63c 0dbf 9ae1 413d
000001c0: b494 84bf f196 87be 304a e13e 1595 0f3f
000001d0: 7a83 87bf 88be 6dbe 92d0 b93e ebf8 383f
000001e0: f4ee 37bf 9540 2bbf fd2c 6bbb b208 c43e
000001f0: f818 04be 2d8b b93e 01db a23b 2f58 423e
00000200: 13c9 e0ba 2a0e 66bf f4c2 713e f4cb d03e
00000210: f509 1bbf 8a21 edbe fd10 aabc 4cbd 2d3e
00000220: c25f d73d 5d36 62bf 0302 a6be dfd4 3cbf
00000230: e25c e8bb 8ae8 51bf 73bc c6be ae13 0abf
00000240: e85f 4dbf c45c 343f dc1e f73e ddc6 283e
00000250: f154 f93c 6cfb 43bf ead6 06bf 4dca 24bf
00000260: 754c aa3e abd2 4e3d a59c e7be 9807 e9be
00000270: 110c 58be 2369 7c3f a0fc 28be 62d5 aabd
00000280: feb8 98bc d450 b0bc 50d7 e0bd cb83 9fbd
00000290: 787a d83e 8cf6 a83e 3b86 dabc 27d7 85bf
000002a0: 9d22 e0be 7e4a 0c3f b31a 9a3e 5c71 90bd
000002b0: 4f13 c7be a15d b1be 83aa 7a3f a8fd 6fbe
000002c0: d53f a9bf c938 f8be 91e0 513e 89be 33bf
000002d0: 5164 8fbf dd21 8ebf f9e0 7e3f e350 6d3e
000002e0: fe6a 18bf 418b a4bf 8d99 f83e 0239 d03e
000002f0: bbc8 26bf bca0 acbf 6ff2 193f f577 783d
00000300: e595 a7bf c022 8abf 8fd3 acbe 432b ef3c
00000310: 1417 c3bf 1bd1 c8bf 308f 97bf 00bc 20bf
00000320: d3ce b13e 4bfc 283e 5ff4 14bf d1a3 2ebf
00000330: d3e3 5c3e bec2 14be 506e 93bc 8c66 32bf
00000340: 6729 5cbf b150 ecbd 0ae5 81be 9b80 413e
00000350: f474 213f eb0c bfbd 62ea 3dbf 2c04 1b3f
00000360: 9231 923e 67ed ac3e 541a 573e a314 4ebf
00000370: 5b25 a13e 813a a33e cbb1 69bc 6d0b 38bd
00000380: 61ce 3b3e c1fe 333f 8869 39bf 3a65 a5be
00000390: cbde 70bf 3d07 dabe 5692 9f3e d536 f03e
000003a0: 3422 ea3e 236e 0fbe e78f 65bd 88d6 11bf
000003b0: 2d20 d8be 49ab 7e3e a1f2 dc3f 7e71 ba3e
000003c0: ede8 77bf 62d7 16be 0dbc c23e 42dd 603f
000003d0: fd8d 443f b736 46be 7da1 883e ff12 bbbe
000003e0: 336f acbd a68b 753f 5829 203e 1a9d 3b3d
000003f0: 8f7d 33bf c4c0 453f aef1 ecbd 8dea e7be
0.03977843 -0.1805482 -0.7245568 -1.5844009 1.3960423 0.102753244 -0.70780385 -0.90315574
0.5246027 1.668887 -0.6278919 -1.0746067 0.37365526 2.2067459 0.27058503 -0.533373
0.20410505 1.4690381 -0.2029297 -0.84976697 0.09230442 0.9985666 0.292576 -1.1066891
-0.66085273 -0.22747466 0.53061396 0.28222725 0.11218735 -0.3664677 -0.42022446 0.14349802
0.611971 -0.8068482 0.5469543 -0.3186815 -0.11279129 -1.0180321 1.171196 0.4894361
0.032952297 -0.33670577 -0.059663523 0.22724928 -0.059674893 -0.54212767 -0.58061916 -0.21754946
0.6710767 0.46773478 -0.1877931 0.6385404 -0.5626102 0.1768309 -0.41650438 0.15491636
-0.17781444 0.97158015 0.0786059 -0.8218811 0.3018071 0.9551101 0.076169595 -1.592311
-1.3141171 0.7831064 0.19461034 -2.0073476 -1.1407335 0.16279027 -0.07230636 0.020492729
-0.5363898 0.52866155 0.37362778 0.3630625 0.11866443 0.09955361 0.107062936 0.91946924
0.024452258 -0.13924704 -0.28519896 0.19988306 0.32132715 -0.7550778 0.18030208 0.5943088
-0.022257064 -0.9682262 0.30992305 0.43319154 -0.25578675 -1.7555461 -0.3950276 -0.5782508
0.19393308 -0.4912649 -0.027844872 0.87190485 0.34027365 0.058016434 -0.20853701 -0.839654
-0.65990645 -0.22772074 0.13947204 -0.42998347 -0.5229893 0.16581139 -0.5517086 0.04733429
-1.035788 -0.26482347 0.44001913 0.56086856 -1.0586998 -0.23217213 0.3629194 0.7225482
-0.7184899 -0.6689542 -0.003588497 0.38287884 -0.1290015 0.36238995 0.004969955 0.18978952
-0.0017149769 -0.8986536 0.23609525 0.40780604 -0.6056207 -0.4631465 -0.020760054 0.16966742
0.10516311 -0.883642 -0.3242341 -0.73762316 -0.0070911506 -0.8199545 -0.3881565 -0.5393628
-0.80224466 0.7045405 0.4826573 0.1648211 0.030436011 -0.76555514 -0.5267168 -0.64371186
0.33261457 0.050493877 -0.45236698 -0.45513606 -0.21098353 0.98597926 -0.16502619 -0.08341481
-0.018642899 -0.021522917 -0.109785676 -0.077888094 0.42280936 0.330006 -0.026675334 -1.0456284
-0.43776408 0.54801166 0.30098495 -0.070528716 -0.3888192 -0.34641746 0.9791643 -0.23436606
-1.3222605 -0.48480824 0.20495822 -0.7021261 -1.1202489 -1.1104084 0.9956203 0.23175387
-0.5953826 -1.2854997 0.4855465 0.40668494 -0.6515004 -1.3486552 0.6013555 0.060661275
-1.3092619 -1.0791855 -0.33755156 0.029195433 -1.5241418 -1.5688814 -1.1840572 -0.62786865
0.34728107 0.16502492 -0.5818538 -0.68218714 0.21571283 -0.14527413 -0.017996937 -0.69687724
-0.86000675 -0.11538828 -0.25370055 0.18896715 0.6306908 -0.09328636 -0.74185765 0.6055324
0.28553444 0.33774874 0.21006137 -0.8050024 0.31473812 0.31880572 -0.014263581 -0.04493277
0.18340446 0.703106 -0.7242665 -0.32303792 -0.94089955 -0.42583647 0.31166333 0.46916834
0.4572922 -0.14006858 -0.05604544 -0.56967974 -0.42212048 0.24870028 1.7261544 0.36414713
-0.9683979 -0.147306 0.38034096 0.8783761 0.76779157 -0.1935681 0.26685706 -0.3653793
-0.08419647 0.9591621 0.15640771 0.04580412 -0.7011346 0.7724726 -0.11569534 -0.45296136

conv_layers.1.bias f4 [28]
00000000: 85e5 9ec0 b3e2 a0c0 55e6 e5bf 3ad7 76c0
00000010: 419b ecbf 2026 bb3f 1e28 b0bf 4bcb 87bf
00000020: 3c23 8e40 9ac9 4040 0ef7 4840 5c53 90bf
00000030: 4b1a 8740 8beb a8bf 0ab3 9e3f 62bf 69c0
00000040: 26fa bebf 1545 7c3f 7dba 13c0 be6b 4cbf
00000050: af41 8cc0 06fa 37c0 dbc5 8a40 15c4 84bf
00000060: 2a14 09c0 ca09 45bf 12fe 5ec0 1578 313f
-4.9655175 -5.0276732 -1.7960917 -3.8568864 -1.848488 1.462101 -1.3762243 -1.0608915
4.441801 3.0123048 3.140079 -1.1275439 4.2219596 -1.3196882 1.2398388 -3.652306
-1.4920089 0.9854291 -2.3082573 -0.798519 -4.383018 -2.8746352 4.3366523 -1.037234
-2.1418557 -0.7696806 -3.4842572 0.69323856

fc_layers.0.weight f4 [120, 700]
00000000: 751e 92bf f6cc 45bd d665 80ba a107 2dbf
00000010: 2015 52be df62 79bf b283 81be f871 d5be
00000020: 695f 61be 76d2 503f b7e6 30bd e86d 923e
00000030: 0b5e 10be 3b91 c83d 5965 e23e 2578 c9be
00000040: 9d8c 15be 522d 9f3e 0c70 2ebf a305 3bbe
00000050: ee97 52be 95af cdbd 86db a2bb 242b fdbe
00000060: 6684 cbbe f37b 513d fbfe 6fbe 17d0 553e
00000070: 297b 37bd 83cf 7abe cde1 c83e 9587 80be
00000080: 5032 1abf ae36 b0be be1e 2cbf 5176 333e
00000090: 7e91 d3bd b793 a3be d3a5 ce3e bd4f 133f
000000a0: c7b5 f4ba 4c50 f4bc 4664 d1be ece5 ec3e
000000b0: f166 693e 93af 933e 1187 5bbe 6521 083f
000000c0: dd93 f0bd 391f be3e 7b1d 893d dadf 5cbd
000000d0: da43 533e 9f87 b7be 228c 67bf 3027 2dbe
000000e0: 1231 29bd e3e2 653d 1533 9bbe e8e1 2cbf
000000f0: 528e d73e c27f 16bf d0df 10bc 7ce4 f53e
00000100: 9441 1fbf c10c c6bd 889a b0bc aee9 923e
00000110: c253 ca3e bc20 063d 732b 18bd b3c6 1ebf
00000120: 6c8f 05be c29b 2f3f 8c30 64be 417d 23be
00000130: e7ef 1fbe 3dd5 7e3e a6d9 3ebe 58b6 cfbd
00000140: 69db 7ebd 5f3c fd3d f1b9 98be c026 173e
00000150: 6185 fb3e 9024 adbc b8fb d63d 06ef 3dbf
00000160: 0e25 27be 0d5c f5bc 66cf 22bf c0f4 5c3d
00000170: a603 903e 2031 bb3d 8622 02bf 2ed8 2ebf
00000180: b726 fd3e e60a 213e 71f3 0d3e 978c 3dbf
00000190: 99a5 1d3f 7304 2a3d 8d7e 2a3d f64b 41be
000001a0: fc98 41bd fa44 5e3e b0e2 123e 15ac 08be
000001b0: 7e37 743e 6a2f 27be 5f52 893e a812 d83e
000001c0: f976 f8be 2041 583e ef0b cc3e e90f a0be
000001d0: 1f19 babe f3c0 c43b 4c53 0ebf 1c49 8e3e
000001e0: 30a4 5a3e cb37 c73d 8038 b03e 1ae9 61be
000001f0: aa4a 04be ecbf f3bd 84f0 31be 8db5 ebbe
00000200: b33a 3c3d 4b00 7d3e cb0e d0bd 722e a23e
00000210: 5fbc 213f 78b1 273f cf63 cd3e fc0c 733e
00000220: 1753 1d3f 78c8 91bc c46b b23d 07fe 0abd
00000230: 644a 29bd 90e1 d4be 26ba 2dbf a46d b3be
00000240: 06c9 2dbf 8262 a3bd 4b9a 7dbe 5663 dabe
00000250: 8bd4 76bf 8696 64be cca0 12be 402e 06bf
00000260: fbf2 de3c c5bc b2be b717 76be efba a9bd
00000270: 2432 ebbe 5af9 c4be 3111 8fbe 0790 4cbe
00000280: a6dd e23c 5913 093d e79c 653d 552f d4bd
00000290: 1bbb 0cbf c1f3 313e 0c06 f1bd 5708 db3e
000002a0: 1f0d 82be eb75 74bd 0903 eb3d 2368 173e
000002b0: fe15 39be 0899 9cbd 7a22 a7be 56f1 44be
000002c0: 6e9a cbbe 3532 80be 2cfe d1bd 2b56 26be
000002d0: df02 673e ed10 b6be 0584 17be 8d71 6dbe
000002e0: 8a62 0abf f5ec 063d 9093 48bf d74d 0abd
000002f0: b4f0 d43d ac15 4fbd 4ffe c73e 4055 9abe
00000300: c775 e9bd 1aaf 32be b7af 0ebe 156d ae3e
00000310: 11ba b33e a623 94be c1dd bc3e fc37 f6be
00000320: 8280 a13e cb53 b93e 742f 8b3d 84f2 aa3e
00000330: d641 53bd 1328 efbd 1a12 943e bd6e a03d
00000340: afdd 143e c4ec d33d 1638 ae3a c00f aabe
00000350: fc82 42bc fc33 87bd f4c8 c3be 6c11 0e3d
00000360: 5419 41be ac71 1fbf c833 33bc 006d a93d
00000370: e149 1a3f f04d 753e d49e a4bd 5c2e 39bf
00000380: 9bac 4e3e e3fa 7f3e 8334 5abd c367 743d
00000390: 7588 ffbd 87b7 393f 27ef 5b3d 301f 49bf
000003a0: c6ce 8b3e 088a d83e bd07 30be 6d09 9fbe
000003b0: 049d e8bd 2ee5 abbe cb54 5dbd 2b91 773e
000003c0: 8b1b 6fbe 01cd 813e 1f43 073e 2ba4 a2be
000003d0: 21fe cfbe c809 19be 8c3c 483e 2c74 0ebe
000003e0: 1017 553e 4bcb 9e3c e763 553e 7c68 a2bd
000003f0: 4ba5 b73e 8de1 b93d 3287 d5be 2ea8 583e
-1.1415545 -0.04829117 -0.0009795974 -0.67589766 -0.20515871 -0.9741649 -0.25295788 -0.41688514
-0.22009052 0.8157114 -0.043188777 0.28599477 -0.14098375 0.097933255 0.44217947 -0.39349476
-0.14604421 0.31089264 -0.6813972 -0.18263869 -0.20565769 -0.10043255 -0.004970017 -0.49446976
-0.3974945 0.051143598 -0.23437111 0.20880161 -0.04479519 -0.24493222 0.39234772 -0.2510344
-0.6023302 -0.34416717 -0.6723441 0.17525603 -0.10330485 -0.31948635 0.4036089 0.57543546
-0.0018669897 -0.029823445 -0.40896815 0.46269166 0.22793175 0.2884489 -0.21438242 0.53175956
-0.11746953 0.37133196 0.06695076 -0.05392442 0.20631352 -0.35845658 -0.904482 -0.1690948
-0.041306563 0.05612458 -0.3031241 -0.67532206 0.4210077 -0.5878869 -0.008842424 0.48025882
-0.6220944 -0.09670401 -0.021558061 0.28693908 0.39517027 0.03274606 -0.03715081 -0.6202194
-0.13042992 0.6859704 -0.22284144 -0.1596575 -0.15618859 0.24886031 -0.18637714 -0.10142201
-0.062220965 0.123650305 -0.29829362 0.14760876 0.49125198 -0.021135598 0.1049723 -0.74192846
-0.16322729 -0.02995112 -0.63597715 0.05394435 0.28127784 0.09140229 -0.5083393 -0.68298614
0.494436 0.15726814 0.13862397 -0.7404265 0.61580807 0.04150815 0.041624594 -0.18876633
-0.047265038 0.21706 0.14344287 -0.13346894 0.23849294 -0.16326681 0.26820657 0.42201734
-0.4852827 0.21118593 0.39852855 -0.31262138 -0.3634729 0.0060044467 -0.5559585 0.27790153
0.21351695 0.097274385 0.34418106 -0.22061577 -0.12919107 -0.119018406 -0.17376906 -0.4603695
0.045954417 0.24707143 -0.101590715 0.3167606 0.63178056 0.6550517 0.4011521 0.23735422
0.6145491 -0.017795786 0.08711961 -0.033933666 -0.04133071 -0.4157834 -0.67862165 -0.35044587
-0.6788486 -0.07977773 -0.2476589 -0.42653912 -0.96418065 -0.22323045 -0.14319152 -0.5241432
0.027215471 -0.34909645 -0.24032484 -0.08287608 -0.45936692 -0.3847149 -0.27942804 -0.19976817
0.02769358 0.033465717 0.056057837 -0.1036059 -0.54973 0.17378141 -0.117687315 0.427798
-0.25400636 -0.059682768 0.11475188 0.14785819 -0.18074796 -0.07646376 -0.3264349 -0.19232687
-0.39766258 -0.25038305 -0.102535576 -0.16243808 0.22559689 -0.35559788 -0.14796455 -0.23187847
-0.5405661 0.032940824 -0.7835016 -0.03376564 0.10397473 -0.050557777 0.3906121 -0.30143166
-0.11399417 -0.17449608 -0.13934217 0.34067598 0.35102895 -0.28933448 0.36887935 -0.48089588
0.31543356 0.3619674 0.0679616 0.3338815 -0.051576458 -0.116775654 0.2892006 0.07833622
0.1453769 0.10347894 0.0013291861 -0.3321514 -0.011872049 -0.06601712 -0.38239253 0.034684584
-0.18857318 -0.62282825 -0.010937639 0.08272743 0.6026898 0.23955512 -0.080381066 -0.72336364
0.20183031 0.2499805 -0.053272735 0.059669267 -0.12477199 0.72545666 0.05369487 -0.78563213
0.27306193 0.4229281 -0.17190452 -0.3106188 -0.11358073 -0.33573288 -0.054035943 0.24176471
-0.2335035 0.25351718 0.13209198 -0.31765875 -0.40623572 -0.14945138 0.19554347 -0.13911504
0.20809579 0.019384047 0.20838891 -0.07930085 0.35868296 0.090762235 -0.41704708 0.21157905

fc_layers.0.bias f4 [120]
00000000: 3168 34bd bc7a dc3d a102 5fbe cbcf 6fbf
00000010: 4f03 98bd 436c 813d 0333 8abe 181c 1dbf
00000020: 770c 3c3f 9c2e 963e 1afc a23e 0b5d 36be
00000030: d46a 0e3f da31 32bf dd81 f5be 2233 913f
00000040: af74 e7be 37e2 66bf 23a4 3cbf 1fe5 73bf
00000050: d608 15bd 9098 e3be def0 16bf 342f 7ebb
00000060: 0765 4d3d 998c 903d 6713 8bbe 2d30 113f
00000070: b226 1bbe d986 4ebd 0fc7 61be b3ed 8dbe
00000080: 8a4c 6abe 079d 0c3c 93b8 5fbf 129c b3be
00000090: bb14 7a3b ed5b cebe 598f 69bd cdc5 e03e
000000a0: 92bd 06bf 9f96 153f 8c26 333d b504 2e3f
000000b0: d923 363d e3c0 073f 0f1c 7b3e ba75 8bbe
000000c0: c271 b0be 865c 32bf bf8d 81bf 9e6d 9e3e
000000d0: d372 24bf 001d 17bf ccb4 eb3d 8bba c53e
000000e0: c5b3 b0bd 6165 04bf f8aa 59bf 2e47 f43c
000000f0: cad1 b3bc 1868 823f 92d9 663d 57c7 0cbf
00000100: 6804 cabe c16d a43d 0843 dcbe 0fc3 323f
00000110: eee0 253f 200b 883e ba90 8d3e 9e11 df3e
00000120: e5da 2ebe 2526 29be 812b 833f f9dc 4fbf
00000130: 0609 aabe 4374 bb3e f116 6c3e 5980 0bbe
00000140: 1ac2 0abe d493 5a3c c012 6f3e b71f a83e
00000150: 6562 9abe 81b9 cf3e 9078 f4bd e4dd 02bd
00000160: e924 9abe dc7e 4b3f e55b c73e e160 3f3f
00000170: dcba 11be 41c0 eb3e e73f 8c3e f256 113e
00000180: bf00 4fbe 4420 c4bd df21 a63d 1bbf b5bd
00000190: 78ad 253e 6f3c 98be 53da 713e 608b 48bc
000001a0: ffac 2ebe 248b aa3e 916f c23a 8b10 2c3f
000001b0: 9ad2 593e db89 193e 3b38 d23e edc1 8a3e
000001c0: de69 a2be acb5 90be 578b ebbd d073 0abd
000001d0: 099d a7be 1562 193d d75a 5abe 15ab a33d
-0.044044677 0.10765597 -0.21778347 -0.9367644 -0.07422506 0.063194774 -0.26992044 -0.6137099
0.7345652 0.29332435 0.31832963 -0.1780893 0.55631757 -0.6960732 -0.4795064 1.134373
-0.4520621 -0.90188926 -0.7368795 -0.95271486 -0.03638538 -0.44452333 -0.58961284 -0.003878546
0.050145175 0.07058067 -0.2716324 0.56714135 -0.1515148 -0.05042157 -0.22048591 -0.27720413
-0.2288076 0.00858236 -0.8739101 -0.3508001 0.003815933 -0.4030451 -0.057021473 0.4390091
-0.5263301 0.58432955 0.043737933 0.6797593 0.04446778 0.53028697 0.24522422 -0.27238256
-0.3446179 -0.6967243 -1.0121382 0.30943006 -0.6423771 -0.59028625 0.11509094 0.38618883
-0.08628038 -0.5171719 -0.850265 0.029819097 -0.021950621 1.0188017 0.056359835 -0.5499167
-0.39456487 0.080287464 -0.4301989 0.69828886 0.6479634 0.26570988 0.2764948 0.43568128
-0.17075689 -0.16518457 1.0247651 -0.8119655 -0.3321001 0.36612138 0.23055626 -0.1362318
-0.13550606 0.013340909 0.23346996 0.32836697 -0.30153194 0.40571216 -0.11937058 -0.031949893
-0.30106285 0.7949045 0.38937297 0.747572 -0.14231437 0.46045116 0.27392504 0.14193323
-0.20215128 -0.09576467 0.08111929 -0.08874341 0.16179454 -0.29733607 0.2361844 -0.012240261
-0.1705818 0.3330928 0.0014834275 0.6721274 0.21271744 0.14993994 0.41058525 0.2710108
-0.31721395 -0.28263605 -0.11501186 -0.033801854 -0.32736996 0.037447054 -0.21323715 0.07991616

fc_layers.1.weight f4 [84, 120]
00000000: 883b 8abd 3fea a3bc fe80 9fbe d211 453e
00000010: 4637 88bd 3a78 e0bb c126 7dbe b039 32bd
00000020: c6aa 95be 6b73 bbbd 2994 06bf 4c7b 89be
00000030: 816e b8be 5f13 4bbe e266 35be fdcf f7be
00000040: f197 93bd f6bf bebe 3b26 21bf 0062 febe
00000050: ba19 6a3c ae5d 65be a8ad ccbe cf82 1e3e
00000060: 7844 8cbe 0d7d f93b 2a34 24bf b496 0fbe
00000070: dfc9 13ba d5d9 59be d9ca eabd 2351 3f3e
00000080: 9395 6bbe 90f8 9dbe f98b 05bf 97cb ed3d
00000090: c0ed 05bd f8d8 cbbe 6b10 1bbf b5e2 0dbf
000000a0: 11b0 babe 4762 4fbf ef53 77be fbae 823d
000000b0: c83a 82be bf97 adbe e602 55be e4d3 42bb
000000c0: cb2d ed3d 3d18 ebbe 47f8 e4bd 4c74 94be
000000d0: 1f49 c8be d86a 89be 9871 fb3c ea1b b53d
000000e0: 37ab 49bf fe4e 11bd 7a36 b6bd fdcd 2dbe
000000f0: 1abb 92be a806 02bf 3ef2 02bf 7995 70bd
00000100: 2316 aa3a 6b58 93be 85bd 83be 15ea b7be
00000110: acd6 36be da39 dabd 7150 9abe 964a 373e
00000120: b483 d8be 42d4 dbbe bac4 2bbe 3418 a3be
00000130: 6e7d 1fbe e796 65bd af41 76be 134a 1a3e
00000140: 7b02 5e3d e8a7 0cbe d193 f13d 30a7 9f3d
00000150: b6c2 a7be 29c9 a7be 84a8 8bbe 6f47 5b3d
00000160: 8448 a33e c50c 58be 318f 09bf 941f 033e
00000170: fbe4 0d3d cada 1bbf 1015 d43e 40b4 983e
00000180: 1617 4a3d 7d96 51be cb34 383d 9c31 81be
00000190: 923d 24bf ce7f 81be 6166 433e da77 27be
000001a0: a9b3 cebe f7fb 29be 904a 71bd 2bd1 54bd
000001b0: 3da6 a3bd 8410 c0be e880 993d 8a1e c9be
000001c0: 5cfc 5fbe 7849 3bbe bff9 06be 795f 5e3d
000001d0: 82e2 54be dea7 663e b005 70bd c9a5 cfbe
000001e0: b310 86be f1eb c43d eff4 bdbe e020 35be
000001f0: c50f 3a3c b2e0 59bd 018d 59be 76d9 10bf
00000200: fdfc e4be 64ec 22be e5b5 1ebe cbae e9bd
00000210: ad2b 853d f8e7 cebe fa25 26bd 9e44 08be
00000220: 80f8 f7be 9a68 9ebe a99a 843d d898 99be
00000230: 9c6b 88ba d9c4 00bf bcdb 28bf 6151 a9be
00000240: 1732 93be 221d 3dbd e43d 88be d691 64be
00000250: 6864 0abf 8069 f9bd ddd4 72bd 658a 22bf
00000260: 8bcc 81be 9b46 46be adef aebe f309 91be
00000270: c505 6a3d c0a0 8cbe 3c3c 84be 1898 cf3d
00000280: 2689 9fbd 42a0 3f3b 2120 21bd e585 9ebe
00000290: 219c 8c3c ce22 a4be 2d51 96be e624 283c
000002a0: daff 183e a17b f6bd effd fcbd 7f53 153e
000002b0: 41c5 44be a830 423e 1a63 7bbd 4743 57be
000002c0: 3442 f0bd 0721 06bf 7fd0 29bd a9b6 e93c
000002d0: 5eb2 4ebe b6a0 2c3e c4a3 0cbd 8485 253e
000002e0: fe62 8bbd 7e6a 71be 3aa8 b2be d4b4 a0be
000002f0: 874a 28be c81d 89be 7add f3be 0eb5 0c3e
00000300: 8736 41be 9ec4 07bf 400f c9bd 1a5f d1b8
00000310: 7f76 34be d112 08be ed0c 1fbe e21c 9dbe
00000320: b13f 95be a187 ffbc 1ca9 a7be a05c 30be
00000330: de12 53be 1637 00be c35d d9bd a197 f3be
00000340: 330b a3be beec 4d3e 0631 a7bd cc38 93be
00000350: 6db7 e4bd 2668 26bf 78d4 b0bd edf5 95bd
00000360: 3aba 8dbe 9094 753d 797c 16be fddc 003f
00000370: 61ac ebbe f814 84be 6cf8 01bd 9617 d6be
00000380: 9ad9 35be 4876 12bf 4df0 553d 69f7 e2be
00000390: ecc8 08be aa23 cc3d ee5a 3c3e 20c9 42be
000003a0: 25db a3be d5d7 bdbb 42ba 20bd 963c 27be
000003b0: 9355 82bd fbe0 2dbe 2672 81bd 401e aabe
000003c0: eb02 e7bd 3432 423e f299 ddbe 1a32 333d
000003d0: 737a 81be b9ee 46be 0814 72bb 3eef dcbe
000003e0: f9c1 67bd c345 5bbd 6afa 2c3d c1fe 29be
000003f0: 7778 5ebe 2a2f 09be b0d9 ecbd e5d9 ce3c
-0.06749636 -0.020009158 -0.311531 0.19245079 -0.066511676 -0.0068502696 -0.24721815 -0.043512046
-0.29231852 -0.091528736 -0.52569824 -0.2685188 -0.36021808 -0.19831608 -0.17715028 -0.4840087
-0.07206715 -0.3725583 -0.6294896 -0.49684143 0.01428836 -0.22399017 -0.3997624 0.15479587
-0.27395988 0.007613784 -0.64142096 -0.14022332 -0.0005637686 -0.21274503 -0.11464471 0.18683295
-0.23006277 -0.308537 -0.52166706 0.11611097 -0.03269744 -0.39813972 -0.60571927 -0.5542405
-0.36462453 -0.81009334 -0.24153112 0.06381031 -0.25435472 -0.33904836 -0.20801887 -0.0029728347
0.11581 -0.4591693 -0.11180168 -0.28994977 -0.39118287 -0.26839328 0.030693814 0.08843215
-0.7877688 -0.035475723 -0.08897109 -0.1697311 -0.28658372 -0.50791407 -0.5115088 -0.0587363
0.0012976568 -0.28778395 -0.2573053 -0.35920778 -0.17855328 -0.106555656 -0.30139497 0.17899546
-0.42287982 -0.42935377 -0.16774264 -0.31854403 -0.15575191 -0.056052115 -0.24048494 0.1506732
0.054201584 -0.13735926 0.11795772 0.0779556 -0.3276574 -0.3277066 -0.27277005 0.05353492
0.31891263 -0.21098621 -0.5373412 0.12805015 0.0346422 -0.6088072 0.4142232 0.2982502
0.049338423 -0.20467563 0.044972222 -0.2523316 -0.6415645 -0.2529282 0.19082023 -0.16354313
-0.40371445 -0.16600023 -0.058909 -0.05195729 -0.07990692 -0.375126 0.0749529 -0.39281112
-0.21873611 -0.18289745 -0.13181208 0.05429027 -0.20789531 0.22524974 -0.058599174 -0.40556172
-0.26184615 0.09615315 -0.37100932 -0.17688322 0.011356299 -0.0531928 -0.21245195 -0.5658182
-0.44724265 -0.15910488 -0.15499075 -0.11410292 0.06502471 -0.40411353 -0.04056356 -0.13307425
-0.48431778 -0.3093918 0.064748116 -0.29999423 -0.0010408047 -0.50300366 -0.6596029 -0.330699
-0.28749153 -0.04617036 -0.2660972 -0.22321257 -0.5405946 -0.12178326 -0.059285033 -0.63492423
-0.25351366 -0.19362871 -0.34167233 -0.28327903 0.05713441 -0.27466393 -0.25827205 0.101364315
-0.07789831 0.0029239808 -0.03933728 -0.30961528 0.017164292 -0.32057804 -0.29358807 0.0102627035
0.1494135 -0.12035299 -0.123531215 0.14582632 -0.19215871 0.18963873 -0.061373807 -0.21021758
-0.11731377 -0.52394146 -0.041458603 0.028529482 -0.20185229 0.16858181 -0.034335867 0.16164213
-0.06805991 -0.2357578 -0.34893972 -0.3138796 -0.1643468 -0.26780534 -0.4762991 0.13740942
-0.18868457 -0.5303439 -0.09817362 -9.983611e-05 -0.17623328 -0.13288428 -0.15532275 -0.30686098
-0.29150155 -0.031192603 -0.32746208 -0.17222834 -0.20612666 -0.12521014 -0.10613587 -0.4757662
-0.31844482 0.20109841 -0.08163647 -0.2875427 -0.11167798 -0.6500267 -0.08634275 -0.07322297
-0.27681142 0.059956133 -0.1469592 0.503372 -0.46029952 -0.25797248 -0.031731054 -0.4181487
-0.1775879 -0.5721173 0.05223112 -0.44329384 -0.13357896 0.0996774 0.18394062 -0.19022036
-0.32003132 -0.0057935514 -0.03924013 -0.16331705 -0.06363978 -0.16980354 -0.063206 -0.33226204
-0.112798534 0.18964463 -0.43281513 0.043748952 -0.25288734 -0.19427003 -0.003693821 -0.43151277
-0.05658147 -0.053533327 0.042231 -0.16601087 -0.21725641 -0.13396898 -0.11564958 0.025250385

fc_layers.1.bias f4 [84]
00000000: 1ce6 4abe 2eef fabd 86bb 1fbd c715 b5be
00000010: 980d a8bd 1aa3 633e b4fb c73f 8c4b 2240
00000020: 2758 12bf bdf1 a6be 4115 21bf 05d5 d1be
00000030: 80fc 8ebe 3039 453e f008 2a3e 090e 87bf
00000040: b41c 43be 9484 093f 1f77 0d3f 2813 7bbe
00000050: dd33 77bf cc0e b4be f5ff 2abe 261b 713f
00000060: 39c5 afbe 9407 d73f 75be 3cbf 30da 62be
00000070: ec24 3fbf 0b72 91be 6d77 a63e 8df5 eb3e
00000080: c600 5bbe 3177 d53d b90d 9ebf ebe9 eabe
00000090: 37fd a63f 60a4 49be a78c d1bd 0f57 6abf
000000a0: 04d5 05bf e07f debe 86e0 39bf b198 4b3f
000000b0: 70b0 1ebe 67c3 a3bd 3bf5 203e cd95 163f
000000c0: 25ae e9be 976e 873e 2b50 cbbe fbe7 05bf
000000d0: 2f70 b63e 1c49 da3f 6f33 8f3f 3c9f 86bf
000000e0: e67d 323d d3d9 05bf eeae 333e bb8c 7fbe
000000f0: 0215 8dbe 3d47 1b3e 78c6 9fbe 11d6 62bd
00000100: d270 01bf 2d34 2dbf 6888 e53d 1f40 543d
00000110: 9d20 1a3f c0e0 4c3f 25b4 40bf 98cc b5be
00000120: 0568 bebe 7329 a4be ebb3 8e3f 599a 84bf
00000130: 5919 00bf 62a9 933e 04ad b1bd 5802 59bb
00000140: c83f 923d 1c7c 343f 5218 c0bb 30cf a43d
-0.19814342 -0.12252651 -0.038997196 -0.35368177 -0.08205718 0.22230187 1.5623689 2.535861
-0.5716576 -0.32606307 -0.62923056 -0.40982834 -0.27927017 0.19260097 0.16604972 -1.0551158
-0.19053918 0.53717923 0.5525989 -0.24519026 -0.9656351 -0.3516754 -0.16699202 0.9418205
-0.34330156 1.6799188 -0.73728114 -0.22153544 -0.74665713 -0.2840732 0.3251299 0.46085778
-0.21387014 0.104231246 -1.2347938 -0.4588159 1.3046025 -0.1969161 -0.102319054 -0.9153909
-0.5227816 -0.43456936 -0.7260822 0.79529864 -0.15496993 -0.079962544 0.15718548 0.5882233
-0.45640674 0.2645156 -0.397096 -0.523071 0.35632464 1.7053561 1.1187571 -1.0517344
0.043577097 -0.522855 0.17547199 -0.24956028 -0.2755509 0.15163894 -0.31206107 -0.05537993
-0.50562775 -0.6765774 0.11207658 0.051818963 0.60206014 0.8003044 -0.7527488 -0.35507655
-0.37188736 -0.32062873 1.1148657 -1.0359603 -0.5003868 0.28840166 -0.08675578 -0.003311297
0.071410716 0.70501876 -0.005862274 0.080473304

output_layer.weight f4 [10, 84]
00000000: 46ab 373c 4bb2 07be 8641 823c a7d1 a8bc
00000010: cf0b 443d 1b29 343e c69a 2c3d 2377 ef3d
00000020: 3285 773d c617 cf3d 0c6e 2e3e d4c1 ea3c
00000030: 42d6 b0bd dfee 8a3d 859a ac3d bb02 6b3d
00000040: 5702 c9bd 1639 c6bc 4a7a 9abd 5afc 573d
00000050: cfd3 783e f334 75bd 583b 07bd 1741 2c3d
00000060: cbbf 9abd 015c ae3c 7f1d 293e 1659 f13d
00000070: 50f0 4c3e 901a 663e c3d3 72be 3fe9 e7bc
00000080: 129d 33be c976 553d e9e5 203d a880 0cbd
00000090: e706 7cbd e5b4 633e 4af0 23bd f102 363e
000000a0: 954b f13d 3959 393e 2a7d 01bd 511e f7bd
000000b0: 8f9d 51be 4844 1a3d b700 73be 1e49 673d
000000c0: 0382 fe3c 5c21 00be 632b 46bd e535 12bb
000000d0: f185 c1bd 2bd0 08be 5545 ecbc 6f0b 1cbd
000000e0: 21b2 40be 6207 553e 9c55 f13d de04 eabc
000000f0: 7335 2c3d 0a09 8a3e 554b bf3b 3f0e 10bc
00000100: b101 553e aa60 0cbc 6f07 693d 7b06 fabd
00000110: 5a63 9bbd f380 eabc 0f58 e0bc 1ae9 8fbb
00000120: 17aa 173e a4bb 243d 9413 e3bd 4604 813c
00000130: a336 203c 9348 3c3d f78d 1dbe b0bc 54bc
00000140: 283b 0ebd 5b2a 3fbd c418 f4bd 4d7f 003e
00000150: 84b3 733d 2bc8 e83c 8acc 6d3d beba 3bbe
00000160: 67d7 24be 6e93 273e f1c8 9b3c 46b5 efbd
00000170: 7e06 6e3e 9c97 ab3e 5586 cabc 9f26 2cbc
00000180: 7a64 8abd 7f87 0cbe cf9f a9be f200 a0bd
00000190: e99c f2bd 4c5a 163e 19f2 0cbe 7f51 013d
000001a0: 492d d0bd 702d ad3b 8724 7fbc 5db9 923d
000001b0: 373c 3b3e aa7e 34be 35ea e33c 5e98 113e
000001c0: 6023 773d 3e1d f23b 1c7a b73b d88b 98bb
000001d0: a4bb 88bd e5ee 64bd 2c6d 133e 6e1d ea3d
000001e0: ab0f 1dbe 77fa ba3c dc63 debd d0fa 173d
000001f0: ff07 893e dfc4 b4bd 6626 4f3e 387a 10be
00000200: 5465 9cbd fdee adbc 4c95 f8bd 91fc 833d
00000210: 1c05 58be 41d3 98bd cce5 c6bd a001 03bc
00000220: f4e5 983c 387f 11be 67d6 a9bd 78a3 4a3e
00000230: b347 86be 46ad 0d3c d2ce 40be 7f90 aabd
00000240: 9404 5fbb 5445 4e3c 6249 99bd 297d b83d
00000250: 120d 81bd 0bfd 0cbd 8a35 88bd fde3 a23e
00000260: ee2c 20be ad9e abbd a64a 6cbe b7a5 06be
00000270: adb1 7bbd 49a9 3bbe b620 14be 76a9 fb3e
00000280: 901c 9dbd 49bc 4fbe 33d6 0cbd 5d83 69be
00000290: 8baa 63bd 3a78 10bd 284b 743c 026c 3e3c
000002a0: a857 ba3c 19a3 233d 3c9b 91bd 7f72 4e3e
000002b0: b723 c43d 9fca aa3c e7ae 88bd ef9f f9bd
000002c0: 6286 c83c f608 03be 6025 4d3d 216d 98bd
000002d0: aad3 3a3e fece 6a3e 75bd 833e d7e6 6a3e
000002e0: 4748 b63c 07ab 91bd 5d9a 213c 86a4 733d
000002f0: 373d eb3d e4e0 043c 0d79 113c 8ce1 6ebc
00000300: 6553 253e 9ac5 263e 3f22 303d 5c48 183c
00000310: a0e5 ec3b 93aa 0d3d af23 16bc 3789 f6bb
00000320: cf6c a83d 7dae 8ebd 8979 36bd 6261 6d3e
00000330: 3d00 063e fa9e 123d 1898 7e3d c055 70bc
00000340: f5bd 9ebc c839 8e3d bbed 51bd 30ca a03d
00000350: 6c84 de3d bf4d 96bc 566a 9abb bedc a6bd
00000360: 0eaf 343c fb9d c33c f0f8 453c a57e 93bd
00000370: 0874 cdbc 8685 753d a251 ef3d d1c9 12be
00000380: 79dd 0c3e 2902 6ebd e1a4 233c 13d9 7bbc
00000390: 25c3 503d ff57 a03d c047 493e 3ffc 85bd
000003a0: ab1d 163e ea7d 783e 0150 89bc d35e 18bd
000003b0: 495a ddbc c65a 133d 0bfc 0d3e 3b5a cfbd
000003c0: c070 833b b1e5 2b3e 9bcf 683c 8115 b8bd
000003d0: e6fa 06bd 9580 bfbd 44d5 b9bd cf59 d73d
000003e0: ec0e 933d 65c2 053e c64a 293e f08e 463d
000003f0: 5577 403e 5a35 713e 5ba2 473e 42e5 013c
0.011210268 -0.13251607 0.015900385 -0.020607783 0.047862824 0.17593805 0.04213979 0.116926454
0.06042976 0.10111956 0.17034167 0.028656878 -0.086346164 0.06783842 0.0842791 0.05737565
-0.098148994 -0.024197143 -0.07542856 0.052730896 0.24299549 -0.05986495 -0.03301558 0.042054262
-0.07556113 0.021284105 0.16515158 0.1178457 0.20013547 0.2247107 -0.23713593 -0.028309463
-0.17540386 0.052115235 0.03928176 -0.034302384 -0.06153002 0.22236975 -0.04002408 0.1777456
0.11781994 0.18100442 -0.031613506 -0.12066329 -0.2047026 0.037662774 -0.23730741 0.056466214
0.031067854 -0.12512726 -0.04838122 -0.0022309956 -0.094493754 -0.1336066 -0.028841654 -0.03809684
-0.18817951 0.20803598 0.11783907 -0.028566774 0.04204316 0.2696002 0.0058378377 -0.008792459
0.20801426 -0.008567968 0.056891855 -0.12208267 -0.07587309 -0.02862594 -0.02738574 -0.0043918015
0.14810978 0.04021801 -0.110877186 0.015749108 0.009778651 0.04596765 -0.15386187 -0.01298444
-0.034724385 -0.046671253 -0.11918786 0.12548561 0.05949737 0.02841576 0.05805639 -0.18332955
-0.16097794 0.16364834 0.019016715 -0.11704497 0.23244664 0.33514106 -0.024722258 -0.010507255
-0.06757446 -0.13723563 -0.33129737 -0.0781268 -0.118463345 0.14682883 -0.13764228 0.03157186
-0.101648875 0.0052849576 -0.015572674 0.071642615 0.18284689 -0.17626444 0.02782164 0.1421828
0.06033647 0.00738874 0.0055992734 -0.0046553425 -0.066764146 -0.05589189 0.14397115 0.114313945
-0.15338008 0.02282451 -0.108588904 0.037104428 0.26763913 -0.08826613 0.20229492 -0.14109123
-0.07636514 -0.021232123 -0.12137851 0.064446576 -0.21095699 -0.074621685 -0.09711799 -0.007995993
0.018664338 -0.14208686 -0.08292847 0.19788921 -0.26226577 0.008647269 -0.18828896 -0.08328342
-0.0034029828 0.012589771 -0.074847 0.090082474 -0.06301321 -0.034421008 -0.06650837 0.31814566
-0.1564214 -0.083798744 -0.23075351 -0.13149153 -0.06144874 -0.18326296 -0.14465603 0.49152726
-0.076714635 -0.20286669 -0.034383964 -0.22804017 -0.055582564 -0.035270907 0.014910497 0.011622431
0.022746876 0.039950464 -0.07109687 0.20160864 0.095771246 0.02084857 -0.06673985 -0.12188708
0.024478141 -0.12796387 0.05008447 -0.0744269 0.18244806 0.22930524 0.25730482 0.22939621
0.022251261 -0.07112699 0.009863463 0.059483074 0.11486285 0.008110259 0.008878958 -0.014580142
0.16145094 0.16286317 0.04300141 0.009294596 0.007229522 0.0345865 -0.009163781 -0.0075236815
0.082238786 -0.06966875 -0.0445495 0.2318168 0.13086028 0.035796143 0.062156767 -0.014668882
-0.019377688 0.06944615 -0.051252108 0.07851064 0.10865101 -0.01834762 -0.0047123833 -0.08147572
0.011028064 0.023879042 0.012083277 -0.0720189 -0.025079742 0.05994179 0.11685492 -0.143348
0.1375636 -0.05810753 0.009988041 -0.015371579 0.050967354 0.07829284 0.19656277 -0.06542253
0.14659755 0.24266782 -0.016761782 -0.037199806 -0.02702059 0.03597524 0.13865678 -0.10124632
0.0040112436 0.16786839 0.014209653 -0.089884765 -0.03295412 -0.09350697 -0.0907388 0.105151765
0.071805805 0.13062437 0.1653243 0.04847616 0.18795522 0.23555508 0.19495527 0.0079281945

output_layer.bias f4 [10]
00000000: f880 36be e14e e8be cb38 603c 4d59 2b3f
00000010: 5c21 cc3d 0a35 643e c887 cfbe 2776 cabe
00000020: 5c77 af3c bf54 2e3d
-0.17822635 -0.4537268 0.0136854155 0.6693314 0.099673 0.22285858 -0.4053328 -0.39543268
0.02141922 0.04256129
