Lab1/model/model_CIFAR10/conv_params_c1_12.pth (torch, 263364 bytes, 10 tensors)

conv_layers.0.weight f4 [12, 3, 5, 5]
00000000: 0eb9 15be 9903 9ebd 69c3 d43e 456e 38be
00000010: 38a5 0e3d f6fd f53c 6a58 093f c894 98be
00000020: b887 40bd 38b1 eb3d 12f9 ccbe ac4c ff3e
00000030: 077d b33e f46c 0dbe 863f 233f 1fcd 0ebf
00000040: b527 2cbf d2e7 433f 34bc 8d3f 1182 cf3c
00000050: a2ac 98be c696 8abe d5dc ee3e 7050 7b3e
00000060: 07d9 e83d e855 d03e 1dc5 33be 1e30 e9be
00000070: d313 36bf 051c 673d 4aca 35be 4f05 153d
00000080: 0815 09bf 77fe e23d df9e 1d3e 964b 93bf
00000090: 23e8 05bf 821f c9be d662 003d 86fb 673f
000000a0: 1615 12bf b721 3fbf bbaa 52be 2b6a 893f
000000b0: 0900 3b3f 2bb6 0cbf 3ece c2be 5e65 80bd
000000c0: 7513 94bd 3ed1 343f 8023 9c3e b36a 0d3f
000000d0: 2ce7 013e c160 6abf ba09 abbd c585 e6be
000000e0: 5b7b d13e bd03 2e3e 15ee b43e 3a33 b7be
000000f0: 7631 5cbf 6b71 e0be 8ec3 623e 36b5 d73e
00000100: e333 0c3f fedc 14bf a682 b8bf e887 9cbd
00000110: 221d 883f 13ac a9bc 000d b6be 3a67 3fbf
00000120: 1937 003e 1022 1f3f ac71 fd3e c8ee 3abf
00000130: bf9d 0ebf 2a3a dfbe 9f4a 2b3f 582f c03e
00000140: 7449 f03c cfc0 64bf b74c 6fbe 5007 32be
00000150: 349f 8c3d 4e6f 74bf 17cb 8bbf 7325 1dbf
00000160: 6342 483e e365 083f fc6c 2abf 2229 27bf
00000170: b78e 68bf bc9c 52be 6c0a f13e 39bd edbe
00000180: 40db 9bbf 312d 38bf 8f36 003e b4ee 1b3f
00000190: 20f7 68be 3d23 b73e 8e70 bdbe 2bda 833e
000001a0: 110f 183d 87d2 2e3f 6aa6 5f3e 0775 213f
000001b0: 3bc7 e13d 1366 85be ed3d f8bd 8db2 973e
000001c0: 706c 273f 3d87 9f3e 50f8 3bbe 2ee6 04bf
000001d0: 19a6 123f 0cdb d2bb b687 acbe d989 f8be
000001e0: 3d75 59bf 2f23 b8be a1d3 8a3e 893c f63e
000001f0: 5ac1 1d3e 1941 3abf 7293 9bbd a672 dfbe
00000200: ef75 a83d ab15 e5be b5dc 813f 747f 823f
00000210: 07b0 983f 5351 a53e 181b 08bf 1d9a 943e
00000220: 335b 743f 6c64 8c3f f9ed 293f 9149 06bf
00000230: f4dc 4a3f b0e6 a13f 5aa9 373f 9908 b73c
00000240: 1b37 68bf f80d e43e 626e 543f 9bb8 5d3f
00000250: d9f1 fc3e 3467 4abf 2047 8b3e 2ac0 8b3e
00000260: 2341 c4be 128d 803f e020 203e c955 aabe
00000270: 5634 083f c0a0 253f 618b 8b3f 5a7a fcbd
00000280: 0658 56bf 9edf c1bf 4035 27c0 0791 d2bf
00000290: 803a d3bf be65 2e3f 192d 833f 8afb 41be
000002a0: 0284 333f 9aff cabc e333 913c 2b96 1d3f
000002b0: a0b7 8a3e 159e 7f3f 4f63 ba3e 8819 7bbe
000002c0: d762 033f 67e9 6ebe 9c61 9b3e 8113 563e
000002d0: bfc2 57bf a7d2 4c3f 7e32 513f fb43 923f
000002e0: d687 b03e df22 83bf 76c1 b4bf 8985 18c0
000002f0: 405c a0bf 027d 58bf ce2d 393f 6843 353f
00000300: cdf5 d9be 9f1d 003e dfe1 42be 8df1 653f
00000310: 2a21 953f 9ca0 1d3f 0f30 203f 2e3c aebb
00000320: 9f9d 3e3e 30ef 0cbe c830 abbf 63df f5be
00000330: c70f 7dbe b49e 233f 35a9 db3f ecdd c13f
00000340: 6e6b d83f c11f 853f 2032 2bbf c8cf 89be
00000350: fb4b 82bf 7d58 9bbe 8d2e b6be 3cb8 abbe
00000360: 83b7 e43e 87e0 5c3e 4042 9d3e 4dcd bc3d
00000370: 66e6 65bf 269f 39bf cce6 21bf 8c09 9fbe
00000380: 0dcb 4cbe cefc 38bf 742b 14bf 39d8 b03f
00000390: 65f0 8c3f fa69 47be f04d 21bf ce68 ac3f
000003a0: 2ea1 e63f 7e90 d0bf c76b 8cbf abd5 0a3f
000003b0: 8094 c03f e9d7 5abf dd1a f3bf dc42 983f
000003c0: 98b8 383f cfcd 123c 82d1 b4bf 3e23 633f
000003d0: e48a b6bd 6cf3 fb3e 5bc4 28be c6c4 86be
000003e0: 8fc3 e9bc 2447 8cbe 28a8 853f c9be fdbd
000003f0: 68f0 553f 7dcf ae3c db5b e3be edba ef3d
-0.14621374 -0.0771553 0.41555336 -0.18010814 0.034825534 0.030028325 0.53650534 -0.2980101
-0.04700443 0.11508411 -0.40033776 0.49863183 0.35056326 -0.13811094 0.63768804 -0.5578174
-0.6724809 0.76525605 1.107306 0.025330575 -0.29819208 -0.27068156 0.46652856 0.24542403
0.1136952 0.4069054 -0.17555661 -0.45544523 -0.71124 0.056423206 -0.17752948 0.036382016
-0.53547716 0.110836916 0.15392636 -1.1507442 -0.5230734 -0.3928185 0.031344257 0.9061817
-0.57063425 -0.7466082 -0.20572941 1.0735525 0.7304693 -0.54965466 -0.38047975 -0.06269334
-0.07230274 0.7063178 0.30495834 0.55240935 0.12685841 -0.91553885 -0.083514646 -0.45023933
0.40914425 0.16993614 0.35337892 -0.3578127 -0.8601297 -0.4383653 0.2214491 0.4213044
0.5476667 -0.5814971 -1.4414871 -0.076431096 1.0633891 -0.020711934 -0.35556793 -0.74766886
0.12521018 0.6216135 0.49500787 -0.730206 -0.5570945 -0.43599063 0.6691074 0.3753612
0.0293319 -0.893567 -0.23369108 -0.17385602 0.06866303 -0.9548234 -1.0921353 -0.6138527
0.19556575 0.53280467 -0.66572547 -0.6529714 -0.90842766 -0.20567602 0.47078264 -0.46433428
-1.2176285 -0.71943957 0.12520812 0.6091111 -0.2275052 0.35769072 -0.36999935 0.25752386
0.037123743 0.6828999 0.21840826 0.63069195 0.11024328 -0.2605444 -0.121211864 0.2962841
0.6539984 0.31157866 -0.18356442 -0.51913726 0.57284695 -0.006434804 -0.3369729 -0.4854267
-0.84944516 -0.35964343 0.27114585 0.4809306 0.15405789 -0.7275558 -0.07596482 -0.43642157
0.08225619 -0.44743094 1.014548 1.0195146 1.1928719 0.32288608 -0.5316634 0.2902383
0.9545166 1.0968146 0.6637874 -0.52456003 0.792434 1.2648525 0.71742785 0.022342967
-0.90709084 0.44541907 0.8298093 0.8660981 0.49403265 -0.79063725 0.27202702 0.27295047
-0.38330945 1.0043051 0.15637541 -0.33268574 0.5320486 0.6469841 1.090191 -0.12328024
-0.83728063 -1.5146368 -2.6126251 -1.6450509 -1.6502228 0.68123996 1.0248138 -0.18943611
0.701233 -0.024780083 0.017724937 0.61557263 0.2709322 0.9985059 0.3640389 -0.24521458
0.5132269 -0.23331223 0.30347908 0.20905878 -0.84281534 0.8000893 0.8171767 1.1426996
0.34478635 -1.0245017 -1.412154 -2.3831503 -1.2528152 -0.84565747 0.7233552 0.7080598
-0.42570344 0.125113 -0.19031475 0.898217 1.1650746 0.61573195 0.6257333 -0.0053172326
0.18614815 -0.13763118 -1.3374262 -0.48021993 -0.2471305 0.63914037 1.7161013 1.514585
1.6907785 1.0400316 -0.6687336 -0.26916337 -1.0179437 -0.3034095 -0.3558239 -0.33538997
0.44671258 0.21570025 0.30714607 0.092188455 -0.89804685 -0.72508466 -0.63242793 -0.3106197
-0.19999333 -0.7226075 -0.57878804 1.3815986 1.1010863 -0.1947402 -0.6300955 1.3469484
1.8017938 -1.6294096 -1.0970391 0.5423228 1.5045319 -0.854857 -1.8992573 1.1895404
0.7215667 0.008960201 -1.4126437 0.8872565 -0.0891321 0.49209154 -0.16481154 -0.26322
-0.028535632 -0.27398026 1.0441942 -0.12389905 0.83569956 0.021339172 -0.44406018 0.11705575

conv_layers.0.bias f4 [12]
00000000: f226 d6bf 6d23 36be 68af b9bf 26ff bcbf
00000010: 60f4 c3bf 4bd6 b3bf dd4a a7bf e965 f2bf
00000020: 8c07 75c0 19fa adbf eea1 f8bf db40 e2bf
-1.6730635 -0.17786951 -1.4506655 -1.4765365 -1.5308952 -1.4049772 -1.3069721 -1.893735
-3.8285856 -1.3591949 -1.9424417 -1.7676042

conv_layers.1.weight f4 [16, 12, 5, 5]
00000000: 6759 61bf 241d 97be 58c1 86bf 2d15 36bf
00000010: b67f 353f 1eb9 01bf 1643 a8be 6ff5 0cbf
00000020: 702f 303e eafb 68ba ecb4 4abf bd97 a3be
00000030: 4373 0abe d716 dfbd 6ea0 c73e 0724 253e
00000040: 08b1 ebbe 6c95 16bf f221 7abd 6dd9 9d3d
00000050: 4548 87be aa99 563e e0dd 9b3e 32ae a8be
00000060: 7905 1d3f e0d1 0f3f fee9 a5be 28b3 453e
00000070: 4fc9 e13e f515 673e 5e2a 0ebf 3cbd 3dbe
00000080: 812d 0bbf 1c0a a1be 7efc e33e 71c0 81be
00000090: cd2a d33c 7687 47be b307 943e a658 d83e
000000a0: 5feb 433e 811f 193e 57d8 b43d f4b1 2f3f
000000b0: f6fd 8fbe ea57 e43e a4af 9d3e b433 8d3d
000000c0: 3b20 4bbe 06a2 11bf 94fa 8a3d 233f d8be
000000d0: 64d9 9e3e 7006 afbd bcf8 24be 1d21 6bbe
000000e0: 72e7 233f 7591 c43e b7b3 4f3c 8a39 56bd
000000f0: cebe 9b3e 37e3 eb3d 8949 5bbe 9a59 14bf
00000100: fd0c 593e bf7f f73e 0ef7 103e 6521 da3d
00000110: d64a cd3c 5e43 f73e aecf c03e 7cc3 50be
00000120: a413 95bd 804a b43d 15fb b03c 7d77 7cbd
00000130: 9c42 423d f8b6 1dbf a951 06bf 2eb1 81bd
00000140: efdf 24bf 8b4a a6be 9d99 14bf 4d4f 5f3e
00000150: a9f0 463f ddad 8bbf f0b1 7bbf 3922 abbf
00000160: a300 52bf be64 a73f 94f8 c5bf 7083 4abf
00000170: cd7a 44be 662c 8b3e 2c41 033f 45f2 3a3e
00000180: 1ee9 d9bd 1e55 d3be e267 703f f946 ae3e
00000190: 3a7b 7bbd 7f55 70be f8d3 bc3e 4548 6b3d
000001a0: 4abe 8d3e a324 533e bfde b6bd e1cd 173e
000001b0: f0f4 b23e 844f 78bd 3097 3a3d 0647 e43d
000001c0: 451f 9ebd 0517 d9be 25aa 653e c3c2 b2bd
000001d0: 3c19 103c a2df 343c c2b2 d03e b739 593f
000001e0: 9f71 df3e 2190 97be 8dba 883e 1d8b 81be
000001f0: 928e 183e de1d 4fbf a6fc aebe c06c f0bd
00000200: 1563 42be ee25 dbba 5145 0abf 7dea 87bf
00000210: 81b6 a4bf a8de 4cbf 6e61 6abe bdf6 09bf
00000220: f835 c7bf 179e d9bf 005b 80bf 2523 d9bd
00000230: 7789 8ebe 8fe8 8ebf 784a adbf 41bb 94bf
00000240: 0938 efbe 153a 19be 7f21 32bf 51b3 38bf
00000250: 3200 193f 8337 a83e fb27 bf3e 2675 afbc
00000260: 1790 fdbe 4f48 fdbd d9bb 3d3e 2094 9abc
00000270: cb41 b4bd 3df5 adbe 77a3 29bf 23aa 133d
00000280: b09b d33e f099 afbe 3b51 cebe bccc c7bd
00000290: 95a5 d73d 9527 943f 6122 913e 6bc5 2dbe
000002a0: 6643 b0be c4ee 15bf 560e 52be 6e6f 5bbf
000002b0: 8aa4 7fbd e3be 00bf 61b9 0b3f 2e8f d9be
000002c0: a318 f0be a901 543e 854f 6a3f f509 883d
000002d0: cb75 7d3c 0292 4a3c a80f 893d 0252 30bd
000002e0: 3381 a73e 5709 2abd 62c1 58be 8dc1 9abe
000002f0: c0a2 5bbf 03ab a0be 9de4 8a3e fa66 2e3d
00000300: e361 43bf d8f2 a5bf f679 febc 7ec4 703f
00000310: 1227 59be 166a d43c 1839 4d3e 08ed 87bd
00000320: d09d d63e 3b7e 1cbe 4266 6dbf 5260 ffbe
00000330: eb8d 6dbe 1662 28be 9512 f4bd e26b 253e
00000340: f155 51be 81e3 80be 8115 453e 5bd4 b9bc
00000350: 0277 fcbe cf54 14be 9e4d c2bd b7e0 da3e
00000360: 24ac e93e a4b8 643f 7d3e 8a3e 9dab 183f
00000370: 5b15 4dbe 90fe c73c 0dd9 c4bd e6dd 98be
00000380: 8388 11be 1bc6 98bd b372 2c3d 690a a0be
00000390: 87d6 4bbe ce09 773e 532e 5abe 592c c83d
000003a0: aa9d 7cbf b97b 813e 2b0f 9ebe 8ad3 42bf
000003b0: 0151 52bf 98a8 63bf be7b 8abe 669f 62bd
000003c0: 7731 d7be 505d 743e 5d74 623f c865 883e
000003d0: d285 893e 2544 263f e403 b2bd 91f2 453e
000003e0: df26 52be ca49 243e 8426 e2be 9d87 953e
000003f0: 0fd3 16be c391 f6be 0c3e cb3e ef09 903f
-0.8802704 -0.2951442 -1.0527754 -0.7112606 0.70897996 -0.5067309 -0.32863683 -0.55062
0.17205596 -0.0008887636 -0.79182315 -0.31951705 -0.13520531 -0.10893028 0.38989586 0.16127025
-0.46033502 -0.5882175 -0.06106753 0.07707486 -0.26422325 0.20957056 0.30442715 -0.329454
0.61336476 0.5617962 -0.32405084 0.19306624 0.440989 0.2256697 -0.555334 -0.18529218
-0.5436631 -0.31453025 0.44528574 -0.25342134 0.025777245 -0.19485268 0.28912124 0.42255133
0.19132756 0.14953424 0.08830326 0.6863091 -0.28123444 0.44598323 0.30798066 0.06894627
-0.19836514 -0.56887853 0.06786075 -0.4223567 0.3102523 -0.0854615 -0.1611051 -0.2296185
0.6402503 0.38392225 0.012677125 -0.052300967 0.3041901 0.11517947 -0.2141477 -0.5794922
0.21196361 0.4833965 0.14156744 0.10650901 0.025060099 0.48293585 0.37658447 -0.20387071
-0.07279137 0.08803272 0.0216041 -0.06163739 0.047426805 -0.61607313 -0.52468354 -0.063326225
-0.64404196 -0.32478747 -0.58046895 0.21807595 0.7771097 -1.0912434 -0.98318386 -1.3369819
-0.8203222 1.3077619 -1.5466485 -0.7910681 -0.1918747 0.2718231 0.5127132 0.18256481
-0.10640167 -0.41275877 0.9390851 0.34038523 -0.061396815 -0.23470114 0.3688047 0.05744197
0.27684242 0.20619445 -0.08929204 0.1482463 0.34952497 -0.060622707 0.04555434 0.11146359
-0.07720808 -0.42400375 0.22428186 -0.08728554 0.008795079 0.011039646 0.4076138 0.8485369
0.43641374 -0.2960215 0.26704827 -0.25301448 0.14898136 -0.8090495 -0.3417713 -0.117394924
-0.1898311 -0.0016719678 -0.5401202 -1.0618435 -1.2868196 -0.80027246 -0.22888729 -0.5389212
-1.5563345 -1.700137 -1.0027771 -0.106024064 -0.27839252 -1.1164721 -1.3538351 -1.1619645
-0.4672244 -0.14963563 -0.6958236 -0.72148615 0.59765923 0.32854852 0.3733519 -0.021418165
-0.49523994 -0.123673074 0.1852869 -0.01886946 -0.088016115 -0.33976164 -0.6626505 0.036050927
0.41329718 -0.34297132 -0.4029635 -0.09755847 0.10529629 1.157458 0.28346542 -0.1696984
-0.3442642 -0.5856745 -0.20513281 -0.85716903 -0.062412776 -0.5029127 0.5457974 -0.4249205
-0.46893796 0.20703758 0.9152759 0.06642524 0.015469979 0.012363913 0.06692439 -0.04304696
0.3271576 -0.041512813 -0.2116752 -0.30225793 -0.8579521 -0.31380472 0.27127543 0.042578675
-0.7632124 -1.2964735 -0.031064015 0.94049823 -0.2120631 0.025929492 0.20041311 -0.06637007
0.41917276 -0.15282528 -0.9273416 -0.49878174 -0.23198669 -0.16443667 -0.11917607 0.16154435
-0.2044294 -0.25173572 0.19246484 -0.022684267 -0.49309546 -0.14485477 -0.094874606 0.4274957
0.45639145 0.8934424 0.270008 0.5963686 -0.20027678 0.024413377 -0.09611712 -0.29856795
-0.14212231 -0.074596606 0.042101573 -0.31257942 -0.19906054 0.24124834 -0.21306734 0.09774084
-0.98678076 0.25289705 -0.30870947 -0.76104033 -0.8215485 -0.8892913 -0.27047533 -0.055327795
-0.42029926 0.23863721 0.88458806 0.26640153 0.2685991 0.6494773 -0.08692148 0.19330813
-0.2052264 0.16043773 -0.4417001 0.29205027 -0.1472895 -0.48158082 0.39695776 1.1253031

conv_layers.1.bias f4 [16]
00000000: 1afc af3f 912d 01bf 9386 01c0 b6fc cabf
00000010: dc73 b4be 7af4 b53f 0196 f6bf f305 56c0
00000020: 8620 37c0 ef91 af3f bf0b 6440 dcec 2840
00000030: ff70 d4c0 cee3 2b40 e275 a03f 22af 43bf
1.374881 -0.50460154 -2.0238388 -1.5858371 -0.35244644 1.4215233 -1.9264528 -3.344113
-2.86136 1.371641 3.563217 2.6394567 -6.6387935 2.685779 1.2535975 -0.76439106

fc_layers.0.weight f4 [120, 400]
00000000: 5885 2a3e 21d6 64be 6956 fe3e 5893 94be
00000010: 5bcd d7be 1118 e8be 5b05 7bbe 75b2 d5bd
00000020: 1ba0 89be b9a0 5e3d 125b 50bf 5190 26be
00000030: 83f7 613d 4339 1dbf 4fbe 64be 59f2 aebe
00000040: 360a cfbe 945f 07be 76e0 11bf 4e2c 48bf
00000050: 53f2 5fbe 4a98 ab3d 59ac 633e 0d45 32be
00000060: 9528 0ebf 89cf cdbd 53c4 183f 738f d8bd
00000070: 5b62 003f 66c9 e03d 3ebc 1bbe 12b0 10bd
00000080: 6d09 9c3e 70d1 6f3d ab9e 313d 1699 5fbe
00000090: 3b04 f1be b156 bb3d b6c8 b23d 91a6 eabd
000000a0: 8743 8abe d7fe 4e3e 3dbe b33e 58a4 0bbe
000000b0: 546d 73be f8d2 9dbe 7453 b43e 77d3 d7be
000000c0: 033c e63c 9142 503e cf1c b5bc dabe 2ebe
000000d0: 37f6 883e 6931 533e 4895 00be ed7f bebe
000000e0: beec 273f c046 803e c476 29be 1ec3 cebe
000000f0: 5c48 d93e 6b4a 0e3f d069 eebd a2ef e0bd
00000100: cf93 b13b daed 153e 19e7 9b3c a06f b1be
00000110: d0e5 943e 9310 d73d a038 e2bc 2df4 003e
00000120: 4549 0abe c219 16be 47e5 213e 9f88 3a3e
00000130: f6e7 e73e 1288 18be 1286 96be c6dc ccbe
00000140: ba90 82be f9e6 9f3e 9a5f 9fbd d5d7 61be
00000150: 4df7 91bd b804 cebe a7b7 b5be 370e fc3a
00000160: 6850 013e 98b1 15be 05c8 1d3e 2328 093e
00000170: f5a4 233c 78be ac3d ee91 383d 99be d9bd
00000180: 42fa eebe af7b 4d3d fe25 bfbd f8a0 b8be
00000190: cb28 5fbe 7acb 9bbe 7712 f63d 09ec c93c
000001a0: 0ec9 c8bd 7fdb 19bf 536e 80bf 77f5 f0be
000001b0: b147 a3be 18c4 c43e dad0 48bf 7e84 72bf
000001c0: dcc3 b9be ed63 ccbe d614 b03d 492b 9fbe
000001d0: 8167 f0be 0bc2 9abe a1b2 423e 5d36 bfbe
000001e0: 213e f5be a425 023f 0edf 803e 0132 a43e
000001f0: dd68 9dbe 521f 94bc 8dbc 4e3e ef55 963c
00000200: ff4d 78be 42f0 cfbe c9f9 62bb f0ca 013e
00000210: 0bd1 003e 2396 79be e3b4 9fbc 499f 18bf
00000220: cc6d d43d ac22 b13d fd05 39bf 918c 2cbf
00000230: c7ec 893d 72de 943d 1faa 573e 6bee 873e
00000240: 6ca2 85be 213c b9bc b253 8a3e 69dd 3a3e
00000250: f73c b23e d449 433e 5191 c8be 2f24 56bf
00000260: ec1f 0d3d f583 a53d fba1 8d3d dcc8 fcbd
00000270: 374b 2d3d b4eb 273f cadd e13e ffdd 6dbc
00000280: d081 aa3d a74c 363e 1143 c8be 2ab0 04bf
00000290: c81e 7dbb 2b6d 04bf 6ec6 b13e 33ca 6b3d
000002a0: 640d b33d 545e 6bbd 0735 ecbe d38c 7fbe
000002b0: d06a 09bf 7f32 ecbe 5b84 dbbe a0ea bcbe
000002c0: aebf 9dbd 86ed 84bd 14e8 2bbf 02ab 833e
000002d0: c03e 9dbe 515e 013f 74a6 ab3e e716 293e
000002e0: 1877 d0bd f5fe d2bd 1e7d 013e f5ea 9f3d
000002f0: 715b 2b3e 5513 29bf f73c 9cbd 8c10 86be
00000300: 110f 42bf f1da 97be b0fc 8c3e 5ba7 aabc
00000310: 2160 4fbc 0857 76be 0bda 703e d094 a2be
00000320: c9e3 d4be 5114 2bbd e2ce 04bf ad9f cbbd
00000330: c279 a43d 13ee 2abd 460c 9a3e 7eb5 03bf
00000340: 0137 d0be 3eca 853e 1af8 2dbf 15a7 dd3c
00000350: 25a9 05be 6cbb 3ebd 89e8 87bc 9257 8d3e
00000360: 80a1 73bc 2b4d 793d 8c95 813e 8872 38be
00000370: 3ca8 9cbd 1a6e 7cbd db8e ed3e 153d 1b3f
00000380: 1012 943e 37b2 21bb dfde bb3e 5145 bfbc
00000390: 1252 99bd bb21 263f c0dc 73be 8fdd 20bd
000003a0: d06c 023f 6a9e a6be 4ec5 513e 089f c8be
000003b0: 7370 31bd 85f3 233e ff14 d83c b672 7d3d
000003c0: a5b1 f2bc b096 093f 6275 eebe 6f86 c2bd
000003d0: 950c 8c3e e217 9abd 49df 273e a105 d43c
000003e0: 91e2 67bc d3be afbd 7c21 68bf eaec d3be
000003f0: 6473 bbbe 60b0 02be bb9e 94bd c698 17bf
0.16652429 -0.22347309 0.496753 -0.29018664 -0.4214886 -0.4533086 -0.24513762 -0.104344286
-0.26879963 0.054352496 -0.8138896 -0.1626599 0.055167686 -0.614155 -0.22338222 -0.34169272
-0.40437478 -0.13220054 -0.56983125 -0.78192604 -0.21869783 0.08378656 0.22233714 -0.17409153
-0.55530673 -0.1004935 0.59674567 -0.10574236 0.5015008 0.10975914 -0.15208527 -0.035324164
0.3047594 0.058549345 0.04336421 -0.21835741 -0.4707354 0.091473944 0.08729689 -0.11457551
-0.27004644 0.20214401 0.35106078 -0.13636911 -0.23772174 -0.3082502 0.3521992 -0.42153522
0.028104788 0.20337893 -0.022108464 -0.17064992 0.26750347 0.20624317 -0.12556946 -0.37206975
0.65595615 0.25053978 -0.16549212 -0.40383238 0.42438018 0.555823 -0.11641276 -0.10983206
0.0054192315 0.14641514 0.019031094 -0.34655476 0.29081583 0.10501208 -0.027614892 0.12593146
-0.13504513 -0.14658263 0.15810119 0.1821618 0.4529416 -0.14895657 -0.29399163 -0.40012187
-0.25501043 0.31230906 -0.077819064 -0.2205499 -0.07127247 -0.40237975 -0.35491678 0.001923031
0.12628329 -0.14618528 0.15408333 0.13394217 0.009988059 0.084347665 0.045061044 -0.10632057
-0.46675307 0.050166782 -0.09333418 -0.3606031 -0.21792905 -0.30428678 0.12015241 0.024648683
-0.09803973 -0.6010055 -1.0033668 -0.47062275 -0.31890634 0.38430858 -0.7844368 -0.9473342
-0.3628224 -0.39919987 0.08597724 -0.3108771 -0.46953967 -0.30226168 0.19013454 -0.37346163
-0.47898963 0.50838685 0.25170177 0.320694 -0.30744067 -0.018081341 0.20189114 0.018351523
-0.24248503 -0.4061299 -0.0034633747 0.12675071 0.12579744 -0.24373679 -0.019495433 -0.5961805
0.103725046 0.08649191 -0.7227476 -0.6740199 0.06734615 0.072689906 0.2106099 0.26549086
-0.2610048 -0.02261168 0.2701698 0.18248524 0.34812137 0.19071132 -0.39173368 -0.8364896
0.03445427 0.080818094 0.06915661 -0.123429984 0.04230806 0.6559403 0.44114524 -0.01451826
0.08325541 0.17802678 -0.39113668 -0.51831305 -0.0038623083 -0.5172908 0.34721702 0.05756588
0.087427884 -0.057463005 -0.46134207 -0.24956064 -0.5367861 -0.46132275 -0.42874417 -0.36897755
-0.077025756 -0.064906165 -0.67151 0.25716406 -0.30711937 0.5053454 0.3352543 0.16512643
-0.10178965 -0.103025354 0.12645385 0.07808486 0.16734101 -0.66045123 -0.076288156 -0.261845
-0.7580424 -0.29659227 0.27536535 -0.020831754 -0.012657196 -0.24056637 0.23520677 -0.3175416
-0.41580036 -0.041767422 -0.5187818 -0.09942565 0.08031036 -0.04173095 0.3008749 -0.5144881
-0.40666965 0.2613086 -0.679567 0.02705721 -0.13052805 -0.04656546 -0.016590374 0.27605873
-0.014870048 0.06086461 0.25309408 -0.1801244 -0.07649276 -0.06162844 0.46398053 0.6064008
0.2892003 -0.0024672875 0.36693475 -0.023348482 -0.07486357 0.6489522 -0.23814678 -0.039273795
0.50947285 -0.32542735 0.20485422 -0.3918383 -0.04332013 0.16010864 0.0263772 0.061876975
-0.029625723 0.53745556 -0.4657393 -0.094982974 0.2735335 -0.075240865 0.1639377 0.02588159
-0.014153139 -0.08581319 -0.90676093 -0.4139169 -0.36611474 -0.12762594 -0.07256838 -0.5921749

fc_layers.0.bias f4 [120]
00000000: 7a6f 283f fd51 94bd eb17 82be 41f6 3abf
00000010: 4338 4abd 6e3b a2bd d0a7 bfbe 8b05 df3e
00000020: 58c1 943d 7e6d e93d 6599 cb3e 14bc 42be
00000030: a33a dfbe 9657 4abe 2e45 19bd 99fc e4bd
00000040: d562 75be 68f9 e8be 94b2 973e fa7b 06bc
00000050: 849c 983d 10d8 dabd eba8 393e 4987 d03c
00000060: 41ae f43c daa9 ef3e b46b 49be 48a0 333e
00000070: e145 d7be da73 03be c070 99be fe40 743e
00000080: e0b2 d33e 332a 5fbf fd18 dbbd 9a96 b1be
00000090: d814 c0bd 13f6 ccbd 81d8 8b3e 92f7 01be
000000a0: 64be cfbd dcfd 943e 0326 ed3c 1563 24bf
000000b0: d5b9 d53d e466 dcbd 5023 bbbe 96d2 9bbe
000000c0: 92e8 70bd 8997 4939 6ac9 04be c1cf c2bb
000000d0: dd23 d33d ec67 4fbe a8f6 5b3f df0b b6be
000000e0: 7979 2f3e 14fa 54bf 1338 dabe c36b 9bbe
000000f0: f938 84be db48 e0bc e2d4 283e 8f52 0a3f
00000100: 43c1 253e c2f0 56be ca82 9dbe b497 103f
00000110: 64fd a0be 58c2 513e 5f96 c33e 0ba3 3fbe
00000120: eaca 963d b59b 33bf 4704 fcbe 161f 0abf
00000130: a7e4 243e 5390 6ebd bff7 443e 64f4 fe3e
00000140: 7104 94be 6b7d d73d ae55 ea3c 4a71 d93e
00000150: fb26 bcbe 337a e33e 6a85 a23c 2ecb a53e
00000160: 96ce 0e3f 7cc0 093e 2e24 c63e e8f7 9e3d
00000170: 1196 2e3d 8eec 153f 0416 03bf 2531 013f
00000180: 0398 9cbe 5498 fa3e 8cb0 57be d29c c3bd
00000190: 8f7d bb3c 8bc7 cd3e 5977 4c3b 382b d8be
000001a0: b1b1 1abe f335 153e 7227 013f 2b4f a63c
000001b0: d6f2 0e3f e609 5ebd 00fa 713e e039 913d
000001c0: 4ed2 cc3e deea b73d c3c6 1f3f 15f9 a93d
000001d0: 5f41 343d a9a6 42bd b8a3 cfbd 9466 153e
0.657951 -0.072422005 -0.25408873 -0.73032004 -0.04937006 -0.079214916 -0.37432718 0.43558916
0.0726344 0.11397837 0.39765468 -0.19017059 -0.43599424 -0.19759974 -0.03741949 -0.11180992
-0.23963483 -0.45502782 0.29628432 -0.008208269 0.07451728 -0.10685742 0.18130843 0.025455134
0.029868247 0.46809274 -0.19669992 0.17541611 -0.420455 -0.12837163 -0.29968834 0.23852918
0.41347408 -0.87173766 -0.106981255 -0.34685212 -0.09378976 -0.100078724 0.27313617 -0.12692097
-0.10143736 0.2909993 0.02894879 -0.6421369 0.10435835 -0.10761812 -0.3655038 -0.30434102
-0.058815546 0.00019225305 -0.12967458 -0.0059451764 0.10309575 -0.20254487 0.8592324 -0.35555932
0.17136182 -0.8319409 -0.42620906 -0.30355653 -0.25824717 -0.02737849 0.16487458 0.54032224
0.16187005 -0.2099028 -0.30763847 0.5648148 -0.31443322 0.20484293 0.38200662 -0.1871454
0.073629215 -0.70159465 -0.49222013 -0.53953683 0.16102849 -0.058243107 0.19235133 0.4979583
-0.2890964 0.105219685 0.028605308 0.42469245 -0.3674849 0.44429168 0.019839007 0.32381576
0.55783975 0.13452333 0.38699478 0.07762128 0.042623583 0.5856408 -0.5120547 0.50465614
-0.30584726 0.48944342 -0.21063441 -0.095513955 0.02288702 0.40191302 0.0031199066 -0.42220473
-0.15106846 0.14571361 0.50450814 0.020301422 0.5583929 -0.05420866 0.23630524 0.07091117
0.400042 0.08980344 0.6241266 0.08299462 0.044007655 -0.04752222 -0.10138649 0.14589912

fc_layers.1.weight f4 [84, 120]
00000000: ae74 acbe 90a9 5f3e ca0a 99be 364a 16bf
00000010: 412a b13c 82f1 d7bd 3caf 58be 0185 4d3e
00000020: 89e6 00bf 61f3 7fbd 7dd8 0e3e 6000 9dbe
00000030: 654e d93c ccfd c3be 1672 98be 2828 9bbe
00000040: 72aa 6ebe 515d 41bb 1c7a 223e 7c15 263e
00000050: fa2e b0be 6e00 6abe 8357 363d 4aeb 8bbe
00000060: 6b6f 27be b476 09be facb 2abe 3dda 9ebe
00000070: b273 fe3d 81e8 9abe c06f 9cbe df8b 99be
00000080: e985 42be 42d8 27bf 9b7c 99be aa76 1abe
00000090: 57c6 a3be 5a98 19be 9ecb 19be 6552 bebe
000000a0: 3902 763e 143f 4dbe 6087 9e3d acec c3be
000000b0: c575 91bd a64b 0fbf 0361 cdbe 53d5 d93d
000000c0: 90ae dbbe 5769 3b3e ef88 2abe b33a c1bd
000000d0: bee9 17be 2db8 a3bc add0 ba3c e458 d3be
000000e0: 376c f33b 98b7 22bd fc96 46be b12b 0abf
000000f0: f6f8 c0be eb83 57be 13fa 67bd 5aa0 f4be
00000100: 3fdc 7f3e ea16 25be fbca 263e 52ba a53b
00000110: 61a4 edbd d95f 0fbe d802 a03e 44eb 91bd
00000120: d429 03be 98f8 bfbe 540c 0d3d 46c2 923e
00000130: 4ee6 80be 5b17 b93d 35d1 433e 7ead 8ebd
00000140: f167 b0be a8f8 2e3d f0f4 6fbe 7133 6fbe
00000150: ace3 a3bd 672d 6fbe 2d54 c83c ba21 97be
00000160: 9d9b a4be 8125 823c b19d d0be 0e8e c8bd
00000170: cac5 d2bd 60d5 6c3e c5b7 aebe 4caa 05bd
00000180: 2b8c e1be 329e 8ebe e4c5 7bbd 837c 71be
00000190: e24d f7be 49ee bfbe 41a6 c0be 24a5 32bd
000001a0: 4442 af3d 3417 d4bd 031f 7fbd 30f4 e2bd
000001b0: 1cea 18be 1d29 38be dddc 673e 314e b23c
000001c0: a5f8 a83c 4305 a7be cebf 7dbe fffa a23c
000001d0: 652e 69be 43e6 08be 9c2e 04be cede 44bd
000001e0: 5db9 a53d 7063 adbe 40dd 77be b2ef 0fbf
000001f0: 608d 19bf 9c6b c73d 0659 dfbe 3094 8bbd
00000200: 2ebb 103d 32ec 05bf b638 f0be 3f8d ca3c
00000210: 2dbc 9bbe 8191 10be cd81 94be acaa 1c3e
00000220: 833a afbe 260c 753d 4381 dabd 5b3c 01be
00000230: b0e6 dbbe 8596 d5bd 4a16 56be 8628 15be
00000240: 7f8f 73bd 7113 adbc b8a5 8b3e e229 d83d
00000250: 4cb0 1bbe 05c3 a03a 12a4 f2be fbe1 06bc
00000260: 7aea 20bd c646 40be 008b 9fbe 8491 33be
00000270: 726f e33d d500 1c3e 51c4 94be 8b20 f9be
00000280: 7894 e6bd a40c 5cbe fa1c 28be 5b6f 7ebe
00000290: fb59 c73d 245b 00bd e997 4abf 001d 863d
000002a0: 0132 02be 51bd 40bf 605e 39be 9cb5 f7bc
000002b0: c464 5ebe 235e f2bd cc9e 28be 5380 a5bd
000002c0: f5fc c9be 2ce6 01bf ba7c 8cbe 86d1 1abf
000002d0: 2f0f 33be 4bf9 8ebe 19a4 94be 6b23 cf3d
000002e0: 00b4 90be 82ac 83be 3d03 c13c bcf3 80be
000002f0: e1ee 4a3e 8d53 5bbe 56c2 46be d3ac e13d
00000300: 4a03 99be af89 70be 0642 d13b 449d 8dbe
00000310: 4ac4 a03c 68ec 0fbe 4518 e2bd 5b0e 76be
00000320: c164 b7be d17b 453d 127a ddbe a9f7 0f3e
00000330: b845 27be ab1d 60be 0ec7 9abe 8e70 963e
00000340: 0dec d6bd 7b2b 90bd 3ad1 17be ecb3 913e
00000350: 701e a7be f13e 03bd 1258 83be c08d a23d
00000360: 01da 5abe 510d e1be 5443 233e 40d8 8fbd
00000370: c834 88bd 4868 debd 527f 1dbf e3b4 92bb
00000380: 019d 3c3e f09e dcbc 0669 37bc f00f 5e3e
00000390: 21d6 ffbd 6a8f 533e f455 b7bc 2aa7 5abb
000003a0: bece c03c c5bd cebd 1651 68be 96b0 84be
000003b0: a27c 3ebe f3a1 75be 9a59 e33d b4c8 f9bd
000003c0: f221 48bf 29c8 3fbe 2981 1fbe 13ab 8fbe
000003d0: 37f2 48be 5f6d 703e f37f 8b3d f68f aebd
000003e0: 2da8 93be bb50 28bf bab0 193e 38e8 78be
000003f0: ef6a 2ebd 10ce 6cbe e249 9fbe 8d1c 96be
-0.3368277 0.21842027 -0.29891044 -0.58706987 0.021626594 -0.10544111 -0.21160597 0.20070268
-0.5035177 -0.062487964 0.13949771 -0.3066435 0.02652664 -0.3827957 -0.2977454 -0.30304074
-0.23307207 -0.0029505084 0.15866894 0.16219133 -0.3441084 -0.22851726 0.04451705 -0.2732795
-0.16351096 -0.13424188 -0.16679373 -0.31025878 0.12424411 -0.3025551 -0.30554008 -0.29989526
-0.18996395 -0.6556436 -0.2997788 -0.15084329 -0.3198726 -0.14999524 -0.1501908 -0.37172237
0.24024285 -0.20043594 0.077406645 -0.38266504 -0.07102541 -0.55974805 -0.40113077 0.106363915
-0.42906618 0.18301903 -0.16653799 -0.09435024 -0.1483526 -0.019985283 0.022804582 -0.41278756
0.0074286717 -0.03972587 -0.19393533 -0.5397292 -0.37689942 -0.21046416 -0.056634974 -0.4777859
0.24986361 -0.16122022 0.16288368 0.0050576115 -0.116036184 -0.14001407 0.3125217 -0.071249515
-0.12808925 -0.3749435 0.034435585 0.28663844 -0.2517571 0.09037658 0.19122775 -0.06966685
-0.344543 0.042717606 -0.2343328 -0.23359467 -0.08002409 -0.23357163 0.0244542 -0.2951792
-0.32149974 0.015887024 -0.4074531 -0.0979272 -0.102916315 0.23128271 -0.3412458 -0.03263311
-0.44052252 -0.27855068 -0.06146802 -0.23582654 -0.48301607 -0.37486485 -0.37626842 -0.04361452
0.08557561 -0.10355988 -0.062285434 -0.11081731 -0.14933056 -0.17984433 0.22642846 0.0217658
0.020626375 -0.32621202 -0.24780199 0.019895075 -0.22771604 -0.13369088 -0.12908405 -0.048064046
0.08091996 -0.33864927 -0.24205494 -0.5622512 -0.59981346 0.09737322 -0.43622607 -0.06815374
0.03533476 -0.5231353 -0.46918267 0.024725555 -0.30417004 -0.14118005 -0.2900528 0.15299481
-0.34224328 0.05982604 -0.10669186 -0.1262068 -0.42949438 -0.104291 -0.2090694 -0.1456624
-0.05946302 -0.021127434 0.2727487 0.105548635 -0.1520397 0.0012265152 -0.473908 -0.008232589
-0.039286114 -0.18776998 -0.31160736 -0.17535979 0.11105241 0.15234692 -0.29056028 -0.4865764
-0.11258787 -0.21489197 -0.16417304 -0.24847166 0.09733959 -0.03133692 -0.79138047 0.065485
-0.12714387 -0.75288874 -0.18102407 -0.030237965 -0.21718127 -0.118343614 -0.16466826 -0.080811165
-0.39450803 -0.5074184 -0.2743891 -0.6047596 -0.17486261 -0.2792457 -0.29031447 0.10114177
-0.2826233 -0.2571755 0.023561114 -0.25185955 0.19817688 -0.21418591 -0.19410071 0.11019292
-0.29885322 -0.23490022 0.0063860444 -0.27659047 0.019624848 -0.14055026 -0.11039785 -0.24028914
-0.35819057 0.048213784 -0.43257195 0.14059319 -0.1633519 -0.21886317 -0.30229992 0.29382747
-0.10494242 -0.07039543 -0.14825907 0.28457582 -0.3264041 -0.032042447 -0.2565313 0.07937193
-0.21372224 -0.43955472 0.15943652 -0.07023668 -0.06650692 -0.10859734 -0.615224 -0.00447713
0.18419267 -0.026931256 -0.011194473 0.21685767 -0.12492014 0.20660177 -0.022379853 -0.0033363798
0.023536082 -0.100947894 -0.22687182 -0.25915974 -0.18602231 -0.2398756 0.111010745 -0.12196484
-0.78176796 -0.18728699 -0.15576614 -0.28060207 -0.19623648 0.23479222 0.06811514 -0.08523552
-0.28839245 -0.65748185 0.15008822 -0.24307334 -0.04258245 -0.23125482 -0.31111056 -0.29318658

fc_layers.1.bias f4 [84]
00000000: 40b0 d63e 647e 293f bd26 e4be 1034 1cbf
00000010: 44c0 913f 6e74 00bf 576e 8b3e 2593 313f
00000020: 7cb9 80bf 1c56 a3bf 9e73 7f3f f312 263f
00000030: 123e 653f 2daf 833f 003a bfbd 902e 003f
00000040: 9edd ddbd 1b41 b7be 1ad4 0b3f 7f24 c8be
00000050: 1df9 c13e 1f7b 613f 5eec 0abf 3a30 72be
00000060: 9cb9 c4be 2f20 44be e1d8 403e 5115 39bb
00000070: 5f49 bebe 9456 0ebe 0345 233f 788c 533e
00000080: 7fff b2be e5dc b03e bb40 5abe 6c63 2d3f
00000090: 09d9 613f 868d 87bd 921a dc3f 8a21 61bf
000000a0: 4137 3fbf ede7 423e 7fc9 8a3f 2fcb 78bf
000000b0: c3fd e3bc 5e97 18be 706e 8d3f 7964 37bf
000000c0: ff10 cabc d7cb bfbe 1647 c3be 75c2 dcba
000000d0: 3d3c 8b3f 1f49 c83f 990a 8abe e745 92be
000000e0: 0533 a4be 744f f2be 9491 b7be 2b01 2c3e
000000f0: 4866 8bbe 22cf 22bf e319 6cbf a7a7 853c
00000100: a62c 8b3f ce0d ad3e 4491 8abf 59dc 023e
00000110: c0aa 14bf 74ca 143e 0a49 313d 0d4f 0bbf
00000120: 5ba6 8a3e d23b 193f 7744 72be 3981 963f
00000130: b28f ee3e 5b25 61be 15b2 973e 7b35 393e
00000140: 6f89 7fbe 69cb a83f 02d3 a9be 9ea0 843e
0.41931343 0.6620848 -0.44560805 -0.6101694 1.13868 -0.5017766 0.2723262 0.6936515
-1.0056605 -1.2760653 0.9978579 0.64872664 0.89547837 1.0287834 -0.093372345 0.5007105
-0.10833286 -0.3579186 0.54620516 -0.39090344 0.3788537 0.8807849 -0.5426692 -0.2365121
-0.3842286 -0.19152902 0.18832733 -0.0028241465 -0.37165353 -0.13900214 0.6377718 0.20659053
-0.34960553 0.3454353 -0.21313755 0.6772983 0.88221794 -0.0661879 1.7195609 -0.879418
-0.74693686 0.19033785 1.0842742 -0.97185034 -0.027830964 -0.14901492 1.1049328 -0.71637684
-0.024666307 -0.37460205 -0.38140172 -0.0016842621 1.0877758 1.5647315 -0.2696121 -0.28568956
-0.32070175 -0.47326243 -0.35853255 0.1679732 -0.27226472 -0.6359731 -0.92227 0.016315294
1.0873001 0.33799595 -1.0825582 0.12779368 -0.58073044 0.14530355 0.043282546 -0.54417497
0.27080044 0.59856904 -0.2365893 1.1758186 0.46594006 -0.21986906 0.29628053 0.18086807
-0.2495477 1.3187076 -0.331688 0.2590379

output_layer.weight f4 [10, 84]
00000000: e900 35bd c0f3 2b3e d5b6 af3d 23e0 7fbd
00000010: 0d06 49be 8d4a 04be f4c3 67bd 0aeb 65bc
00000020: baf7 ebbc c3ef 8e3d a636 fd3c dd53 f53b
00000030: ae81 25bd 8adb f1ba 7a49 a6bd 1120 5f3d
00000040: 95bc 343e 2943 743e 2ef9 843e acb8 90bc
00000050: 74dc d1bd 623d 24bd d97b 07bd 137c 4cbd
00000060: 2ae8 8a3d 24a7 d33d 4a49 c3bd ad21 823d
00000070: 5591 5bbd eb25 dcbd c4ca ccbd c206 be3d
00000080: 27c3 9d3d 4a33 9d3d d2a3 41bc 5b46 8d3d
00000090: 84d6 aabd be3b 2c3e b5d7 03be 8cee 463e
000000a0: 8ed3 363e 51ef 2abe 1cfa 69be 394e 8a3e
000000b0: 8e33 ebbd 791d fb3d 2ef9 72bd 7b36 8e3c
000000c0: 8bdd 33bc 0e1d f3bd ca96 7cbc 94ed 733a
000000d0: 257f 64bd e7ba b8bd 2b6e a53d fa40 00bc
000000e0: 7672 3c3e cd86 73bd e4f0 633d cf7c 54bd
000000f0: bf6d 33be fe10 22bd 0c6c 61bd 3784 663e
00000100: 4b2c 493e 356b 52bd d2e4 903e c6e6 ca3d
00000110: 99af a9bd fb5b 0ebd 8065 b7bd 92e9 4d3e
00000120: 77c0 9c3d 051c 473e f966 0dbe b73a 99bd
00000130: e95c c1bd 6c48 18bd f35c e6bb 3adb be3d
00000140: 419a cebd 0547 8d3d 61f3 64bd d579 13bd
00000150: 45d8 58bd dffc d9bd da77 e6bd 4e1e 84bd
00000160: 6a94 96bd 5c48 99bc d560 eebd 165b cb3d
00000170: ee8a 2a3d dffe 8b3e d1b6 20bc d95a 023c
00000180: df39 49be ec94 7d3c 9cea b5bc d8bb c2bd
00000190: c835 ed3c d392 043c bf62 423e 4a5a 9dbd
000001a0: 966b 05be 45c2 59be 3c16 d4bd 1e0d 46bd
000001b0: d76a 663e e85a 803e 61b5 6cbe 531f a83c
000001c0: ff40 79be 3659 32bc a8d2 8e3b 70c0 c3bd
000001d0: e62c deba da80 97bd 7df7 d7bc d9c5 533d
000001e0: 27c6 7cbe 43b9 45bd a227 24be 8e9f 50ba
000001f0: 7873 6f3e 33c1 c33c 63a8 e5bc 0f3d 8bbd
00000200: f485 21be 5ffe 5cbe 8039 6cbe 3003 c4bd
00000210: 0d7b 10bd 9b32 913d 9afc 48be 6a4b 0a3e
00000220: 4897 bbbd 674d 86be 619e 133e 66de 9fbb
00000230: c250 10be 2f0c 743e 8417 3c3e 02da 1dbe
00000240: 6a78 76be 77cc 023e 4b58 643d 1e4e 1b3e
00000250: b660 bd3d 71d2 0c3e c1ec a3bd ebab 39be
00000260: a993 25bd 382a 8d3d b699 77bd 0cbf 1abd
00000270: bed2 da3c 67f1 a7bd ebe9 bd3d 9792 3fbc
00000280: d278 49be b842 2fbd 5ea1 82bd 6087 97bd
00000290: b1ab 3e3d 4090 323d 800f 90be f2ac 0abb
000002a0: 66f7 20bd 05bc 1e3d 7690 6a3e bd2c 1f3d
000002b0: 60c3 f03d 4288 393e d942 7e3d b397 813d
000002c0: f9b9 603e 75c0 9b3d 47ee 883a 6853 21bc
000002d0: be5e 4e3b b3e6 8cbd 9964 06bd 8213 5bbb
000002e0: 6e6e 48bd 2568 bc3d d63c 85bd a9c7 1b3e
000002f0: 1179 e33d a91d 14bd 6dda 453e b2a6 70bd
00000300: 0aec 36be 5ac6 7ebd 1519 b53c adb2 e1bd
00000310: 10ec 673d 9797 c43d 4365 d9bc fdbb 55bc
00000320: 4411 da3d dca9 393e 9b9f dcbb 2e01 313c
00000330: 4767 00bd 1d83 643e 0c1c 313e d7de 853d
00000340: 02b8 cebd e865 263e 9228 9a3c 22c0 c6bc
00000350: 5298 44bd 8b53 b9bd c076 963c 92b5 983e
00000360: 652c 29bd 4862 103e 202f a43e 100c 10be
00000370: 629f 54bd d1a8 3c3e 3c49 1dbd 7723 abbc
00000380: 8d18 733e f60b fabd 6b89 e7bd 6ebd 193e
00000390: f52a e53d dca9 9fbd a2ef 853d c423 6cbb
000003a0: 04ca 83bd 4337 67be b353 8f3d decb 023e
000003b0: fc3f 543d f233 ed3d d398 8d3c 0d9c 0e3c
000003c0: f392 c1bd 6c1a b7bd a814 0e3c e677 3ebd
000003d0: 4c15 623d 3ff9 7fbd 1206 103e c978 ac3d
000003e0: 309b c0bc 4b93 483d dab9 913c e211 583c
000003f0: e64d 213e 3f49 eebd 88c4 2f3d 288e 88bd
-0.04419032 0.16792202 0.08579794 -0.062469613 -0.19631214 -0.12919064 -0.05658336 -0.014033088
-0.028804649 0.06979325 0.030909847 0.007486804 -0.040406875 -0.0018452269 -0.08119483 0.05447394
0.17650063 0.23853745 0.2597136 -0.017666183 -0.10247126 -0.0400976 -0.033077095 -0.049923014
0.06782563 0.10334614 -0.09535463 0.063540794 -0.053605396 -0.1074942 -0.09999612 0.09278633
0.07703238 0.07675798 -0.011818843 0.06898185 -0.08341697 0.16819665 -0.12875254 0.19426936
0.17854139 -0.16692854 -0.22849315 0.27012804 -0.11484443 0.12261481 -0.059319668 0.017359963
-0.010978113 -0.11870776 -0.01541681 0.0009305116 -0.055785317 -0.09020024 0.080776535 -0.007827992
0.18403038 -0.059454728 0.055649653 -0.05187684 -0.17522334 -0.039566986 -0.055034682 0.22511373
0.19645803 -0.05137177 0.28299576 0.09907298 -0.08285446 -0.03475569 -0.089549065 0.20108631
0.07653897 0.19444282 -0.13808812 -0.07481902 -0.09441549 -0.037178442 -0.0070301234 0.09319158
-0.10088015 0.068983115 -0.055896167 -0.03600486 -0.052940626 -0.106439345 -0.112533286 -0.06451093
-0.073525265 -0.018711261 -0.11639563 0.09929483 0.0416364 0.2734289 -0.009809212 0.00795623
-0.19650982 0.0154774 -0.022206597 -0.095084846 0.028956309 0.008091646 0.18982981 -0.07683237
-0.13029322 -0.21265514 -0.10355803 -0.048352353 0.22501694 0.25069356 -0.23116066 0.020522749
-0.243412 -0.010885527 0.0043586083 -0.09558189 -0.0016950637 -0.07397623 -0.026363129 0.051702354
-0.24684964 -0.048272382 -0.16030744 -0.0007958346 0.23383892 0.023895836 -0.028034395 -0.067987554
-0.15773755 -0.2158141 -0.2306881 -0.095709205 -0.0352736 0.0708973 -0.1962761 0.1350533
-0.09159714 -0.26230928 0.14415886 -0.004878807 -0.14093307 0.23832773 0.18368345 -0.15415195
-0.24069372 0.1277331 0.055748265 0.15166518 0.09246962 0.13752152 -0.080041416 -0.18131988
-0.040424023 0.06892818 -0.060449325 -0.037779853 0.026711818 -0.08200341 0.09273132 -0.011692665
-0.19674996 -0.042788237 -0.063784346 -0.073988676 0.046550456 0.0435946 -0.28136826 -0.0021160212
-0.039298438 0.03875353 0.2290667 0.038861025 0.11756015 0.18118384 0.06207547 0.063277625
0.21945943 0.07605068 0.0010446989 -0.009846546 0.0031489576 -0.0687994 -0.03281078 -0.0033428376
-0.04893344 0.091995515 -0.06505744 0.15212883 0.11107076 -0.0361611 0.19321604 -0.058752723
-0.1786348 -0.06220088 0.022106687 -0.11020408 0.05662161 0.09599226 -0.026537543 -0.013045308
0.106478244 0.18131202 -0.0067328936 0.010803504 -0.031348493 0.22315641 0.17295855 0.06536644
-0.100936905 0.16249812 0.018818174 -0.024261538 -0.047996826 -0.09049138 0.018367171 0.29826027
-0.041302104 0.14099991 0.32067204 -0.14067101 -0.05190981 0.18423773 -0.03839992 -0.020890934
0.23739834 -0.122093126 -0.11305507 0.15013668 0.11189834 -0.0779607 0.06539847 -0.003603206
-0.06435016 -0.22579674 0.06998386 0.12773082 0.051818833 0.115821734 0.017284786 0.008704198
-0.094518565 -0.089405864 0.008671917 -0.046501063 0.05519609 -0.06249356 0.14064816 0.084214754
-0.0235115 0.048968595 0.017788816 0.013187857 0.15752372 -0.11635064 0.042912036 -0.06667739

output_layer.bias f4 [10]
00000000: 80f1 0bbe fc57 3dbf c33d 1c3d 29fe 893f
00000010: a6a0 5e3e 6bdd 8c3e bf67 11be e5c4 03bf
00000020: 0af7 42bc 8dd2 5abe
-0.13666344 -0.7396238 0.038144838 1.0780689 0.2174097 0.27512679 -0.14199732 -0.5147231
-0.011899719 -0.21369381
