Lab1/model/model_CIFAR10/conv_params_original.pth (torch, 252014 bytes, 10 tensors)

conv_layers.0.weight f4 [6, 3, 5, 5]
0	0x3ee2e5f8	0.44316077
1	0x3f30acd1	0.69013697
2	0xbe2e5d2c	-0.1702773
3	0x3dcd543d	0.10025833
4	0x3e5276f3	0.20553188
5	0x3f1aef3b	0.60521287
6	0x3fd18ceb	1.637113
7	0x3fff51f3	1.9946884
8	0x3f238269	0.63870865
9	0x3f95f9d2	1.1716864
10	0xbeb9d832	-0.36297756
11	0xbe312676	-0.17299828
12	0x3f9924aa	1.1964314
13	0x3fc320f9	1.5244437
14	0x3e819b92	0.25314003
15	0xbf0ed289	-0.5579
16	0xbf4e22ab	-0.8052165
17	0xbfed855c	-1.8556323
18	0xbf6f5f5a	-0.9350487
19	0xbf45dc9b	-0.7728974
20	0xbf88c995	-1.0686518
21	0xbe9b3d06	-0.30319995
22	0xbf838a93	-1.0276664
23	0xbfa2600a	-1.2685559
24	0xbe9697b3	-0.29412612
25	0xbe37a91c	-0.17935604
26	0xbeb7082e	-0.35748428
27	0xbf843d61	-1.0331231
28	0xbf8449d1	-1.0335027
29	0xbe87a7c5	-0.26495185
30	0xbee9d4a6	-0.4567005
31	0x3f12ff06	0.57420385
32	0x3f8b6b75	1.0892168
33	0xbf517d44	-0.81831765
34	0x3ef826bb	0.4846705
35	0xbe288a4f	-0.1645901
36	0xbe8c97fd	-0.27459708
37	0x3fbc2b1a	1.4700654
38	0x3fd788f3	1.6838669
39	0x3f046eda	0.51731646
40	0xbef4d0eb	-0.47815642
41	0xbfa4d429	-1.2877246
42	0xbfea7dbe	-1.8319623
43	0xbf705449	-0.9387861
44	0xbf0b41c5	-0.5439723
45	0x3a13b9d9	0.00056352984
46	0x3f6b34d1	0.91877466
47	0x3ed875f5	0.42277494
48	0x3e6b860d	0.23000355
49	0x3e8f1f8f	0.27953765
50	0x3e589050	0.21148801
51	0xbf2e84fb	-0.6817166
52	0xbf359a57	-0.7093863
53	0xbf562fef	-0.8366689
54	0x3d4257f2	0.047447152
55	0x3e9547b6	0.29156274
56	0xbe315276	-0.17316613
57	0x3e970227	0.2949383
58	0xbfc2c296	-1.5215633
59	0x3df0982d	0.11747775
60	0x3eb2a1d5	0.34889093
61	0xbd48dca3	-0.04903854
62	0x3f6693b1	0.9006911
63	0x3f28682f	0.6578397
64	0x3e3cda67	0.18442689
65	0x3f2de6d0	0.67930317
66	0xbe83da6d	-0.25752583
67	0xbf38ad9b	-0.721399
68	0xbf21e6fd	-0.63243085
69	0xbf2deb6f	-0.6793737
70	0x3ed12c40	0.40854073
71	0x3f6c1c3e	0.92230594
72	0x3f78f7c2	0.9725305
73	0x3f5d3887	0.8641438
74	0x3f2c7a6f	0.6737432
75	0xbf9c2546	-1.2198875
76	0xbf3f3340	-0.74687576
77	0xbfc982d0	-1.5743046
78	0xbefecdf4	-0.49766505
79	0xbf31dfe5	-0.6948226
80	0xbe7290b6	-0.23688015
81	0xbf8bd2c2	-1.0923693
82	0x3e802d28	0.2503445
83	0x3f096481	0.5366898
84	0xbe018217	-0.12647282
85	0x3eb96a8a	0.36214095
86	0x3f458ffd	0.77172834
87	0x3f8880a9	1.0664264
88	0xbdebfd20	-0.11522889
89	0x3f524221	0.82132155
90	0x3f7ca2df	0.9868602
91	0x3f2b33d3	0.6687595
92	0x3f03bffe	0.5146483
93	0x3f3437a4	0.703974
94	0xbd2a5733	-0.041587066
95	0x3ee0e30f	0.43923232
96	0x3ed1d17d	0.4098014
97	0x3f08d699	0.5345245
98	0x3f15dfad	0.5854443
99	0x3e068be4	0.13139302
100	0x3ee4ab1a	0.4466179
101	0x3ebc678d	0.36797753
102	0xbea3147a	-0.3185156
103	0x3d94e55c	0.07270309
104	0x3f306d8d	0.6891716
105	0xbee586be	-0.44829363
106	0xbf2ebbc9	-0.6825529
107	0x3f1c1fe9	0.6098619
108	0x3f4f13ef	0.8088979
109	0x3dde117e	0.1084318
110	0xbf11aff2	-0.56909096
111	0x3eceedec	0.40415895
112	0x3f058938	0.52162504
113	0xbec305ff	-0.38090512
114	0x3e133ae6	0.14377937
115	0xbec8f869	-0.39252022
116	0xbeaf988d	-0.34296075
117	0xbf3dbd79	-0.7411724
118	0xbe7b9a84	-0.24570662
119	0xbebc3afc	-0.36763752
120	0x3d9e84d6	0.0774018
121	0xbe1a1fc9	-0.15051188
122	0xbe8ab00e	-0.27087444
123	0xbe45174d	-0.1924717
124	0xbec07bc7	-0.37594435
125	0x3e9720c5	0.2951719
126	0xbf1af9b5	-0.6053727
127	0xbf173457	-0.5906424
128	0x3f102fc0	0.5632286
129	0x3f30e5d8	0.69100714
130	0xbe9c464c	-0.30522382
131	0xbf4a5b2f	-0.79045385
132	0xbd31778c	-0.0433269
133	0x3ef159b9	0.47138765
134	0x3dfa253b	0.122141324
135	0x3e8bf6f2	0.27336842
136	0x3f040117	0.5156416
137	0x3f20764e	0.6268052
138	0xbe4bcf48	-0.1990329
139	0xbe80172e	-0.25017685
140	0x3e544ac6	0.20731649
141	0x3e06c26d	0.13160105
142	0x3be46235	0.006969715
143	0x3f0b670a	0.544541
144	0x3d146fcf	0.03623944
145	0xbc98c437	-0.01864825
146	0x3edf12ae	0.4356894
147	0x3e5301de	0.20606181
148	0xbeb4a470	-0.35281706
149	0xbd9d38ed	-0.07676873
150	0xbf4b4ddf	-0.79415697
151	0xbd45d634	-0.048299983
152	0x3f4a93d8	0.7913184
153	0x3f6d4450	0.9268236
154	0x3f22736d	0.63457376
155	0x3e56117f	0.20905112
156	0x3f1f0035	0.6210969
157	0x3ec8127b	0.390766
158	0x3ebe3084	0.3714639
159	0xbc727acc	-0.014799785
160	0x3e8c4f27	0.27404138
161	0x3f2745e1	0.65341
162	0x3f12374d	0.5711563
163	0xbee79ce6	-0.45236892
164	0x3e5e6a62	0.2172027
165	0x3f385d48	0.72017336
166	0x3f6234c7	0.8836178
167	0xbd89ab6b	-0.067221485
168	0xbeb563f0	-0.3542781
169	0xbf2bff77	-0.67186683
170	0x3e000670	0.12502456
171	0x3e88c482	0.26712424
172	0xbeca4857	-0.39508316
173	0xbf69d9d4	-0.91348004
174	0xbf8ddc05	-1.108277
175	0xbf091e1b	-0.5356156
176	0xbedddbef	-0.4333186
177	0xbf226e80	-0.6344986
178	0xbeecfc9d	-0.4628648
179	0xbf82b90a	-1.021272
180	0x3e2cc3be	0.16871545
181	0xbce1d5e1	-0.027567806
182	0xbf20b814	-0.6278088
183	0xbed451a1	-0.41468528
184	0xbf0eca3d	-0.5577734
185	0x3f0d8d5b	0.55293816
186	0xbe3525b2	-0.17690161
187	0xbf501e2a	-0.81296027
188	0xbf9f295d	-1.2434498
189	0x3dc7045f	0.097176306
190	0x3f1b247e	0.6060256
191	0xbd984cd5	-0.074365295
192	0xbf59b9c3	-0.85049075
193	0xbf2441d2	-0.64162934
194	0xbd6bb05a	-0.05754123
195	0x3e3247f9	0.17410268
196	0xbe78fee3	-0.24315982
197	0xbf225d2a	-0.6342341
198	0xbc1b2d29	-0.009471216
199	0x3eb55fd9	0.35424688
200	0x3e37ee49	0.17961992
201	0x3eaff43f	0.34366032
202	0xbe192ef8	-0.14959323
203	0x3f039877	0.5140452
204	0x3dfed958	0.12443799
205	0x3e68baea	0.22727552
206	0xbe8a222c	-0.26979196
207	0xbef698c1	-0.48163417
208	0xbf0148a7	-0.50501484
209	0x3daca7bf	0.084304325
210	0x3e94ac95	0.2903792
211	0xbdd3493d	-0.103167035
212	0xbeec06f7	-0.46099064
213	0xbfaa7345	-1.3316427
214	0x3e2c913b	0.16852276
215	0x3e5520c4	0.2081328
216	0x3f3e8148	0.7441602
217	0xbe6c7826	-0.23092708
218	0xbf2997a2	-0.66247
219	0xbea67a18	-0.32515025
220	0x3f171876	0.590217
221	0x3f6b699f	0.9195804
222	0x3e6071fc	0.21918482
223	0x3ebfefc9	0.3748763
224	0x3f66914d	0.9006546
225	0xbdb0894a	-0.08619936
226	0x3d974718	0.07386607
227	0x3eac906e	0.3370394
228	0xbf2fb803	-0.68640155
229	0x3eb1514f	0.34632346
230	0x3e9f27e6	0.31085128
231	0xc0467479	-3.100859
232	0x405eb5b2	3.4798398
233	0xbc4c1e33	-0.012458372
234	0xbee28190	-0.44239473
235	0x3f00a1e4	0.50247025
236	0xc0301578	-2.7513103
237	0x3fd43b2a	1.6580555
238	0x3fac9ef5	1.348601
239	0xbf6b4664	-0.9190428
240	0xbd860e72	-0.06545724
241	0xbe928e21	-0.2862406
242	0x3ec0c632	0.3765121
243	0xbf02e773	-0.51134413
244	0x3e22bc5e	0.15892169
245	0x3eb86885	0.36017242
246	0xbf089804	-0.5335696
247	0x3ea39fca	0.31957847
248	0xbe263118	-0.16229665
249	0x3df0cc6a	0.11757739
250	0x3f6fec87	0.9372029
251	0xbfc756db	-1.5573381
252	0x3efa40bd	0.48877516
253	0x3dd16204	0.10223773
254	0x3f151bd8	0.5824561
255	0x3f8382c3	1.027428

conv_layers.0.bias f4 [6]
0	0xbfc57b17	-1.5428189
1	0xbed5e820	-0.4177866
2	0xbf761e30	-0.9613981
3	0xbf991cf2	-1.1961958
4	0x3e91d8c7	0.284857
5	0xbf889c1c	-1.0672641

conv_layers.1.weight f4 [16, 6, 5, 5]
0	0x3e5ad1c9	0.21369089
1	0x3ed2ba20	0.41157627
2	0x3db8a809	0.09016425
3	0xbccb6684	-0.024829157
4	0xbdf81532	-0.12113418
5	0xbd9bbb31	-0.07604063
6	0x3f60f1a1	0.87868696
7	0xbee116f6	-0.4396283
8	0xbeb98e14	-0.3624121
9	0x3e740609	0.23830427
10	0xbf8ec3a6	-1.1153457
11	0x3e8626fd	0.2620162
12	0x3f926a6c	1.1438727
13	0x3db3ed87	0.08785539
14	0xbf74c6f3	-0.9561607
15	0xbeca354a	-0.3949378
16	0xbe97dddc	-0.29661453
17	0xbea7d04e	-0.3277611
18	0x3f62b62b	0.88559216
19	0x3e2deefc	0.16985697
20	0xbfaf639f	-1.3702277
21	0x3fe6efc8	1.8041925
22	0x3ecd2cf9	0.40073374
23	0xbe0e5263	-0.13898616
24	0x3e8466a8	0.2585957
25	0xbe8b7c29	-0.27243164
26	0xbf7b36b9	-0.98130375
27	0x3eca4323	0.39504346
28	0x3e447438	0.19184959
29	0xbdb0a941	-0.086260326
30	0xbf7e187c	-0.9925611
31	0xbf03ed7e	-0.5153426
32	0xbdba6bbd	-0.09102581
33	0x3e0c5820	0.13705492
34	0x3e3f383f	0.186738
35	0x3ec6ec7e	0.38852304
36	0xbee24143	-0.44190416
37	0xbfc0ee53	-1.5072731
38	0xbed20074	-0.4101597
39	0x3eca687e	0.39532846
40	0xbe99addd	-0.3001546
41	0x3e7efee0	0.24901915
42	0x3e845f40	0.2585392
43	0xbef846fc	-0.48491657
44	0xbee77070	-0.4520297
45	0xbf3592d0	-0.70927143
46	0xbe18d0e8	-0.14923441
47	0x3f435e8a	0.7631613
48	0x3f132f5e	0.5749415
49	0x3d92bd36	0.07164995
50	0xbf363b82	-0.7118455
51	0xbef5f612	-0.480393
52	0x3f07b56e	0.53011215
53	0xbf07152d	-0.52766687
54	0x3e3ee7e3	0.18643145
55	0x3f0fde23	0.5619833
56	0xbf942802	-1.157471
57	0xbea85dc8	-0.3288405
58	0x3e2ef837	0.17086874
59	0xbd36c2e1	-0.044619445
60	0x3fc11c83	1.5086826
61	0x3e92647a	0.28592283
62	0xbfedf589	-1.8590556
63	0xbeefcb86	-0.46834964
64	0xbdd609da	-0.10451098
65	0xbf0e1615	-0.55502445
66	0x3f9c9916	1.2234218
67	0x3fd0fba4	1.6326795
68	0xbe8c1656	-0.2736079
69	0xbf363e74	-0.71189046
70	0xbe901b38	-0.28145766
71	0xbe97cc67	-0.29648134
72	0xbe53c813	-0.20681791
73	0x3eadbc11	0.33932546
74	0x3ef88ae3	0.48543462
75	0x3e539584	0.20662504
76	0x3dc9cdba	0.09853692
77	0xbe5ec64f	-0.21755336
78	0xbd505c88	-0.050869495
79	0x3d3c3909	0.04595283
80	0x3d12e50e	0.035862975
81	0xbddcbc96	-0.107781574
82	0xbed2282a	-0.41046268
83	0x3ebdd1e5	0.370742
84	0xbe7b4f4e	-0.24541971
85	0x3e211d17	0.15733753
86	0x3f2073c4	0.62676644
87	0x3e9035a5	0.28165928
88	0xbf47b39c	-0.7800844
89	0x3d6c63a3	0.05771221
90	0xbe25271a	-0.16128197
91	0xbecc89f2	-0.39948994
92	0x3f35fa75	0.7108529
93	0x3eeaba89	0.4584544
94	0x3e8dc0bf	0.27686116
95	0x3da19e57	0.07891529
96	0xbf65d825	-0.89782935
97	0xbfd68bc1	-1.67614
98	0xbe28cea3	-0.16485076
99	0xbe3fe800	-0.18740845
100	0x3e058677	0.13039576
101	0x3efbd221	0.49183753
102	0xbe55851a	-0.20851555
103	0x3d81d343	0.06339123
104	0xbf171841	-0.59021384
105	0xbf3bbc59	-0.7333427
106	0x3f1d6509	0.6148229
107	0x3e3a8bc9	0.18217386
108	0x3ea61dfb	0.32444748
109	0xbc48fb4e	-0.012266947
110	0xbf28a0c7	-0.65870327
111	0xbfebc603	-1.8419803
112	0x3fa50560	1.2892265
113	0x3e9d3a90	0.30708742
114	0xbd60d266	-0.05488815
115	0x3f64bb06	0.89347875
116	0xbeaa99be	-0.3332042
117	0xbf8d9778	-1.106185
118	0xbd3c8196	-0.04602202
119	0x3e907d65	0.28220668
120	0x3d49077c	0.049079403
121	0x3f73cbfa	0.9523312
122	0xbdee5b41	-0.11638499
123	0xbed36569	-0.41288307
124	0x3e1a6825	0.1507879
125	0xbde6311a	-0.11239834
126	0x3e3cfd8d	0.18456097
127	0xbee79bbc	-0.45236003
128	0xbe7339a7	-0.23752461
129	0x3bd7402c	0.006568929
130	0xbe5e08d5	-0.21683057
131	0x3e82a486	0.25516146
132	0x3e449890	0.19198823
133	0xbea23a04	-0.31684887
134	0x3cf0d096	0.029396337
135	0xbeb10f90	-0.34582186
136	0xbf69dc5e	-0.9135188
137	0xbd52aa06	-0.05143168
138	0x3e5727b1	0.21011235
139	0x3e667f47	0.2250949
140	0x3e4cf5f5	0.200157
141	0x3eb8f786	0.36126345
142	0xbf5316d7	-0.82456726
143	0xbdf15027	-0.11782866
144	0xbe3d37e5	-0.18478353
145	0xbee9e1d5	-0.4568011
146	0xbe7d8c30	-0.24760509
147	0x3e1a4ba6	0.1506792
148	0xbe25900b	-0.1616823
149	0xbe163504	-0.14668661
150	0x3e882639	0.26591662
151	0xbf4129e3	-0.7545454
152	0x3dc94913	0.09828391
153	0xbd43e896	-0.047829233
154	0x3e80822a	0.25099307
155	0x3dd98300	0.106206894
156	0x3f18f25d	0.59744817
157	0xbea42131	-0.32056573
158	0xbedb1a1b	-0.42793354
159	0x3f8c4b53	1.0960487
160	0x3eb1422b	0.34620795
161	0xbe1456c3	-0.14486222
162	0x3e3a6b66	0.18205032
163	0xbd9eeec9	-0.077603884
164	0x3f3128b8	0.69202757
165	0x3f3ce8f8	0.7379298
166	0xbc67fae9	-0.014158943
167	0xbe1fe2a2	-0.15613797
168	0xbeaad533	-0.33365783
169	0x3f386e8a	0.7204367
170	0x3db37c10	0.087638974
171	0x3ef068fc	0.46955097
172	0x3f37d176	0.7180399
173	0x3f1017b0	0.56286144
174	0xbfabe3d4	-1.3428903
175	0x3e012d2f	0.12614892
176	0xbeba2a1f	-0.3636026
177	0xbf20b3f8	-0.6277461
178	0xbde05213	-0.109531544
179	0x3f091926	0.53554
180	0xbf4ec9f0	-0.8077688
181	0xbc0d027a	-0.0086065475
182	0xbe0a936d	-0.13532801
183	0xbee05ed1	-0.4382234
184	0xbb699a82	-0.0035645072
185	0x3ec19357	0.37807724
186	0xbee309ab	-0.44343314
187	0xbd22b504	-0.03972341
188	0xbdc70849	-0.09718377
189	0x3f2f8681	0.6856461
190	0x3e57181c	0.21005291
191	0x3f0ca165	0.5493377
192	0xbf0235af	-0.50863165
193	0x3f31830c	0.69340587
194	0x3f23f253	0.6404163
195	0x3e9b2356	0.30300397
196	0xbdafaecc	-0.08578262
197	0x3e54ab24	0.2076841
198	0x3e2b6f51	0.16741683
199	0xbe743735	-0.23849185
200	0xbee9c87c	-0.4566077
201	0xbfb19fd7	-1.3876904
202	0xbf986f0e	-1.1908891
203	0xbf33373e	-0.7000617
204	0xbe69ed45	-0.22844417
205	0x3e9bef20	0.30455875
206	0xbe687aa6	-0.22703037
207	0xbefa960b	-0.489426
208	0xbdc13ed6	-0.09435813
209	0x3e9de860	0.3084135
210	0x3fa97a60	1.3240471
211	0x3e493e31	0.1965263
212	0x3ce6af9b	0.028159907
213	0x3ed41135	0.41419378
214	0x3eeecd8c	0.46641195
215	0x3ec3b47b	0.38223633
216	0x3f5f5ac4	0.8724787
217	0x3d2374c6	0.039906286
218	0x3d3f891a	0.04676161
219	0xbe55a69e	-0.2086434
220	0xbee8a9e6	-0.45442122
221	0xbebb491b	-0.36579213
222	0xbe59b1c5	-0.2125922
223	0xbf19ba59	-0.6004997
224	0xbe82cf47	-0.25548765
225	0xbf85e4ff	-1.0460509
226	0xbee962d9	-0.45583227
227	0xbf2802be	-0.65629184
228	0xbfa914e6	-1.3209503
229	0xbded75d9	-0.11594743
230	0xbfab81aa	-1.3398945
231	0xbfe93d5f	-1.8221854
232	0xbf7a7364	-0.9783232
233	0xbf8e5770	-1.1120434
234	0xbefaa3da	-0.48953134
235	0xbf33891b	-0.7013108
236	0xbfcd5080	-1.6040192
237	0xbfe0f0f6	-1.7573535
238	0xbf85130c	-1.0396438
239	0xbfb0adf6	-1.3803089
240	0x3b8c663c	0.004284648
241	0xbf4e6aad	-0.80631524
242	0xbf83587e	-1.0261381
243	0xbf5613e5	-0.83624107
244	0xbf3f2733	-0.7466919
245	0x3eda1323	0.42592725
246	0x3f3b82eb	0.7324664
247	0xbf51012d	-0.8164242
248	0xbfa0794e	-1.2537019
249	0xbe75039e	-0.23927161
250	0x3e9e98ae	0.3097586
251	0x3f072675	0.52793056
252	0x3dd208d0	0.10255587
253	0x3f2e1ff3	0.680175
254	0x3ecf28f1	0.40460923
255	0x3e39b5e0	0.18135786

conv_layers.1.bias f4 [16]
0	0xbffc795a	-1.9724534
1	0x40a251b0	5.0724716
2	0xbf34de81	-0.70652014
3	0x3ff1480b	1.8850111
4	0xc0841f51	-4.128823
5	0xbecc91ca	-0.39954978
6	0xbead59ae	-0.33857483
7	0xc00ca33e	-2.1974635
8	0xbfcc11cf	-1.5942935
9	0xc088d4cc	-4.275976
10	0xc043d5f5	-3.059934
11	0xc02abd29	-2.6677954
12	0x3f40d356	0.75322473
13	0xbc48e071	-0.012260542
14	0x3df14f1d	0.11782668
15	0x409d22bf	4.9104915

fc_layers.0.weight f4 [120, 400]
0	0x3dddac76	0.1082391
1	0xbf015ea1	-0.5053502
2	0xbee225d5	-0.4416949
3	0x3c96df04	0.018416889
4	0xbd981f9c	-0.07427904
5	0xbee35302	-0.44399267
6	0xbb2a7d6f	-0.0026014706
7	0x3dfd96e1	0.123822935
8	0x3e140c8d	0.14457913
9	0xbe8c8fec	-0.27453554
10	0xbc620546	-0.013795203
11	0xbefca456	-0.49344128
12	0xbf066ecf	-0.5251283
13	0x3e933276	0.28749436
14	0x3d2dc7fb	0.042427044
15	0x3eb6b6eb	0.3568643
16	0x3e75816b	0.2397515
17	0x3ee37419	0.44424513
18	0xbdf2b0dd	-0.1185014
19	0xbf04c544	-0.51863503
20	0xbe45d27a	-0.19318572
21	0xbe60064a	-0.21877399
22	0x3d96d59f	0.07364964
23	0xbe7d4609	-0.24733748
24	0xbf4216a0	-0.75815773
25	0xbe0a44df	-0.13502835
26	0x3da95cbc	0.08269641
27	0xbd898f27	-0.06716757
28	0x3e756e4b	0.23967855
29	0xbd6dc7d4	-0.0580519
30	0x3e03fbe8	0.12889063
31	0x3e64256e	0.22279903
32	0x3e3fc846	0.18728742
33	0xbd9492f4	-0.072545916
34	0x3ed6351d	0.41837397
35	0x3e3df1db	0.18549292
36	0x3dab005f	0.0834968
37	0xbda2a0e2	-0.07940842
38	0xbf01b260	-0.50662804
39	0x3daeb188	0.08529955
40	0xbe127cc6	-0.1430541
41	0x3d049854	0.032371834
42	0x3eb96f33	0.3621765
43	0x3ae21875	0.001724972
44	0x3d65895f	0.05603921
45	0xbee00be1	-0.43759063
46	0x3d4e3bf2	0.050350137
47	0xbe0e08ea	-0.13870588
48	0x3d960395	0.07324902
49	0xbe232211	-0.15930964
50	0xbf29c956	-0.6632284
51	0xbe8d0726	-0.27544516
52	0x3e07f2f1	0.13276269
53	0xbea88775	-0.32915846
54	0xbd9c9fde	-0.0764768
55	0xbc962cab	-0.018331846
56	0xbefa178d	-0.48846093
57	0xbe2b49f2	-0.16727427
58	0xba82b8de	-0.0009973308
59	0xbdd542bd	-0.1041312
60	0xbf24e738	-0.6441531
61	0xbdd62303	-0.10455897
62	0xbe44ed79	-0.19231214
63	0xbe9d6ee3	-0.30748662
64	0xbea8c0c3	-0.32959566
65	0xbad8b862	-0.0016534443
66	0x3d5ae055	0.053436596
67	0x3e2b2461	0.16713096
68	0x3dfebdf8	0.124385774
69	0xbe347bf5	-0.17625411
70	0xbf117b97	-0.5682921
71	0x3edfaf41	0.43688396
72	0xbe5b9cf7	-0.21446596
73	0xbf15c64d	-0.5850571
74	0x3e87127b	0.26381287
75	0xbe9a3beb	-0.3012384
76	0x3ea42279	0.3205755
77	0x3e44007a	0.19140807
78	0xbf253bc0	-0.64544296
79	0x3e4d3093	0.20038061
80	0xbf1147e2	-0.5675031
81	0xbeb0f19a	-0.34559327
82	0xbc09d9b3	-0.00841372
83	0xbe8d16fa	-0.27556592
84	0x3d397ff0	0.045288026
85	0x3e4cdab3	0.20005302
86	0x3f3caca4	0.7370093
87	0x3e86b4d4	0.26309836
88	0xbe48003a	-0.19531336
89	0x3ea2005b	0.31640896
90	0xbed0f0d5	-0.4080874
91	0xbdf1e196	-0.11810605
92	0x3dc70690	0.097180486
93	0x3e6f525d	0.23371263
94	0x3eb0ccd7	0.3453128
95	0xbc8b2c94	-0.01698903
96	0xbd16b28d	-0.036791373
97	0xbeda7cbb	-0.42673287
98	0x3f089362	0.5334989
99	0x3e926fc9	0.2860091
100	0xbf33c9d9	-0.7022987
101	0xbe27ff8b	-0.16406076
102	0x3e845f34	0.25853884
103	0x3e183e99	0.14867629
104	0x3ec1eca7	0.37875864
105	0xbf0c6383	-0.5483934
106	0xbefccc12	-0.49374443
107	0xbd6a32f1	-0.057177488
108	0x3d337950	0.043816864
109	0xbdaa06b6	-0.08302061
110	0x3e8629df	0.2620382
111	0xbec62eea	-0.38707668
112	0xbe68bc53	-0.2272809
113	0x3e40f2d5	0.18842633
114	0xbecf9df9	-0.4055021
115	0xbe3651f5	-0.17804702
116	0x3dff19c5	0.12456087
117	0xbe81066d	-0.25200215
118	0x3dc1a083	0.09454443
119	0x3e13b090	0.14422822
120	0xbf367911	-0.7127848
121	0xbeeb206c	-0.45923173
122	0x3c67d288	0.014149316
123	0xbe9fe0c3	-0.31226167
124	0xbe6eb247	-0.23310195
125	0x3e42c892	0.19021824
126	0x3eed3d27	0.46335718
127	0x3d2aa6fe	0.041663162
128	0x3e0fd9c7	0.14047919
129	0xbf753703	-0.95787066
130	0x3d493fcf	0.04913312
131	0xbf09219e	-0.5356692
132	0x3e8b2db3	0.27183303
133	0xbd4d0222	-0.050050862
134	0x3ba45e7d	0.0050161467
135	0x3d23e003	0.040008556
136	0xbf186e78	-0.5954356
137	0xbebaae2b	-0.36461005
138	0x3ea302a6	0.31837958
139	0x3ea9e9ec	0.3318628
140	0x3dda963e	0.10673188
141	0xbe917e5e	-0.28416723
142	0x3f0ef5d6	0.55843866
143	0x3f040407	0.51568645
144	0xbee85756	-0.45379132
145	0xbed9f80e	-0.42572063
146	0x3e168be3	0.147018
147	0x3e0abeef	0.13549398
148	0x3ec8f1d4	0.39247
149	0xbc51fe6a	-0.012817005
150	0xbe9526b3	-0.29131088
151	0xbe996200	-0.2995758
152	0xbf928004	-1.1445317
153	0x3ecb9a0a	0.3976596
154	0x3e81b7c8	0.25335526
155	0xbed86571	-0.42264894
156	0x3dbb3095	0.09140126
157	0xbd6aef82	-0.05735732
158	0x3e34ef9f	0.17669533
159	0xbe2bcd28	-0.1677748
160	0x3ddab5b7	0.106791906
161	0x3dc8c1a9	0.09802563
162	0x3e54729d	0.20746846
163	0xbe8f3b18	-0.27974772
164	0x3dcc4ab0	0.09975183
165	0xbd90e03a	-0.07074018
166	0x3e221d4e	0.15831491
167	0xbea34b15	-0.3189322
168	0x3ecc6e80	0.39928055
169	0x3e8978d0	0.26849985
170	0x3e360d34	0.17778474
171	0x3f24c0d5	0.6435674
172	0xbd958d36	-0.073023245
173	0xbf09070d	-0.53526384
174	0x3edbf4a3	0.4296008
175	0xbe20929b	-0.15680926
176	0x3e2aad1e	0.16667601
177	0x3e87a835	0.2649552
178	0x3d81207c	0.06305024
179	0xbe6a3064	-0.22870022
180	0xbe8b4d74	-0.2720753
181	0x3f20d288	0.62821245
182	0xbd963763	-0.07334783
183	0xbeb4fc76	-0.35348862
184	0xbd5b8fdd	-0.053603996
185	0x3e8e4389	0.277859
186	0xbe297e68	-0.16552126
187	0xbea7b2f6	-0.32753724
188	0xbe42cb2c	-0.19022816
189	0xbe438a87	-0.19095813
190	0xbd750c45	-0.059826154
191	0xbe376e02	-0.17913058
192	0xbedf2ade	-0.43587393
193	0x3e7595e1	0.23982956
194	0xbef3c41f	-0.47610566
195	0xbeffa30f	-0.4992909
196	0x3c870705	0.01648284
197	0xbe918da2	-0.2842837
198	0xbecae041	-0.39624217
199	0xbe9b0fa7	-0.3028538
200	0x3eaca6fd	0.33721152
201	0x3cae971a	0.021312285
202	0x3dc7e1e2	0.097598806
203	0x3e9ed9b4	0.3102547
204	0x3e559447	0.20857345
205	0x3edd13da	0.43179208
206	0xbdc6b7cc	-0.09703025
207	0x3ec4bf56	0.38427228
208	0x3ea9e6ce	0.33183903
209	0x3e160d38	0.1465348
210	0xbed708fe	-0.41999048
211	0xbea83cbc	-0.32858837
212	0x3e9c54f3	0.3053356
213	0xbe92e5ad	-0.28690854
214	0xbde1ad24	-0.11019352
215	0xbe9649cd	-0.2935318
216	0xbdd0ed1e	-0.102014765
217	0xbef6e0ca	-0.48218375
218	0xbe81c1af	-0.2534308
219	0x3e4e7b61	0.20164253
220	0x3dcf2179	0.10113806
221	0x3ebfef1d	0.37487116
222	0x3d11ddf9	0.03561208
223	0xbead547f	-0.33853528
224	0xbe4e48a6	-0.201449
225	0xbf2015ef	-0.6253347
226	0xbe0b3c01	-0.13597108
227	0x3ea2f413	0.3182684
228	0xbc3249e9	-0.010881879
229	0x3ee34088	0.4438517
230	0xbeaad927	-0.333688
231	0x3eeb798b	0.45991167
232	0x3ec34797	0.38140556
233	0xbeeda764	-0.4641677
234	0xbe070614	-0.13185912
235	0xbe8ec6b6	-0.2788598
236	0x3b7a0d6e	0.0038154977
237	0x3ec5a1be	0.38599962
238	0xbef8a8b1	-0.485662
239	0xbd8fa9f0	-0.07014835
240	0xbdab4b97	-0.08364027
241	0xbe74345a	-0.23848096
242	0x3e037801	0.12838747
243	0xbe5cd1b5	-0.21564372
244	0x3f11fc90	0.57026005
245	0xbe934f44	-0.28771412
246	0xbda11406	-0.07865147
247	0x3e8557b5	0.26043478
248	0x3e166ab6	0.14689144
249	0xbd9fd893	-0.0780498
250	0xbf1cd557	-0.6126303
251	0xbe9ee0c6	-0.31030864
252	0xba92770c	-0.0011174395
253	0x3e33ab31	0.17545773
254	0xbe998fea	-0.2999261
255	0xbf098cdf	-0.5373058

fc_layers.0.bias f4 [120]
0	0xbe9d46b5	-0.30718008
1	0xbf113794	-0.5672543
2	0xbef5c94d	-0.48005143
3	0xbf77698e	-0.9664544
4	0x3f1644a4	0.5869849
5	0x3f142339	0.57866246
6	0x3c5aac8c	0.013346802
7	0x3d854098	0.06506461
8	0x3ba99e4a	0.00517634
9	0x3e1008f5	0.14065917
10	0xbefd99de	-0.49531454
11	0xbc0d6339	-0.008629614
12	0x3e2d8aea	0.16947523
13	0xbf09f850	-0.5389452
14	0x3eea8b1c	0.45809257
15	0xbd95d9d7	-0.0731694
16	0x3f768793	0.9630062
17	0x3f3947c3	0.72375125
18	0xbe928783	-0.28619012
19	0xbe8c99b6	-0.27461022
20	0x3e24bc5f	0.16087483
21	0x3d3d60a6	0.04623475
22	0xbf08806e	-0.5332097
23	0xbef01859	-0.46893576
24	0xbe5c374c	-0.21505469
25	0xbe0d403f	-0.13794039
26	0x3e704bfe	0.23466489
27	0xbed0443f	-0.40677068
28	0x3f204669	0.6260744
29	0xbf11020c	-0.5664375
30	0xbecefde3	-0.40428075
31	0xbbec0ca3	-0.007203655
32	0xbdab1b11	-0.08354772
33	0x3e46ea98	0.19425428
34	0x3c50fd29	0.012755671
35	0xbe971af9	-0.29512766
36	0xbe4915d3	-0.19637232
37	0x3ed8b866	0.42328185
38	0x3e8fa58a	0.28055984
39	0x3ee4f7eb	0.44720396
40	0xbe985fa5	-0.2976047
41	0xbf1bfcaf	-0.6093244
42	0xbe335032	-0.17511061
43	0x3dae084b	0.084976755
44	0x3c4ce9ea	0.012506941
45	0xbdf70306	-0.120611235
46	0xbe51f556	-0.20503744
47	0xbe0be1fa	-0.13660422
48	0x3e8d3ad7	0.27583954
49	0x3ed67ffe	0.41894525
50	0x3ef9476b	0.486873
51	0x3dbb3493	0.09140887
52	0xbe905df3	-0.28196678
53	0x3e587768	0.211393
54	0xbfa5b9e4	-1.2947354
55	0xbdbf90ea	-0.09353812
56	0x3d960527	0.073252015
57	0xbec8f601	-0.39250186
58	0xbeb7a36b	-0.35866866
59	0x3eec3fe3	0.46142492
60	0x3f5a1152	0.8518268
61	0xbec82464	-0.39090264
62	0xbe73484e	-0.23758051
63	0x3f0ce646	0.5503887
64	0xbf15c32b	-0.5850093
65	0x3e0becd0	0.13664556
66	0xbd0787dd	-0.033088554
67	0x3e70c61b	0.23513071
68	0x3eda89e7	0.42683336
69	0x3e0e2b05	0.13883598
70	0x3c267397	0.010159395
71	0x3e4adb42	0.19810203
72	0x3ca9838a	0.020692606
73	0x3e93dd20	0.28879642
74	0x3f6f610f	0.93507475
75	0xbe85401e	-0.2602548
76	0x3c3296ef	0.010900243
77	0xbdafcaf2	-0.085836306
78	0xbf2fcc75	-0.6867135
79	0xbe98ac65	-0.29819027
80	0x3ec7e055	0.3903834
81	0x3f0b5fd4	0.544431
82	0x3ed08b3e	0.40731233
83	0xbf2e6660	-0.6812496
84	0xbd0357c6	-0.03206613
85	0xbecc321e	-0.39881986
86	0xbdd48d77	-0.10378545
87	0xbe4e534c	-0.20148963
88	0x3e5a4561	0.21315528
89	0xbf36042b	-0.7110011
90	0x3f16ca49	0.5890241
91	0xbf049e5b	-0.5180413
92	0xbd7f5784	-0.06233932
93	0x3ddf25ca	0.108958796
94	0xbeafed73	-0.34360847
95	0xbe9ce65c	-0.306445
96	0xbef0d353	-0.47036228
97	0x3f192de5	0.59835654
98	0x3f1489be	0.5802268
99	0x3f63c977	0.88979286
100	0x3f1cc55b	0.6123864
101	0xbf038672	-0.5137702
102	0xbf313ae8	-0.6923051
103	0x3dcb589c	0.0992901
104	0x3e223d0d	0.15843602
105	0xbea8fa49	-0.33003452
106	0xbf709c96	-0.9398893
107	0xbeb42e75	-0.35191694
108	0xbee71ef0	-0.4514079
109	0xbca83cbb	-0.020536771
110	0xbe22e134	-0.1590622
111	0xbeb1a10e	-0.34693187
112	0x3d608e7a	0.054823376
113	0x3e20f713	0.15719251
114	0xbe785d5b	-0.24254362
115	0x3e321706	0.17391595
116	0xbe97b5d0	-0.296309
117	0xbe80eb49	-0.25179508
118	0xbe84b73e	-0.25921053
119	0x3cf9d2f5	0.0304961

fc_layers.1.weight f4 [84, 120]
0	0xbdca633f	-0.09882211
1	0xbea91863	-0.33026418
2	0x3c8ed74a	0.017436642
3	0xbe1b2dec	-0.15154237
4	0x3bd74a0c	0.0065701064
5	0xbf198010	-0.5996103
6	0xbd3520a2	-0.044220574
7	0xbe36514e	-0.17804453
8	0xbd9192ed	-0.07108102
9	0xbe0da9a0	-0.13834238
10	0xbf131408	-0.5745244
11	0xbeddd45f	-0.4332609
12	0xbe9d4326	-0.30715293
13	0x3e3eacff	0.1862068
14	0x3c329d61	0.01090178
15	0x3e95e0c5	0.29273048
16	0xbe9a011e	-0.30078977
17	0xbedd2765	-0.43194118
18	0xbdc20f62	-0.0947559
19	0xbe56181e	-0.20907637
20	0xbe485262	-0.19562677
21	0x3e3bdcc3	0.18345933
22	0xbdcce283	-0.10004141
23	0xbc99e59e	-0.018786248
24	0x3d366c57	0.044536915
25	0x3c1c6ccc	0.009547424
26	0x3dbb2f82	0.09139921
27	0x3dbe3712	0.092878476
28	0xbe6b27d5	-0.22964413
29	0xbcc54bca	-0.02408399
30	0xbe3e3a6f	-0.18576978
31	0xbebfb571	-0.37443116
32	0xbe7673be	-0.2406759
33	0xbe96a743	-0.29424486
34	0xbeba0fde	-0.3634023
35	0x3e4da548	0.20082581
36	0x3cb4ff56	0.02209441
37	0xbd940b4e	-0.07228719
38	0xbe4963c8	-0.1966697
39	0xbeae3ebf	-0.34032246
40	0xbe1046e7	-0.14089547
41	0x3d86e531	0.065866835
42	0x3c65179f	0.0139826825
43	0x3e1c2d3b	0.15251629
44	0x3e8e98e3	0.27851018
45	0x3d7a429d	0.061098684
46	0xbe0ec13c	-0.139409
47	0xbe81fe09	-0.25389126
48	0xbe83bc65	-0.2572967
49	0x3c1fe173	0.009758341
50	0xbe90ed1a	-0.28305894
51	0x3e6c2482	0.23060802
52	0xbe8113b3	-0.25210342
53	0xbd396e94	-0.04527147
54	0xbdbaf0bc	-0.09127948
55	0xbe4ea649	-0.2018062
56	0xbd23366f	-0.039846834
57	0xbdf2ccf2	-0.118554965
58	0x3e71c2a2	0.23609403
59	0xbe98ff64	-0.29882348
60	0xbe4aec31	-0.19816662
61	0x3e5472cf	0.20746921
62	0xbd515666	-0.051107787
63	0xbd90605d	-0.0704963
64	0xbe7747a3	-0.24148421
65	0x3d861575	0.06547061
66	0xbed4c98a	-0.41560012
67	0xbecc416b	-0.3989366
68	0xbd390069	-0.045166407
69	0xbedde5ef	-0.43339488
70	0xbf17dabb	-0.5931813
71	0x3c879847	0.016552104
72	0x3e5a189a	0.21298447
73	0xbe508554	-0.2036336
74	0xbe8fd81d	-0.2809457
75	0xbea65b67	-0.3249161
76	0xbea03240	-0.31288338
77	0x3e395589	0.18099035
78	0xbe714f59	-0.23565425
79	0xbdc1e016	-0.09466569
80	0xbe2733ed	-0.16328402
81	0xbdcd586c	-0.10026631
82	0xbe992539	-0.2991121
83	0xbe8ea0ca	-0.27857047
84	0x3f0f41dd	0.55959874
85	0xbd2638df	-0.04058158
86	0xbe0aac40	-0.1354227
87	0x3e229810	0.1587832
88	0xbe74125e	-0.23835132
89	0x3de1c0f9	0.11023135
90	0x3da5fa16	0.08104341
91	0x3db51a8d	0.08842955
92	0x3e1e1b9e	0.15440223
93	0xbe9e28ea	-0.3089059
94	0x3d91f951	0.071276315
95	0xbdbc7890	-0.09202683
96	0xbe9b1a09	-0.302933
97	0xbec0af1d	-0.376336
98	0xbee76bdd	-0.4519948
99	0x3a974868	0.0011541964
100	0xbe893afe	-0.2680282
101	0xbe195b9e	-0.14976355
102	0x3e969a1c	0.2941445
103	0x3e29ae50	0.16570401
104	0xbdf66420	-0.12030816
105	0x3dae69be	0.085162625
106	0xbeceb360	-0.40371227
107	0xbe5d2c6b	-0.21598975
108	0xbd022692	-0.031775065
109	0xbec568cf	-0.38556525
110	0xbe8044db	-0.25052533
111	0xbe7b7cc0	-0.24559307
112	0xbea1a045	-0.31567588
113	0xbe35c304	-0.17750174
114	0xbce4f9a1	-0.027951064
115	0x3e7fd50e	0.24983618
116	0x3e4d74c7	0.20064078
117	0xbeaec4e8	-0.34134603
118	0x3d700a91	0.058603827
119	0xbe833506	-0.2562639
120	0xbeb7d243	-0.35902604
121	0xbdb3ca5d	-0.08778832
122	0x3c601723	0.013677391
123	0xbf098ba8	-0.53728724
124	0xbebf5873	-0.3737217
125	0xbe6859eb	-0.22690551
126	0xbdeae475	-0.11469356
127	0x3e7774a7	0.24165593
128	0xbe7a195b	-0.24423735
129	0xbe92d419	-0.28677443
130	0x3e819630	0.25309896
131	0xbe027a0c	-0.1274187
132	0xbd0f0691	-0.03491837
133	0xbc92acf9	-0.017904745
134	0xbe73afe9	-0.23797573
135	0xbf1b1321	-0.60576063
136	0x3e13c0dc	0.14429039
137	0x3e589732	0.21151426
138	0xbebf5052	-0.37365967
139	0x3e1a6ffb	0.1508178
140	0xbe1d8dc7	-0.15386115
141	0xbef4643f	-0.47732732
142	0xbd9894d0	-0.07450259
143	0x3bb3d394	0.0054878686
144	0x3df759d0	0.12077677
145	0xbdf9802f	-0.12182652
146	0xbe7bfd6c	-0.24608392
147	0xbdd55b85	-0.104178466
148	0xbf0ee5b7	-0.5581927
149	0xbea06427	-0.3132641
150	0xbe47e88c	-0.19522303
151	0x3d90be90	0.07067597
152	0xbf1ea3d5	-0.6196874
153	0x3d60ec1b	0.054912668
154	0x3b4a739d	0.0030891665
155	0xbe667b6e	-0.22508022
156	0xbe888364	-0.26662743
157	0x3e2aa757	0.16665398
158	0x3dbeabd2	0.09310116
159	0x3ee960e3	0.4558173
160	0xbe3f96e7	-0.18709908
161	0x3d709230	0.058733165
162	0xbed8f96f	-0.42377803
163	0xbed330e1	-0.4124823
164	0xbcf8297e	-0.030293223
165	0x3d8892b5	0.06668607
166	0xbd8702cb	-0.065923296
167	0xbee0dac3	-0.43916902
168	0x3dc44bfc	0.09584805
169	0xbde29a1d	-0.11064551
170	0x3d4ab92e	0.049493007
171	0x3e6574a7	0.2240778
172	0xbecd7964	-0.40131676
173	0x3e4308fe	0.19046399
174	0xbe76e860	-0.24112082
175	0xbd5826bb	-0.05277131
176	0x3d627aaa	0.055292763
177	0xbedc92e7	-0.43080828
178	0xbdff8ced	-0.12478051
179	0xbdb6d403	-0.08927157
180	0xbf362d9b	-0.7116334
181	0xbe0a4f81	-0.13506891
182	0xbdcaddc4	-0.0990558
183	0xbec2abbc	-0.38021648
184	0xbdac8788	-0.08424288
185	0x3d1d3988	0.038384944
186	0xbd0de306	-0.034640335
187	0xbea1d8ed	-0.31610814
188	0xbe10b641	-0.14132024
189	0x3de47120	0.111543894
190	0xbd7de05e	-0.06198155
191	0xbedce364	-0.43142235
192	0xbcbb8efa	-0.022895325
193	0xbe0b88df	-0.13626431
194	0x3e235831	0.15951611
195	0xbe8d6b5e	-0.27620977
196	0x3d969960	0.07353473
197	0xbd9c6d07	-0.07637983
198	0xbdb54e84	-0.08852866
199	0xbd89ee02	-0.067348495
200	0x3ce36ee3	0.027762836
201	0x3da02193	0.07818904
202	0x3d7ebae8	0.062189966
203	0x3ce3ee47	0.02782358
204	0xbe7168ff	-0.23575209
205	0xbde73046	-0.11288504
206	0x3e0f2543	0.13979058
207	0x3e0ea9db	0.13931982
208	0xbef25eb5	-0.4733788
209	0x3d1dda78	0.038538426
210	0xbee38eea	-0.44444972
211	0xbd812b6e	-0.06307112
212	0xbe0d120a	-0.13776413
213	0xbe928543	-0.28617296
214	0x3e29c7df	0.16580151
215	0x3d8af690	0.06785309
216	0xbd01cac7	-0.031687524
217	0xbe3eba63	-0.18625788
218	0xbefd0366	-0.49416655
219	0xbe85c702	-0.26128393
220	0xbeff8052	-0.49902588
221	0xbddba32a	-0.107244805
222	0xbdf803af	-0.121100776
223	0x3e37b3a8	0.17939627
224	0xbee44dd5	-0.4459063
225	0xbdf9bc78	-0.12194151
226	0xbf104910	-0.56361485
227	0xbb866ad6	-0.0041020913
228	0xbe8dc093	-0.27685985
229	0xbdaffe15	-0.08593384
230	0xbc72e692	-0.01482548
231	0xbe8b00c4	-0.27149022
232	0x3e9b6669	0.3035157
233	0xbea012d9	-0.3126438
234	0xbdf06a27	-0.11738997
235	0xbf0338bb	-0.5125844
236	0xbe8a3d76	-0.27000016
237	0xbeb8003f	-0.35937688
238	0x3d3385c0	0.043828726
239	0xbc8da4d7	-0.017290516
240	0x3d9c8707	0.07642942
241	0xbd844a4c	-0.064594835
242	0xbca05219	-0.019570397
243	0x3d81dfd3	0.06341519
244	0xbe53d4ed	-0.20686693
245	0xbec18c23	-0.37802228
246	0x3e8d3985	0.27582946
247	0x3e082e7e	0.13298985
248	0xbcbe82cf	-0.023255734
249	0xbd976c97	-0.07393759
250	0x3dc3f638	0.09568447
251	0xbef47319	-0.47744063
252	0x3dd478e9	0.10374624
253	0x3b8fb40c	0.004385477
254	0xbe07d4af	-0.13264726
255	0xbe6e420d	-0.23267384

fc_layers.1.bias f4 [84]
0	0xbf153c17	-0.58294815
1	0x3fa0d9c2	1.2566454
2	0x3f73e6bc	0.9527395
3	0x3f1b9679	0.6077648
4	0xbf0d4664	-0.5518553
5	0x3f9218ca	1.1413815
6	0x3e0ac83c	0.13552946
7	0xbf32af39	-0.6979862
8	0x3df32b40	0.11873484
9	0xbf496e47	-0.78683895
10	0xbec26064	-0.37964165
11	0xbe18ae69	-0.14910282
12	0xbf7557c0	-0.9583702
13	0xbf4ab005	-0.79174834
14	0xbedcf5cd	-0.4315628
15	0x3f5dd200	0.8664856
16	0xbea520d3	-0.32251605
17	0xbf177743	-0.59166354
18	0xbebf9f1c	-0.37426078
19	0xbeca3cdf	-0.39499566
20	0xbe9dd07f	-0.30823132
21	0xbf8a28a7	-1.0793656
22	0x3efeaade	0.49739736
23	0xbe0b7b4f	-0.13621257
24	0xbe833333	-0.25625
25	0x3fb4ec1d	1.4134556
26	0xbe609ff8	-0.21936023
27	0xbe3384fd	-0.175312
28	0xbf13203e	-0.5747107
29	0x3ebfdd4f	0.37473533
30	0xbf0ce0fc	-0.550308
31	0xbd83cb0b	-0.06435212
32	0xbf3f66b5	-0.74766093
33	0xbf3c7db3	-0.736293
34	0x3ec59204	0.38587964
35	0xbe9b2f85	-0.30309692
36	0xbf518ff4	-0.8186028
37	0x3fa32e81	1.2748567
38	0x3f065e16	0.52487314
39	0xbb9bf546	-0.0047594635
40	0x3ecc33d0	0.3988328
41	0xbec2402b	-0.3793958
42	0xbf258e74	-0.6467049
43	0x3fb3eb6a	1.4056218
44	0x3fc14ad0	1.5100956
45	0x3ec20b35	0.37899175
46	0xbf115e33	-0.5678436
47	0x3f22f07e	0.6364821
48	0x3ec30c20	0.38095188
49	0x3f738ac1	0.95133597
50	0x3ffceedc	1.9760394
51	0x3dc1fe2a	0.09472306
52	0x3ed5c8c2	0.4175473
53	0xbfa956d7	-1.3229626
54	0xbf386dad	-0.7204235
55	0xbfb81fd8	-1.4384718
56	0xbe6a892e	-0.22903892
57	0x3fdeb105	1.7397772
58	0xbea1937b	-0.3155783
59	0x3e3d5cb9	0.18492402
60	0xbf9f333e	-1.2437513
61	0xbd917c7b	-0.07103821
62	0xbf2c6e9b	-0.6735627
63	0xbda3e7a4	-0.08003166
64	0xbf514574	-0.817466
65	0xbe3583b2	-0.17726019
66	0x3d564141	0.052308325
67	0x3f37fc2a	0.71869147
68	0xbd2bfda8	-0.041989952
69	0xbf0db506	-0.55354345
70	0xbea417ae	-0.32049316
71	0xbf114c2d	-0.5675686
72	0xbd0b0362	-0.033938773
73	0xbf0ca786	-0.5494312
74	0x3ea5c372	0.32375675
75	0xbf9a0d6a	-1.2035344
76	0xbf06a532	-0.5259582
77	0x3f392b11	0.7233134
78	0xbedb9017	-0.4288337
79	0xbde9ece7	-0.11422139
80	0x3f4e71d2	0.80642426
81	0xbea4b374	-0.32168162
82	0x3fb85815	1.440188
83	0x3e7c43d5	0.24635251

output_layer.weight f4 [10, 84]
0	0x3e5f0c96	0.21782145
1	0xbd926be4	-0.07149485
2	0xbc450917	-0.012026093
3	0x3d6c6e83	0.05772258
4	0x3cf5bb2b	0.029996475
5	0x3cd32afc	0.025777332
6	0x3ceab1ea	0.02864929
7	0xbbd38eb8	-0.0064562224
8	0x3c0765b0	0.00826399
9	0x3e473f9e	0.19457862
10	0xbdd96fa0	-0.10616994
11	0x3d7f59a4	0.062341347
12	0x3e22815c	0.15869659
13	0xbd819608	-0.06327444
14	0xbdac57e2	-0.084152
15	0xbd43f811	-0.047843996
16	0x3dcd7ba3	0.100333475
17	0xbd316af6	-0.043314897
18	0x3c5b9ae0	0.013403624
19	0xbd7f49f5	-0.06232639
20	0xbced9229	-0.029000359
21	0x3e7a9af5	0.24473174
22	0x3d2b524f	0.041826542
23	0x3dac6520	0.084177256
24	0x3d777a06	0.060419105
25	0x3dcfa19a	0.10138245
26	0xbdb9358f	-0.090434186
27	0xbdb2e6c9	-0.08735425
28	0x3e26eb59	0.16300716
29	0xbd1ffe40	-0.03906083
30	0xbe25a9a6	-0.16177997
31	0xbda2a766	-0.07942085
32	0xbc644387	-0.013932115
33	0xbe4f1d14	-0.20225936
34	0x3dc50999	0.09620971
35	0x3debda5b	0.115162574
36	0xbd8d095d	-0.068865515
37	0xbddc74d1	-0.107644685
38	0xbba65742	-0.00507632
39	0xbd3c7165	-0.04600658
40	0x3e6391bc	0.22223562
41	0x3cec48bf	0.028843282
42	0x3db4cfcf	0.08828699
43	0xbe33045a	-0.17482129
44	0x3dee8ba1	0.11647726
45	0xbe16939c	-0.14704746
46	0x3d707dda	0.05871377
47	0xbd97238d	-0.07379828
48	0xbe5a9916	-0.2134746
49	0xbd05fa41	-0.032709364
50	0xbcdf9027	-0.027290417
51	0x3d5e4487	0.05426457
52	0x3ce2ddae	0.027693596
53	0x3d04b55d	0.032399524
54	0x3e7f7ddd	0.24950357
55	0x3db483b7	0.08814185
56	0xbd07e091	-0.033173148
57	0xbe01ea8a	-0.12687126
58	0xbcdb98e3	-0.0268063
59	0x3e23218a	0.15930763
60	0x3d53081e	0.051521413
61	0x3d6d01d2	0.057863064
62	0x3e3acee7	0.1824299
63	0xbd9a6f26	-0.07540731
64	0x3d9689e5	0.0735052
65	0x3cd3296b	0.025776586
66	0xbd98adba	-0.07455011
67	0xbd784cc6	-0.06062009
68	0xbd841747	-0.06449752
69	0x3e4ad8fd	0.19809337
70	0xbd9c0391	-0.07617868
71	0x3d7152dc	0.05891691
72	0xbe814c94	-0.25253737
73	0xbe1c56d9	-0.15267505
74	0xbc8752b7	-0.016518934
75	0x3e690f88	0.22759831
76	0x3d6ee4d5	0.0583237
77	0xbd1043f1	-0.035221044
78	0x3d198c31	0.037487213
79	0x3cf62d53	0.03005091
80	0xbcb4ef48	-0.022086754
81	0xbd2bb762	-0.041922934
82	0x3c5d4e15	0.013507386
83	0x3d03cfd9	0.03218064
84	0x3eb7fbc7	0.35934278
85	0xbe14f327	-0.1454588
86	0xbbd58b94	-0.006516883
87	0xbd2b9de8	-0.041898638
88	0x3e6995a7	0.22810994
89	0x3e8d5443	0.2760335
90	0xbd38995b	-0.045068126
91	0x3e55edfc	0.20891565
92	0x3d460baf	0.048350986
93	0x3e00f5c0	0.12593746
94	0x3df06943	0.11738827
95	0x3ec15533	0.37760314
96	0xbe0f6692	-0.14003971
97	0xbd7d70c8	-0.061875135
98	0x3d827aa1	0.06371046
99	0x3dd77329	0.10520012
100	0x3e3c339c	0.18379062
101	0x3e9762c4	0.2956754
102	0xbd29edf9	-0.041486714
103	0xbd2d322e	-0.042284183
104	0x3c238532	0.009980487
105	0x3e0061d9	0.12537326
106	0xbcbfbea7	-0.02340634
107	0xbe04c202	-0.12964633
108	0xbe6435e5	-0.22286184
109	0xbed76ae7	-0.42073748
110	0x3d843039	0.0645451
111	0x3e75d5ea	0.24007383
112	0x3e4bbf68	0.19897234
113	0xbd178f03	-0.03700162
114	0x3d9ae8ed	0.07563958
115	0x3adbabd2	0.001675958
116	0xbde3f433	-0.11130562
117	0xbda2d97d	-0.07951639
118	0x3bef2fd1	0.0072994013
119	0xbd11a977	-0.035562005
120	0x3e3b1a22	0.18271688
121	0xbea27e56	-0.31737012
122	0xbc4691d1	-0.012119726
123	0xbd89bef4	-0.067258745
124	0x3dc53883	0.096299194
125	0x3d13229d	0.03592168
126	0xbe3b6c1e	-0.18302962
127	0xbe33aaad	-0.17545576
128	0xbd01dd7d	-0.03170537
129	0xbe2b66e6	-0.16738471
130	0xbe0b44e6	-0.13600501
131	0xbcf1dd84	-0.029524572
132	0x3dc14af5	0.09438125
133	0xbd885710	-0.06657231
134	0xbdb7be5f	-0.08971857
135	0x3e5e86ad	0.21731062
136	0x3e84b36c	0.25918138
137	0xbd7a2aaf	-0.061075862
138	0x3d72498d	0.059152175
139	0xbcae80e5	-0.021301696
140	0xbe1f0f3d	-0.15533157
141	0xbd91d229	-0.07120163
142	0xbe5dfc25	-0.21678217
143	0x3e5e9243	0.21735482
144	0xbdad4e35	-0.084621824
145	0xbccbbc29	-0.024869995
146	0xbe0ecbbc	-0.13944906
147	0xbd9e27df	-0.077224486
148	0xbc85a94d	-0.01631608
149	0x3e2b7d9a	0.16747132
150	0x3d8e95bc	0.06962153
151	0x3dab0ff6	0.08352654
152	0x3d48fc4f	0.049068745
153	0xbd8925f3	-0.06696691
154	0xbd63e8f0	-0.05564207
155	0x3c983366	0.018579196
156	0xbdf06e0c	-0.1173974
157	0xbd9e726f	-0.0773667
158	0xbda15717	-0.07877939
159	0xbe0d0fb6	-0.13775524
160	0x3e08fa3b	0.13376705
161	0xbd565573	-0.052327584
162	0x3cd381ed	0.02581879
163	0xbb7914b6	-0.003800673
164	0x3d8de149	0.06927735
165	0x3b8573ce	0.004072643
166	0xbdc6bbaf	-0.097037666
167	0x3d7810bb	0.06056283
168	0xbe1af1a9	-0.15131249
169	0x3c04ad67	0.008097983
170	0x3e727b38	0.23679817
171	0x3d1e2ccb	0.038616937
172	0xbe1f1afe	-0.1553764
173	0xbd918fbc	-0.07107493
174	0xbe580fea	-0.2109982
175	0xbd9bf276	-0.07614605
176	0x3d054094	0.03253229
177	0x3dc4cc92	0.09609331
178	0x3c2a7a68	0.0104051605
179	0xbe0aa786	-0.13540468
180	0x3cef1447	0.029184474
181	0x3dcb9b12	0.09941687
182	0xbc342926	-0.010996139
183	0xbce5ca6e	-0.028050628
184	0xbc9129f0	-0.017720193
185	0xbddb6240	-0.10712099
186	0xbcac87f9	-0.02106093
187	0xbe503441	-0.20332433
188	0xbe2d7429	-0.16938843
189	0x3cb7ed57	0.02245204
190	0xbe061fcd	-0.13098069
191	0x3e8c2efc	0.27379596
192	0x3c3e4cb6	0.011614969
193	0x3e3d9c54	0.18516666
194	0xbbdc58a0	-0.006724432
195	0xbdde2e80	-0.10848713
196	0xbdfc9388	-0.12332827
197	0x3d78a72a	0.060706295
198	0x3de89fd0	0.11358607
199	0xbd9015fa	-0.07035442
200	0x3e1a6b50	0.15079999
201	0x3e17d336	0.14826664
202	0x3d41d476	0.04732176
203	0xbda25230	-0.07925832
204	0xbda6b45c	-0.081398696
205	0x3d437235	0.04771634
206	0xbd2cbcdb	-0.042172294
207	0x3d67abb7	0.056560244
208	0x3da70aac	0.081563324
209	0xbcb2ddd1	-0.021834286
210	0x3e47b630	0.19503093
211	0x3df6f1e3	0.12057855
212	0x3da28fa1	0.07937551
213	0x3cc758f4	0.024334408
214	0x3e628b17	0.22123371
215	0xbe0eaf55	-0.13934071
216	0x3c6ea712	0.0145662
217	0x3e1d7012	0.15374783
218	0x3ca58773	0.020206189
219	0xbe25713f	-0.16156481
220	0x3d57679c	0.052589044
221	0x3e861d91	0.26194432
222	0xbcb777a3	-0.022395914
223	0x3e0d6b88	0.13810551
224	0x3a930a49	0.0011218275
225	0xbc8838a1	-0.016628565
226	0xbae8dc0d	-0.0017765776
227	0xbce9a7bd	-0.028522367
228	0x3e320a81	0.1738682
229	0xbd1fb2b8	-0.0389888
230	0x3d343c2a	0.04400269
231	0xbd98069d	-0.074231364
232	0x3e59eb84	0.21281248
233	0xbe090ff2	-0.13384989
234	0xbdf6335d	-0.120215155
235	0x3de2ab2d	0.110678054
236	0xbb862b29	-0.0040945006
237	0xbd35f004	-0.04441835
238	0x3e53a5b3	0.20668678
239	0x3e333817	0.17501865
240	0x3dcdeba3	0.1005471
241	0xbd74304d	-0.059616376
242	0xbda2cc07	-0.079490714
243	0x3de3cc1a	0.11122914
244	0xbd8a2628	-0.06745559
245	0xbca4f6eb	-0.02013727
246	0xbe2c6fa2	-0.1683946
247	0xbd01e6e9	-0.031714354
248	0xbd8f0ef0	-0.06985271
249	0x3e0cb9d2	0.1374276
250	0x3dd4fea9	0.10400135
251	0xbe334f98	-0.17510831
252	0xbe046b2c	-0.12931508
253	0xbc641f00	-0.013923407
254	0x3d2d4403	0.04230119
255	0x3d065a72	0.0328011

output_layer.bias f4 [10]
0	0xbe1ceb1d	-0.15324064
1	0xbfa4888e	-1.2854173
2	0xbc03a541	-0.008035005
3	0x3f94a9a3	1.1614269
4	0x3f32f9fb	0.6991269
5	0x3e58e7fe	0.21182248
6	0xbe4f8b8d	-0.20268078
7	0xbed5e1bd	-0.41773787
8	0x3e06806f	0.13134931
9	0xbe9e8f57	-0.30968735
