Lab1/model/model_CIFAR10/conv_params_sigmoid.pth (torch, 252000 bytes, 10 tensors)

conv_layers.0.weight f4 [6, 3, 5, 5]
0	0xbf3ab277	-0.72928566
1	0x3de9c67f	0.11414813
2	0x3edd6daf	0.43247744
3	0x3f4eb168	0.8073945
4	0xbf0ab3e0	-0.5418072
5	0xbe714f9b	-0.23565523
6	0x3f208d9b	0.6271607
7	0x3f574de2	0.84103215
8	0xbe0f2f48	-0.1398288
9	0xbf35be10	-0.7099314
10	0x3eccd6c2	0.40007597
11	0x3f44a624	0.7681601
12	0x3e7fbe83	0.24975018
13	0xbecc23fb	-0.398712
14	0xbebbe68f	-0.3669934
15	0x3f4b4963	0.79408854
16	0x3f3f6655	0.7476552
17	0x3c27224f	0.010201051
18	0xbe43a74f	-0.19106792
19	0x3d184673	0.03717656
20	0x3e4aaf67	0.19793473
21	0x3da06b49	0.07832963
22	0x3e1f9f5d	0.15588136
23	0x3e976bbb	0.2957438
24	0xbe41f979	-0.18942823
25	0x3e6281a5	0.22119768
26	0x3e6e89b7	0.23294722
27	0x3dcef063	0.10104444
28	0x3ede2fed	0.4339594
29	0xbf375212	-0.71609604
30	0x3f3e2380	0.7427292
31	0x3eda253d	0.42606536
32	0xbe06924f	-0.1314175
33	0xbf828876	-1.0197895
34	0xbf85e6aa	-1.0461018
35	0x3f5c2d6f	0.86006826
36	0x3df3e583	0.1190901
37	0xbf54efbc	-0.83178306
38	0xbf8aa88e	-1.0832689
39	0xbedae9e3	-0.42756566
40	0x3f376df1	0.7165213
41	0xbd931314	-0.07181373
42	0xbf6dd6a4	-0.9290564
43	0xbf8361fe	-1.026428
44	0xbddba24e	-0.107243165
45	0x3e622212	0.2208331
46	0xbf2f8de7	-0.685759
47	0xbf626528	-0.884356
48	0xbf05ece9	-0.5231462
49	0x3c3fd524	0.0117085315
50	0xbe12a735	-0.14321597
51	0x3f2341ba	0.63772166
52	0x3ea17358	0.31533313
53	0x3e8017e7	0.25018236
54	0xbf24428a	-0.6416403
55	0x3e8cabf7	0.2747495
56	0x3f8f82fa	1.1211846
57	0x3eec2e25	0.46128955
58	0xbf4351b4	-0.76296544
59	0xbf784def	-0.9699392
60	0x3f3246fa	0.6963955
61	0x3f8780e8	1.0586214
62	0x3e4164c3	0.18886094
63	0xbf5d8edf	-0.8654613
64	0xbf6457b1	-0.89196306
65	0x3ee890da	0.45423013
66	0x3f41bddc	0.7568033
67	0xbd8132b5	-0.063085
68	0xbf1ded81	-0.6169053
69	0xbcb61673	-0.022227501
70	0x3e284fcf	0.16436695
71	0x3e2d5df8	0.16930377
72	0x3b5282b1	0.0032121355
73	0x3e137307	0.14399348
74	0x3f4ad8ca	0.79237044
75	0x3fbbfed4	1.4687142
76	0xbdd9f90a	-0.106432036
77	0xbeaf6bd7	-0.34261963
78	0xbf0019d9	-0.5003944
79	0x3fb2f9ad	1.3982445
80	0xbe8e88b3	-0.27838668
81	0xbfc23895	-1.5173517
82	0xbfb141e9	-1.3848239
83	0xbfaf5e60	-1.3700676
84	0x3e6149c5	0.22000797
85	0xbee16dac	-0.44028986
86	0xbfb21a35	-1.3914248
87	0xbfdc4390	-1.7208118
88	0xbfab8836	-1.3400943
89	0xbf3d3ee7	-0.73924106
90	0xbe6a1355	-0.22858937
91	0xbf9122d7	-1.1338757
92	0xbfa6cfaf	-1.303213
93	0xbf9c0a40	-1.2190628
94	0x3e0189cc	0.12650222
95	0x3fd8b39c	1.6929812
96	0x3f49a586	0.78768194
97	0x3f122f59	0.57103497
98	0x3edc01db	0.42970166
99	0x3f8504c7	1.0392083
100	0xbdf56c21	-0.119835146
101	0xbea2a512	-0.31766564
102	0x3e400a47	0.1875392
103	0xbe0f9413	-0.1402133
104	0x3e9a64b6	0.3015496
105	0x3ca589ec	0.020207368
106	0x3dbbeca3	0.09175994
107	0x3f09afc0	0.537838
108	0x3df6b963	0.120470785
109	0x3eae8f10	0.34093523
110	0x3d6545d3	0.055974793
111	0x3f8cbbc9	1.0994807
112	0x3f57370c	0.8406837
113	0x3f1b78f1	0.60731417
114	0xbe7fb125	-0.24969919
115	0xbf0aa0dc	-0.541517
116	0x3e3da83f	0.18521212
117	0x3eb3d6c7	0.351248
118	0xbe68c0ce	-0.22729799
119	0xbdfb562f	-0.122722976
120	0xbf11edff	-0.5700378
121	0xbea91e67	-0.33031008
122	0xbec4ca58	-0.38435626
123	0xbf1c8d62	-0.61153233
124	0xbf2341ab	-0.63772076
125	0xbe552a63	-0.2081695
126	0x3e05b5aa	0.1305758
127	0x3f005b67	0.5013947
128	0xbea23658	-0.31682086
129	0xbf5551c1	-0.8332787
130	0xbd97b821	-0.07408167
131	0x3f52c820	0.82336617
132	0x3f91f1ec	1.1401954
133	0x3eee276e	0.46514457
134	0xbf0c8a02	-0.54898083
135	0x3ee3c113	0.4448324
136	0x4001b08d	2.0264008
137	0x3fd9efea	1.7026341
138	0x3faef4c1	1.3668443
139	0xbe34c025	-0.17651422
140	0xbe2d5a32	-0.16928938
141	0x3f695fe9	0.9116197
142	0x3f725fb3	0.94677275
143	0x3f4b098b	0.79311436
144	0x3f16a84e	0.5885056
145	0xbf9152ff	-1.1353453
146	0xbed3f0d3	-0.41394672
147	0xbdabb7f6	-0.08384697
148	0xbdf2775e	-0.11839174
149	0x3e57c6a3	0.21071868
150	0xbdca26a0	-0.098706484
151	0x3ec1d4f3	0.3785778
152	0xbe5c3624	-0.21505028
153	0x3e87772f	0.26458117
154	0xbc569238	-0.013096385
155	0xbea5fc11	-0.32418874
156	0x3f00b85a	0.502813
157	0xbf904b88	-1.127305
158	0x3f97f91f	1.1872901
159	0xbf6163a7	-0.8804268
160	0xbd914b8d	-0.07094488
161	0x4021d5b1	2.5286677
162	0xc0a3e253	-5.1213775
163	0x40286f6d	2.631801
164	0xbdf15f1f	-0.11785721
165	0xbe4419a2	-0.19150403
166	0x4051d248	3.2784595
167	0xc08ee5b3	-4.4655395
168	0x3f89b64e	1.075876
169	0x3cd5ecbd	0.026113862
170	0xba5918e9	-0.0008281605
171	0x3f02590c	0.50917125
172	0xbf27718d	-0.6540764
173	0x3f13e166	0.57765806
174	0xbec844e7	-0.39115068
175	0xbebfad65	-0.37436977
176	0xbb87ca8b	-0.004144018
177	0xbf8431eb	-1.0327734
178	0x3ef2ba46	0.4740774
179	0x3f0229d2	0.5084506
180	0xbdfc158c	-0.12308797
181	0x3f5ea7e2	0.8697492
182	0xbfbd1926	-1.47733
183	0x3fd4f012	1.6635764
184	0xbf13f378	-0.5779338
185	0xbde6686d	-0.112503864
186	0x403c883c	2.945815
187	0xc0a185ee	-5.047599
188	0x4046b9bf	3.105087
189	0x3e848d24	0.25888932
190	0xbe957676	-0.2919194
191	0x4058ff3b	3.390578
192	0xc0847dfb	-4.1403785
193	0x3fd96504	1.6983953
194	0x3e9b3642	0.30314833
195	0xbe922cf6	-0.28549927
196	0x3c4d5b15	0.012533923
197	0xbf720398	-0.94536734
198	0x3f45b89a	0.77234805
199	0xbf3ff84c	-0.74988246
200	0x3e3533af	0.17695497
201	0x3eaeefb7	0.34167263
202	0xbdf6b134	-0.120455176
203	0x3ee5f662	0.44914538
204	0xbf285d74	-0.657676
205	0x3d9fea54	0.078083664
206	0x3f03eaac	0.51529956
207	0xbf8295b8	-1.020194
208	0x3fac30c5	1.3452383
209	0xbfabffd7	-1.3437451
210	0xbe932e7c	-0.28746402
211	0x4021a5cd	2.5257447
212	0xc092eada	-4.5911684
213	0x402c93b8	2.696516
214	0xbf8ccd34	-1.1000123
215	0xbe81b9b9	-0.25337008
216	0x40793c1c	3.8942938
217	0xc0634c82	-3.5515447
218	0x3fc3e89c	1.5305362
219	0xbf72e009	-0.948731
220	0x3cf28462	0.02960414
221	0x3f0cf4da	0.55061114
222	0xbc9be405	-0.019029627
223	0x3f9dcf3c	1.2328868
224	0xbf8ec406	-1.1153572
225	0xbf2ae1bb	-0.6675069
226	0xbeb7cd05	-0.35898605
227	0x3f706437	0.93902916
228	0xbef302bd	-0.47463027
229	0xbf92feb1	-1.1483976
230	0x3eca12b9	0.3946741
231	0x3f00e9d3	0.5035679
232	0xbfab661b	-1.3390535
233	0xc00869ba	-2.131453
234	0xbb3a4775	-0.002842394
235	0x3ef1f12e	0.47254318
236	0xbe8a5f4a	-0.27025825
237	0xbfce4d2c	-1.6117301
238	0xbd2c8f44	-0.042128816
239	0x3f2205d3	0.6329014
240	0xbed27a1d	-0.4110879
241	0xbe25d8c5	-0.16195972
242	0x3f930c0a	1.1488049
243	0x3fc977ca	1.5739682
244	0xbef492c5	-0.47768226
245	0xbf233040	-0.637455
246	0x3ee54113	0.4477621
247	0x3f9368fc	1.1516414
248	0x3f4dc723	0.80381984
249	0x3f01c5a6	0.5069221
250	0xbdf67140	-0.120333195
251	0xbe659260	-0.22419119
252	0x3f7711de	0.9651164
253	0xbe360728	-0.17776167
254	0xbf357a60	-0.70889854
255	0x3f632f23	0.887438

conv_layers.0.bias f4 [6]
0	0xc0383ec5	-2.8788311
1	0xbf88abaa	-1.0677388
2	0xc01c0320	-2.4376907
3	0xc04080d8	-3.007864
4	0xc05148a1	-3.270058
5	0xc082f732	-4.092675

conv_layers.1.weight f4 [16, 6, 5, 5]
0	0xbd9cf138	-0.07663196
1	0x3e2449ce	0.16043779
2	0x3f2a64a2	0.66559803
3	0x3e29608d	0.16540737
4	0x3f07a716	0.5298933
5	0xbf727e98	-0.94724417
6	0x3e214607	0.1574937
7	0x3e99ffca	0.30077964
8	0xbf123f45	-0.5712779
9	0x3e85eaa2	0.26155573
10	0xbd939cd5	-0.07207648
11	0x3d90a33a	0.07062383
12	0x3f14551e	0.5794238
13	0xbe9b7466	-0.30362242
14	0xbecd9318	-0.40151286
15	0xbefc36c0	-0.4926052
16	0x3de5d26d	0.11221776
17	0xbea2e054	-0.31811774
18	0xbee04e0f	-0.43809554
19	0xbed97d46	-0.4247839
20	0xbc41f8c4	-0.0118390955
21	0xbef0f941	-0.47065166
22	0xbfd81ad5	-1.6883188
23	0xbe8953db	-0.2682179
24	0xbef2154f	-0.47281882
25	0x3ff536f2	1.9157393
26	0x3fab1e0b	1.3368543
27	0x3fb54676	1.4162128
28	0x3f8edbbd	1.1160809
29	0x3fc00ebc	1.5004497
30	0x3f5ea822	0.869753
31	0x3f0b72d3	0.5447208
32	0x3f2fb60f	0.68637174
33	0x3e9f279f	0.31084916
34	0x3e4e17dd	0.2012629
35	0x3dde86aa	0.10865529
36	0xbef82d10	-0.4847188
37	0xbef65b5c	-0.48116577
38	0xbf317b00	-0.6932831
39	0xbec6e1df	-0.388442
40	0xbca666ad	-0.020312632
41	0xbf3cfaa9	-0.7381998
42	0xbf33396b	-0.7000949
43	0xbf376c86	-0.7164997
44	0xbf8f2152	-1.1182044
45	0xbf5cc01c	-0.86230636
46	0xbf93266f	-1.1496104
47	0xbf681c37	-0.9066805
48	0xbf64bba9	-0.89348847
49	0xbfb7b75f	-1.4352835
50	0xbebcfe65	-0.36912838
51	0xbe76e0f1	-0.24109246
52	0x3e1f9e48	0.15587723
53	0xbe62a365	-0.22132643
54	0x3e790329	0.24317612
55	0xbefaab5a	-0.48958856
56	0xbdd149c6	-0.10219149
57	0x3e43db5f	0.19126652
58	0xbdd93671	-0.10606087
59	0xbeac2ba7	-0.33627054
60	0x3e226537	0.15858923
61	0xbea1e319	-0.31618574
62	0x3ef918d4	0.48651755
63	0xbee0258d	-0.4377865
64	0x3e55426c	0.20826119
65	0xbed1be86	-0.4096567
66	0xbf14c58b	-0.58113927
67	0x3eaa6d5a	0.33286554
68	0xbd9f96f4	-0.07792464
69	0x3f8d5fb8	1.1044836
70	0xbf6671b6	-0.9001726
71	0xbe827021	-0.25476173
72	0x3ef2d0a3	0.47424802
73	0x3ebd6c17	0.36996529
74	0x3f55d95d	0.83534795
75	0x3f86e193	1.053759
76	0x3f066afa	0.52506983
77	0x3f3609fe	0.71108997
78	0xbe801c2f	-0.25021502
79	0xbea1e422	-0.31619364
80	0x3ebe1194	0.37122786
81	0xbe1b8b97	-0.15189968
82	0xbd7b0e7e	-0.061293118
83	0xbf891c59	-1.0711776
84	0xbf7765e1	-0.9663983
85	0xbf79ec6d	-0.9762638
86	0xbf95ebaa	-1.1712544
87	0xbf7adadf	-0.9799022
88	0xbfb9ef99	-1.4526244
89	0xbf3ea907	-0.74476665
90	0xbf6801eb	-0.90627927
91	0xbf1ebb4b	-0.62004536
92	0x3dc23db2	0.09484424
93	0xbf82ba5c	-1.0213122
94	0x3d1ad90d	0.037804652
95	0x3e727744	0.23678309
96	0xbe6d2715	-0.2315944
97	0x3e1701de	0.14746806
98	0x3f35d1f8	0.7102351
99	0x3c248ba9	0.010043063
100	0xbf08eaba	-0.53483164
101	0xbe12978c	-0.14315623
102	0xbe988fa5	-0.29797092
103	0xbf5ee760	-0.870718
104	0xbdc58060	-0.09643626
105	0xbe99f045	-0.30066124
106	0xbf39fc42	-0.7265054
107	0xbf352818	-0.70764303
108	0xbdf24e53	-0.118313454
109	0xbee25105	-0.44202438
110	0xbce7dd6c	-0.028303824
111	0xbf1b5df1	-0.6069022
112	0x3e46e7fe	0.19424435
113	0xbea52512	-0.32254845
114	0xbe9c5281	-0.30531695
115	0x3e8afac7	0.27144453
116	0xbf3a2e7b	-0.72727174
117	0xbd38348d	-0.04497199
118	0xbe58a67a	-0.21157256
119	0xbd8df9ef	-0.06932437
120	0x3e64a143	0.22327141
121	0xbe05d2e7	-0.13068734
122	0x3e1876dc	0.14889091
123	0xbd803985	-0.06260971
124	0x3eb8a4dc	0.36063278
125	0x3fba166d	1.4538094
126	0x3f44d154	0.7688191
127	0xbd92aa79	-0.07161421
128	0x3f12f61a	0.5740677
129	0x3f680e3b	0.90646714
130	0x3f374f78	0.71605635
131	0xbe8b71ca	-0.27235252
132	0xbeac3dfd	-0.33641043
133	0x3ee71571	0.45133546
134	0x3eec6481	0.46170428
135	0x3f228af1	0.6349326
136	0x3f2a96d1	0.6663638
137	0x3e9befc8	0.30456376
138	0x3e41683a	0.18887416
139	0x3e601754	0.21883899
140	0xbc6b30e0	-0.014354914
141	0x3e876526	0.26444358
142	0x3d1a5938	0.037682742
143	0xbee45175	-0.44593397
144	0x3c28a795	0.010293861
145	0x3e821291	0.2540479
146	0x3eaa28fb	0.3323439
147	0x3e62682d	0.22110052
148	0xbe2953e6	-0.16535911
149	0xbf3df54d	-0.74202424
150	0xbe03b619	-0.12862433
151	0x3f20b1b2	0.6277114
152	0x3e9d47b1	0.3071876
153	0xbed2c90f	-0.4116902
154	0xbebe341e	-0.37149137
155	0xbeda70c2	-0.42664152
156	0x3f0b66b7	0.54453605
157	0x3f96394d	1.1736237
158	0x3eaa0eb3	0.3321434
159	0xbf5e0eca	-0.86741316
160	0xbe1b9900	-0.15195084
161	0x3f856396	1.0421016
162	0x3f3a2878	0.72718
163	0x3de5026d	0.11182103
164	0xbf787519	-0.97053677
165	0xbebb66fb	-0.36602005
166	0x3e01e4b9	0.12684907
167	0x3eb5ce6b	0.35509047
168	0x3ef1a1a7	0.47193643
169	0xbf4374c6	-0.7635006
170	0xbdfc432f	-0.12317502
171	0x3ef82dd5	0.48472467
172	0x3ec64ac2	0.3872891
173	0xbc87ef4c	-0.016593598
174	0xbee3c55e	-0.44486517
175	0x3fa25191	1.2681142
176	0xbed44781	-0.41460803
177	0xbf9a6d6d	-1.2064644
178	0xbf20a0e6	-0.6274551
179	0xbd5751be	-0.05256819
180	0x3fb84717	1.4396695
181	0x3e919845	0.28436485
182	0xbf09754d	-0.5369461
183	0xbfc39555	-1.5279948
184	0xbf3e0bc7	-0.7423672
185	0x3f9692aa	1.1763508
186	0x3f205f53	0.62645453
187	0x3e43311b	0.19061701
188	0xbf3439af	-0.7040052
189	0xbf4ca142	-0.7993356
190	0x3f743f97	0.9540953
191	0x3f8efd2b	1.1171011
192	0x3f2009f6	0.625152
193	0xbec7e757	-0.39043686
194	0xbf998752	-1.1994421
195	0x3ed55aec	0.4167093
196	0x3dfe5234	0.12418023
197	0xbef6e614	-0.4822241
198	0xbf4308fe	-0.76185596
199	0xc009ae87	-2.1512773
200	0xbf5179be	-0.8182639
201	0x3eaf437f	0.34231183
202	0x3caecd7d	0.021338219
203	0xbe41fb2a	-0.18943468
204	0xbf920d70	-1.1410351
205	0xbec11cd2	-0.377173
206	0x3fad008f	1.3515795
207	0x3ee2356b	0.4418138
208	0xbe5558be	-0.20834634
209	0xbf41b82c	-0.7567165
210	0xbee0a16c	-0.43873155
211	0x3ced7cf1	0.02899024
212	0x3f2f6e3e	0.6852759
213	0x3e366406	0.17811593
214	0xbe73ebf5	-0.23820479
215	0xbf20be1b	-0.6279008
216	0x3d837fd4	0.06420866
217	0x3f35f655	0.71079
218	0x3f11abae	0.5690259
219	0xbea1e54d	-0.31620255
220	0xbdbaa1d1	-0.09112895
221	0x3f20a988	0.62758684
222	0x3fa8857b	1.3165735
223	0x3f8f83f9	1.121215
224	0x3e4a3b69	0.19749226
225	0xbdbe8aec	-0.09303841
226	0x3e0e6407	0.13905345
227	0x3e420a18	0.18949163
228	0xbe830a8d	-0.25593987
229	0xbf0f50d5	-0.55982715
230	0x3e51a91b	0.20474665
231	0x3f081050	0.5314989
232	0x3f3ea947	0.74477047
233	0x3ede54f0	0.43424177
234	0xbe393517	-0.18086658
235	0xbf43ac37	-0.76434654
236	0xbefeb788	-0.49749398
237	0xbcb6bd54	-0.022307076
238	0xbeab7e8c	-0.33494985
239	0xbf14117b	-0.57839173
240	0xbd80fe9f	-0.06298565
241	0xbe9f2beb	-0.31088194
242	0xbeab26a7	-0.33427927
243	0xbd7c77f5	-0.061637837
244	0xbe830776	-0.2559163
245	0xbec2693b	-0.3797091
246	0xbf4cb032	-0.7995635
247	0xbf30e3fb	-0.6909787
248	0xbf46e7fb	-0.77697724
249	0x3e81fb6d	0.25387135
250	0xbf2cce6e	-0.67502487
251	0x3e9a6d1c	0.3016137
252	0x3f9aab19	1.2083465
253	0x3f1364c1	0.57575613
254	0xbe4b8d25	-0.19878061
255	0xbfaa0db4	-1.3285432

conv_layers.1.bias f4 [16]
0	0xbebc69b6	-0.367994
1	0xc04ee0b2	-3.2324643
2	0xc085e2ca	-4.183934
3	0x3f781294	0.9690335
4	0xbfde6fc8	-1.7377863
5	0xc00d6aab	-2.2096355
6	0x3f82d223	1.0220379
7	0xbfcf85b3	-1.6212677
8	0x3eb41925	0.35175434
9	0x3ec06151	0.37574247
10	0xc024d21a	-2.5753236
11	0x3d362e25	0.0444776
12	0xc06bdebd	-3.6854699
13	0xbf9cf62d	-1.2262627
14	0xbfdfda33	-1.7488464
15	0x3f529073	0.8225166

fc_layers.0.weight f4 [120, 400]
0	0xbe26fc0e	-0.16307089
1	0x3c5e4a98	0.013567589
2	0xbbad5e91	-0.005290814
3	0x3d9abe4a	0.07555826
4	0x3e774bb2	0.24149969
5	0xbd95d3f2	-0.07315816
6	0x3d2ab8e3	0.041680228
7	0x3df88fe1	0.12136818
8	0xbbb9175a	-0.0056485357
9	0x3d7595cd	0.059957314
10	0x3cd20bfb	0.025640478
11	0x3dfd7eb4	0.12377682
12	0x3dd9e586	0.10639481
13	0x3df2f04e	0.11862241
14	0xbd63b61c	-0.055593595
15	0x3de31280	0.11087513
16	0x3e0f3425	0.13984735
17	0x3e54b02b	0.20770328
18	0x3e006507	0.12538539
19	0xbe1bd7bb	-0.15219013
20	0xbe1efdf2	-0.1552656
21	0x3d32198b	0.04348139
22	0x3ca78826	0.020450663
23	0xbd1cd534	-0.038289264
24	0x3da3f737	0.08006137
25	0x3d91dbc4	0.07121995
26	0xbe13ee20	-0.14446306
27	0xbda1986d	-0.07890401
28	0x3e793c67	0.24339448
29	0x3de0c41b	0.10974904
30	0xbb8ffd9e	-0.004394247
31	0xbea8a06b	-0.3293489
32	0xbdcc197f	-0.099658005
33	0x3de57193	0.11203303
34	0x3edf351f	0.43595216
35	0x3dbc2044	0.09185842
36	0x3d37665c	0.044775352
37	0xbbf3790a	-0.0074302005
38	0x3d78c84f	0.060737904
39	0x3e1e5c89	0.15464987
40	0x3d79d564	0.06099452
41	0x3dc91f9b	0.098204814
42	0xbb8a2193	-0.004215428
43	0xbd7e6dba	-0.062116362
44	0x3e05c912	0.13064983
45	0xbdc69e4d	-0.09698162
46	0xbe58c410	-0.21168542
47	0x3bac0de2	0.0052506784
48	0xbde5df16	-0.11224191
49	0xbd6f3e93	-0.058409285
50	0x3d17d8a6	0.037071846
51	0x3dd5490d	0.10414324
52	0xbd61e52f	-0.055150207
53	0x3d9edac8	0.07756573
54	0x3df94d09	0.121728964
55	0xbdec43fa	-0.11536403
56	0xbe655a7a	-0.22397795
57	0xbd9bf70d	-0.076154806
58	0xbe3164bf	-0.17323588
59	0x3e14b73a	0.1452302
60	0xbe8676dc	-0.26262558
61	0xbdae43ca	-0.085090235
62	0xbca96347	-0.020677222
63	0xbedb4e6c	-0.4283327
64	0xbe97480a	-0.2954715
65	0xbd5259f5	-0.05135532
66	0x3e0882d8	0.13331163
67	0xbd3e95af	-0.04652947
68	0xbe9dc038	-0.30810714
69	0xbedd1b7c	-0.4318503
70	0x3db14863	0.08656385
71	0x3e91c515	0.28470674
72	0x3e38c801	0.18045045
73	0xbe6ba60c	-0.2301256
74	0xbe784b45	-0.24247463
75	0xbe82c6a6	-0.25542182
76	0xbe321733	-0.17391662
77	0xbd7f9bbe	-0.062404387
78	0xbdc8ad16	-0.097986385
79	0xbd88bb13	-0.066763066
80	0xbd77e755	-0.06052335
81	0xbcdfce97	-0.02732019
82	0x3d5bddf3	0.053678464
83	0xbda28d99	-0.07937164
84	0xbd80487b	-0.062638246
85	0x3cc2d55a	0.023783375
86	0x3c90d7cf	0.01768103
87	0x3da16dfa	0.078823045
88	0xbca3ebd7	-0.020009918
89	0xbe5334b8	-0.2062558
90	0x3df783d6	0.120856926
91	0xbd316a6a	-0.043314375
92	0xbe1e2b20	-0.15446138
93	0xbdf10f04	-0.11770442
94	0xbda5beac	-0.080930084
95	0xbcdd7513	-0.027033364
96	0xbd9b2b3b	-0.07576605
97	0xbd335033	-0.043777656
98	0xbe2fcf47	-0.17168914
99	0x3d9bb7bf	0.07603406
100	0xbe34b443	-0.1764689
101	0x3db78ae8	0.08962041
102	0x3de679d7	0.11253708
103	0xbe093e2c	-0.13402623
104	0xbe8fd4fb	-0.2809218
105	0xbca4e9f9	-0.020131098
106	0x3e5d09e6	0.21585807
107	0x3e188611	0.14894892
108	0xbe03436f	-0.12818693
109	0xbe4e2919	-0.20132865
110	0xbcd268a1	-0.025684657
111	0xbd968975	-0.073504366
112	0x3e660be2	0.2246547
113	0x3d8da265	0.0691574
114	0xbe1d306f	-0.15350507
115	0x3daca80d	0.08430491
116	0xbd75c774	-0.060004666
117	0xbed330fd	-0.41248313
118	0xbe6b7464	-0.22993618
119	0x3ce3e9b6	0.027821403
120	0xbdca019e	-0.0986359
121	0xbe39f6b8	-0.18160522
122	0xbda7f158	-0.082003295
123	0xbeb8cc95	-0.36093584
124	0x3e14d2be	0.14533517
125	0x3decceb5	0.11562864
126	0x3bb70e96	0.0055864556
127	0x3e4b7d7e	0.1987209
128	0xbdb622b2	-0.08893336
129	0x3cb22656	0.021746796
130	0xbc97f1e7	-0.018547965
131	0xbc44b7a4	-0.012006674
132	0xbdf2fa16	-0.11864106
133	0xbe09794f	-0.13425182
134	0xbdbd8168	-0.09253198
135	0xbe267511	-0.16255595
136	0xbd802643	-0.06257298
137	0xbe736b76	-0.23771462
138	0xbda259fb	-0.07927319
139	0x3d1d7f4e	0.038451485
140	0xbea1faa4	-0.31636536
141	0xbe8999a3	-0.26875028
142	0xbe5e25e5	-0.21694143
143	0x3d83582e	0.06413303
144	0x3cf022fe	0.02931356
145	0xbc905f92	-0.017623696
146	0xbd4c61d2	-0.049897976
147	0x3d0e836e	0.03479331
148	0xbe2099c1	-0.15683652
149	0xbd25e67d	-0.040503014
150	0x3e12a63e	0.14321229
151	0x3e1e9e7b	0.15490143
152	0x3e47a18d	0.1949522
153	0x3d0f6a30	0.035013378
154	0x3cde0d0b	0.027105829
155	0x3d9cc719	0.07655162
156	0x3dd54748	0.104139864
157	0x3dcd62cf	0.10028612
158	0x3acacb55	0.0015471975
159	0x3dca5159	0.09878797
160	0x3e33f1cb	0.17572705
161	0x3e843f85	0.25829712
162	0x3e821836	0.25409096
163	0x3c83ca96	0.016087811
164	0x3c645cd9	0.013938152
165	0x3dd0d48c	0.1019679
166	0x3e83d0c7	0.25745222
167	0x3c360888	0.011110432
168	0xbd498f70	-0.04920906
169	0xbe0b29b5	-0.13590129
170	0xbe73ad11	-0.23796488
171	0xbe824833	-0.2544571
172	0xbdf59a2e	-0.11992298
173	0x3d7241f2	0.05914492
174	0xbd449580	-0.047994137
175	0xbe17d567	-0.148275
176	0x3e2cac6a	0.16862646
177	0x3def4729	0.116834946
178	0x3e11cfac	0.14239377
179	0xbded95b1	-0.11600817
180	0xbdc9471f	-0.098280184
181	0x3db078af	0.086167686
182	0x3ec44e65	0.3834106
183	0x3c885c43	0.016645556
184	0xbd3a8b99	-0.045543287
185	0xbe73e19f	-0.23816536
186	0x3cbdbfd6	0.023162764
187	0x3c3f327f	0.011669754
188	0xbe4e39c4	-0.20139223
189	0xbe82d097	-0.25549766
190	0xbe15249f	-0.14564751
191	0x3d8ba184	0.06817916
192	0x3dda8cba	0.10671373
193	0xbde0f1ae	-0.10983597
194	0xbd739cde	-0.059475772
195	0x3bb4120d	0.005495316
196	0xbce06d94	-0.027396
197	0x3d13a847	0.036049154
198	0x3e3c435b	0.18385069
199	0x3d1b134d	0.037860204
200	0x3d410b3c	0.047129855
201	0xbe20ec8a	-0.15715232
202	0xbe876a3c	-0.26448238
203	0x3e2d02ae	0.16895553
204	0x3bab0cca	0.0052200304
205	0x3bef8330	0.00730934
206	0x3dbd6de6	0.09249477
207	0xbdc3406f	-0.09533774
208	0xbcd33e41	-0.02578652
209	0x3d28f662	0.041250594
210	0xbe21ff54	-0.15820056
211	0x3cd6b5ba	0.0262097
212	0xbddfacba	-0.10921617
213	0xbd1faecf	-0.03898507
214	0x3d80436b	0.06262859
215	0xbe136b2e	-0.14396355
216	0xbd4e4c20	-0.050365567
217	0x3d26c2f7	0.040713277
218	0x3e0dc5df	0.13845013
219	0xbd07f1c6	-0.033189557
220	0xbd9b48de	-0.07582258
221	0xbd19739b	-0.037463766
222	0xbd954afc	-0.07289693
223	0xbdbc87b7	-0.09205573
224	0x3bead15f	0.0071660723
225	0xbdb2696b	-0.08711513
226	0x3e2250c9	0.1585113
227	0x3d5ae882	0.053444393
228	0xbc2dda02	-0.010611059
229	0xbdd5258e	-0.104075536
230	0xbde7a4c8	-0.113107264
231	0xbd64f2eb	-0.055895727
232	0xbe2479a6	-0.1606203
233	0x3e15f3de	0.14643809
234	0xbdb09126	-0.08621435
235	0xbd843180	-0.06454754
236	0x3e593a3b	0.2121362
237	0xbe8682c1	-0.26271632
238	0xbe3599dc	-0.17734474
239	0xbe454d1b	-0.19267695
240	0xbe5cfcb9	-0.21580781
241	0xbceccd9c	-0.028906636
242	0xbd678637	-0.05652448
243	0xbe22f5f6	-0.15914139
244	0xbe1a0059	-0.15039195
245	0xbd0138ef	-0.031548437
246	0xbd19c9e4	-0.037546054
247	0x3df9bc54	0.12194124
248	0x3c25f619	0.010129475
249	0xbdd3c3a4	-0.1034005
250	0x3de248b1	0.11049021
251	0xbd79c50f	-0.060978945
252	0xbe815d1d	-0.25266352
253	0xbdebd390	-0.11514962
254	0xbd26a3bf	-0.040683504
255	0x3e62ab36	0.22135624

fc_layers.0.bias f4 [120]
0	0x3dcdcb2e	0.10048519
1	0xbe80a478	-0.2512548
2	0xbe2c55ee	-0.16829655
3	0xbe85c262	-0.26124865
4	0xbe76726e	-0.24067089
5	0xbe3f30a6	-0.18670902
6	0xbeb4f432	-0.35342556
7	0xbdaaa72d	-0.083326675
8	0xbe68e92f	-0.22745202
9	0x3dd6689a	0.1046917
10	0x3e4a0e43	0.19732003
11	0xbd1ccc90	-0.038281024
12	0xbe4e2bff	-0.2013397
13	0xbe4a8c7c	-0.19780153
14	0x3e237540	0.15962696
15	0x3c8b8bb7	0.017034395
16	0xbe4a8ae1	-0.1977954
17	0xbe4420ce	-0.19153139
18	0xbf3945c8	-0.723721
19	0xbd353203	-0.044237148
20	0xbd54be53	-0.05193932
21	0xbecd0eae	-0.40050262
22	0xbd952968	-0.07283288
23	0xbe01d906	-0.12680444
24	0xbe3cb528	-0.1842848
25	0xbf161a5d	-0.5863398
26	0xbf139116	-0.5764326
27	0xbdb74849	-0.08949334
28	0xbda2cb22	-0.07948901
29	0xbd91be26	-0.07116346
30	0xbed5f87e	-0.41791147
31	0x3cf99231	0.030465217
32	0x3d6e9ecf	0.05825692
33	0xbecfac2b	-0.4056104
34	0xbd85114e	-0.06497441
35	0x3e6ab0d9	0.22919025
36	0xbe0e447c	-0.13893312
37	0xbd528878	-0.051399678
38	0xbe6c3838	-0.23068321
39	0x3e4ab84f	0.1979687
40	0x3c91dde0	0.017805994
41	0xbf2a11b2	-0.6643325
42	0xbee10315	-0.43947664
43	0xbe314924	-0.17313057
44	0x3eb082b9	0.34474733
45	0x3d63251b	0.05545531
46	0xbe9f10cc	-0.31067502
47	0xbdf97e52	-0.12182297
48	0xbefb74c5	-0.49112526
49	0xbecae8e0	-0.39630795
50	0xbc1bac64	-0.00950155
51	0xbcdae3b1	-0.0267199
52	0xbea17543	-0.31534776
53	0xbe01dcc7	-0.12681876
54	0xbec3c26a	-0.38234264
55	0xbdb373ed	-0.087623455
56	0xbd6a84b3	-0.057255458
57	0x3d86c271	0.065800555
58	0xbe90cf73	-0.2828327
59	0x3df640b9	0.120240636
60	0xbeb66996	-0.3562743
61	0xbe813bbc	-0.25240886
62	0xbe8b3ebd	-0.27196303
63	0xbec7a04c	-0.38989484
64	0xbda8efd3	-0.08248868
65	0xbefcf501	-0.49405673
66	0x3d0fb0cf	0.035080727
67	0xbf01add1	-0.5065585
68	0xbd419f3d	-0.047271002
69	0x3ea0a38d	0.3137478
70	0x3e34cbe2	0.176559
71	0x3e343ef3	0.17602138
72	0x3e6c5c6a	0.23082128
73	0x3e9bec84	0.30453885
74	0xbc2709b5	-0.010195185
75	0xbdef2ba6	-0.11678247
76	0xbe6a771b	-0.22896998
77	0xbdcf87df	-0.10133337
78	0xbe9fa110	-0.31177568
79	0xbe8f4cfb	-0.2798842
80	0xbe41a0cb	-0.18908994
81	0xbe9f4a7d	-0.31111518
82	0xbe9cec7e	-0.3064918
83	0xbb91635d	-0.004436894
84	0xbe613909	-0.21994413
85	0xbdbd7aab	-0.09251913
86	0xbc9b3b2f	-0.01894912
87	0xbde5e585	-0.11225418
88	0xbf03b236	-0.51443803
89	0x3e2f9329	0.17145981
90	0x3d33d18e	0.04390102
91	0x3e40cedb	0.18828909
92	0xbf2b4dc0	-0.6691551
93	0xbeb35cc4	-0.35031712
94	0xbebffdd1	-0.37498334
95	0x3d980b64	0.074240476
96	0xbdb35e84	-0.08758262
97	0xbf021738	-0.5081668
98	0x3dccf63f	0.10007905
99	0x3ef54979	0.47907618
100	0xbdf5d124	-0.12002781
101	0x3e86a83f	0.26300237
102	0xbeb083ea	-0.34475642
103	0xbe3afd91	-0.1826079
104	0x3c20ab06	0.0098064
105	0xbe2b76a3	-0.16744475
106	0xbe121aa1	-0.1426797
107	0xbe15034e	-0.14552042
108	0x3f04814b	0.51759785
109	0x3d2fa567	0.04288235
110	0x3e808195	0.25098863
111	0xbd802234	-0.06256524
112	0xbdf941ba	-0.121707395
113	0x3d1c2436	0.03812047
114	0x3d7a5d7f	0.06112432
115	0xbe833036	-0.2562272
116	0xbe8343b2	-0.25637585
117	0xbea5eeab	-0.32408652
118	0xbe9e6836	-0.30938882
119	0xbec10661	-0.3770018

fc_layers.1.weight f4 [84, 120]
0	0x3e64018e	0.22266218
1	0xbdf8dc43	-0.121513866
2	0x3e3c07eb	0.18362395
3	0x3d68d1e8	0.056840807
4	0x3e5e27d0	0.21694875
5	0xbd9a8167	-0.07544213
6	0xbd22c34a	-0.039737023
7	0x3e7e900b	0.24859636
8	0xbe0237ce	-0.127166
9	0xbdaea657	-0.085278206
10	0x3d96740d	0.07346354
11	0xbe6759d5	-0.22592862
12	0x3d020b03	0.031748783
13	0xbe965e27	-0.29368708
14	0x3cdd4925	0.027012417
15	0xbe098ce9	-0.13432659
16	0xbedde58c	-0.43339193
17	0x3d42e130	0.047578037
18	0xbef12ca2	-0.47104365
19	0x3e896d7e	0.26841348
20	0x3c0c2019	0.008552575
21	0xbee99ae4	-0.45625985
22	0xbde0e9ce	-0.10982095
23	0x3e7a0a45	0.2441798
24	0x3eb43d24	0.35202897
25	0xbe5dcaf0	-0.21659446
26	0xbe78ad8b	-0.24284951
27	0xbe97e8fd	-0.29669943
28	0xbd19f481	-0.037586693
29	0xbe279000	-0.16363525
30	0x3f08777c	0.5330732
31	0xbe6878e6	-0.22702369
32	0x3ed1dc7a	0.40988523
33	0x3ceccffb	0.028907767
34	0xbdf2601b	-0.11834737
35	0xbed6e1a7	-0.41969034
36	0xbe2b691f	-0.1673932
37	0xbe7a7b79	-0.24461164
38	0x3d862083	0.0654917
39	0x3e8854c7	0.2662718
40	0x3ec0e1c6	0.3767225
41	0xbceb62e4	-0.028733678
42	0x386c318a	5.631292e-05
43	0xbd9c2cdc	-0.07625744
44	0x3e72755b	0.2367758
45	0x3e2be088	0.1678487
46	0x3e48f23a	0.19623652
47	0x3dfe4651	0.124157555
48	0xbc1fd6da	-0.009755814
49	0xbdfd7467	-0.123757176
50	0x3e1c39f2	0.1525648
51	0xbc942e4d	-0.018088484
52	0xbc9cb849	-0.019130843
53	0xbdef0395	-0.11670605
54	0xbdc5b945	-0.09654478
55	0x3e1e6925	0.15469797
56	0xbe2f905d	-0.17144914
57	0x3e9e6775	0.30938306
58	0xbebc8df2	-0.36827046
59	0x3f0b84e1	0.5449963
60	0xbeafb7ad	-0.3431982
61	0xbe912312	-0.2834707
62	0xbe7b659e	-0.24550483
63	0xbe50f56e	-0.20406124
64	0xbeb9fc19	-0.36325148
65	0xbe9f80dc	-0.31153
66	0x3e5a98f9	0.21347417
67	0x3e776f64	0.24163586
68	0x3e354b1b	0.17704432
69	0x3b95b0ba	0.0045681866
70	0x3e40c3fc	0.18824762
71	0xbe86c2f0	-0.263206
72	0x3e818de2	0.2530356
73	0x3f056b05	0.52116424
74	0x3ea2355b	0.31681332
75	0x3d6a55b3	0.057210635
76	0xbe6960ea	-0.22790876
77	0xbda2b79e	-0.079451784
78	0x3d86e633	0.06586876
79	0xbecee570	-0.40409422
80	0xbc4ea825	-0.012613331
81	0x3df2ee22	0.118618265
82	0xbd85c5f6	-0.06531899
83	0xbe7759db	-0.24155371
84	0xbd71a261	-0.058992747
85	0x3e25df30	0.1619842
86	0x3c9c31ba	0.01906668
87	0xbdd7f67e	-0.105450615
88	0x3d461809	0.048362765
89	0x3e3593f7	0.17732225
90	0x3e9ae393	0.3025175
91	0x3de08cb5	0.10964338
92	0xbdcea9f9	-0.100910135
93	0x3dde7c25	0.108635224
94	0xbeca3998	-0.39497066
95	0xbe2687a8	-0.16262686
96	0x3de00233	0.109379195
97	0xbe9d141b	-0.30679402
98	0x3e7ce4c6	0.24696645
99	0xbd5fb7bb	-0.05461858
100	0x3d982df0	0.07430637
101	0xbd198f59	-0.037490223
102	0x3db1c17e	0.08679484
103	0xbdaf4cb2	-0.0855955
104	0xbe186fc0	-0.14886379
105	0x3dfdefee	0.123992786
106	0xbe2df257	-0.16986977
107	0xbd760073	-0.060059022
108	0x3efc4075	0.49267927
109	0x3e072851	0.13198973
110	0x3e878c99	0.26474455
111	0x3da386eb	0.07984718
112	0x3db59680	0.08866596
113	0xbc926e2d	-0.017874802
114	0xbe1593e0	-0.14607191
115	0x3e51c35a	0.20484677
116	0xbe2d2215	-0.16907533
117	0x3d9452e7	0.07242375
118	0xbe96ff44	-0.29491627
119	0xbdd1b5c7	-0.102397494
120	0xbe153d6e	-0.14574215
121	0x3de8153d	0.11332176
122	0x3d81eec6	0.063443705
123	0xbe30c889	-0.17263998
124	0xbd92f207	-0.07175069
125	0x3d108564	0.03528346
126	0xbd18d156	-0.037309013
127	0x3e5b9fde	0.21447703
128	0xbd51f4a2	-0.05125869
129	0xbd6d6510	-0.05795771
130	0x3e18d492	0.14924839
131	0xbd5e89a6	-0.05433049
132	0x3d4a870d	0.0494452
133	0x3d08c9ce	0.03339558
134	0xbd83ac86	-0.064293906
135	0x3da7cff2	0.08193959
136	0xbe25a53b	-0.16176312
137	0x3e183e71	0.1486757
138	0xbe366576	-0.17812142
139	0xbde19186	-0.110140845
140	0x3e06138a	0.13093391
141	0xbdf79a99	-0.12090034
142	0xbd620d5b	-0.055188518
143	0x3e1868c6	0.14883718
144	0x3dd3420a	0.1031533
145	0xbe075df4	-0.13219434
146	0xbdb36d7d	-0.087611176
147	0x3dc73dba	0.0972857
148	0xbdedaa46	-0.11604743
149	0xbd6f338e	-0.058398776
150	0x3d1e4f98	0.038650125
151	0xbbd6a717	-0.0065506804
152	0x3d178eb7	0.037001338
153	0xbd3db4ca	-0.046314992
154	0xbe097941	-0.13425161
155	0xbea7b3fe	-0.3275451
156	0x3c902cab	0.017599424
157	0x3e1c2ace	0.15250704
158	0x3df3df92	0.11907877
159	0xbd569d0b	-0.05239586
160	0xbc3a263e	-0.011361657
161	0x3deba323	0.11505725
162	0xbdd440c3	-0.10363915
163	0xbda18bb0	-0.078879714
164	0xbe1cd958	-0.15317285
165	0x3ea08fbd	0.31359664
166	0xbd51c41a	-0.051212408
167	0x3a447bab	0.00074952346
168	0xbe347cf7	-0.17625795
169	0x3d4ba4f0	0.049717844
170	0xbb841ad6	-0.0040315194
171	0xbcfd029c	-0.030885033
172	0xbd723abc	-0.059138045
173	0xbdfcce31	-0.123440154
174	0x3d7ee1cb	0.06222705
175	0xbd7cc71c	-0.061713323
176	0xbe063233	-0.13105087
177	0xbe20f1f4	-0.15717298
178	0xbe55fee3	-0.20898013
179	0x3d16aa00	0.03678322
180	0xbdff6042	-0.124695316
181	0xbd75ff4b	-0.06005792
182	0xbdb5ef60	-0.08883548
183	0x3de1a91d	0.11018584
184	0xbe13a2ac	-0.14417523
185	0xbd30ebcb	-0.04319362
186	0xbd48b08e	-0.0489965
187	0xbdade1f7	-0.08490365
188	0x3e301528	0.1719557
189	0xbd5b6d6a	-0.053571142
190	0xbe3d56a5	-0.18490084
191	0xbb882fb4	-0.0041560773
192	0x3d7fa1a1	0.06241
193	0x3d047e30	0.032346904
194	0xbe01b6d5	-0.12667401
195	0x3cda7fbc	0.026672237
196	0xbdc67573	-0.096903704
197	0xbd11c747	-0.035590436
198	0xbd3d9b3c	-0.04629062
199	0xbc6a5e0f	-0.014304652
200	0x3dca1b1a	0.098684505
201	0x3d401b70	0.046901166
202	0xbd36abb1	-0.04459733
203	0x3e14d761	0.14535286
204	0xbcb1e7de	-0.021717008
205	0xbba6950d	-0.005083686
206	0x3d175a11	0.03695113
207	0xbdb814de	-0.08988355
208	0xbba8d41a	-0.0051522376
209	0x3d67ebba	0.05662129
210	0xbc9de774	-0.019275405
211	0xbe297e5a	-0.16552106
212	0xbe5fc57f	-0.21852683
213	0x3dc163b5	0.09442846
214	0xbd9d7428	-0.07688171
215	0xbcbc9868	-0.023021892
216	0xbd53b437	-0.05168554
217	0xbd818d35	-0.06325761
218	0x3d4e2809	0.05033115
219	0xbc7236a8	-0.014783539
220	0xbd878f01	-0.06619073
221	0xbe308756	-0.17239127
222	0x3c930e3e	0.017951127
223	0xbd5fc4d9	-0.054631088
224	0x3e3c485e	0.18386981
225	0xbd281c0f	-0.041042384
226	0xbe1de007	-0.15417491
227	0xbdd79fb1	-0.105285056
228	0xbd2dd325	-0.04243769
229	0xbe0b4c18	-0.13603246
230	0x3dad1648	0.084515154
231	0xbd8511a2	-0.06497504
232	0x3c0c7d78	0.008574836
233	0xbe359de2	-0.17736009
234	0x3a79e052	0.00095320225
235	0xbdc1caa1	-0.094624765
236	0xbd04054b	-0.03223161
237	0xbc3bb60d	-0.0114569785
238	0xbe12f2d1	-0.1435044
239	0xbe4427b0	-0.19155765
240	0xbe08cce6	-0.13359413
241	0xbda590b5	-0.08084241
242	0xbd33538f	-0.04378086
243	0xbd91ec4e	-0.0712515
244	0xbe09af2b	-0.13445728
245	0xbdfae85f	-0.122513525
246	0xbd907a35	-0.07054559
247	0x3d01a9f9	0.03165624
248	0x3d73db46	0.059535287
249	0x3d6aee04	0.057355896
250	0x3e01b4d7	0.12666641
251	0xbd066ab6	-0.03281661
252	0xbd753001	-0.059860233
253	0xbd463581	-0.04839087
254	0xbe88b3f6	-0.266998
255	0xbe60e159	-0.21960963

fc_layers.1.bias f4 [84]
0	0x3e515b9b	0.20445101
1	0xbd9b3c05	-0.07579807
2	0xbdae536c	-0.08512005
3	0x3e55049e	0.20802543
4	0xbdd166c6	-0.102246806
5	0xbe49d47f	-0.19709967
6	0xbd84eab3	-0.06490078
7	0xbd69f9b3	-0.057122897
8	0x3da41941	0.08012629
9	0x3e0c153e	0.13679978
10	0x3d05e5ed	0.032689977
11	0x3c96be67	0.018401338
12	0xbd17ea5d	-0.03708874
13	0x3dae8551	0.08521522
14	0xbe2f6934	-0.17129976
15	0xbe2793c1	-0.16364957
16	0x3c7b077b	0.015321608
17	0xbd6d3118	-0.057908148
18	0x3dc7a733	0.097486876
19	0x3d37ae19	0.044843767
20	0xbe26921a	-0.16266671
21	0x3c89a97f	0.016804455
22	0xbd192850	-0.03739196
23	0x3d293155	0.041306812
24	0xbebf084f	-0.37311026
25	0xbe2fc30f	-0.17164253
26	0x3e73d6a7	0.23812352
27	0x3d3fc6c9	0.046820436
28	0x3e3beb31	0.18351437
29	0x3e0e5196	0.1389831
30	0x3d869e07	0.0657311
31	0xbc9ed005	-0.0193863
32	0x3df1b4b3	0.11802044
33	0xbbfa531d	-0.0076393024
34	0xbe17f9d2	-0.14841393
35	0xbe03b3da	-0.12861577
36	0x3df33ddf	0.11877035
37	0x3d2cffb3	0.04223604
38	0x3e5f7ff0	0.21826148
39	0xbe2706ae	-0.16311142
40	0xbbd2df26	-0.006435293
41	0x3e04eac0	0.12980175
42	0x3e1bdb55	0.15220387
43	0xbdd99702	-0.106245056
44	0xbdf75fcb	-0.12078818
45	0xbca9d938	-0.02073346
46	0xbd794ab4	-0.060862258
47	0x3df819b4	0.121142775
48	0xbe1b2802	-0.1515198
49	0x3e48a53a	0.19594279
50	0xbc8961cf	-0.016770272
51	0x3d8d9294	0.06912723
52	0x3de3747a	0.111062005
53	0x3da0dee5	0.07855014
54	0xbe9f56b8	-0.3112085
55	0x3e4a1658	0.19735086
56	0x3dc1257c	0.09430978
57	0xbc7a7b8a	-0.015288243
58	0xbe2cee7b	-0.16887848
59	0x3c5761e2	0.013145896
60	0x3d21f272	0.039537854
61	0xbcb50673	-0.022097802
62	0xbcbf843a	-0.02337848
63	0x3e299e3c	0.16564268
64	0xbc60e069	-0.013725379
65	0xbab010cc	-0.001343274
66	0x3d938376	0.072028086
67	0xbd9d6b38	-0.07686466
68	0xbd13b61a	-0.036062337
69	0xbce768c7	-0.028248204
70	0x3e4545a4	0.19264847
71	0xbdc098ba	-0.0940413
72	0xbd1dfc05	-0.038570423
73	0x3c095aef	0.008383497
74	0xbd351203	-0.04420663
75	0xbd6cfb5a	-0.057856895
76	0x3e72ae43	0.23699288
77	0x3d8edb79	0.06975455
78	0xbd1831cb	-0.03715686
79	0xbe0b9472	-0.13630846
80	0x3d7349f8	0.059396714
81	0xbcb5e39a	-0.022203255
82	0x3db22b1c	0.08699629
83	0xbc0e927d	-0.008701918

output_layer.weight f4 [10, 84]
0	0x3d18bf37	0.03729173
1	0x3e7ef674	0.24898702
2	0x3e8b4819	0.27203444
3	0xbf2c0563	-0.6719572
4	0xbdb831e9	-0.089938946
5	0xbf0c572c	-0.54820514
6	0xbe91cdd5	-0.2847735
7	0xbe1a9d00	-0.15098953
8	0xbf8217cb	-1.0163511
9	0x40766cac	3.8503828
10	0x3f923959	1.1423751
11	0x3fbe5c75	1.4871966
12	0xbe4af9e6	-0.19821891
13	0xbf3dda57	-0.74161285
14	0xbf3d214b	-0.73878926
15	0x3ecb46b3	0.39702377
16	0x3efee81b	0.49786457
17	0xbf155c37	-0.58343834
18	0xbf627c2a	-0.8847071
19	0xbecd3eff	-0.40087125
20	0xbc9afcf5	-0.018919447
21	0xbf30d692	-0.6907741
22	0xbe21c7ba	-0.15798846
23	0xbf373223	-0.7156088
24	0x3ded2660	0.11579585
25	0xbd8c9fa0	-0.068663836
26	0xbfc893ff	-1.5670165
27	0x3f854b95	1.0413691
28	0xbce1c7fd	-0.027561182
29	0xbfa9af1a	-1.3256562
30	0xbd0b3dec	-0.0339946
31	0x3f952a8c	1.1653609
32	0xbf0699cd	-0.5257843
33	0xbe442c40	-0.19157505
34	0xbdb64889	-0.08900554
35	0xbdcab5e5	-0.09897975
36	0x3f93180b	1.1491712
37	0xbf0a3f56	-0.5400289
38	0xbf276611	-0.65390116
39	0x3f2c2566	0.67244565
40	0x3fcc67b5	1.5969149
41	0xbe599179	-0.212469
42	0xbef24434	-0.4731766
43	0x3ea48b4d	0.32137528
44	0x3e676c20	0.2259984
45	0xbea10ac5	-0.3145353
46	0xbe2cf075	-0.16888602
47	0xbe067dfe	-0.13134
48	0xc02b6699	-2.678137
49	0xbf2cf620	-0.67563057
50	0xbe5b86b4	-0.21438104
51	0x3e46d453	0.19416933
52	0xbefd8764	-0.49517357
53	0xbe9cec0a	-0.30648834
54	0xbc04b027	-0.008098639
55	0xbec3b057	-0.38220474
56	0x3e09f701	0.13473131
57	0x3ec0b28f	0.3763623
58	0x3fb19ea3	1.3876537
59	0x3fb99ec2	1.4501574
60	0x3d95c21a	0.073124126
61	0xbdbb53bd	-0.09146831
62	0x3fbafd55	1.4608561
63	0x400529cd	2.0806763
64	0xbfb496ac	-1.4108481
65	0x3ef5d8b5	0.48016897
66	0xbf65a0a1	-0.89698225
67	0xbf9d2c7c	-1.22792
68	0x3dae5c3d	0.08513687
69	0x3e22de37	0.1590508
70	0x3cc36f3a	0.023856748
71	0x3f18c740	0.5967903
72	0x400787a0	2.117653
73	0x3ed9a339	0.42507342
74	0xbd3ed1c8	-0.04658678
75	0x3e8306ae	0.25591034
76	0xbf3a092e	-0.7267026
77	0xbed3436a	-0.4126237
78	0x3e0321ae	0.12805817
79	0x3faa2761	1.3293267
80	0x3ec0a048	0.37622285
81	0x3e273442	0.16328529
82	0x3f4befd7	0.7966284
83	0xbf0ba0e5	-0.5454238
84	0xbe529571	-0.2056482
85	0x3e3ff89c	0.1874718
86	0xbe98347b	-0.2972754
87	0xbeb35ea7	-0.35033152
88	0xbec0c34b	-0.37648997
89	0xbf838d04	-1.027741
90	0xbe9882a7	-0.2978718
91	0x3db6deb3	0.08929195
92	0xbf06b005	-0.52612334
93	0xbf974167	-1.1816834
94	0xbf9609e4	-1.1721768
95	0xbeafe884	-0.34357083
96	0xbe819217	-0.2530677
97	0xbe9f577b	-0.3112143
98	0xbf6c12ec	-0.9221637
99	0xbf32b4d5	-0.6980718
100	0x3fb52abb	1.4153665
101	0xbed306c0	-0.41216087
102	0xbf6427de	-0.8912333
103	0xbdb8a85e	-0.090164885
104	0x400d5432	2.2082639
105	0x3f0a6cb3	0.5407211
106	0xbe28e15e	-0.16492221
107	0xbf890e1a	-1.0707428
108	0x3fe928b4	1.8215547
109	0xbe2c8fc9	-0.16851725
110	0x3f8b1046	1.0864341
111	0xbf27f9f0	-0.6561575
112	0x3cc55d87	0.024092449
113	0x3db7a4c8	0.089669764
114	0xbe735023	-0.23761038
115	0x3ff113f6	1.8834217
116	0xbdf8094c	-0.12111148
117	0xbc0f5925	-0.008749281
118	0x3def5a8d	0.11687193
119	0x3e304141	0.17212392
120	0xbed82a65	-0.42219844
121	0x3eef05c7	0.46684095
122	0xbf3a143a	-0.72687113
123	0x3fe33497	1.7750424
124	0xbf110eda	-0.56663287
125	0xbef40a4f	-0.47664115
126	0xbf0f8c2b	-0.56073254
127	0xbec0c13b	-0.37647423
128	0xbeec5540	-0.4615879
129	0x3e04842f	0.12941049
130	0x3d5d55f4	0.05403705
131	0xc02bb6b0	-2.6830254
132	0x3f1096f7	0.56480354
133	0xbca919db	-0.020642212
134	0x3e64ad28	0.22331679
135	0xbec0a262	-0.37623888
136	0x3ddf2425	0.10895566
137	0x3dc0bfe2	0.09411599
138	0xc00d44f5	-2.2073338
139	0x40877053	4.2324615
140	0xbe7ea806	-0.24868783
141	0xbf06e592	-0.52694046
142	0xbfa60704	-1.2970891
143	0xbecf610e	-0.40503734
144	0x3cd22710	0.025653392
145	0xbe2e96ab	-0.17049663
146	0xbf04a14a	-0.5180861
147	0xbf047a35	-0.51748973
148	0x3ec3cc23	0.3824168
149	0x3e750693	0.23928289
150	0x3fae0c4b	1.3597502
151	0xbf12c4b4	-0.57331395
152	0xbec86ed2	-0.3914705
153	0xbe83c179	-0.25733545
154	0x3ed8710d	0.4227375
155	0x3c85aa89	0.016316669
156	0xbf879eff	-1.0595397
157	0x40860c18	4.1889763
158	0xbe2d8bc1	-0.16947843
159	0xbffe653e	-1.9874647
160	0x3d3492c5	0.044085283
161	0x3db1258a	0.08649738
162	0x3fdfc3b1	1.7481595
163	0xbf0c60dc	-0.54835296
164	0xbf2fde35	-0.68698436
165	0xbe80c227	-0.25148126
166	0xbe576db4	-0.21037942
167	0xbe5b8cc3	-0.21440415
168	0xbdf0829f	-0.11743664
169	0xbf01e306	-0.50737035
170	0x3efec42a	0.49759036
171	0xbf62fdd8	-0.88668585
172	0x3f19614b	0.5991408
173	0x3e0d59d9	0.13803805
174	0x3e8a9c95	0.27072588
175	0x3ca18a3a	0.019719232
176	0x3f86c42e	1.0528619
177	0x3ed0fd87	0.40818426
178	0xbf4fae69	-0.81125504
179	0x3ec56d6e	0.3856005
180	0x3f83563c	1.0260692
181	0x3ecb740a	0.39736968
182	0xbfe8e7d0	-1.8195744
183	0x3f2ad13b	0.6672551
184	0xbf0bda3e	-0.54629886
185	0x3f49049d	0.78522664
186	0x3f8aad20	1.0834084
187	0x3dbc02ba	0.091802076
188	0x3cebe5a4	0.028796025
189	0xbf60c300	-0.87797546
190	0x3f8db443	1.1070637
191	0x3fce5dee	1.6122415
192	0xbfbebbe3	-1.4901088
193	0xbfb19d89	-1.3876201
194	0xbf9b950f	-1.2154864
195	0x401edb97	2.4821527
196	0x3f42efe1	0.76147276
197	0x3fb5052c	1.4142203
198	0x3f97b88e	1.1853197
199	0xbfc20712	-1.5158408
200	0x3e16e821	0.14736988
201	0x3e462dbe	0.19353387
202	0x3e942651	0.28935483
203	0x3e9579d2	0.29194504
204	0x3f627dd7	0.88473266
205	0x3febad2e	1.8412225
206	0x3f69db20	0.91349983
207	0xbfddb73c	-1.7321544
208	0x3f7efae1	0.9960156
209	0x3edd2dbb	0.43198952
210	0x3f281619	0.6565872
211	0xbe34cfa9	-0.17657341
212	0xbc55837c	-0.013031837
213	0x3ec0afe9	0.3763421
214	0x3f0c6140	0.5483589
215	0xbe613dc3	-0.21996216
216	0xbed2c7cd	-0.4116806
217	0x3e2fe845	0.17178448
218	0x3e80a92d	0.2512907
219	0xbf0effa3	-0.5585882
220	0xbc79ab83	-0.0152386455
221	0xbefe85c1	-0.4971142
222	0xc0282ae4	-2.6276178
223	0x3ef13e0b	0.47117648
224	0x3ce2bff6	0.027679425
225	0x3f0f40d9	0.55958325
226	0x3fe56f0c	1.7924514
227	0xbe2499bb	-0.16074269
228	0xbee0d2cf	-0.43910834
229	0xbc189234	-0.009312201
230	0x3f94fc6f	1.1639537
231	0x3f812e28	1.0092211
232	0x3c3fa1e5	0.0116963135
233	0x3e32b9e1	0.1745372
234	0x3e1dbf68	0.15405047
235	0x3e9f94f6	0.31168336
236	0xbf595c40	-0.8490639
237	0x3f174d4b	0.59102315
238	0xbf48d13a	-0.78444254
239	0xbec5f124	-0.38660538
240	0xbf8add10	-1.0848713
241	0xbeb32e28	-0.34996152
242	0x3ef597fa	0.4796751
243	0xbef4afac	-0.47790277
244	0x3ff99f44	1.9501729
245	0x3f726a41	0.9469338
246	0x3f600f93	0.87523764
247	0x3de7da3c	0.11320922
248	0x3fe1226d	1.7588631
249	0xbd483276	-0.04887625
250	0x3ef37b2d	0.47554913
251	0xbfc37b74	-1.527205
252	0x3f7d2e85	0.9889911
253	0x3ec1fca0	0.3788805
254	0x3e3305ff	0.17482756
255	0x3fc9efb2	1.5776274

output_layer.bias f4 [10]
0	0xbe105ab8	-0.14097106
1	0x3f57b35b	0.8425805
2	0xbf759fd9	-0.95947033
3	0xbf2e3038	-0.68042326
4	0xbed6e832	-0.41974026
5	0xbee6a61e	-0.45048612
6	0xbe00a013	-0.12561063
7	0x3f41340e	0.75470054
8	0xbe6783d8	-0.22608888
9	0x3fb4b6dc	1.4118304
