Lab1/model/model_CIFAR10/conv_params_9_layers.pth (torch, 117250 bytes, 12 tensors)

conv_layers.0.weight f4 [6, 3, 5, 5]
0	0xbf19f4ed	-0.6013935
1	0xbe91852b	-0.28421912
2	0xbeca6177	-0.39527485
3	0xbec6a14e	-0.3879494
4	0xbf126688	-0.571877
5	0xbf26f737	-0.6522097
6	0xbe5cc15e	-0.21558139
7	0xbee28f5a	-0.44249994
8	0xbebdf194	-0.37098372
9	0xbf050cb4	-0.5197251
10	0xbdf47aed	-0.11937509
11	0xbf174d49	-0.591023
12	0xbef751ba	-0.4830454
13	0x3da21d7a	0.079157785
14	0x3ec04966	0.37556
15	0x3f4cb6bb	0.79966325
16	0x3f0bd4dd	0.5462168
17	0x3f20b47f	0.62775415
18	0x3e95814b	0.29200205
19	0x3f0fc5b3	0.5616104
20	0x3fa0d590	1.2565174
21	0x3f59eeac	0.8512981
22	0x3f1f48a0	0.6222019
23	0x3f2b9d37	0.67036766
24	0x3faddae8	1.358243
25	0x3eab52d1	0.3346162
26	0x3f11c601	0.56942755
27	0x3d483acd	0.0488842
28	0xbede764c	-0.43449628
29	0x3dc9c160	0.098513365
30	0xbe1516d8	-0.14559495
31	0x3da95fa3	0.082701944
32	0xbd9cf6f8	-0.07664293
33	0x3dcde7f1	0.10054005
34	0x3da54609	0.08069999
35	0xbf243978	-0.6415019
36	0xbf6f8db2	-0.93575585
37	0xbf02d0ab	-0.5109965
38	0x3f080e02	0.53146374
39	0x3dd08b97	0.10182875
40	0xbeeb08d3	-0.4590517
41	0xbede97b1	-0.43475106
42	0xbd88677d	-0.06660364
43	0xbdcbb11f	-0.099458925
44	0xbf62e578	-0.8863139
45	0xbf409d59	-0.75240093
46	0x3b6c20a8	0.0036030207
47	0x3f194054	0.5986378
48	0x3ebd4611	0.3696752
49	0xbcf1f5ba	-0.029536117
50	0x3f3fdd24	0.7494681
51	0xbe0ee25b	-0.13953535
52	0xbe5bc11f	-0.21460389
53	0xbe72efe0	-0.23724318
54	0x3fa62655	1.2980448
55	0x3e55b047	0.20868026
56	0xbebf2310	-0.37331438
57	0xbf157349	-0.58379036
58	0xbe932e16	-0.28746098
59	0x3efb7a5c	0.4911679
60	0xbe2a929c	-0.1665749
61	0xbec70d76	-0.38877457
62	0x3e239029	0.15972961
63	0x3f2029c6	0.6256374
64	0x3ef6cbc8	0.48202348
65	0xbec1c021	-0.37841895
66	0x3eba1e14	0.36351073
67	0x3f9c931c	1.2232394
68	0x3f1ef510	0.62092686
69	0x3d89a81d	0.06721518
70	0xbf2bbb25	-0.67082435
71	0x3e0df37e	0.13862416
72	0x3d961aa6	0.073293015
73	0xbea02c3d	-0.3128375
74	0xbf1d3a77	-0.61417335
75	0x3f2cb80e	0.67468345
76	0x3f9eb72a	1.2399647
77	0xbe4b8a77	-0.19877039
78	0xbef38a86	-0.47566622
79	0x3e1f083c	0.15530485
80	0x3e04c3e2	0.12965348
81	0xbede95ed	-0.4347376
82	0x3d72c833	0.059272956
83	0xbf603ea2	-0.8759557
84	0x3e916858	0.2839992
85	0x3f4ddad3	0.80412024
86	0xbfc6f869	-1.5544559
87	0x3f768e08	0.9631047
88	0x3db85744	0.090010196
89	0x3e12de2b	0.14342563
90	0x3e7a8e02	0.24468234
91	0xc00e4663	-2.223046
92	0x3ffb6ed8	1.9643202
93	0xbe3e75b6	-0.1859959
94	0xbecb540a	-0.39712554
95	0x3e289728	0.16463912
96	0xbf626b86	-0.8844532
97	0x3fe86425	1.8155562
98	0xbe908956	-0.2822978
99	0xbefdb941	-0.495554
100	0xbf2a82b2	-0.66605675
101	0xbf7f2563	-0.9966642
102	0xbf37b36d	-0.71758157
103	0xbd8fb6e2	-0.07017304
104	0x3ef5a53b	0.47977623
105	0x3f204df6	0.6261896
106	0xbfc0c31c	-1.5059543
107	0x3c106255	0.008812507
108	0x3ec5db20	0.38643742
109	0x3f5fe563	0.8745939
110	0x3f5bb204	0.85818505
111	0xc02df268	-2.7179203
112	0x3f82580f	1.0183123
113	0x3f343f45	0.7040904
114	0x3f175b65	0.5912383
115	0x3f174950	0.5909624
116	0xc0429704	-3.0404673
117	0x3fe507da	1.7893021
118	0x3ec75029	0.38928345
119	0x3e897a0c	0.26850927
120	0x3cd8bce6	0.026457261
121	0xc02a1a0a	-2.6578393
122	0x3fb3c917	1.4045743
123	0x3ea0e222	0.31422526
124	0x3f003dbd	0.50094205
125	0xbd0f0cc2	-0.034924276
126	0x3f064bf7	0.52459663
127	0x3ef1d739	0.47234514
128	0xbca057d3	-0.019573128
129	0xbefe2c5b	-0.49643216
130	0x3f13b440	0.57696915
131	0xbf175664	-0.59116197
132	0x3f361476	0.7112497
133	0xbeaca1ed	-0.3371729
134	0xbe32dbf8	-0.17466724
135	0x3efe9ced	0.497291
136	0xbfe24032	-1.7675841
137	0x3f5d24f8	0.86384535
138	0xbe00b116	-0.12567553
139	0xbe996f3f	-0.29967687
140	0x3ee29184	0.44251645
141	0xc000a8bd	-2.010299
142	0x40113f0f	2.2694738
143	0x3ee0f30c	0.4393543
144	0xbf4679f7	-0.77529854
145	0x3ef93921	0.48676398
146	0xbfc0a21f	-1.5049475
147	0x400a5a96	2.161779
148	0x3ebc3a7c	0.3676337
149	0xbf81342f	-1.009405
150	0x3f871198	1.0552244
151	0xbca00ecf	-0.019538311
152	0x3f284f9d	0.6574648
153	0x3f2b2a09	0.66861016
154	0x3f79ceec	0.9758136
155	0xbedc91fa	-0.4308012
156	0xbf3437d1	-0.7039767
157	0xbedf41ef	-0.4360499
158	0xbf175487	-0.59113353
159	0xbf5e24bb	-0.86774796
160	0xbf2ba980	-0.6705551
161	0xbfd0e7c6	-1.6320732
162	0xbf917b6f	-1.1365794
163	0xbf4c4301	-0.7978974
164	0xbee344d1	-0.4438844
165	0x3ea577ba	0.32317907
166	0xbfb1d461	-1.3892938
167	0xbf905e43	-1.1278766
168	0xbf2eb10b	-0.68238896
169	0x3eab8f01	0.3350754
170	0x3f85d929	1.0456897
171	0xbf2ba87b	-0.67053956
172	0xbed6ef69	-0.4197953
173	0x3f268cbf	0.6505851
174	0x3f2bece4	0.6715834
175	0x3d50c97f	0.05097341
176	0xbefb99e6	-0.49140853
177	0xbe1e9c2a	-0.1548926
178	0xbf42bec3	-0.7607233
179	0xbcc2f313	-0.023797547
180	0xbea0143b	-0.31265435
181	0x3e572d73	0.21013431
182	0x3ee6097b	0.44929108
183	0xbe0854f4	-0.13313657
184	0xbe930358	-0.2871349
185	0x3ef197da	0.47186166
186	0x3eee73d2	0.4657274
187	0x3faf58a2	1.3698924
188	0x3f734bb3	0.9503738
189	0x3ee7d3ab	0.45278677
190	0x3e88db54	0.26729834
191	0x3d7223e7	0.05911627
192	0x3f41b32c	0.7566402
193	0x3d3aeb6d	0.045634676
194	0xbe6a3bbb	-0.22874348
195	0xbf8b7ff5	-1.0898424
196	0xbf445d4a	-0.7670485
197	0x3d1b57e5	0.03792562
198	0xbe5a98db	-0.21347372
199	0xbed9cd38	-0.42539382
200	0xbf08b436	-0.5339998
201	0xbeecbe4e	-0.4623894
202	0x3db89d0d	0.0901433
203	0xbe009e38	-0.12560356
204	0xbe956c76	-0.29184312
205	0x3ef18bb6	0.47176903
206	0x3fb9904d	1.4497162
207	0x3f17cf69	0.5930086
208	0x3e0e8d77	0.13921152
209	0xbebf1450	-0.37320185
210	0x3ecb581d	0.39715663
211	0x3fa74263	1.3067135
212	0x3f9506a2	1.1642649
213	0x3f76903b	0.9631383
214	0x3f3f7f9c	0.7480409
215	0xbe8db199	-0.2767456
216	0x3f58fb33	0.847583
217	0x3f544fe5	0.8293441
218	0x3ead72bf	0.33876607
219	0xbd093525	-0.03349795
220	0xbf9c3f18	-1.2206755
221	0x3da1f958	0.07908887
222	0x3edcd2bb	0.43129525
223	0x3e9f90c6	0.3116514
224	0xbf075ba6	-0.5287422
225	0xbf7b5d52	-0.9818927
226	0x3e3bf972	0.18356875
227	0xbf878748	-1.058816
228	0x3e86d48f	0.26334044
229	0x3f77459a	0.9659058
230	0x3e81f6b3	0.2538353
231	0xbf9eccd8	-1.2406263
232	0xbeccb633	-0.39982757
233	0x4020d155	2.5127766
234	0xbe8fc6e9	-0.28081444
235	0xbe43d9c6	-0.19126043
236	0xbf07f8b1	-0.5311385
237	0x405a8795	3.4145253
238	0x3ef564c8	0.47928452
239	0xbfe5f798	-1.7966185
240	0x3d723abd	0.05913805
241	0x3f0dc7c0	0.5538292
242	0xbf2eb307	-0.68241924
243	0xc04536cb	-3.0814693
244	0xbe0ffd14	-0.14061385
245	0x3f22068a	0.6329123
246	0x3ecf5219	0.40492323
247	0xbef3026c	-0.47462785
248	0x3f305d60	0.6889248
249	0x3d668d25	0.05628695
250	0x3f1ed0c3	0.62037295
251	0x3f9c69b2	1.2219756
252	0xbe2479b2	-0.16062048
253	0x3ec65fd0	0.38744974
254	0xbdc508eb	-0.096208416
255	0x3f4bb601	0.7957459

conv_layers.0.bias f4 [6]
0	0xbee61143	-0.44935045
1	0xbf96c0ba	-1.1777565
2	0x3e9e6aa3	0.30940732
3	0xbf908faf	-1.1293849
4	0xbf643257	-0.8913931
5	0xbfbdbe4b	-1.4823698

conv_layers.1.weight f4 [16, 6, 5, 5]
0	0x3ebf82e3	0.37404546
1	0x3ed33ab8	0.41255736
2	0xbd1a0bd5	-0.03760894
3	0xbea149ce	-0.3150162
4	0x3ee4bb6c	0.44674242
5	0xbd0c1e5d	-0.034208644
6	0x3f03a787	0.514275
7	0xbf489023	-0.78344935
8	0xbf6a54c8	-0.91535616
9	0x3da32f82	0.07968046
10	0x3f1d190e	0.61366355
11	0x3eb16ce7	0.34653398
12	0xbf4f97de	-0.81091106
13	0xbf939906	-1.1531074
14	0x3f0617d1	0.5238009
15	0x3f534003	0.8251955
16	0xbe98b3e3	-0.29824743
17	0xbf87a566	-1.0597351
18	0xbee8c96c	-0.45466173
19	0x3f01c661	0.5069333
20	0x3e455a19	0.19272651
21	0x3f28c33f	0.6592292
22	0xbe9cdce4	-0.30637276
23	0xbf1f435c	-0.6221216
24	0x3f026d40	0.5094795
25	0xbde892ec	-0.11356148
26	0xbf1bf914	-0.6092694
27	0xbf0160cf	-0.50538343
28	0xbf082dca	-0.5319487
29	0x3cb6feef	0.022338359
30	0x3ee0a898	0.43878627
31	0x3e3b5e53	0.182977
32	0xbe803e86	-0.25047702
33	0x3e4c7abe	0.19968697
34	0x3e386f98	0.1801132
35	0xbd3721e9	-0.044710074
36	0xbe0ec282	-0.13941386
37	0x3e859497	0.26089928
38	0x3e8e775c	0.2782544
39	0x3ef74830	0.48297262
40	0x3e2dfb0d	0.169903
41	0x3ec0d713	0.3766409
42	0x3d6c6965	0.0577177
43	0xbec89c08	-0.39181542
44	0xbe8dc88f	-0.27692077
45	0x3e622865	0.22085722
46	0x3e8a979f	0.27068803
47	0x3eabdcbb	0.3356684
48	0x3c229628	0.009923495
49	0x3eefefa0	0.46862507
50	0x3ec4e38e	0.3845486
51	0xbf069c0a	-0.52581847
52	0xbd678b75	-0.05652948
53	0xbdf83b15	-0.12120644
54	0x3ee2c91b	0.44294056
55	0x3f5f97cf	0.87341017
56	0xbe4df5c8	-0.2011329
57	0xbf1496ab	-0.580424
58	0xbf103a8a	-0.56339324
59	0xbeebeb2b	-0.46077856
60	0x3e37c714	0.17947036
61	0x3f3f97c2	0.7484094
62	0xbf6f3960	-0.9344692
63	0xbecbf8e7	-0.39838335
64	0xbe6d45f9	-0.23171224
65	0xbe092470	-0.13392806
66	0x3f54f633	0.8318817
67	0xbe9102b3	-0.28322372
68	0xbf9c4b6f	-1.221052
69	0xbea13a66	-0.31489867
70	0x3d255efc	0.040373787
71	0x3f545d58	0.8295493
72	0x3ef2b9d1	0.47407392
73	0xbfc79061	-1.5590936
74	0xbebd6099	-0.3698776
75	0xbc68cb00	-0.014208555
76	0x3e72c786	0.23708925
77	0xbe21e2d1	-0.1580918
78	0xbe8c6066	-0.27417296
79	0xbf227efa	-0.63475
80	0x3f245139	0.64186436
81	0xbd96fe28	-0.07372695
82	0xbf214c23	-0.630068
83	0xbea96a9a	-0.33089143
84	0xbf28949d	-0.65851766
85	0x3f0b8be2	0.5451032
86	0xbf0938be	-0.53602207
87	0xbe094b45	-0.1340762
88	0xbf2d1a16	-0.6761793
89	0xbf2fe136	-0.6870302
90	0xbe663dcf	-0.22484516
91	0xbbc66d3c	-0.006055502
92	0x3e4ae2d4	0.1981309
93	0xbd5248ba	-0.05133889
94	0xbf0be7cd	-0.54650575
95	0x3f16c114	0.58888364
96	0x3e75a1c8	0.23987496
97	0xbe6592bc	-0.22419256
98	0xbd7060b9	-0.058685992
99	0xbeddee1b	-0.43345723
100	0xbe1872f0	-0.14887595
101	0x3e63a981	0.2223263
102	0x3e5137e9	0.20431484
103	0x3ee1efc3	0.44128236
104	0x3e00935f	0.12556218
105	0xbd89a15e	-0.067202315
106	0x3f05fd59	0.523397
107	0x3eee5e84	0.46556485
108	0xbeb1d52c	-0.3473295
109	0xbe9b013e	-0.30274385
110	0xbde26675	-0.110546984
111	0xbe669f00	-0.22521591
112	0x3f027fe4	0.50976396
113	0xbf46d4ea	-0.7766863
114	0xbf58feca	-0.8476378
115	0xbe39a932	-0.18130949
116	0xbf38ca13	-0.7218334
117	0x3e1c08ee	0.15237781
118	0xbdf02bce	-0.11727105
119	0xbf753505	-0.95784026
120	0xbf002fda	-0.50073016
121	0xbf8c8071	-1.0976697
122	0xbe266029	-0.1624762
123	0x3f0fb061	0.5612851
124	0xbee81c70	-0.45334196
125	0x3ea75a98	0.32686305
126	0x3f065198	0.5246825
127	0xbe742206	-0.23841104
128	0xbdbff2fa	-0.09372516
129	0xbf40a0b6	-0.75245225
130	0x3f004ffa	0.50122035
131	0x3e62052d	0.22072287
132	0xbe5a4fa4	-0.21319443
133	0xbe767e3e	-0.24071595
134	0xbe8e838a	-0.2783473
135	0x3f0e596b	0.5560519
136	0xbf3a6a3c	-0.7281835
137	0xbf29da52	-0.66348755
138	0xbce2f693	-0.027705466
139	0x3e15177b	0.14559738
140	0x3f00d6b0	0.5032759
141	0xbea196e0	-0.3156042
142	0xbf071f90	-0.52782536
143	0x3d6c2970	0.057656705
144	0x3d7f950b	0.062397998
145	0x3ea00df9	0.3126066
146	0x3d8c5499	0.06852073
147	0xbf32a478	-0.6978221
148	0x3f0e5ffa	0.556152
149	0x3f051293	0.51981467
150	0x3e59d2c7	0.21271811
151	0x3e60efe3	0.2196651
152	0xbf03093e	-0.5118598
153	0xbdd81fd1	-0.105529435
154	0xbf1292e9	-0.5725542
155	0xbed373a2	-0.41299158
156	0xbee5a6ff	-0.4485397
157	0xbd8e41d1	-0.06946147
158	0xbf7e70a4	-0.99390626
159	0xbee336b0	-0.4437766
160	0x3e822ddc	0.25425613
161	0x3f256e95	0.6462186
162	0x3b343685	0.0027498316
163	0xbecb4bfd	-0.39706412
164	0xbbdf1aab	-0.006808599
165	0xbec483b4	-0.38381732
166	0x3dabdd27	0.08391791
167	0xbefc069c	-0.49223793
168	0xbf4ed184	-0.80788445
169	0xbf287ac0	-0.658123
170	0x3dad836c	0.08472332
171	0x3f8cf96f	1.1013621
172	0x3ecf1536	0.4044587
173	0x3ef3306a	0.47497874
174	0xbebe49aa	-0.37165576
175	0xbf09cb76	-0.5382608
176	0xbdfec7de	-0.124404654
177	0xbc80d417	-0.015726132
178	0x3f223517	0.6336226
179	0x3f0ffff5	0.56249934
180	0x3eb9e425	0.36306873
181	0xbf5ad680	-0.8548355
182	0x3ecd90d7	0.40149567
183	0xbe85ae7d	-0.26109686
184	0x3e5ee22d	0.21765967
185	0xbdd9d1ed	-0.10635743
186	0xbf091159	-0.53542095
187	0x3edfd3a2	0.4371615
188	0x3eb8741d	0.36026087
189	0x3eaecd78	0.34141135
190	0x3ea64d54	0.32480872
191	0xbf65fd1a	-0.8983933
192	0x3f9e657e	1.2374723
193	0x3e44ee07	0.19231425
194	0x3f837938	1.0271368
195	0xbfca2173	-1.5791458
196	0xc01f5e84	-2.4901438
197	0xbf5f855e	-0.8731288
198	0xbee9f3a7	-0.45693704
199	0xbed75ac8	-0.42061448
200	0x3eb5e038	0.35522628
201	0xbdfea4c5	-0.12433771
202	0x3f3f1aab	0.7465007
203	0x3e2cefe5	0.16888388
204	0x3e5f2ce8	0.21794474
205	0x3e176c8b	0.147875
206	0x3ea658e7	0.32489702
207	0xbf3e9406	-0.74444616
208	0x3e4bac3e	0.19889924
209	0x3e707d01	0.23485185
210	0x3de5d40d	0.11222086
211	0xbef53a3a	-0.47895986
212	0x3ed3c5b4	0.41361773
213	0x3e767a73	0.24070148
214	0xbe1c9808	-0.1529237
215	0xbce48608	-0.027895942
216	0xbe6e2e66	-0.23259887
217	0x3ed91e4d	0.4240593
218	0xbec6dbe1	-0.3883963
219	0x3e699616	0.2281116
220	0xbfb3a227	-1.403386
221	0xbe3ae49b	-0.18251269
222	0xbe851d8b	-0.25999102
223	0xbf57f457	-0.8435721
224	0xbffa4997	-1.9553708
225	0xbe6e22bc	-0.23255438
226	0x3dc5173b	0.096235715
227	0xbe40a1fb	-0.1881179
228	0xbf70c996	-0.94057596
229	0xbeb6ce62	-0.35704333
230	0x3e393180	0.18085289
231	0x3ead8289	0.33888653
232	0x3c47179f	0.012151628
233	0xbeb4d631	-0.35319665
234	0xbd0c6f01	-0.03428555
235	0x3d863597	0.0655319
236	0x3bb92a40	0.0056507885
237	0xbef94891	-0.48688176
238	0xbf65220b	-0.8950507
239	0xbdc76d6f	-0.0973767
240	0x3ed4c695	0.41557756
241	0x3e5e1e61	0.21691276
242	0x3e9736f8	0.29534125
243	0xbdc52a1e	-0.09627174
244	0xbd8d1024	-0.06887844
245	0xbef29693	-0.47380504
246	0xbf8bad56	-1.0912273
247	0x3dda1975	0.10649387
248	0x3eb13fb3	0.3461891
249	0xbf5692be	-0.8381766
250	0x3d57c184	0.052674785
251	0xbe049f75	-0.12951453
252	0x3deb46b0	0.11488092
253	0x3f1c5c9f	0.6107883
254	0x3ee4e9a3	0.447095
255	0xbec405fd	-0.3828582

conv_layers.1.bias f4 [16]
0	0xbe132341	-0.14368917
1	0x3e8c843a	0.2744463
2	0x3fc33f9b	1.5253786
3	0x3eed658d	0.4636654
4	0x400e846f	2.226833
5	0xc080510a	-4.0098925
6	0xbd906a77	-0.070515566
7	0x402486dd	2.5707314
8	0x3f7b40e2	0.9814588
9	0xbb843b3d	-0.004035382
10	0x3fd60612	1.6720603
11	0xc0700697	-3.7504022
12	0xbff1b2e2	-1.8882716
13	0x4035f2ea	2.8429513
14	0x3f56b5d4	0.838712
15	0xbfaa5642	-1.3307574

conv_layers.2.weight f4 [26, 16, 2, 2]
0	0x3e180f90	0.14849687
1	0xbec51077	-0.38489124
2	0xbdf1a6ae	-0.1179937
3	0xbe9745c5	-0.29545417
4	0x3da39ed8	0.079892814
5	0xbe79b715	-0.24386247
6	0x3e56ffe8	0.20996058
7	0xbce383db	-0.027772835
8	0x3ee47d1e	0.44626707
9	0xbf43c7b1	-0.7647658
10	0xbe2461e1	-0.16052963
11	0x3e5c3fba	0.21508685
12	0xbebdecb3	-0.3709465
13	0xbc75d6d6	-0.015004834
14	0xbe0b8725	-0.13625772
15	0x3cdfd5e4	0.02732367
16	0x3d12a4a3	0.03580154
17	0x3df0b879	0.11753935
18	0x3ec1cb92	0.37850624
19	0x3e2b0437	0.16700827
20	0x3eefc582	0.46830374
21	0x3f623803	0.8836672
22	0xbe015546	-0.12630185
23	0x3e65eef0	0.22454429
24	0x3d75893c	0.05994533
25	0xbe58ddb0	-0.21178317
26	0xbe3c676a	-0.18398824
27	0xbe15d5f6	-0.14632401
28	0x3e9ae092	0.3024946
29	0x3e09b481	0.13447763
30	0x3d6c49bd	0.05768751
31	0xbf23ec73	-0.6403267
32	0xbe0c704f	-0.13714717
33	0xbed89fc2	-0.42309386
34	0xbd5415e4	-0.05177869
35	0x3afb7c26	0.0019186779
36	0x3d0813dc	0.033222064
37	0xbec27d3e	-0.37986177
38	0x3d53e6ed	0.0517339
39	0xbe0f3f48	-0.13988984
40	0x3e2ba11d	0.16760679
41	0x3d632008	0.05545047
42	0xbe86e106	-0.26343554
43	0xbe77f039	-0.24212731
44	0xbe7e4747	-0.24831878
45	0x3e1a4b43	0.15067773
46	0xbec8ed22	-0.39243418
47	0x3f00ba6e	0.5028447
48	0xbd10066f	-0.035162386
49	0xbe8cdf2e	-0.27514023
50	0xbe0e63a0	-0.13905191
51	0xbe746dd0	-0.23870015
52	0x3d8f7e2a	0.07006486
53	0xbecdd7fc	-0.40203846
54	0xbe3a16b5	-0.18172725
55	0xbe055a67	-0.13022767
56	0xbe2a7d78	-0.16649425
57	0x3e2d13fb	0.16902153
58	0xbe6df324	-0.23237282
59	0xbddb700e	-0.10714732
60	0xbec4ec93	-0.38461742
61	0x3e1ff02f	0.15618967
62	0xbe27890f	-0.16360877
63	0xbe4bc285	-0.19898422
64	0xbdce40bf	-0.10070943
65	0x3f37770e	0.7166604
66	0x3ec0e274	0.3767277
67	0x3e81c2d8	0.25343966
68	0xbe451fbe	-0.1925039
69	0x3eb84d3f	0.35996434
70	0x3ca0dd48	0.019636765
71	0x3c853e9c	0.016265206
72	0x3e3b1e1c	0.18273205
73	0xbef68371	-0.48147157
74	0x3e878ba5	0.26473728
75	0xbeb61475	-0.35562482
76	0x3e5592ab	0.2085673
77	0xbea8dec4	-0.32982457
78	0xbe2d78a2	-0.16940549
79	0xbd9f237e	-0.077704415
80	0x3e8de2b3	0.2771202
81	0x3e75a0ee	0.23987171
82	0xbe16dff9	-0.14733876
83	0xbca0becf	-0.019622235
84	0xbdc52256	-0.0962569
85	0x3dca2cde	0.09871839
86	0xbf09ff5b	-0.53905267
87	0xbe9e7b11	-0.30953267
88	0xbdaae653	-0.08344712
89	0x3f924454	1.1427102
90	0x3db299e6	0.0872076
91	0x3eae4404	0.34036267
92	0xbf0e1230	-0.554965
93	0xbe8005b9	-0.25004366
94	0xbe29c648	-0.16579545
95	0xbf03d9ae	-0.5150403
96	0x3dba0404	0.09082797
97	0xbeb80cbd	-0.3594722
98	0xbedcda6d	-0.43135396
99	0xbf132325	-0.574755
100	0xbdcaf006	-0.09909062
101	0xbcb60b11	-0.022222074
102	0xbe80eb66	-0.25179595
103	0xbe4f31a0	-0.20233774
104	0xbe331931	-0.17490079
105	0xbd0ab069	-0.033859644
106	0x3dacc620	0.08436227
107	0x3e8c7c70	0.27438688
108	0xbdc75b88	-0.09734255
109	0xbe8532c7	-0.26015303
110	0x3d934938	0.071917
111	0xbdd4b350	-0.10385764
112	0x3e72416f	0.23657773
113	0xbb11817e	-0.0022202427
114	0x3ea6799e	0.32514662
115	0xbd7d8bcb	-0.061900895
116	0x3e90a57d	0.28251258
117	0xbf4a84a9	-0.79108673
118	0x3e1f6718	0.15566671
119	0x3d656983	0.056008827
120	0x3edef9d4	0.4354998
121	0x3de27003	0.11056521
122	0xbe265711	-0.1624415
123	0x3da66fec	0.08126816
124	0xbd279a65	-0.040918726
125	0xbd79d461	-0.060993556
126	0xbe9fc246	-0.31202906
127	0xbe38a4b5	-0.18031581
128	0xbd623218	-0.055223554
129	0x3ea6ccb2	0.32578045
130	0xbe98c46e	-0.29837364
131	0xbe207cbf	-0.15672587
132	0xbddee800	-0.10884094
133	0xbedd04e0	-0.43167782
134	0xbebbaa0b	-0.3665317
135	0xbed941b7	-0.4243295
136	0x3e343fb4	0.17602426
137	0x3ef3ad75	0.47593275
138	0xbe9d38ad	-0.30707303
139	0x3e871b72	0.26388127
140	0x3f0f3846	0.5594524
141	0xbdcd798e	-0.1003295
142	0x3f018abf	0.50602335
143	0xbf0602dd	-0.5234812
144	0x3e5193f4	0.20466596
145	0x3edb881b	0.42877278
146	0x3ec6bfad	0.38818112
147	0x3e3712a4	0.17878205
148	0x3cfbc582	0.030733828
149	0x3daae039	0.08343548
150	0xbde53e36	-0.111935064
151	0xbefc2f79	-0.4925497
152	0xbd855fac	-0.065123886
153	0x3ed81fe2	0.42211825
154	0x3eafb8de	0.3432073
155	0x3ee70348	0.4511969
156	0xbe638ebb	-0.22222416
157	0xbefe3b8e	-0.49654812
158	0xbe1e5023	-0.15460257
159	0xbe98b268	-0.29823613
160	0xbf4fa308	-0.8110814
161	0xbf1914b0	-0.5979719
162	0x3c043eb2	0.008071588
163	0xbf27aa7a	-0.654945
164	0xbe3cdc60	-0.18443441
165	0xbe925bed	-0.2858576
166	0xbf7b4541	-0.9815255
167	0xbeef6501	-0.46756747
168	0x3cac7cbc	0.021055572
169	0xbe3ae35a	-0.1825079
170	0xbf21cca7	-0.632029
171	0x3f05485f	0.52063555
172	0x3e7c416d	0.24634333
173	0xbeafdf6d	-0.34350148
174	0x3dc91ac0	0.09819555
175	0xbe9bdc25	-0.30441394
176	0xbe36b1b4	-0.17841226
177	0x3ce74e1f	0.028235493
178	0x3eb9371a	0.36174852
179	0x3e84b6d8	0.2592075
180	0x3d734d26	0.059399746
181	0xbf30464d	-0.6885727
182	0xbf083690	-0.53208256
183	0xbf7cb22d	-0.98709375
184	0xbe8c2605	-0.27372757
185	0xbeb3d210	-0.35121202
186	0xbfa2c7b6	-1.2717197
187	0xbf9058e7	-1.1277131
188	0x3a268f0e	0.0006353714
189	0x3dee7d71	0.1164502
190	0x3e21b101	0.15790178
191	0x3e61f38b	0.2206556
192	0xbebae584	-0.36503232
193	0x3c562fe0	0.013072938
194	0x3cc55464	0.024088092
195	0x3f0629b9	0.52407414
196	0xbe4b4982	-0.1985226
197	0x3dd7a248	0.105289996
198	0x3f935fb3	1.151358
199	0x3eba4f01	0.363884
200	0x3ef83e2e	0.4848494
201	0xbf464c69	-0.7746034
202	0xbe7e7fa5	-0.2485338
203	0xbf732c3e	-0.94989383
204	0x3f05b575	0.52230006
205	0xbed22f33	-0.41051635
206	0x3e7630b3	0.24042015
207	0xbecd3996	-0.40082997
208	0x3dd43b16	0.10362832
209	0x3df8dab8	0.12151092
210	0xbf440a32	-0.76578057
211	0xbdc68d83	-0.0969496
212	0x3e28d402	0.16487125
213	0xbe9943e2	-0.29934603
214	0x3ecb4450	0.39700556
215	0x3ecb7053	0.39734134
216	0xbe18cc39	-0.14921655
217	0xbcd3cbf0	-0.02585408
218	0x3e3fc752	0.18728378
219	0xbeac4d97	-0.33652946
220	0xbf07c99c	-0.53042006
221	0xbf057146	-0.52125967
222	0xbe7093eb	-0.23493926
223	0xbef7c858	-0.48395038
224	0xbc47e034	-0.01219945
225	0xbe9102f4	-0.28322566
226	0xbde68714	-0.11256233
227	0xbf50cd04	-0.8156283
228	0xbe95a2e9	-0.29225853
229	0x3ebbcc0d	0.36679116
230	0xbee71cee	-0.4513926
231	0xbf0f2eb3	-0.5593063
232	0x3dfc48fd	0.12318609
233	0xbd006e4e	-0.031355195
234	0x3d08c09a	0.033386804
235	0xbe95a81a	-0.29229814
236	0xbea151b3	-0.31507644
237	0x3e778ad7	0.24174057
238	0x3e92f841	0.28705028
239	0x3e731670	0.23739028
240	0x3e275476	0.16340813
241	0x3e2795fa	0.16365805
242	0x3e771507	0.24129115
243	0xbf672e6d	-0.90305215
244	0xbd9497dd	-0.07255528
245	0xbde2ecb6	-0.11080305
246	0x3df4b60e	0.11948787
247	0x3da29c35	0.079399504
248	0xbe9f14fd	-0.310707
249	0xbe9faa20	-0.31184483
250	0xbdb43317	-0.08798807
251	0x3cebcdc6	0.028784644
252	0xbd8dd20a	-0.069248274
253	0xbe094647	-0.13405715
254	0x3e02477f	0.12722586
255	0x3f4d176c	0.80113864

conv_layers.2.bias f4 [26]
0	0x3f9bc656	1.2169902
1	0xbf877242	-1.0581744
2	0x3f6e21f5	0.93020564
3	0xbfcd3177	-1.603072
4	0x3fde9986	1.7390602
5	0xbee749d4	-0.45173514
6	0x406826a3	3.6273582
7	0x406ca16e	3.697353
8	0x3fc66789	1.5500346
9	0xbf2fc27d	-0.6865614
10	0xbea44c31	-0.3208938
11	0xbe7e1b5a	-0.24815121
12	0xbf8ab9fb	-1.0838007
13	0x3f25ced5	0.64768726
14	0x3fa854a0	1.3150826
15	0xc02d6730	-2.709423
16	0x3f67b202	0.90505993
17	0x4021a49b	2.5256717
18	0xbfe50b34	-1.7894044
19	0x3efaef4f	0.49010703
20	0xc0277a5d	-2.6168435
21	0x3e2c3f02	0.1682091
22	0xc015b29b	-2.3390262
23	0xbf15bbac	-0.5848949
24	0x3fc712c2	1.55526
25	0x40402523	3.0022666

fc_layers.0.weight f4 [120, 104]
0	0x3e3d9cea	0.18516889
1	0x3db794fa	0.08963962
2	0xbcffd5d1	-0.031229885
3	0x3cdd90bf	0.02704656
4	0x3e8ee9b5	0.2791268
5	0x3eab5f17	0.33470985
6	0xbe37f7a7	-0.17965566
7	0x3e8b887b	0.27252564
8	0xbe8b7733	-0.2723938
9	0xbe97dd2e	-0.29660934
10	0x3c703293	0.014660495
11	0xbe2c317e	-0.16815755
12	0xbd504499	-0.05084667
13	0x3e06e25f	0.13172291
14	0x3ef2ecf3	0.47446403
15	0x3df47b5b	0.11937591
16	0xbec68716	-0.38774937
17	0x3e4e020e	0.20117971
18	0xbea68807	-0.32525656
19	0xbf027562	-0.5096036
20	0xbde39640	-0.11112642
21	0x3d730743	0.059333097
22	0xbdce3c68	-0.10070115
23	0x3e1dd7c7	0.15414344
24	0xbe86d002	-0.26330572
25	0x3da7a1d8	0.08185166
26	0xbde5b5b4	-0.11216298
27	0xbd4170e7	-0.047226813
28	0x3edcee36	0.4315049
29	0x3d7cbc82	0.061703213
30	0x3e8c8bf2	0.2745052
31	0xbe1891b7	-0.14899336
32	0x3cbe900f	0.023262052
33	0xbbb52dc3	-0.005529137
34	0xbe3b0737	-0.18264471
35	0xbe8e2b3a	-0.27767354
36	0xbe430d4a	-0.19048038
37	0x3e093560	0.13399267
38	0x3cddb401	0.027063372
39	0xbea278d0	-0.31732798
40	0xbdf1851b	-0.11792966
41	0xbd26319f	-0.040574666
42	0xbf09ae63	-0.5378172
43	0xbeabe32b	-0.33571753
44	0x3d9fcb09	0.07802398
45	0xbebc9fac	-0.3684057
46	0x3d3bf716	0.045889936
47	0x3f0eb7ec	0.5574939
48	0xbe02dd16	-0.1277965
49	0x3e13d792	0.14437702
50	0xbe9535c3	-0.2914258
51	0x3e4e27ad	0.20132323
52	0xbe94814b	-0.29004893
53	0x3dbb65d2	0.0915028
54	0xbd922d1d	-0.07137511
55	0x3de66efd	0.11251638
56	0x3e5146b3	0.20437126
57	0xbd83bcaf	-0.06432473
58	0xbe9ed51e	-0.3102197
59	0xbcdf412b	-0.027252754
60	0xbdad3e67	-0.08459168
61	0x3d6fb0de	0.058518283
62	0x3dd877bc	0.105697125
63	0xbe3c044b	-0.18361013
64	0xbd9784d6	-0.07398383
65	0xbe2c9e5d	-0.16857286
66	0xbe9cf149	-0.30652836
67	0xbdea526d	-0.11441503
68	0x3e4bbf23	0.19897132
69	0x3e8ca3e0	0.27468777
70	0x3e313cc1	0.17308332
71	0xbd8b00b9	-0.06787247
72	0xbda9ddad	-0.082942344
73	0xbe5896cb	-0.21151273
74	0xbecdef3c	-0.40221584
75	0xbd21a581	-0.039464477
76	0xbf2b5e2f	-0.6694059
77	0xbedfa9a5	-0.43684116
78	0xbf09a9f3	-0.53774947
79	0x3e2fe536	0.17177281
80	0x3eb36a73	0.35042152
81	0xbd44aa06	-0.04801371
82	0xbe2c28ef	-0.1681249
83	0x3d696b25	0.056986947
84	0x3ecf6dcf	0.40513465
85	0xbe156d6e	-0.14592525
86	0x3e76638b	0.2406141
87	0xbe88e7e8	-0.2673943
88	0xbe05fb8a	-0.13084236
89	0x3e175774	0.14779454
90	0xbe89f040	-0.2694111
91	0x3ecafcad	0.396459
92	0x3e8d8098	0.27637172
93	0x3d72c869	0.059273157
94	0x3d0a7c7e	0.03381013
95	0x3e22a6f1	0.15883996
96	0xbf04a58c	-0.51815104
97	0xbf0700bf	-0.52735513
98	0x3dfc4060	0.12316966
99	0x3d0a29ac	0.033731148
100	0xbee3f61d	-0.44523707
101	0xbe698a39	-0.22806634
102	0xbe77457e	-0.24147603
103	0xbee25291	-0.44203618
104	0xbd9f29ba	-0.077716306
105	0xbe41efef	-0.18939184
106	0x3de49fb8	0.111632764
107	0xbe9b445e	-0.30325598
108	0xbb709d93	-0.0036715015
109	0xbe902360	-0.2815199
110	0x3c528882	0.012849929
111	0xbdfb51c9	-0.12271459
112	0x3efb8222	0.4912272
113	0x3e2fe359	0.1717657
114	0xbcef1d51	-0.029188784
115	0xbd5abd17	-0.053402986
116	0x3efa77ad	0.4891943
117	0xbf122d75	-0.5710061
118	0x3e6adc4c	0.22935599
119	0xbdb2c99e	-0.08729862
120	0xbbc89f88	-0.006122533
121	0xbea88674	-0.3291508
122	0xbce8ac9e	-0.028402623
123	0xbf3d9ada	-0.7406441
124	0x3ce8aaa2	0.028401677
125	0xbce1ef90	-0.027580053
126	0xbd172dd9	-0.036908958
127	0x3e2245a2	0.15846875
128	0xbe48a2ad	-0.19593306
129	0xbe793944	-0.24338251
130	0xbe06c8d2	-0.13162544
131	0x3c4bfa52	0.012449818
132	0x3e194a2a	0.14969698
133	0x3d5572be	0.05211138
134	0x3e6155f4	0.22005445
135	0xbd894086	-0.0670176
136	0x3ed10fd0	0.40832376
137	0x3bdb3214	0.0066893194
138	0xbe5201f4	-0.20508558
139	0xbcb8cff8	-0.022560105
140	0x3e25d88e	0.1619589
141	0x3eca0ed6	0.39464444
142	0xbd33e19e	-0.043916337
143	0x3d1fb182	0.038987644
144	0xbdb45a3d	-0.08806274
145	0xbed33a2c	-0.4125532
146	0xbe3929ce	-0.18082353
147	0xbf406536	-0.75154436
148	0xbee3344d	-0.4437584
149	0xbe972312	-0.29518944
150	0x3df2a439	0.11847729
151	0x3d4e7450	0.050403893
152	0xbf02574c	-0.50914454
153	0x3edf85bf	0.43656728
154	0xbdd76371	-0.10517014
155	0xbb36c840	-0.0027890354
156	0xbeb2898c	-0.34870565
157	0xbea50fb8	-0.32238555
158	0xbec81e14	-0.39085448
159	0xbec5c636	-0.38627785
160	0x3c87fb65	0.016599366
161	0xbf08d064	-0.5344298
162	0xbf14d142	-0.581318
163	0x3dddcaf3	0.10829725
164	0x3d074487	0.033024337
165	0x3e8f04bb	0.27933297
166	0xbe03c60b	-0.12868516
167	0xbde589e9	-0.11207945
168	0xbd65a4ae	-0.056065254
169	0x3df7852f	0.1208595
170	0x3eb7374e	0.35784382
171	0xbf0ad022	-0.54223835
172	0x3d6c9bc1	0.057765726
173	0xbe2e70e5	-0.17035253
174	0xbe1ae08d	-0.15124722
175	0xbdabee6a	-0.08395083
176	0xbe65892e	-0.22415611
177	0xbe412126	-0.18860301
178	0x3ef0a5ed	0.4700159
179	0x3e3b5d34	0.18297273
180	0x3e23cacd	0.15995331
181	0x3e98643e	0.2976398
182	0xbdf780a1	-0.12085081
183	0x3e58951a	0.21150628
184	0xbe0182d3	-0.12647562
185	0xbed3d207	-0.41371176
186	0xbe7dbdad	-0.24779387
187	0xbebb8275	-0.36622968
188	0xbe1ad209	-0.15119185
189	0xbed8fc4d	-0.4237999
190	0x3eca0307	0.39455435
191	0xbd97eef7	-0.07418626
192	0x3e3c7625	0.18404444
193	0x3edac236	0.42726296
194	0xbd80a444	-0.06281331
195	0xbd917622	-0.0710261
196	0x3e7e37dc	0.24825996
197	0xbea17824	-0.31536973
198	0xbd260e21	-0.040540818
199	0x3e914668	0.28374028
200	0x3e26dab6	0.16294369
201	0xbe64ad4b	-0.22331731
202	0xbf507d38	-0.8144107
203	0x3e70768e	0.23482725
204	0xbd888277	-0.06665509
205	0xbf008fc0	-0.50219345
206	0x3e57a7ba	0.21060076
207	0x3e7a12fb	0.24421303
208	0x3e0606d0	0.13088536
209	0x3e9b4dfc	0.30332935
210	0xbda7509c	-0.08169672
211	0x3e424adb	0.18973868
212	0xbea5edae	-0.32407898
213	0xbe234f48	-0.15948212
214	0x3c6fc8fb	0.01463532
215	0xbeb76f3e	-0.3582706
216	0xbe659ef7	-0.22423922
217	0xbc85dd07	-0.016340746
218	0xbe8ed5b0	-0.27897406
219	0xbea64f61	-0.32482436
220	0xbe46968e	-0.1939337
221	0x3dea7a43	0.11449101
222	0x3e0802f7	0.13282381
223	0x3e18466d	0.14870615
224	0x3e5cb81c	0.21554607
225	0x3db7480a	0.08949287
226	0x3ed9bd15	0.4252707
227	0x3e5462a5	0.20740755
228	0xbe5397d9	-0.20663394
229	0x3d4d7233	0.050157737
230	0xbe08c381	-0.13355829
231	0xbe20ba0d	-0.15695973
232	0x3afada2b	0.0019138505
233	0xbe47a67e	-0.19497105
234	0xbf36fc06	-0.7147831
235	0xbf4e218f	-0.80519956
236	0xbd00611e	-0.03134262
237	0xbe44842e	-0.19191048
238	0x3e3c2b7c	0.18375963
239	0xbd7b5408	-0.061359435
240	0xbe936c0c	-0.2879337
241	0xbeed9afe	-0.46407312
242	0xbeeb926b	-0.46010146
243	0xbe83be60	-0.25731182
244	0xbe4dacd3	-0.20085458
245	0x3df3234d	0.118719675
246	0x3e1a016c	0.15039605
247	0xbd847fbb	-0.06469675
248	0xbe662730	-0.22475886
249	0x3bdefc4b	0.006804978
250	0xbe41fb35	-0.18943484
251	0xbe5a1ff3	-0.2130125
252	0x3e74211d	0.23840757
253	0xbce37a8d	-0.027768398
254	0xbe47bf65	-0.19506605
255	0xbf11b128	-0.56910944

fc_layers.0.bias f4 [120]
0	0xbf1e0ff9	-0.6174312
1	0xbed88fe7	-0.4229729
2	0xbf0b4e90	-0.5441675
3	0xbed4e018	-0.4157722
4	0x3edd35e1	0.4320517
5	0xbebf199e	-0.37324232
6	0xbe4dc7f5	-0.20095809
7	0x3e40d29a	0.18830338
8	0x3f250e39	0.6447483
9	0x3f267d25	0.65034705
10	0xbcbb033c	-0.02282869
11	0xbf165bea	-0.58734
12	0xbe60f3d4	-0.21968013
13	0x3deb53ad	0.11490569
14	0x3df1052b	0.11768564
15	0xbebf4602	-0.373581
16	0xbec070c2	-0.37586027
17	0x3e33940a	0.17536941
18	0xbf15acd7	-0.5846686
19	0xbddad3c0	-0.10684919
20	0x3f01cc2f	0.50702184
21	0xbeaacd0a	-0.33359557
22	0xbe8421d4	-0.2580706
23	0x3f6ffb12	0.9374248
24	0x3eba24cc	0.363562
25	0xbea71293	-0.32631359
26	0xbcbbf765	-0.022945115
27	0x3d802223	0.06256511
28	0xbe555b4d	-0.2083561
29	0xbe17e70d	-0.14834233
30	0xbe96298f	-0.29328582
31	0x3f99d058	1.2016706
32	0xbe2267d3	-0.15859918
33	0xbf1d6b21	-0.6149159
34	0xbec94b96	-0.3931548
35	0xbe43e252	-0.19129303
36	0x3eab78d1	0.33490613
37	0xbe8e12e8	-0.277488
38	0xbf3020ca	-0.6880003
39	0xbd96f224	-0.073704034
40	0xbecf7ef2	-0.4052654
41	0xbe8b8607	-0.27250692
42	0x3d9a649b	0.0753872
43	0x3efb7bbc	0.4911784
44	0xbe4aeea5	-0.19817598
45	0x3effdb7e	0.49972147
46	0xbeecff23	-0.46288404
47	0x3a4928bd	0.0007673612
48	0x3f1ec880	0.6202469
49	0x3ccc040c	0.024904273
50	0xbe9089ad	-0.28230038
51	0x3e2799cf	0.16367267
52	0x3f316b3a	0.6930424
53	0x3f8b7df6	1.0897815
54	0x3fa5aeaa	1.2943928
55	0xbeaeef93	-0.34167156
56	0xbd3aa96f	-0.04557174
57	0xbe105628	-0.14095366
58	0xbeb1bc97	-0.34714195
59	0x3d3e27db	0.046424728
60	0x3f1cc97d	0.61244947
61	0x3e916a5f	0.28401467
62	0x3ee8e326	0.454858
63	0xbf1d2efc	-0.6139982
64	0x3de0aaa1	0.10970045
65	0x3deeed61	0.1166637
66	0x3f4487df	0.7676982
67	0xbd027b69	-0.031855974
68	0xbe805319	-0.25063398
69	0xbeb9d1cd	-0.36292878
70	0x3f50ea60	0.8160763
71	0x3ca0fd83	0.019652134
72	0x3d89c39b	0.06726762
73	0xbea3aa9f	-0.3196611
74	0x3eb86465	0.36014095
75	0xbf2ce8e6	-0.67542875
76	0x3f2e8f25	0.6818717
77	0x3db41cb0	0.08794534
78	0xbd64251f	-0.055699464
79	0xbd2f658d	-0.042821456
80	0x3c13ac1e	0.009013204
81	0x3ebc3061	0.3675566
82	0xbeb55420	-0.35415745
83	0xbf362c40	-0.7116127
84	0x3eadb2a3	0.33925352
85	0xbd781ef3	-0.06057639
86	0xbe75f020	-0.24017382
87	0xbe808955	-0.25104776
88	0x3f1238da	0.57118
89	0xbf54635e	-0.8296412
90	0x3ef013ba	0.4689005
91	0x3caa0867	0.02075596
92	0x3d9c91b7	0.076449804
93	0xbd5aeab7	-0.053446498
94	0x3efb4357	0.49074814
95	0xbdb11c5c	-0.08647987
96	0x3f09cc4a	0.53827345
97	0xbe5d57fa	-0.21615592
98	0xbe23531d	-0.15949674
99	0xbebdc120	-0.37061405
100	0x3f23d196	0.6399168
101	0xbe7628ed	-0.2403905
102	0xbece8ffd	-0.4034423
103	0xbe01c55e	-0.12672946
104	0x3f207d76	0.6269144
105	0xbef6b82a	-0.4818738
106	0x3e1cda26	0.15317592
107	0xbf7c2fe7	-0.98510593
108	0xbec921fe	-0.39283746
109	0xbdd4f79d	-0.10398791
110	0x3e91d202	0.28480536
111	0x3e704a58	0.2346586
112	0x3efa7aa3	0.4892169
113	0x3ef1549f	0.47134873
114	0xbddbc798	-0.10731429
115	0xbca871bd	-0.020562047
116	0x3c1f5fc8	0.009727426
117	0xbe41bbb2	-0.18919256
118	0xbec00049	-0.37500218
119	0x3e0d55cb	0.13802259

fc_layers.1.weight f4 [84, 120]
0	0xbdb53419	-0.088478275
1	0x3e551f2c	0.20812672
2	0xbe0f8b7d	-0.14018054
3	0x3cafa1db	0.021439483
4	0xbd0a09f9	-0.033700917
5	0xbef83c58	-0.4848354
6	0xbb9e2666	-0.004826355
7	0xbd1306eb	-0.03589527
8	0xbdb640f7	-0.0889911
9	0xbba7c4d3	-0.005119899
10	0xbd9eda98	-0.07756537
11	0xbe25442e	-0.1613929
12	0xbe917276	-0.2840764
13	0xbe08c10a	-0.13354889
14	0xbd48d51a	-0.049031354
15	0xbe13d6e7	-0.14437447
16	0xbd20d054	-0.039261177
17	0x3b355397	0.0027668232
18	0xbe4f1af6	-0.20225129
19	0xbe10d3fd	-0.14143367
20	0xbd83f8b4	-0.06443921
21	0xbebfb402	-0.37442023
22	0xbe8ad13f	-0.27112767
23	0xbda15187	-0.07876878
24	0x3e6dadc7	0.23210822
25	0xbdd67245	-0.10471014
26	0xbe19cbdd	-0.15019174
27	0x3d28a42a	0.041172184
28	0x3e049fe0	0.12951612
29	0xbe028641	-0.12746526
30	0xbe8d9f97	-0.2766082
31	0xbc5e2436	-0.013558438
32	0xbe129d9c	-0.14317936
33	0xbe6d4bd7	-0.23173462
34	0xbd945464	-0.07242659
35	0xbea1fdce	-0.3163895
36	0xbe33ab11	-0.17545725
37	0xbe28e49c	-0.16493458
38	0xbe418e0d	-0.18901844
39	0xbafb4d47	-0.0019172811
40	0xbdf0c3df	-0.117561094
41	0xbe69f0b8	-0.22845733
42	0x3dfe8463	0.124275945
43	0xbe0431aa	-0.1290957
44	0xbdaaed8c	-0.0834609
45	0xbd2ec356	-0.042666756
46	0xbea10dfb	-0.3145598
47	0x3cb7d96a	0.022442538
48	0xbda42d65	-0.08016471
49	0xbe1d56d4	-0.15365154
50	0xbcb3103b	-0.021858325
51	0x3e4d0922	0.20023015
52	0x3babe0ab	0.0052452884
53	0xbe3f6a6b	-0.18692939
54	0x3de28029	0.11059601
55	0x3e13f2b6	0.14448056
56	0xbe697d56	-0.22801718
57	0xbe13e372	-0.14442232
58	0xbc259725	-0.010106836
59	0x3ed02b53	0.40658054
60	0xbdf7e22f	-0.12103688
61	0xbd4dd813	-0.050254893
62	0xbe3aaded	-0.1823041
63	0xbede721e	-0.4344644
64	0xbeae7870	-0.34076262
65	0x3c261373	0.010136473
66	0xbe93c4dc	-0.2886113
67	0xbe0dbb41	-0.13840963
68	0xbd2ea6fa	-0.04263971
69	0xbe68d0e6	-0.22735938
70	0xbd8224fe	-0.06354712
71	0x3e704a31	0.23465802
72	0x3d04c079	0.03241012
73	0xbe1571a7	-0.14594136
74	0x3cb12ddf	0.021628318
75	0xbe7ccf0d	-0.24688359
76	0xbd820b6a	-0.06349833
77	0xbe86542f	-0.26236102
78	0xbde041a4	-0.1095002
79	0xbe92900f	-0.28625533
80	0xbecfb071	-0.40564302
81	0x3cb8cc54	0.022558369
82	0xbe424964	-0.18973309
83	0xbd8da74f	-0.06916677
84	0x3ad13a60	0.0015962832
85	0xbd1f38ba	-0.038872458
86	0xbe895283	-0.26820764
87	0xbcbfc836	-0.023410898
88	0xbe42c956	-0.19022116
89	0xbe2a5a84	-0.16636091
90	0xbe1087d7	-0.14114319
91	0xbd8ba23d	-0.06818054
92	0xbd6f461d	-0.058416475
93	0xbe146672	-0.14492205
94	0xbe6c9e81	-0.2310734
95	0xbe33b2df	-0.17548703
96	0xbe6fbed6	-0.23412642
97	0xbe09c3c4	-0.13453585
98	0xbd905c74	-0.07048884
99	0x3cf35ff7	0.029708846
100	0x3da0e29d	0.07855723
101	0xbdd1d7bf	-0.102462284
102	0x3e1e8062	0.15478662
103	0xba3759dd	-0.00069942867
104	0x3caafbc8	0.020872012
105	0xbeb8dfca	-0.36108238
106	0xbe87b912	-0.26508385
107	0xbe3c01a7	-0.18360005
108	0x3cdd7397	0.027032657
109	0x3d6c85aa	0.05774466
110	0x3d1b2a36	0.037882052
111	0xbd73a29d	-0.059481252
112	0x3d561e42	0.05227495
113	0x3d638242	0.055544145
114	0x3e8522a3	0.26002988
115	0xbe5c2642	-0.21498969
116	0xbe3f4528	-0.18678725
117	0xbe3f6e31	-0.18694378
118	0xbead6fb5	-0.33874288
119	0x3d218979	0.039437745
120	0xbd9c1a8d	-0.07622252
121	0xbe50fbdc	-0.20408577
122	0x3cd58123	0.026062554
123	0xbd6d6b38	-0.05796358
124	0x3e024f8b	0.12725656
125	0xbd7bd5c1	-0.06148315
126	0x3e81ea23	0.25373945
127	0x3e386662	0.18007806
128	0xbe63f2ff	-0.22260664
129	0x3e1dcaa6	0.15409335
130	0xbe27c0fa	-0.16382208
131	0xbabbb6ce	-0.0014321448
132	0xbbf86228	-0.0075800605
133	0x396c5369	0.00022537787
134	0x3dc256a9	0.09489185
135	0xbe87f44e	-0.26553577
136	0x3c8f6020	0.01750189
137	0xbeaf1027	-0.3419201
138	0x3a455c9d	0.0007528754
139	0xbe84e907	-0.25959036
140	0xbdd02e68	-0.10165101
141	0xbe1aee6c	-0.15130013
142	0xbd75dc29	-0.060024414
143	0xbcd2e5ca	-0.025744338
144	0xbe590f3d	-0.21197219
145	0x3d5c72a2	0.05382026
146	0xbdc34108	-0.09533888
147	0x3d9512df	0.0727899
148	0xbe83f023	-0.25769147
149	0xbe1d3d01	-0.15355302
150	0x3d5b0726	0.053473614
151	0xbdcacfe3	-0.099029325
152	0xbe2cd29e	-0.16877219
153	0x3e1d9d8b	0.15392129
154	0xbc50df9f	-0.012748628
155	0xbe55af4a	-0.20867649
156	0x3ce4867f	0.027896164
157	0xbd8413d4	-0.064490944
158	0xbdcafb55	-0.09911219
159	0xbd00e748	-0.031470567
160	0xbdea4952	-0.11439766
161	0xbe0893db	-0.13337652
162	0xbe9f5870	-0.3112216
163	0x3d424127	0.047425415
164	0xbc8e948c	-0.017404817
165	0xbc0fc721	-0.008775503
166	0xbda1070c	-0.07862672
167	0xbaba214b	-0.0014200596
168	0x3a812155	0.0009851853
169	0xbdc4cfeb	-0.0960997
170	0xbdb43022	-0.08798243
171	0xbd68e285	-0.05685665
172	0xbdc919c9	-0.09819371
173	0xbd8421b7	-0.06451743
174	0xbd626324	-0.05527033
175	0xbd4686b6	-0.048468314
176	0xbd402b93	-0.046916556
177	0x3c8ec13f	0.017426131
178	0xbdcc0007	-0.09960943
179	0x3ce47dff	0.02789211
180	0x3dbf879d	0.09352038
181	0xbe578898	-0.210482
182	0xbc848677	-0.0161774
183	0xbea1c9ab	-0.31599173
184	0xbdc1aa75	-0.0945634
185	0xbd3959d0	-0.045251667
186	0xbd60b8b9	-0.054863665
187	0x3cb19651	0.021678122
188	0x3ce81560	0.028330505
189	0xbd0f9333	-0.03505249
190	0xbe63ffa0	-0.22265482
191	0xbc410a2b	-0.011782209
192	0xbe224537	-0.15846716
193	0xbcca6316	-0.024705451
194	0x3d4c48f7	0.049874272
195	0xbe0051dd	-0.12531228
196	0xbe3155a1	-0.17317821
197	0xbd967479	-0.07346434
198	0xbc1c1c0d	-0.009528172
199	0x3d12ee93	0.035872053
200	0xbd9ac2d4	-0.07556692
201	0xbebc67e0	-0.36798
202	0xbe954a91	-0.29158452
203	0xbdd359fd	-0.10319898
204	0x3da1f2a6	0.0790761
205	0xbdf81244	-0.12112859
206	0x3d9474df	0.07248854
207	0xbd293a8f	-0.04131561
208	0x3dd2b615	0.10288636
209	0x3ad78bdc	0.001644488
210	0xbe21ca80	-0.15799904
211	0xbe954221	-0.29152015
212	0xbe4fb67c	-0.20284456
213	0x3c4732c8	0.012158103
214	0xbe16f4cb	-0.14741819
215	0x3d3b8c5e	0.04578816
216	0xbe984add	-0.29744616
217	0x3c893cb0	0.01675257
218	0xbdabf396	-0.0839607
219	0xbd971f8d	-0.07379065
220	0xbcbcecac	-0.023062073
221	0xbd87f095	-0.06637684
222	0xbe57aebf	-0.21062754
223	0xbd0842de	-0.033266895
224	0xbd951df6	-0.07281105
225	0xbd0b9df3	-0.03408618
226	0x3dbad35e	0.09122346
227	0xbd852688	-0.0650149
228	0xbe894fc8	-0.2681868
229	0x3ce469b9	0.027882444
230	0xbe64c3f9	-0.22340383
231	0x3e165f01	0.14684679
232	0xbe79c0b5	-0.24389918
233	0xbd5bd6c2	-0.053671606
234	0x3e22c6e5	0.15896185
235	0xbdad80d8	-0.084718406
236	0x3d06ad86	0.03288033
237	0x3d821941	0.06352473
238	0xbebf5924	-0.37372696
239	0xbdaa4bb2	-0.08315219
240	0xbd928c19	-0.07155628
241	0x3d157649	0.03648976
242	0x3d1d03a2	0.038333543
243	0xbde97f69	-0.11401255
244	0xbe4c4d96	-0.19951472
245	0xbe311f20	-0.1729703
246	0xbed55118	-0.41663432
247	0xbcd621df	-0.026139198
248	0xbe14732c	-0.1449706
249	0xbe0b97a8	-0.13632071
250	0x3d23387d	0.039848793
251	0xbe5f4a78	-0.21805751
252	0xbbfd0d40	-0.007722527
253	0xbecf1f56	-0.40453595
254	0xbc03a251	-0.008034305
255	0x3c91391a	0.017727423

fc_layers.1.bias f4 [84]
0	0xbe12be25	-0.14330347
1	0x3edf5dc5	0.43626228
2	0x3f2b1e0d	0.6684273
3	0x3e696620	0.22792864
4	0x3ffe3b20	1.9861794
5	0xbeac9fd0	-0.33715677
6	0x3f99ded9	1.2021133
7	0x3e5fa8b2	0.21841696
8	0x3f2c73f7	0.6736445
9	0x3d80465b	0.06263419
10	0x3f319641	0.69369894
11	0x3f0a40ea	0.540053
12	0x3f23b34f	0.6394548
13	0x3f350b07	0.7071995
14	0xbf15eec4	-0.5856745
15	0xbe516177	-0.20447336
16	0xbf0917c2	-0.53551877
17	0x3dfdd530	0.12394178
18	0x3eef7a1d	0.46772853
19	0xbf249f1b	-0.64305276
20	0xbec426ea	-0.3831094
21	0xbd1e7995	-0.03869017
22	0xbe8035d4	-0.25041068
23	0x3f1850c5	0.59498245
24	0xbd4b6f61	-0.049666766
25	0xbec455c1	-0.38346675
26	0x3fe73ced	1.8065468
27	0xbddc113c	-0.10745475
28	0xbee25d5b	-0.4421185
29	0x3f8dd9dc	1.108211
30	0x3f013bfc	0.50482154
31	0x3d51a760	0.051185012
32	0x3f4426df	0.7662181
33	0x3f35354e	0.7078446
34	0x3e76f5be	0.2411718
35	0x402fcf16	2.7470145
36	0x3fbbcf4f	1.467264
37	0x3fa03659	1.2516586
38	0x3fb2b338	1.3960943
39	0x3eb91d90	0.36155367
40	0xbddb8120	-0.10717988
41	0xbda26f1a	-0.07931347
42	0x3e6229ca	0.22086254
43	0xbefb8a92	-0.49129158
44	0xbc05b098	-0.008159779
45	0xbdb81cad	-0.089898445
46	0xbdd402bb	-0.10352083
47	0xbd3d177c	-0.046164975
48	0x3f9a77fa	1.2067864
49	0xbef723a0	-0.48269367
50	0xbe755f09	-0.23962034
51	0xbec36cfe	-0.38169092
52	0x3fa1ffff	1.2656249
53	0xbee927e6	-0.45538253
54	0xbed851da	-0.42249948
55	0x3e875fea	0.26440364
56	0xbf07bf76	-0.5302652
57	0xbe289717	-0.16463886
58	0x3f2d35d2	0.6766025
59	0xbf56a300	-0.8384247
60	0x3f6868c2	0.9078485
61	0xbf02844f	-0.50983137
62	0x3e7f4a16	0.24930605
63	0xbee177ef	-0.44036815
64	0x3f03e5fb	0.515228
65	0xbe3671ad	-0.17816801
66	0x3f9feb4b	1.2493681
67	0x3f3f9f84	0.74852777
68	0xbe5835eb	-0.21114318
69	0x3f89754a	1.0738919
70	0xbe6785a3	-0.22609572
71	0xbf0466b9	-0.5171924
72	0xbef06295	-0.46950212
73	0x3f651ebd	0.8950003
74	0xbecc3b7f	-0.39889142
75	0xbf81cf6a	-1.0141423
76	0x3e76e6a2	0.24111417
77	0x3e277ba9	0.16355766
78	0x3f085174	0.5324929
79	0xbe958f48	-0.29210877
80	0xbc804f81	-0.01566291
81	0x3f001099	0.50025326
82	0x3f19b124	0.6003592
83	0x3ffb67db	1.9641069

output_layer.weight f4 [10, 84]
0	0xbe05a66c	-0.13051766
1	0x3e68bfaa	0.22729364
2	0xbd9006d8	-0.07032555
3	0x3e0976b1	0.13424183
4	0xbd7c5a53	-0.061609577
5	0xbe17633f	-0.14783953
6	0xbdd5b085	-0.10434059
7	0x3e253a7a	0.16135588
8	0xbe0f0e63	-0.13970332
9	0xbd92eb52	-0.0717379
10	0xbe1dd2ce	-0.15412447
11	0xbdc607bc	-0.09669444
12	0x3e40601d	0.18786664
13	0x3e7523e9	0.2393948
14	0xbcbd33d5	-0.023096005
15	0x3dbd356b	0.09238704
16	0xbdd41aba	-0.1035666
17	0xbd1665af	-0.036718067
18	0x3c43c66d	0.011949164
19	0x3df8870f	0.121351354
20	0x3d8a4690	0.0675174
21	0xbdfe6cd0	-0.12423098
22	0xbe023db1	-0.12718846
23	0xbda5d701	-0.08097649
24	0x3cac801b	0.02105718
25	0x3c8ee8d6	0.01744501
26	0xbe034237	-0.12818228
27	0x3e3eb978	0.18625438
28	0xbcbc2bc9	-0.022970097
29	0xbc414db8	-0.011798315
30	0xbce4dc8a	-0.027937192
31	0xbb9d6723	-0.0048035546
32	0x3d57a296	0.05264529
33	0xbda1721d	-0.078830935
34	0x3e06a6ba	0.13149539
35	0xbe440df8	-0.19145954
36	0xbc58fb3a	-0.013243491
37	0x3e16e7a1	0.14736797
38	0x3e458138	0.19287574
39	0x3df7a938	0.12092823
40	0xbcb3c367	-0.021943761
41	0xbe034fe1	-0.1282344
42	0x3d92f85f	0.07176279
43	0x3d53be42	0.051695116
44	0xbdf68632	-0.120373145
45	0xbbc4bcbc	-0.006003944
46	0x3dbaeeb8	0.09127563
47	0xbdc8129b	-0.09769174
48	0x3d06a6de	0.03287398
49	0x3e958606	0.29203814
50	0x3e077b67	0.13230668
51	0x3e4d0a92	0.20023564
52	0xbccc2613	-0.024920499
53	0x3d4fdc1c	0.050747022
54	0xbd6d161d	-0.057882417
55	0x3d486854	0.04892762
56	0x3dd361c7	0.10321384
57	0xbdd4d8a7	-0.10392886
58	0xbe04e2a5	-0.12977083
59	0x3d8c44e7	0.068490796
60	0x3d9d843b	0.076912366
61	0x3e062e20	0.13103533
62	0x3db596b5	0.08866636
63	0xbdbf8dd4	-0.093532234
64	0x3ab14158	0.0013523502
65	0x3dfa1792	0.12211527
66	0x3d5201c8	0.05127123
67	0x3b81c6b0	0.003960453
68	0x3e2a36c6	0.16622457
69	0x3dddb106	0.1082478
70	0x3c8cd1c2	0.017189864
71	0xbe1e7d1c	-0.15477413
72	0xbe09e43e	-0.13465974
73	0xbcab008c	-0.020874284
74	0x3df930c7	0.12167507
75	0x3e69129b	0.22761004
76	0xbc748895	-0.014925142
77	0x3c715769	0.014730313
78	0x3dcdf392	0.10056223
79	0xbda8129c	-0.082066745
80	0x3e046a55	0.12931187
81	0xbd3afdc5	-0.04565217
82	0x3dcfecb8	0.101525724
83	0x3dbd61d9	0.092471786
84	0xbc76d8ad	-0.015066308
85	0x3c9334c3	0.017969495
86	0x3dd1827e	0.102299675
87	0xbdd646cb	-0.104627214
88	0xbdb59b9b	-0.0886757
89	0xbd1784e8	-0.036991984
90	0xbe9a8a1b	-0.3018349
91	0x3d5a6c33	0.053325843
92	0xbdf5f579	-0.12009711
93	0xbe0102a0	-0.12598658
94	0x3e42149a	0.18953171
95	0x3d8069d4	0.06270185
96	0x3d928781	0.071547516
97	0xbd65f4db	-0.056141715
98	0xbd841b0f	-0.064504735
99	0xbd972cbe	-0.07381581
100	0x3d8ede3e	0.06975983
101	0xbd921c05	-0.071342506
102	0x3e19c679	0.15017118
103	0x3e4697b8	0.19393814
104	0x3ded0aae	0.115743026
105	0xbddd464a	-0.10804422
106	0x3d58eac3	0.05295826
107	0xbe0e3314	-0.13886672
108	0xbbf9367e	-0.007605373
109	0xbd52f221	-0.051500443
110	0xbdce6ef1	-0.10079754
111	0x3d6fa26f	0.058504518
112	0x3e9d39ad	0.30708066
113	0xbd94d390	-0.07266915
114	0x3e523a24	0.20529991
115	0xbd26df24	-0.040740147
116	0xbc7ae988	-0.015314467
117	0x3c19555d	0.009358731
118	0xbe7970e3	-0.24359469
119	0xbd8cd67e	-0.06876849
120	0x3d11eef1	0.035628263
121	0x3e8880ac	0.2666067
122	0x3e2b61d7	0.16736542
123	0x3e1f1836	0.1553658
124	0xbbfafc4b	-0.00765947
125	0x3cdf3511	0.027246984
126	0xbd053c26	-0.032528065
127	0xbd0a0112	-0.033692427
128	0x3e352432	0.17689589
129	0x3e3b36c7	0.18282615
130	0x3d70e50c	0.058812186
131	0xbdf22a9b	-0.118245326
132	0x3cde14fb	0.027109614
133	0xbdead2cf	-0.1146599
134	0xbada7343	-0.0016666431
135	0xbe1929fe	-0.14957425
136	0xbe17e917	-0.1483501
137	0xbdaafc67	-0.08348923
138	0x3a9c2595	0.0011913056
139	0x3e9a52f5	0.30141416
140	0xbe164c54	-0.14677554
141	0x3c2eee39	0.010676914
142	0xbd998bf4	-0.07497397
143	0x3d37fc48	0.04491833
144	0xbdae0be6	-0.08498363
145	0x3c46a5f2	0.012124525
146	0xbe9b304b	-0.30310282
147	0x3d864ebf	0.065579884
148	0x3d472af1	0.048624936
149	0x3c364d5b	0.011126841
150	0xbdbfddcc	-0.09368476
151	0x3e4c9036	0.19976887
152	0x3e198159	0.14990748
153	0xbece8cdf	-0.4034185
154	0xbd84d4af	-0.06485879
155	0x3e038a80	0.12845802
156	0xbe0948e6	-0.13406715
157	0xbe1d0d27	-0.15337048
158	0xbc206ecd	-0.009792042
159	0xbe984dd3	-0.29746875
160	0x3e0e8b3f	0.13920306
161	0x3e1e3647	0.15450393
162	0xbc8ce1a1	-0.017197432
163	0x3ceeb624	0.029139586
164	0xbaa340d4	-0.0012455233
165	0x3d82226f	0.06354224
166	0xbe6e3b7c	-0.23264879
167	0xbdaffc45	-0.085930385
168	0xbd0bc249	-0.03412083
169	0x3e0f60b8	0.14001739
170	0xbd83536a	-0.06412394
171	0x3e4526aa	0.1925303
172	0xbd6f6c88	-0.058453113
173	0xbde1bc21	-0.11022211
174	0x3bbf704f	0.0058422456
175	0x3d3aee54	0.045637444
176	0xbc5b1519	-0.013371729
177	0x3dc0924c	0.09402904
178	0xbd055830	-0.032554805
179	0xbdaf1f84	-0.08550933
180	0xbacadfee	-0.0015478113
181	0x3e28a4e5	0.16469152
182	0x3de5a0d7	0.112123184
183	0xbd5960a9	-0.053070698
184	0xbcec3de3	-0.028838104
185	0xbc5590ab	-0.01303498
186	0x3d83558f	0.064128034
187	0xbe260690	-0.16213441
188	0xbdddf499	-0.10837669
189	0xbd44b1e7	-0.048021223
190	0xbd1c32cf	-0.038134392
191	0x3e362672	0.17788103
192	0x3d9138f9	0.07090945
193	0x3ccd1b19	0.025037335
194	0x3e360b38	0.17777717
195	0x3d8b2833	0.06794777
196	0x3d9199ea	0.07109435
197	0xbe176b01	-0.14786913
198	0xbc2b3978	-0.010450713
199	0xbd5c33f0	-0.05376047
200	0x3de3cfc7	0.11123615
201	0xbd7f7554	-0.062367752
202	0x3e316a8e	0.17325804
203	0x3d77aeb2	0.060469337
204	0xbe052842	-0.13003638
205	0xbe4d14c6	-0.20027456
206	0xbe1aee90	-0.15130067
207	0xbdcaa0d5	-0.098939575
208	0x3e11b103	0.14227681
209	0xbd8c21b8	-0.06842369
210	0xbd9292e8	-0.071569264
211	0x3d24a717	0.04019841
212	0xbdbf78bf	-0.09349202
213	0xbd8cfd92	-0.06884302
214	0x3d8002fd	0.0625057
215	0xba4ead11	-0.0007884065
216	0xbe0e004e	-0.13867304
217	0x3d0f6347	0.035006788
218	0xbd862005	-0.06549076
219	0x3c90749c	0.017633729
220	0x3db465ef	0.08808505
221	0x3e799de5	0.24376638
222	0x3e151027	0.14556943
223	0xbdd14cf1	-0.102197535
224	0x3dd7ef7f	0.10543727
225	0x3c55bd2f	0.013045593
226	0x3dc82784	0.09773162
227	0x3d9e75a6	0.077372834
228	0xbd01f94d	-0.031731892
229	0x3d5dc2e5	0.054140944
230	0x3e5fc9b6	0.2185429
231	0x3e0f9a1d	0.14023633
232	0xbe1ce279	-0.15320767
233	0x3d2a3683	0.041555893
234	0x3e469517	0.19392811
235	0xbe5787d9	-0.21047916
236	0x3dc38589	0.09546954
237	0x3dc6450c	0.096811384
238	0xbd3d3a32	-0.046198077
239	0x3d82c2e4	0.06384829
240	0x3ddd5a0a	0.10808189
241	0x3e086b36	0.13322148
242	0x3cb24294	0.021760263
243	0x3e2a6329	0.16639389
244	0x3d0502f6	0.032473527
245	0xbd65ef49	-0.056136403
246	0xbdca0086	-0.09863381
247	0x3e8559ca	0.26045066
248	0xbbe2791e	-0.006911411
249	0xbabea97a	-0.0014546358
250	0x3d937e0e	0.072017774
251	0xbc5319fd	-0.012884614
252	0x3b1d2f2e	0.002398442
253	0xbdd9e454	-0.10639253
254	0x3e09fc6e	0.134752
255	0xbcde98f5	-0.027172545

output_layer.bias f4 [10]
0	0xbc60416c	-0.013687473
1	0xbf62223a	-0.88333476
2	0x3e5cafb8	0.21551406
3	0x3f21c30b	0.63188237
4	0x3e9c15be	0.30485338
5	0x3e8a9c3e	0.27072328
6	0xbd9a9b68	-0.07549173
7	0x3d2f7304	0.042834297
8	0xbe63710b	-0.22211091
9	0xbd148951	-0.036263768
