Lab1/model/model_CIFAR10/conv_params_11_layers.pth (torch, 142632 bytes, 14 tensors)

conv_layers.0.weight f4 [6, 3, 2, 2]
1.492746 -3.129412 -1.5719755 2.16453 2.1531534 -0.5121548 -1.2921002 2.227877
0.16079241 -2.58594 -1.3551987 1.5171026 0.56817174 0.103762716 1.4945438 -1.6205122
1.1746135 -1.5676261 1.7042158 -1.8437806 1.2478278 -1.5610131 1.7392352 -1.4966694
2.2085032 1.4427406 -2.2603118 -0.94884324 1.1990637 1.2450222 -1.9818612 -1.2541444
0.28057584 0.31856015 0.3572745 -0.40427712 -0.18991172 0.6888947 -1.4458174 1.3558481
-2.3500795 2.3437269 -2.5730736 2.0241296 -0.8820649 0.78960323 -0.76758945 1.1215469
0.60827154 -0.09445097 -0.27131832 -0.39926812 -0.35842395 -1.5145587 -1.211033 -0.64361525
0.91172975 0.8148186 0.055394404 -0.7666403 1.2115283 1.3460728 0.3882381 0.6088118
-0.32538253 -0.19835934 -0.7452847 -0.28287014 -0.9752482 -0.9064679 -0.28466845 -0.58631575
00000000: 4d12 bf3f 4948 48c0 7e36 c9bf a987 0a40
00000010: 44cd 0940 941c 03bf 8a63 a5bf 8995 0e40
00000020: c4a6 243e 0a80 25c0 2777 adbf 6b30 c23f
00000030: b473 113f 8c81 d43d 364d bf3f f26c cfbf
00000040: bc59 963f f9a7 c8bf be23 da3f 0101 ecbf
00000050: d2b8 9f3f 47cf c7bf 429f de3f dd92 bfbf
00000060: 1e58 0d40 b9ab b83f f3a8 10c0 64e7 72bf
00000070: eb7a 993f e35c 9f3f a1ad fdbf ce87 a0bf
00000080: a3a7 8f3e 511a a33e afec b63e 69fd cebe
00000090: 3878 42be 675b 303f 8b10 b9bf 6e8c ad3f
000000a0: b467 16c0 9fff 1540 3dad 24c0 578b 0140
000000b0: 01cf 61bf 7023 4a3f be80 44bf d98e 8f3f
000000c0: afb7 1b3f 836f c1bd 3cea 8abe df6c ccbe
000000d0: 5883 b7be 0fdd c1bf 2103 9bbf f8c3 24bf
000000e0: 1f67 693f f497 503f 3ee5 623d 8a42 44bf
000000f0: 5c13 9b3f 1d4c ac3f 25c7 c63e 17db 1b3f
00000100: 8a98 a6be b61e 4bbe faca 3ebf 5bd4 90be
00000110: dea9 79bf 480e 68bf 10c0 91be ca18 16bf

conv_layers.0.bias f4 [6]
-0.26582986 -0.30691224 -0.43258715 -0.2694349 -0.44571298 0.0872363
00000000: da1a 88be 9a23 9dbe 107c ddbe 5ff3 89be
00000010: 7e34 e4be f2a8 b23d

conv_layers.1.weight f4 [16, 6, 2, 2]
0.018528942 -0.37201768 -0.6189747 -0.043084666 0.72708076 -0.6267637 0.9292376 -1.1780132
-0.5988362 0.05782642 -1.3427199 0.3117496 -0.16807684 0.0026208418 0.008440982 0.36649293
-0.009519299 -0.7131084 0.3792076 0.35323173 -1.1096772 0.82974476 -1.0434479 1.1156263
1.3273655 0.27759877 -1.6232179 -1.4980594 -0.15133446 -0.45626694 -0.20668113 -0.19271152
-1.022975 0.65852654 0.7193576 0.38526118 0.3703726 0.051439077 -0.5676126 -0.43728304
0.8784432 -0.030676674 -0.6068152 -0.6171811 2.1223085 0.2985686 -1.753248 -1.2888334
-1.0175896 0.55445236 0.55097693 0.115522996 0.44020218 0.23383847 -0.57783586 -1.4862062
-0.0034398255 0.36294535 0.43273464 -1.7036437 -0.2330325 -0.42107892 -0.41619927 0.5241132
-0.67010534 2.1202922 1.2023121 -2.271382 -0.13731068 -0.17582184 0.45691672 -0.11485013
0.09594241 -0.2808947 -0.2102371 -0.44005668 0.26998302 0.1514899 -0.1028852 0.16033426
-1.8576311 -0.76183033 -1.188567 -0.5793209 0.61380965 0.52805245 0.5260187 -0.21011981
0.48793417 -0.89808345 0.6296031 -0.023086498 0.32631007 -0.20910978 0.31743088 0.0132618975
-0.9327367 -0.775163 -0.36304128 -0.39520988 -0.23867768 0.13869682 0.28495082 0.16788767
-0.45862064 0.50410956 -0.007536306 0.42331526 0.025829868 -0.7829767 -0.3519856 0.39317393
-0.31464297 0.58640844 0.8665607 -0.04086631 -0.3731019 1.3982242 -0.12569581 1.1119125
-0.10946576 -0.4845613 0.10233434 0.4062099 -1.0449805 -1.1797979 -0.04657548 -0.32304773
0.972409 1.0063138 0.116274804 0.19388583 -0.86776096 -1.1593031 -0.16279736 -0.5787254
0.5947852 0.6516707 -0.85532856 -0.35255808 0.6096277 0.36655337 -0.46736613 -0.5377879
0.12422413 0.050341975 -0.05293125 0.39805147 -0.29786208 -1.1908972 0.9391427 -0.2680641
-0.4745282 0.57872283 -0.65917164 0.21747227 -1.313103 -0.751827 1.7532858 -0.4608649
0.5300567 -0.434929 0.13296434 -0.12980281 0.6870297 -0.53048295 0.2885408 -0.6619814
0.10104135 -0.019660335 -0.7822354 0.07890178 -0.41686898 -0.57342976 -0.14584853 0.60578144
0.388865 0.100770056 -0.021034671 0.1169599 -0.44560736 -0.336439 -0.008809039 0.852084
0.1464853 -0.08507477 -0.14542396 0.52015585 -1.6788236 -2.2853215 -2.314169 -1.329586
0.17584623 0.17521177 -0.3378315 -0.42319563 -1.2550418 0.3179032 0.10462103 -0.6779837
1.0395023 -0.76886606 -0.16062337 0.9404707 -0.022928046 -0.6594722 0.055535503 0.65535736
-0.16852233 -0.7470238 1.304348 -0.26637587 -0.9799819 -0.8243227 1.267645 1.130827
-0.07710899 0.31549734 0.03503416 0.23687531 0.19449407 -0.05208517 0.023197414 0.30000636
0.32636163 -0.76049376 0.400363 -0.3182599 -0.16919044 -0.26908323 -0.27927995 -0.117260925
-0.38720965 0.52809644 0.48303667 1.7112817 1.0315702 -0.63949835 -0.2453681 -1.3318111
-0.04872055 -0.13151793 0.17788796 -1.4969484 -1.1404862 -0.7043891 -1.9733886 -0.23392978
0.29123262 -0.80540663 -1.1816546 0.133299 -0.06592543 0.33504173 0.56582224 0.74659127
00000000: 02ca 973c 1a79 bebe 2075 1ebf 8c79 30bd
00000010: f721 3a3f 9673 20bf 84e2 6d3f 23c9 96bf
00000020: 544d 19bf 65db 6c3d 3fde abbf a59d 9f3e
00000030: 561c 2cbe 6ec2 2b3b 0b4c 0a3c f6a4 bb3e
00000040: d5f6 1bbc 468e 36bf 8027 c23e cada b43e
00000050: e709 8ebf 276a 543f b38f 85bf d8cc 8e3f
00000060: 1de7 a93f 6d21 8e3e 9bc5 cfbf 69c0 bfbf
00000070: 6cf7 1abe d29b e9be 38a4 53be 2b56 45be
00000080: d8f0 82bf 3295 283f d227 383f f440 c53e
00000090: 7aa1 bd3e c8b1 523d 0f4f 11bf 90e3 dfbe
000000a0: a7e1 603f a64d fbbc 3e58 1bbf 95ff 1dbf
000000b0: e7d3 0740 fcdd 983e 6e6a e0bf 7ef8 a4bf
000000c0: 6040 82bf 97f0 0d3f d30c 0d3f 5297 ec3d
000000d0: 2e62 e13e 5a73 6f3e 0ded 13bf 013c bebf
000000e0: b26e 61bb f9d3 b93e 658f dd3e ff10 dabf
000000f0: 12a0 6ebe a897 d7be 1218 d5be 482c 063f
00000100: 068c 2bbf deb2 0740 5de5 993f 535e 11c0
00000110: 2c9b 0cbe a40a 34be fdf0 e93e 8c36 ebbd
00000120: 747d c43d 6ed1 8fbe 6548 57be 1c4f e1be
00000130: 373b 8a3e 2b20 1b3e 7ab5 d2bd aa2e 243e
00000140: dbc6 edbf 5007 43bf f722 98bf 604e 14bf
00000150: a122 1d3f 722e 073f 29a9 063f a629 57be
00000160: 82d2 f93e cce8 65bf ab2d 213f e51f bdbc
00000170: 1d12 a73e e020 56be 4d86 a23e 6e48 593c
00000180: d5c7 6ebf 1571 46bf 8ce0 b9be f358 cabe
00000190: ec67 74be 8a06 0e3e 13e5 913e bfea 2b3e
000001a0: 53d0 eabe 530d 013f 1ef3 f6bb c7bc d83e
000001b0: 2999 d33c 2971 48bf 7537 b4be 184e c93e
000001c0: e218 a1be dd1e 163f ecd6 5d3f 6f63 27bd
000001d0: 3607 bfbe 03f9 b23f 67b6 00be 2653 8e3f
000001e0: 962f e0bd 6b18 f8be ab94 d13d befa cf3e
000001f0: ecc1 85bf 9e03 97bf eec5 3ebd 8366 a5be
00000200: ccef 783f e4ce 803f 7c21 ee3d 028a 463e
00000210: 9525 5ebf 0b64 94bf 5ab4 26be 5927 14bf
00000220: d843 183f e4d3 263f d0f6 5abf 7e82 b4be
00000230: 9010 1c3f e2ac bb3e 9d4a efbe 78ac 09bf
00000240: 3869 fe3d 6333 4e3d 70ce 58bd 67cd cb3e
00000250: 6181 98be 526f 98bf a86b 703f b33f 89be
00000260: 5cf5 f2be 2e27 143f 79bf 28bf 0db1 5e3e
00000270: c213 a8bf bc77 40bf ab6b e03f 7cf6 ebbe
00000280: ccb1 073f 04af debe ce27 083e 07eb 04be
00000290: 2ee1 2f3f bbcd 07bf 9fbb 933e 9d77 29bf
000002a0: c4ee ce3d b60e a1bc 9440 48bf 4297 a13d
000002b0: da6f d5be 4bcc 12bf 5159 15be 7e14 1b3f
000002c0: 5019 c73e 8860 ce3d e750 acbc ac88 ef3d
000002d0: a626 e4be bc41 acbe ca53 10bc 2d22 5a3f
000002e0: 3e00 163e ae3b aebd 05ea 14be ef28 053f
000002f0: b1e3 d6bf b542 12c0 581b 14c0 e02f aabf
00000300: 0911 343e b76a 333e 40f8 acbe 19ad d8be
00000310: 36a5 a0bf 35c4 a23e 8d43 d63d 5790 2dbf
00000320: 690e 853f 68d4 44bf 747a 24be b0c2 703f
00000330: 99d3 bbbc 2cd3 28bf 3279 633d 80c5 273f
00000340: 1e91 2cbe f43c 3fbf e0f4 a63f 6b62 88be
00000350: 18e0 7abf d006 53bf 3142 a23f f0be 903f
00000360: 51eb 9dbd de88 a13e fb7f 0f3d 718f 723e
00000370: 7429 473e 4257 55bd 8108 be3c 6f9a 993e
00000380: df18 a73e b8af 42bf 61fc cc3e f6f2 a2be
00000390: 4240 2dbe 47c5 89be c8fd 8ebe 7f26 f0bd
000003a0: 5840 c6be 5431 073f 9550 f73e 470b db3f
000003b0: 7e0a 843f 2ab6 23bf c641 7bbe c978 aabf
000003c0: 338f 47bd a3ac 06be 4328 363e 019c bfbf
000003d0: 74fb 91bf d852 34bf ff97 fcbf 4a8b 6fbe
000003e0: 711c 953e 212f 4ebf 7540 97bf 887f 083e
000003f0: e903 87bd 978a ab3e bad9 103f 9b20 3f3f

conv_layers.1.bias f4 [16]
-0.16893539 0.6157334 -0.6688272 -0.003823762 -2.1750991 -0.026721017 -0.46210915 1.5312215
-1.1102164 -0.10716767 0.3188059 -0.13870363 -0.11277229 1.1986413 -0.14625092 2.946486
00000000: 66fd 2cbe b4a0 1d3f 4238 2bbf 1598 7abb
00000010: d334 0bc0 09e6 dabc 9299 ecbe 11ff c33f
00000020: 921b 8ebf b97a dbbd 873a a33e 5308 0ebe
00000030: 29f5 e6bd 146d 993f cdc2 15be 3a93 3c40

conv_layers.2.weight f4 [26, 16, 2, 2]
-0.7003008 -0.423389 -1.5673037 -1.5861553 0.1364123 0.20669438 -0.28487626 -0.011660831
-0.04750106 0.0022490032 -0.23455262 -0.17896405 -0.38999274 -0.37417635 -0.1636556 -0.01466186
-0.0018247946 0.029159792 0.29845876 -0.09123337 0.24962075 0.24808513 0.21957743 0.7070997
-0.40545052 -0.38724154 -1.080809 -1.4911526 0.14614855 -0.16283578 -0.1333158 -0.20428994
-0.009114857 -0.033377595 0.055102747 0.14226338 0.28790691 0.091004394 -0.039662886 -0.11840557
-0.23185046 0.23972178 -0.33162665 -0.22312468 -0.2069799 0.07012783 -0.8927434 -0.12986128
0.1550188 0.063778065 -0.7075223 0.23276979 0.03286304 0.04653554 0.2056188 0.2091856
-0.011601952 0.5509569 0.39031944 -0.44115978 0.29899982 0.28646857 0.23383217 0.33467644
-0.18924798 0.05359499 0.043883976 0.23872033 0.13143703 0.03452852 0.23094167 -0.45609757
-0.10770624 -0.065103844 0.13612098 -0.47041354 -0.88463765 0.5196663 -0.17644484 0.56629544
0.48512775 -0.44432735 0.6033918 -0.42877588 0.9498146 -0.9252636 1.0351769 -1.0325534
-0.26184422 -0.22707728 -0.08403904 0.1803006 0.31867453 0.40828887 -0.32891193 0.03179695
0.3531642 -0.315186 0.11476851 -0.7463856 0.097829364 -0.41219774 0.2627801 -0.08680098
0.20105197 0.22513556 -0.0771835 0.36773452 0.14999175 0.1502799 -0.2809007 -0.88298506
-0.8708322 -0.43517435 -0.2771491 -0.17627685 -0.37930647 0.6769137 0.027784599 0.26122856
-0.005516759 0.07852398 -0.32484704 -0.01724776 0.8764713 -0.8923889 0.39446223 -0.7180805
0.027639328 -0.008367273 0.39877677 -0.041338276 -0.14808543 0.1643477 0.0038060686 -0.014790192
-0.054767277 0.18084706 0.10275145 0.06570787 0.110998265 0.13356103 -0.11836605 -0.49742573
-0.51071876 0.87639993 -0.3376614 0.50050044 -0.50890255 -0.25802255 -0.5636915 -0.54262364
-0.30605623 0.021884833 -0.04496364 0.12859319 0.0641461 0.23048156 0.29969448 -0.17819373
-0.42773864 0.52242565 -0.24378847 0.76363736 -0.74133 -0.27034715 -0.1409714 0.47613552
0.12575686 0.12703466 0.42931786 -0.16152608 -0.1574794 0.58759344 -0.18962646 0.5015364
0.04133388 0.29816255 -0.17797905 -0.07941086 -0.28002292 -0.61096674 0.33911696 -0.22140673
-0.97054636 0.046234965 -0.24120547 -0.108475804 0.704344 -0.15504295 -0.3348294 -1.1538873
-0.78325915 -0.058621984 -0.6830767 0.3492535 -0.29953203 -0.022064596 0.2535232 -0.5756523
-0.44229764 0.2911984 -0.055106774 0.43985835 -1.3397834 -0.30104923 -1.0953857 0.5997341
0.30364698 0.46119797 0.1929953 -0.14199989 0.39172083 -0.36406648 0.7687901 -0.03468198
-0.75671273 -0.36982158 -0.49096277 0.19861682 0.67821354 0.18959348 0.2986046 0.14975159
-0.83773243 0.1021391 -0.20624052 0.11032031 -0.56509614 0.27053934 0.19004701 -0.03922612
-0.80400205 -0.22463039 0.21630415 -0.019298818 -0.59194684 0.08740693 0.09980197 0.25852978
0.32498607 0.04089575 0.5186235 0.20117801 -0.075134106 -0.23729067 -0.24329205 0.023868935
-0.010179529 -0.77134395 -0.5613672 -0.5600655 1.3883686 -1.1600772 0.90568775 -0.8000418
00000000: ea46 33bf 71c6 d8be 689d c8bf 2307 cbbf
00000010: aaaf 0b3e b1a7 533e 4ddb 91be 120d 3fbc
00000020: 7990 42bd 0364 133b 902e 70be 5a42 37be
00000030: 21ad c7be 0b94 bfbe 5595 27be 4c38 70bc
00000040: f22d efba 84e0 ee3c 96cf 983e 90d8 babd
00000050: 959c 7f3e 070a 7e3e e8d8 603e 7c04 353f
00000060: 3697 cfbe 8644 c6be f357 8abf 17de bebf
00000070: f7a7 153e 6cbe 26be f083 08be 6231 51be
00000080: 7b56 15bc f2b6 08bd 6bb3 613d 7ead 113e
00000090: 8968 933e 8360 ba3d 8d75 22bd 9f7e f2bd
000000a0: 356a 6dbe a079 753e f8ca a9be cc7a 64be
000000b0: 8af2 53be 2e9f 8f3d d58a 64bf 5bfa 04be
000000c0: 40bd 1e3e 139e 823d 2e20 35bf 345b 6e3e
000000d0: 659b 063d 0d9c 3e3d bc8d 523e c034 563e
000000e0: 1d16 3ebc 830b 0d3f f3d7 c73e b2df e1be
000000f0: 8116 993e 02ac 923e b371 6f3e b65a ab3e
00000100: 39ca 41be 6c86 5b3d afbf 333d 1a73 743e
00000110: 6e97 063e c76d 0d3d f97b 6c3e 9f85 e9be
00000120: 1795 dcbd 2a55 85bd 4c63 0b3e 0bda f0be
00000130: 9d77 62bf da08 053f f5ad 34be bdf8 103f
00000140: aa62 f83e e07e e3be e377 1a3f 8388 dbbe
00000150: 0d27 733f 13de 6cbf ad80 843f b62a 84bf
00000160: 7210 86be f286 68be a91c acbd b8a0 383e
00000170: 4f29 a33e 3d0b d13e 2567 a8be 853d 023d
00000180: f0d1 b43e 0f60 a1be c10b eb3d 2013 3fbf
00000190: c35a c83d 950b d3be 1d8b 863e b6c4 b1bd
000001a0: 91e0 4d3e f089 663e 6212 9ebd b347 bc3e
000001b0: 7097 193e f9e2 193e 37d2 8fbe 4f0b 62bf
000001c0: dcee 5ebf 2ccf debe 7de6 8dbe eb81 34be
000001d0: 7534 c2be 374a 2d3f 879c e33c c0bf 853e
000001e0: eec5 b4bb 2ed1 a03d 5a52 a6be 2d4b 8dbc
000001f0: 6c60 603f 9973 64bf f4f6 c93e 20d4 37bf
00000200: df6b e23c e316 09bc 782c cc3e 5352 29bd
00000210: b5a3 17be c34a 283e 3c6f 793b 9052 72bc
00000220: a753 60bd f92f 393e 5a6f d23d d991 863d
00000230: 0f53 e33d 39c4 083e e669 f2bd 96ae febe
00000240: 77be 02bf bf5b 603f f4e1 acbe cc20 003f
00000250: 7047 02bf 881b 84be 164e 10bf 62e9 0abf
00000260: 67b3 9cbe d247 b33c cb2b 38bd efad 033e
00000270: 085f 833d 5c03 6c3e 8e71 993e 6b78 36be
00000280: 8f00 dbbe b0bd 053f afa3 79be bd7d 433f
00000290: cec7 3dbf f16a 8abe cf5a 10be 09c8 f33e
000002a0: 68c6 003e 6015 023e 8dcf db3e 1867 25be
000002b0: 4842 21be 866c 163f 702d 42be b164 003f
000002c0: b74d 293d c3a8 983e 2440 36be 29a2 a2bd
000002d0: 2a5f 8fbe 5168 1cbf bda0 ad3e 72b8 62be
000002e0: ba75 78bf e060 3d3d 91fe 76be 9028 debd
000002f0: e34f 343f 94c3 1ebe c26e abbe 94b2 93bf
00000300: ac83 48bf 9b1d 70bd 1dde 2ebf 5bd1 b23e
00000310: 435c 99be d0c0 b4bc cbcd 813e f35d 13bf
00000320: d674 e2be f517 953e a4b7 61bd 1d35 e13e
00000330: 067e abbf 2023 9abe 9935 8cbf 2d88 193f
00000340: 9e77 9b3e 2422 ec3e 8fa0 453e 6b68 11be
00000350: a28f c83e ec66 babe 6ecf 443f b10e 0ebd
00000360: edb7 41bf 4159 bdbe 795f fbbe 3562 4b3e
00000370: 679f 2d3f cb24 423e b4e2 983e 7b58 193e
00000380: a275 56bf 4e2e d13d b730 53be 9def e13d
00000390: 24aa 10bf 2284 8a3e af9b 423e 91ab 20bd
000003a0: 14d3 4dbf 8205 66be d67e 5d3e 8e18 9ebc
000003b0: d489 17bf 6802 b33d fa64 cc3d 045e 843e
000003c0: 9364 a63e 4d82 273d 82c4 043f 9c01 4e3e
000003d0: e9df 99bd 53fc 72be 8d21 79be c988 c33c
000003e0: 0ac8 26bc cc76 45bf c3b5 0fbf 7460 0fbf
000003f0: 10b6 b13f 697d 94bf 27db 673f 8acf 4cbf

conv_layers.2.bias f4 [26]
0.87041444 -0.55342656 -0.7119068 -0.9333098 0.7071916 -1.3385149 1.0142401 -2.5689855
8.432915 2.429976 0.6907192 1.6640697 -0.9494367 -0.49175996 -1.6712058 0.12859438
0.1477328 -0.54156804 2.3775475 -0.24904098 1.3159392 -1.6525605 0.94326496 0.5344708
0.0997984 1.6468968
00000000: 7bd3 5e3f 5dad 0dbf 863f 36bf 64ed 6ebf
00000010: 820a 353f 7554 abbf 9fd2 813f 426a 24c0
00000020: 38ed 0641 ba84 1b40 f9d2 303f 3c00 d53f
00000030: 490e 73bf f6c7 fbbe 12ea d5bf 3fae 033e
00000040: 4447 173e 34a4 0abf bd29 1840 9904 7fbe
00000050: b270 a83f 1a87 d3bf d079 713f 14d3 083f
00000060: 1b63 cc3d 84cd d23f

conv_layers.3.weight f4 [36, 26, 2, 2]
-0.21711113 0.026561307 0.45160857 0.7568787 0.100007094 0.01426806 -0.11234086 -0.73381525
0.1599469 0.18280435 0.122066736 -0.08966817 -0.0667172 0.17041543 0.018724836 0.00695264
0.34680957 0.03323152 -0.3941584 -0.4628687 0.26914674 0.020199662 -0.48435545 -0.03352884
-0.09883824 0.17519866 0.2909754 0.06508462 0.014008252 0.26657027 -0.7862535 -0.11579337
0.37046725 -0.48739654 -0.42111528 -0.42850047 0.33932644 0.091748305 -0.54672575 -0.5600109
-0.29312867 0.43039846 0.016025642 -0.39218125 0.059859257 -0.21314523 -0.11493525 0.086313546
-0.5747702 -0.2613519 -0.22701338 -0.17254785 0.23198865 -0.11320283 -0.5099617 -0.1442894
-0.3718614 0.19250213 -0.48511994 -0.31149304 -0.85628027 0.29775608 0.26431566 0.5001444
0.05210308 -0.11827949 -0.19380854 0.48450541 0.25327545 0.08851901 -0.34285176 0.2572067
-0.11100016 -0.011473688 -0.12105999 0.32179657 0.41323027 -0.12267931 -0.16310531 -0.20088127
0.08199022 0.02903772 0.40001118 0.38813752 0.22847722 0.17691322 0.26398134 0.26272792
-0.31375158 -0.12459894 -0.52677137 -0.9824154 -0.103539966 -0.06272427 0.43890437 0.24298538
-0.17247504 -0.2234981 0.27892613 0.4043137 -0.20090333 -0.06550525 0.8065519 0.23805836
-0.09260737 -0.53341955 0.6496792 -0.47306627 0.14330257 -0.20040466 0.52055246 -0.45953482
-0.083890684 -0.37035897 -0.16738607 0.035708714 0.33849669 -0.3837503 0.15358251 -0.1477299
0.25091702 0.035480544 0.021346843 0.26715273 0.33212844 0.085631914 -0.100838035 0.117578745
0.046720993 0.31187052 0.14042476 0.13695195 0.09388438 -0.36234787 0.158544 -0.4755864
-0.09012423 -0.48587036 -0.6772198 0.1374868 0.39600897 0.11244888 0.069449894 -0.17046763
0.18841405 -0.028212352 0.117478475 0.06437087 0.0034327426 -0.18722524 -0.08502409 -0.12628704
-0.058234323 -0.51415426 0.5682911 -0.85942036 -0.51869935 -0.0946722 -0.45561403 -0.23022507
-0.2622024 -0.5720813 0.24721032 -0.8857825 0.03171952 -0.56702626 0.2701613 -0.25993845
0.11102578 -0.062056478 0.24300525 0.27722827 0.04119458 0.031179715 0.053901765 -0.043543566
-0.44834644 0.17521997 -0.65861046 0.24464843 0.0606655 -0.00042431353 0.0051894058 0.3032804
0.21085805 0.40801996 -0.010597632 0.2234287 0.31754255 -0.3570181 0.26731572 0.19292673
0.18574123 0.44343966 0.09258944 0.49710056 0.08816741 0.1284912 0.10515382 -0.17303684
0.34205607 -0.32543552 -0.022165572 -0.73153555 -0.10120856 0.39452326 -0.33678287 0.043856267
-0.06701458 -0.00043805785 -0.2088339 -0.23066835 -0.22928637 0.26747513 -0.23071487 0.25799185
-0.09883552 -0.038946074 0.21185985 0.12999122 -0.2040089 0.17099507 -0.106810145 0.32991204
0.025090296 0.060342 0.4538788 -0.36649472 0.17763394 -0.05736683 0.2154765 0.07571341
-0.009095229 0.0995098 0.026041107 0.07932642 0.09728813 0.01875238 -0.016341805 -0.18664968
-0.40444347 -0.14223813 -0.23299755 -0.24234258 -0.22837459 -0.15833944 -0.020809587 0.09702653
-0.09675082 0.15405867 -0.16441394 0.3309239 -0.11181391 -0.18852906 -0.020887924 0.08020863
00000000: 6152 5ebe 1997 d93c 3d39 e73e cdc2 413f
00000010: 85d0 cc3d 95c4 693c f712 e6bd 51db 3bbf
00000020: 1fc9 233e 1031 3b3e 20fe f93d f2a3 b7bd
00000030: 07a3 88bd 6281 2e3e d464 993c f9d2 e33b
00000040: 0691 b13e c61d 083d 21cf c9be 20fd ecbe
00000050: 9acd 893e c379 a53c 70fd f7be 8955 09bd
00000060: b46b cabd 4767 333e bafa 943e 164b 853d
00000070: de82 653c e67b 883e e947 49bf 1325 edbd
00000080: e2ad bd3e 0a8c f9be 6c9c d7be 6a64 dbbe
00000090: 32bc ad3e 89e6 bb3d 38f6 0bbf e05c 0fbf
000000a0: f614 96be 305d dc3e 3548 833c fbcb c8be
000000b0: fb2e 753d be42 5abe 2c63 ebbd 28c5 b03d
000000c0: 2424 13bf ebcf 85be 3276 68be 62b0 30be
000000d0: 6f8e 6d3e e3d6 e7bd da8c 02bf 9ac0 13be
000000e0: 9e64 bebe 471f 453e a461 f8be 047c 9fbe
000000f0: 2f35 5bbf 7c73 983e 6254 873e 7709 003f
00000100: 0a6a 553d 843c f2bd bf75 46be 1811 f83e
00000110: 52ad 813e 7449 b53d 448a afbe 99b0 833e
00000120: 0d54 e3bd 23fc 3bbc 4dee f7bd 85c2 a43e
00000130: eb92 d33e 4a3f fbbd 1405 27be d2b3 4dbe
00000140: 7dea a73d 83e0 ed3c 44ce cc3e f6b9 c63e
00000150: eff5 693e bd28 353e 9028 873e 4684 863e
00000160: 0ca4 a0be bb2d ffbd 7dda 06bf 937f 7bbf
00000170: c30c d4bd 9575 80bd 13b8 e03e 29d1 783e
00000180: 4c9d 30be b0dc 64be 68cf 8e3e 3502 cf3e
00000190: 9ab9 4dbe 9e27 86bd 2f7a 4e3f 92c5 733e
000001a0: efa8 bdbd 2f8e 08bf 6051 263f be35 f2be
000001b0: e9bd 123e e136 4dbe ed42 053f 2648 ebbe
000001c0: e1ce abbd b19f bdbe 4167 2bbe 4d43 123d
000001d0: 704f ad3e eb7a c4be bc44 1d3e 8246 17be
000001e0: 3278 803e 0c54 113d 93df ae3c 3ec8 883e
000001f0: bd0c aa3e c95f af3d 2c84 cebd 20cd f03d
00000200: 835e 3f3d 7ead 9f3e 82cb 0f3e 223d 0c3e
00000210: 7446 c03d a985 b9be 5c59 223e 1080 f3be
00000220: 0d93 b8bd 00c4 f8be 475e 2dbf 57c9 0c3e
00000230: b0c1 ca3e 994b e63d bf3b 8e3d 118f 2ebe
00000240: 9def 403e 971d e7bc 8e98 f03d e0d4 833d
00000250: ddf7 603b f9b7 3fbe 1c21 aebd 6451 01be
00000260: 1d87 6ebd 9d9f 03bf 877b 113f f902 5cbf
00000270: 7bc9 04bf 80e3 c1bd 3e46 e9be 1fc0 6bbe
00000280: 653f 86be ec73 12bf b424 7d3e a4c2 62bf
00000290: 54ec 013d a228 11bf 9552 8a3e a716 85be
000002a0: 7c61 e33d ef2e 7ebd 5ed6 783e ddf0 8d3e
000002b0: a6bb 283d 9a6c ff3c 19c8 5c3d bd5a 32bd
000002c0: aa8d e5be dd6c 333e b29a 28bf 1e85 7a3e
000002d0: 637c 783d 6676 deb9 e40b aa3b 9247 9b3e
000002e0: 2ceb 573e fee7 d03e b1a1 2dbc 7eca 643e
000002f0: f094 a23e 14cb b6be 9bdd 883e 968e 453e
00000300: f332 3e3e 860a e33e 889f bd3d f783 fe3e
00000310: 1d91 b43d 3293 033e e35a d73d 9230 31be
00000320: f921 af3e 7c9f a6be 9394 b5bc ea45 3bbf
00000330: 6f46 cfbd f4fe c93e ce6e acbe a1a2 333d
00000340: f13e 89bd 21ab e5b9 8ed8 55be 5334 6cbe
00000350: 0cca 6abe 80f2 883e 8540 6cbe 8217 843e
00000360: 476a cabd eb85 1fbd caf1 583e 6b1c 053e
00000370: b6e7 50be 5519 2f3e 47bf dabd 3bea a83e
00000380: 2a8a cd3c 2c29 773d cd62 e83e 32a5 bbbe
00000390: ace5 353e 7bf9 6abd dfa5 5c3e a20f 9b3d
000003a0: 2804 15bc cbcb cb3d 2954 d53c e475 a23d
000003b0: 003f c73d 979e 993c 40df 85bc 1821 3fbe
000003c0: 3713 cfbe dfa6 11be e996 6ebe a728 78be
000003d0: 07db 69be bc23 22be de78 aabc d8b5 c63d
000003e0: 4b25 c6bd 8ec1 1d3e 215c 28be db6e a93e
000003f0: b1fe e4bd c30d 41be 271d abbc 6c44 a43d

conv_layers.3.bias f4 [36]
-0.23587972 0.54268366 -0.069800824 1.9254107 0.18460248 -0.19252713 0.34223947 0.63708586
1.6007528 2.0927668 1.5996215 -0.03994415 -0.60667956 1.0686638 -1.5830748 1.2332934
0.104282334 0.06619203 -1.5393904 0.24195723 0.18144952 0.9464668 -0.47530547 -0.67393327
-0.94569 -1.0480778 1.0781113 0.10344521 0.454901 1.5253251 0.04525871 -0.35280314
-0.52848893 -0.13499096 -1.0398277 -0.6204412
00000000: 748a 71be 51ed 0a3f bcf3 8ebd dc73 f63f
00000010: 6f08 3d3e d525 45be 033a af3e 0f18 233f
00000020: 78e5 cc3f e4ef 0540 66c0 cc3f 7a9c 23bd
00000030: 5a4f 1bbf fac9 883f 32a2 cabf 8fdc 9d3f
00000040: fa91 d53d b08f 873d bf0a c5bf a3c3 773e
00000050: e7cd 393e a64b 723f 3d5b f3be e486 2cbf
00000060: bd18 72bf 6a27 86bf 8dff 893f 15db d33d
00000070: c9e8 e83e da3d c33f 3261 393d 9da2 b4be
00000080: 0d4b 07bf 123b 0abe 1319 85bf 3cd5 1ebf

fc_layers.0.weight f4 [120, 144]
-0.08457083 -0.16235235 -0.06341933 0.120739624 0.21661189 0.2232674 -0.2317595 0.12374518
-0.118338294 -0.10988996 0.02804701 0.0023865497 -0.23542236 -0.35805994 0.22469595 0.1794822
-0.26053515 0.08992454 -0.13828509 -0.12251246 -0.06856018 -0.17188565 -0.025120748 0.019426027
-0.21724117 -0.027591199 0.21814187 -0.19954593 0.56135136 0.24257609 0.14459364 0.022315932
-0.11945716 -0.3364471 -0.061529048 -0.20386912 -0.53878593 -0.057661038 -0.29833132 -0.06519676
0.021969778 -0.3473685 0.104477815 -0.20513038 -0.23081087 -0.09235196 -0.05351256 0.058076374
-0.19824183 -0.18875524 -0.19691618 0.21998589 -0.031868648 -0.25407937 -0.42751268 -0.12548727
-0.2914833 -0.4126549 -0.16650555 -0.058961518 -0.21520865 0.43415704 -0.18465672 0.38446164
-0.4295537 -0.23080431 -0.20764808 -0.07096907 -0.014619008 0.064370245 0.042676687 0.26747137
-0.24747476 0.27118233 -0.59220827 -0.085776225 -0.19563395 -0.40633106 -0.29777598 -0.15437043
-0.155415 0.46813324 -0.14203617 -0.034100994 0.3164705 0.24516052 -0.338838 -0.5723134
0.016867574 0.4240553 -0.51333475 -0.16289458 0.42308518 -0.060102068 0.05199794 -0.118097536
-0.3766996 -0.35901755 0.09947034 -0.11727273 -0.44107395 0.071134366 -0.077598594 0.100761645
-0.5676137 0.09396089 -0.26838648 -0.30918327 0.042166755 0.11702343 0.11544077 -0.38332656
0.17811927 0.14743091 -0.04926468 -0.020488307 -0.022558324 -0.03342217 0.22624294 -0.35815948
0.038788185 -0.026307281 0.25140786 0.16734 -0.14722082 -0.49504483 -0.14873156 0.12815885
-0.16298519 0.34373862 -0.3017328 0.19491844 -0.13122894 -0.0433102 -0.10073808 0.106485344
-0.059733313 -0.40835276 0.012131338 0.26338688 0.30331573 -0.06887499 0.3088015 -0.045828402
0.15298814 -0.04197925 -0.061101407 0.09471836 0.14660971 0.16791077 -0.05686881 -0.56949645
-0.034775976 0.15461044 -0.037221216 -0.077125184 -0.10996768 0.07184895 -0.3570081 -0.5054925
0.07739581 0.21234111 0.032095626 -0.0461833 -0.25610217 -0.22313695 0.43026784 0.1779407
-0.2978082 -0.041716006 -0.19542599 -0.31923428 -0.28933954 -0.09845877 0.18468751 0.29576543
-0.23630138 0.07225301 0.09418956 -0.24490549 0.12645103 0.377192 -0.056233473 -0.40914482
-0.01319872 0.004341517 0.14158756 -0.27047876 -0.13334128 -0.20563185 0.07636797 0.022920186
-0.33227602 -0.096850425 0.16491516 0.12378883 0.0064969696 -0.022912689 -0.26631722 -0.124096796
0.0975267 -0.017724207 -0.08428218 0.009482594 -0.23542085 0.12084005 0.2617803 0.18670449
-0.2311717 0.042549763 0.20968363 0.072910175 -0.15576312 -0.4256071 0.30198428 0.19626485
0.037673183 -0.22294131 0.30348948 0.16324915 -0.11895257 -0.41967148 -0.53291446 -0.48090383
0.020722805 0.0055358456 -0.10076641 0.07271579 0.13646047 -0.09436974 0.16424951 -0.18203305
0.02577496 -0.32803226 -0.23676364 0.20427656 0.10383952 -0.31118542 -0.022483068 -0.5527339
-0.09073235 -0.14561681 -0.10153601 0.18872218 -0.20340866 0.15752879 -0.2481994 -0.06905162
0.2807812 0.24378556 0.22015187 -0.26298338 -0.32032079 -0.016547795 -0.47348943 -0.24012956
00000000: 7933 adbd b23f 26be fee1 81bd 5646 f73d
00000010: 82cf 5d3e 36a0 643e 5d52 6dbe 1d6e fd3d
00000020: 595b f2bd fd0d e1bd d8c2 e53c a967 1c3b
00000030: 8f12 71be a253 b7be b216 663e 2fca 373e
00000040: dd64 85be 5b2a b83d 9b9a 0dbe d0e7 fabd
00000050: 4869 8cbd cb02 30be 07ca cdbc 5523 9f3c
00000060: 7874 5ebe f006 e2bc 9560 5f3e c555 4cbe
00000070: b9b4 0f3f de65 783e 5b10 143e e7cf b63c
00000080: f5a5 f4bd cb42 acbe e205 7cbd 11c3 50be
00000090: e0ed 09bf fb2d 6cbd e2be 98be e185 85bd
000000a0: f7f9 b33c 49da b1be 77f8 d53d b30d 52be
000000b0: af59 6cbe 0623 bdbd fc2f 5bbd 7ee1 6d3d
000000c0: e8ff 4abe 0e49 41be 65a4 49be fb43 613e
000000d0: b388 02bd b116 82be f1e2 dabe bc7f 00be
000000e0: 4d3d 95be 8147 d3be 6e80 2abe a281 71bd
000000f0: a85f 5cbe d549 de3e a716 3dbe 28d8 c43e
00000100: 76ee dbbe f757 6cbe b3a1 54be 3b58 91bd
00000110: 9084 6fbc 8cd4 833d c0cd 2e3d 02f2 883e
00000120: 066a 7dbe 69d8 8a3e f69a 17bf 72ab afbd
00000130: 4454 48be a00a d0be 1876 98be 4813 1ebe
00000140: 1c25 1fbe 29af ef3e ee71 11be 7cad 0bbd
00000150: 6c08 a23e 5c0b 7b3e 2d7c adbe 2283 12bf
00000160: de2d 8a3c c71d d93e e869 03bf d6cd 26be
00000170: 9f9e d83e 962d 76bd cbfb 543d 1fdd f1bd
00000180: c5de c0be 26d1 b7be 1bb7 cb3d af2c f0bd
00000190: 72d4 e1be e5ae 913d 03ec 9ebd 1f5c ce3d
000001a0: 224f 11bf 916e c03d f469 89be 454d 9ebe
000001b0: 0cb7 2c3d fba9 ef3d 366c ec3d 6143 c4be
000001c0: e664 363e 21f8 163e c3c9 49bd 18d7 a7bc
000001d0: 3ccc b8bc afe5 08bd 3bac 673e ae60 b7be
000001e0: 5ce0 1e3d 5e82 d7bc 88b8 803e 2d5b 2b3e
000001f0: 0ec1 16be 8476 fdbe 164d 18be 133c 033e
00000200: 97e5 26be 82fe af3e b97c 9abe b398 473e
00000210: e160 06be 0966 31bd c44f cebd fd14 da3d
00000220: ebaa 74bd 9d13 d1be 85c2 463c a5da 863e
00000230: 334c 9b3e 550e 8dbd 3b1b 9e3e 90b6 3bbd
00000240: eca8 1c3e 6ff2 2bbd 7845 7abd b3fb c13d
00000250: db20 163e cdf0 2b3e 45ef 68bd 85ca 11bf
00000260: 4171 0ebd 3352 1e3e 4675 18bd cff3 9dbd
00000270: bc36 e1bd 8b25 933d c4c9 b6be f567 01bf
00000280: b281 9e3d f36f 593e b476 033d b32a 3dbd
00000290: d31f 83be 037e 64be 114c dc3e 1636 363e
000002a0: 517a 98be 67de 2abd c01d 48be ad72 a3be
000002b0: 5024 94be c0a4 c9bd b91e 3d3e 916e 973e
000002c0: fdf8 71be 63f9 933d 75e6 c03d 81c8 7abe
000002d0: 617c 013e 4f1f c13e 1255 66bd 6e7b d1be
000002e0: 723f 58bc 4943 8e3b 54fc 103e 317c 8abe
000002f0: 9e8a 08be 2891 52be cf66 9c3d 1dc3 bb3c
00000300: 1520 aabe 8459 c6bd 85df 283e 0085 fd3d
00000310: 88e4 d43b 64b3 bbbc bb5a 88be 7626 febd
00000320: 14bc c73d 5b32 91bc 239c acbd e25c 1b3c
00000330: 2a12 71be fd7a f73d 1108 863e 762f 3f3e
00000340: 46b8 6cbe a948 2e3d 4eb7 563e ee51 953d
00000350: 5e80 1fbe 2ce9 d9be af9d 9a3e a7f9 483e
00000360: 324f 1a3d ba4a 64be f962 9b3e c92a 273e
00000370: 689d f3bd 2edf d6be 156d 08bf 0739 f6be
00000380: dfc2 a93c 0a66 b53b 9f5e cebd 04ec 943d
00000390: 4bbc 0b3e ec44 c1bd 0631 283e df66 3abe
000003a0: 0226 d33c d8f3 a7be 2b72 72be e02d 513e
000003b0: d0a9 d43d b253 9fbe 692e b8bc f87f 0dbf
000003c0: e2d1 b9bd 931c 15be 1df2 cfbd 6340 413e
000003d0: 5c4a 50be 3a4f 213e fc27 7ebe f06a 8dbd
000003e0: 8ec2 8f3e eca2 793e 7e6f 613e c2a5 86be
000003f0: 1601 a4be 3e8f 87bc 356d f2be 86e4 75be

fc_layers.0.bias f4 [120]
-0.36263466 -0.45183247 0.32054907 -0.51356125 -0.030505715 -0.28537452 -0.3558554 -0.047169823
0.117235646 -0.0043854346 0.0667213 -0.18352191 -0.015561617 0.114169106 0.632535 -0.2761094
0.0441707 0.13826013 0.032996695 0.26710904 -0.13583696 -0.25544834 -0.19724247 0.1359774
-0.4280485 -0.1962012 -0.46820486 1.1719712 0.049123462 -0.15603092 -0.23393421 -0.13997717
0.237919 0.13383837 -0.66537374 0.2560641 0.0057459367 -0.1917105 0.29788873 -0.14726512
-0.018194454 0.027025253 -0.48737445 -0.22052328 0.22710325 0.6117037 -0.09068407 -0.001981042
0.72152823 -0.010553809 0.15938565 0.13729768 0.43188947 -0.03285013 -0.19262426 0.031578217
-0.017740618 -0.26620358 0.05830266 -0.108144425 -0.033364765 -0.23085022 -0.2978472 0.13157237
0.20499136 0.28052527 0.02275214 0.18884306 -0.16293676 -0.11304176 0.013173098 0.46029383
0.03919243 -0.25634778 0.058760736 0.3324755 -0.1648625 -0.08525295 0.28614244 -0.23043765
-0.23295343 0.015761368 -0.31104875 0.03440156 -0.5252615 -0.23074216 0.1549131 0.82351184
-0.20287238 0.18319121 0.14886315 0.25737253 0.54438496 -0.27994624 -0.020170886 0.0051797554
0.19096437 -0.46294156 0.16835152 0.40217397 -0.35416567 -0.24366103 0.10852133 0.41798514
-0.09142144 -0.08555541 0.17510262 0.18138528 0.24129535 -0.29732168 0.11910161 0.2687396
-0.067092 0.76803046 0.5954145 -0.32907617 0.32974774 0.06010684 -0.09098958 -0.08016379
00000000: 40ab b9be 9656 e7be 021f a43e c078 03bf
00000010: 1fe7 f9bc 9c1c 92be ae32 b6be 2535 41bd
00000020: 3e19 f03d b1b3 8fbb 2da5 883d 2bed 3bbe
00000030: 27f6 7ebc 7ed1 e93d d0ed 213f 365e 8dbe
00000040: 56ec 343d 1094 0d3e 8b27 073d 84c2 883e
00000050: d818 0bbe 20ca 82be eef9 49be a93d 0b3e
00000060: 2c29 dbbe f8e8 48be 8cb8 efbe 2703 963f
00000070: af35 493d 92c6 1fbe 738c 6fbe 2d56 0fbe
00000080: 0aa1 733e ed0c 093e ef55 2abf d51a 833e
00000090: 6948 bc3b c24f 44be df84 983e abcc 16be
000000a0: 890c 95bc 1064 dd3c 2589 f9be dbd0 61be
000000b0: c18d 683e 9d98 1c3f 92b8 b9bd 5fd4 01bb
000000c0: 13b6 383f e2e9 2cbc fe35 233e c397 0c3e
000000d0: 9e20 dd3e dc8d 06bd 4b3f 45be 2958 013d
000000e0: c654 91bc d64b 88be c5ce 6e3d d37a ddbd
000000f0: 7ea9 08bd 0064 6cbe 6e7f 98be e8ba 063e
00000100: 41e9 513e 02a1 8f3e b262 ba3c 1360 413e
00000110: e5d8 26be 7082 e7bd fad3 573c a2ab eb3e
00000120: 3e88 203d 0440 83be 19af 703d 3b3a aa3e
00000130: b7d1 28be 1999 aebd 4381 923e d9f7 6bbe
00000140: 588b 6ebe fc1d 813c c841 9fbe a6e8 0c3d
00000150: 8a77 06bf ac47 6cbe 8aa1 1e3e acd1 523f
00000160: c7bd 4fbe 7a96 3b3e 956f 183e 55c6 833e
00000170: d05c 0b3f 1d55 8fbe 6a3d a5bc f0ba a93b
00000180: 2a8c 433e ad06 edbe 5764 2c3e bfe9 cd3e
00000190: 3455 b5be 4782 79be 6e40 de3d 2602 d63e
000001a0: 2a3b bbbd ad37 afbd 1a4e 333e 10bd 393e
000001b0: 2116 773e 8c3a 98be 8beb f33d 3d98 893e
000001c0: 8867 89bd a59d 443f 166d 183f ac7c a8be
000001d0: b2d4 a83e 9732 763d bf58 babd ea2c a4bd

fc_layers.1.weight f4 [84, 120]
-0.015590625 -0.1846329 0.05714791 0.10484444 -0.081087135 -0.11351552 -0.10924974 0.011775157
0.078853086 -0.16766293 -0.34545428 -0.080054566 0.007857576 0.097826116 0.14126876 -0.3128998
0.07501284 -0.038701057 -0.17308041 -0.20890294 -0.100361355 -0.14641783 -0.091636956 -0.12321624
0.0059270323 0.077463694 -0.040913574 0.17272745 0.15590295 -0.35770246 -0.059819013 -0.03704781
0.064133525 -0.009951756 0.06652244 -0.36661452 -0.02229267 0.13457893 0.05824387 -0.0859383
-0.0770269 -0.14330088 0.10161317 -0.2223178 -0.15246029 0.08028201 -0.077022254 -0.021449788
-0.0012464547 0.03148909 -0.10135191 0.08894309 -0.13493556 -0.22513 -0.44966146 0.10196032
0.11764388 0.091522306 -0.10571053 0.23793028 -0.19187757 0.025946477 0.13642819 -0.16281797
0.049834285 -0.056808755 -0.15587509 -0.2579721 -0.00675313 -0.13822226 -0.0029133873 0.07238324
-0.09813065 -0.20355682 -0.20059879 -0.18797621 -0.36746085 -0.11045766 -0.116945155 -0.17327115
-0.11311498 -0.17350711 -0.01947435 -0.124677375 0.03271558 -0.1718704 -0.20576507 0.069275364
0.009332095 0.12716606 0.025212344 -0.08157958 0.060805045 0.1148154 -0.16702616 -0.3097327
-0.08058452 -0.23964587 -0.06489554 -0.004695904 -0.15190415 -0.1400686 -0.30079827 -0.028434392
-0.3997513 0.022953048 -0.17075422 0.12688883 -0.03691992 -0.2899251 -0.23970182 0.10129887
-0.23595476 0.05172646 0.0001224787 -0.22405365 0.010074405 -0.08375944 -0.018410014 0.07487204
0.062111165 0.1563924 -0.10989661 -0.12414015 -0.1301092 -0.020655278 0.10353581 -0.09744672
-0.25432166 -0.22281478 -0.06834967 -0.19892156 -0.44039124 -0.09075533 0.20680873 -0.05738658
0.075810835 -0.07196729 0.02064306 -0.053244174 0.07425804 0.055095255 0.04330151 -0.22044392
-0.06582992 -0.14800279 -0.3115869 -0.12442231 -0.21562989 -0.16489594 -0.13444126 -0.024059882
-0.054559246 -0.054841455 0.11347531 0.0660263 0.06913927 -0.06944402 -0.30820942 -0.13419506
-0.2650974 -0.17654103 0.017133225 -0.07775475 -0.39333704 0.10473909 -0.29090488 0.110920586
-0.05852008 -0.23709202 0.121094845 0.06125259 -0.10287469 -0.092470154 -0.29522008 -0.23786092
-0.106753506 -0.07237909 -0.06325293 -0.073699586 -0.38255325 0.26784566 -0.027579311 -0.21709113
-0.30071965 0.088884376 -0.2679533 -0.06580777 -0.10469805 0.04064025 -0.05599803 -0.058329746
-0.26065013 -0.14496294 0.101626165 -0.1155095 -0.1327169 0.0883997 -0.078882165 -0.012769415
-0.019526372 -0.017625283 -0.16172212 0.11025873 -0.006173564 -0.117217906 -0.048819836 0.027156338
-0.40184993 -0.14085934 0.10927416 -0.37067568 -0.0077595185 -0.06671125 -0.18091148 -0.2217435
-0.037247796 -0.12578814 -0.21507587 -0.37495762 -0.12369278 -0.051702842 -0.1820438 -0.31473404
-0.1934438 -0.5116295 -0.2996139 -0.009384895 0.2004214 -0.025499677 -0.0144628445 0.0449792
0.010956642 -0.03486877 0.08634249 -0.17394328 0.034827698 -0.14849827 0.21975823 0.018239854
-0.01797768 -0.16772535 -0.20441878 -0.19717228 -0.03659143 0.07517859 0.11734121 -0.024055773
0.06642267 -0.0833774 0.03272225 -0.22484195 0.12682898 -0.0022899972 -0.16170034 0.036735293
00000000: d26f 7fbc 6810 3dbe ed13 6a3d afb8 d63d
00000010: 0311 a6bd d37a e8bd 54be dfbd 97ec 403c
00000020: ba7d a13d d5af 2bbe 62df b0be a6f3 a3bd
00000030: 10bd 003c 0f59 c83d c2a8 103e 6734 a0be
00000040: 55a0 993d 0085 1ebd fe3b 31be a7ea 55be
00000050: 418a cdbd 8eee 15be 28ac bbbd cc58 fcbd
00000060: 8d37 c23b 49a5 9e3d fe94 27bd 77df 303e
00000070: 06a5 1f3e c724 b7be c804 75bd 72bf 17bd
00000080: 7058 833d b10c 23bc eb3c 883d e6b4 bbbe
00000090: 1e9f b6bc 0fcf 093e 2091 6e3d 6b00 b0bd
000000a0: 48c0 9dbd 77bd 12be 911a d03d 47a7 63be
000000b0: 8d1e 1cbe e56a a43d d8bd 9dbd 77b7 afbc
000000c0: 1460 a3ba b4fa 003d 9791 cfbd cb27 b63d
000000d0: 8c2c 0abe 7b88 66be 073a e6be 92d0 d03d
000000e0: 46ef f03d 0c70 bb3d c37e d8bd ffa3 733e
000000f0: 8e7b 44be b58d d43c d5b3 0b3e c1b9 26be
00000100: 091f 4c3d 4cb0 68bd b89d 1fbe eb14 84be
00000110: 5c49 ddbb 238a 0dbe 87ee 3ebb aa3d 943d
00000120: b9f8 c8bd 3371 50be c569 4dbe d67c 40be
00000130: d423 bcbe a037 e2bd f180 efbd fe6d 31be
00000140: d4a8 e7bd d9ab 31be ac88 9fbc da56 ffbd
00000150: c600 063d cbfe 2fbe 14b4 52be 3ee0 8d3d
00000160: a5e5 183c d237 023e 1e8a ce3c 3213 a7bd
00000170: b60e 793d 5624 eb3d e808 2bbe 4995 9ebe
00000180: 7f09 a5bd ba65 75be f4e7 84bd 19e0 99bb
00000190: c38c 1bbe 256e 0fbe 3b02 9abe 3eef e8bc
000001a0: 34ac ccbe 0808 bc3c 32da 2ebe 25ef 013e
000001b0: 5839 17bd 1071 94be 6574 75be c875 cf3d
000001c0: 209e 71be 20df 533d a06d 0039 526e 65be
000001d0: 1e0f 253c 128a abbd 99d0 96bc 8356 993d
000001e0: 4768 7e3d 5425 203e 7911 e1bd 313d febd
000001f0: 593b 05be 4235 a9bc 950a d43d 2592 c7bd
00000200: 7336 82be 8f29 64be e9fa 8bbd 18b2 4bbe
00000210: f67a e1be eedd b9bd abc5 533e 310e 6bbd
00000220: b642 9b3d 9663 93bd a21b a93c 9016 5abd
00000230: 9914 983d 90ab 613d ed5c 313d 0dbc 61be
00000240: d6d1 86bd 0b8e 17be 5188 9fbe 20d1 febd
00000250: 15ce 5cbe 7bda 28be f8aa 09be 3b19 c5bc
00000260: 8479 5fbd 6fa1 60bd be65 e83d cc38 873d
00000270: e498 8d3d ab38 8ebd a0cd 9dbe 6e6a 09be
00000280: d9ba 87be 2cc7 34be fa5a 8c3c e23d 9fbd
00000290: 7963 c9be 7381 d63d 7cf1 94be 552a e33d
000002a0: c0b2 6fbd 40c8 72be 9300 f83d ffe3 7a3d
000002b0: f7af d2bd fe60 bdbd 1627 97be d091 73be
000002c0: 95a1 dabd 7d3b 94bd c18a 81bd cfef 96bd
000002d0: 05de c3be 1123 893e 02ee e1bc 234d 5ebe
000002e0: edf7 99be 0309 b63d 2d31 89be 39c6 86bd
000002f0: ee6b d6bd 6476 263d 315e 65bd 2ceb 6ebd
00000300: ef73 85be 2a71 14be 6121 d03d 3f90 ecbd
00000310: f0e6 07be e70a b53d f98c a1bd cf36 51bc
00000320: c5f5 9fbc e662 90bc 7c9a 25be 54cf e13d
00000330: 9c4b cabb f10f f0bd 4ff7 47bd f876 de3c
00000340: 46bf cdbe 6e3d 10be 21cb df3d 34c9 bdbe
00000350: 8f43 febb e89f 88bd dc40 39be ba10 63be
00000360: 2591 18bd 9bce 00be d93c 5cbe 72fa bfbe
00000370: a452 fdbd 5cc6 53bd b169 3abe d224 a1be
00000380: 2216 46be 27fa 02bf fe66 99be 1ac3 19bc
00000390: 443b 4d3e b3e4 d0bc 91f5 6cbc 1c3c 383d
000003a0: 7d83 333c 8ed2 0ebd 55d4 b03d 301e 32be
000003b0: 7da7 0e3d ee0f 18be 4d08 613e bf6b 953c
000003c0: ed45 93bc 32c0 2bbe 2853 51be 88e7 49be
000003d0: e5e0 15bd 3cf7 993d 9750 f03d 9d10 c5bc
000003e0: 9c08 883d c5c1 aabd c407 063d f83c 66be
000003f0: 75df 013e c713 16bb c694 25be bf77 163d

fc_layers.1.bias f4 [84]
0.3952703 -0.05599476 0.5075741 0.5286937 -0.39142928 0.025617708 -0.23237512 -0.6774389
0.1538367 1.0610617 -0.09215768 0.44205672 -0.36491922 0.084952846 0.20890558 0.1091165
-0.16476615 -0.12561105 0.21434286 -0.1421725 -0.040378254 0.016204406 0.38266736 -0.0043308255
-0.015435931 0.59238553 0.13120277 -0.24954489 0.59182495 0.11162546 0.99996924 0.18823962
-0.3183161 -0.1356834 0.48644018 1.1714898 -0.049414523 0.4171679 -0.2805967 0.72934335
-0.25232676 0.5618193 -0.511552 0.083989985 0.010290612 -0.08121535 1.1216694 0.8446197
-0.32058492 1.0192894 -0.06610149 -0.17848416 -0.15744579 0.5761944 0.7233955 -0.075082645
0.10540324 0.08589729 -0.17181431 -0.013742548 -0.23023663 0.5786689 0.62582386 0.28592554
0.44930044 0.462616 0.23615092 0.2259818 1.4185325 0.12418741 0.48866713 -0.31242505
0.1608773 -0.06843352 0.44894 0.54564655 0.16633265 0.3075224 0.57986444 -0.19070119
0.32905057 -0.2082249 -0.19165033 -0.35830677
00000000: de60 ca3e c35a 65bd 60f0 013f 7858 073f
00000010: 6b69 c8be 3adc d13c bef3 6dbe a36c 2dbf
00000020: 5e87 1d3e dfd0 873f 2abd bcbd 4255 e23e
00000030: b1d6 babe c2fb ad3d 58eb 553e 7978 df3d
00000040: 75b8 28be 2fa0 00be b27c 5b3e ab95 11be
00000050: ab63 25bd 1abf 843c faec c33e 99e9 8dbb
00000060: fde6 7cbc 94a6 173f 055a 063e b288 7fbe
00000070: d781 173f e49b e43d fcfd 7f3f e3c1 403e
00000080: 54fa a2be 97f0 0abe b00e f93e 61f3 953f
00000090: e266 4abd 0897 d53e 5faa 8fbe 3fb6 3a3f
000000a0: f930 81be 64d3 0f3f 12f5 02bf f102 ac3d
000000b0: f499 283c 3c54 a6bd dd92 8f3f ff38 583f
000000c0: b523 a4be 1378 823f 3860 87bd 8dc4 36be
000000d0: 7839 21be 7a81 133f 7330 393f eec4 99bd
000000e0: a7dd d73d ebea af3d 17f0 2fbe 6d28 61bc
000000f0: 27c3 6bbe a523 143f fe35 203f d564 923e
00000100: b50a e63e 01dc ec3e 8cd1 713e c667 673e
00000110: 7992 b53f f855 fe3d 9432 fa3e 2df6 9fbe
00000120: 05bd 243e e026 8cbd 77db e53e 7eaf 0b3f
00000130: 1b53 2a3e 9373 9d3e ff71 143f 2c47 43be
00000140: 5179 a83e e838 55be fc3f 44be fc73 b7be

output_layer.weight f4 [10, 84]
-0.12401985 -0.22650371 -0.035772003 0.16720675 0.15527621 0.05225631 0.009418748 0.15684673
0.088078596 -0.4442879 -0.06859667 -0.103617445 0.13808843 -0.08184491 -0.06935822 0.098586984
-0.060984995 0.19061671 0.18606468 -0.0040125553 0.11416421 -0.090985626 0.17415416 0.1658009
0.08369343 -0.13055626 0.08022471 0.06457499 -0.019218687 -0.16296625 0.087691545 -0.10632951
-0.068182126 0.005973315 0.04010814 -0.15204677 -0.03425977 0.0011851632 0.14174323 0.16682704
-0.058617 -0.024266846 0.20666504 -0.17023411 -0.059095606 0.05583945 0.15893812 -0.09626215
-0.10864183 -0.08531848 -0.047622938 -0.053688955 -0.017015848 -0.0713839 -0.0606315 -0.013291178
0.011057061 -0.023292178 0.07766951 -0.07537952 0.013930657 0.10639175 -0.08905829 -0.12808467
-0.13194528 0.08882663 0.030004472 0.055736966 -0.17875244 0.12509337 -0.0959794 0.08636444
-0.029183136 0.009914268 -0.054690793 -0.08642362 -0.016484216 -0.07090296 -0.21784931 0.11903639
0.14592509 -0.0155699365 0.16393211 0.16679858 0.0702181 0.2075223 -0.02485296 0.22327961
0.09941721 0.15650837 -0.069837295 0.22782126 -0.021082055 -0.3207889 0.025889015 -0.14295734
-0.045510873 -0.21661939 -0.16488275 0.049906954 0.17769164 0.14477417 -0.0079078125 -0.017294819
-0.13516583 0.107442975 -0.27919808 -0.01766466 0.12963639 0.008083284 -0.24946058 -0.12489507
-0.0666794 0.07277861 -0.122861885 -0.098988764 0.049982946 -0.0388003 -0.09221961 -0.0057205595
0.021778101 0.17644055 0.048113845 -0.09611019 0.22500925 -0.17986678 -0.101683944 -0.0864191
-0.06734651 -0.09846837 0.14060867 -0.39508983 0.16174483 -0.2702529 -0.03330495 0.046782922
-0.06023352 -0.051321443 -0.15500692 0.23820962 0.3331506 0.06562348 -0.19267479 0.20143405
0.12725729 0.24819517 0.004192922 -0.11340017 0.105815075 -0.23262301 0.14049047 -0.19248895
-0.1985641 0.10275598 -0.06204069 0.049332615 0.020462688 0.102922745 0.08916997 -0.10421458
0.18692392 0.09849141 -0.19002089 -0.12765235 0.03418206 -0.093923494 -0.117615424 -0.13188517
0.021902325 -0.0774269 0.02784884 -0.11369592 -0.017327324 0.012313237 0.17281187 0.032422125
-0.042451497 0.14600252 0.19735862 0.13088 -0.12991202 0.10318819 0.14758855 -0.06641375
0.023309538 -0.120513104 -0.03626448 -0.15832429 -0.004574182 -0.08519308 0.21314164 0.026209507
-0.041678123 -0.1436571 -0.046639223 0.12334311 0.021848828 0.014429758 0.2089203 -0.04583058
-0.087278895 0.09116183 -0.053556044 0.09430096 -0.0888954 -0.09898187 0.13830397 0.174
0.23127167 0.15899718 0.05013896 0.073852286 0.048715904 -0.114671506 0.008558854 0.06474956
0.16672277 -0.036519457 0.19446488 0.102596015 -0.09834543 0.22909108 0.16908705 -0.04650678
-0.104752526 -0.06555543 -0.032320864 -0.020274412 -0.046957042 -0.07629386 0.00012561075 0.043862604
-0.16203387 0.07595221 -0.02363941 -0.13406998 0.16600819 -0.12854801 0.12701564 -0.11395472
0.033386637 -0.16718636 0.021216044 0.1485258 -0.094793454 -0.030189147 0.12610272 0.0973078
0.100227244 0.05797149 0.0916393 0.07050166 -0.10037345 -0.16371384 0.07868608 -0.021095565
00000000: 1efe fdbd 97f0 67be aa85 12bd 3f38 2b3e
00000010: ba00 1f3e b60a 563d 1851 1a3c 6e9c 203e
00000020: 8d62 b43d b479 e3be 697c 8cbd 6235 d4bd
00000030: 0e67 0d3e 4e9e a7bd af0b 8ebd f9e7 c93d
00000040: 67cb 79bd 0731 433e bd87 3e3e c17b 83bb
00000050: edce e93d ac56 babd 7855 323e b6c7 293e
00000060: 7667 ab3d 8ab0 05be da4c a43d e43f 843d
00000070: 8270 9dbc a0e0 26be a097 b33d 49c3 d9bd
00000080: 12a3 8bbd ccbb c33b 6f48 243d 26b2 1bbe
00000090: f953 0cbd 7a57 9b3a 2325 113e b5d4 2a3e
000000a0: 6118 70bd 44cb c6bc 00a0 533e da51 2ebe
000000b0: 3c0e 72bd e8b7 643d adc0 223e 1725 c5bd
000000c0: 9c7f debd 75bb aebd 4510 43bd f3e8 5bbd
000000d0: d264 8bbc b931 92bd bc58 78bd 3ec3 59bc
000000e0: ad28 353c 3dcf bebc 3111 9f3d 9460 9abd
000000f0: 693d 643c ebe3 d93d 3164 b6bd a128 03be
00000100: aa1c 07be bcea b53d f0cb f53c 724c 643d
00000110: e10a 37be 7a18 003e d990 c4bd d7df b03d
00000120: 7911 efbc 746f 223c 7403 60bd defe b0bd
00000130: e809 87bc 9235 91bd e413 5fbe 5ac9 f33d
00000140: 636d 153e 0c19 7fbc d2dd 273e 3fcd 2a3e
00000150: 82ce 8f3d ba80 543e 6f98 cbbc 69a3 643e
00000160: 409b cb3d bb43 203e db06 8fbd fa49 693e
00000170: 46b4 acbc 713e a4be 3315 d43c 6963 12be
00000180: 9c69 3abd 79d1 5dbe 06d7 28be 3c6b 4c3d
00000190: ccf4 353e ae3f 143e c58f 01bc ddad 8dbc
000001a0: e968 0abe 100b dc3d 0df3 8ebe 7ab5 90bc
000001b0: 67bf 043e c06f 043c 9872 7fbe fdc8 ffbd
000001c0: 368f 88bd f40c 953d 039f fbbd 9fba cabd
000001d0: ebba 4c3d 10ed 1ebd a3dd bcbd 8873 bbbb
000001e0: fd67 b23c d5ac 343e 0613 453d 6bd5 c4bd
000001f0: d368 663e ff2e 38be ac3f d0bd 7ffc b0bd
00000200: f8ec 89bd c9a9 c9bd b8fb 0f3e 3749 cabe
00000210: 70a0 253e 975e 8abe c56a 08bd 739f 3f3d
00000220: 6cb7 76bd 6f36 52bd 22ba 1ebe 39ed 733e
00000230: b792 aa3e 9a65 863d 8a4c 45be ba44 4e3e
00000240: bc4f 023e e026 7e3e c764 893b 593e e8bd
00000250: 93b5 d83d ba34 6ebe bcdc 0f3e d31b 45be
00000260: 6354 4bbe ba71 d23d 611e 7ebd ff10 4a3d
00000270: 5ea1 a73c 29c9 d23d bf9e b63d 746e d5bd
00000280: fc68 3f3e ddb5 c93d d694 42be 4cb7 02be
00000290: 7d02 0c3d f65a c0bd 5be0 f0bd e80c 07be
000002a0: 816c b33c ff91 9ebd 4023 e43c 68d9 e8bd
000002b0: 08f2 8dbc 76bd 493c 98f5 303e 10cd 043d
000002c0: 9fe1 2dbd af81 153e 6118 4a3e 6805 063e
000002d0: a807 05be 5454 d33d 7421 173e ef03 88bd
000002e0: a5f3 be3c 93cf f6bd 108a 14bd c31f 22be
000002f0: 05e3 95bb b679 aebd cd41 5a3e 52b5 d63c
00000300: aeb6 2abd d91a 13be c508 3fbd 509b fc3d
00000310: 50fc b23c cb6a 6c3c 34ef 553e d9b8 3bbd
00000320: 47bf b2bd 0eb3 ba3d 955d 5bbd dd20 c13d
00000330: cb0e b6bd 02b7 cabd 8e9f 0d3e 0e2d 323e
00000340: 7bd2 6c3e 28d0 223e 835e 4d3d de3f 973d
00000350: 548a 473d e5d8 eabd 703a 0c3c 6b9b 843d
00000360: 60b9 2a3e 6d95 15bd cd21 473e dc1d d23d
00000370: 5469 c9bd da96 6a3e 2825 2d3e e57d 3ebd
00000380: 7e88 d6bd ed41 86bd e262 04bd 8616 a6bc
00000390: 0756 40bd f53f 9cbd 61b6 0339 46a9 333d
000003a0: 35ec 25be d58c 9b3d 70a7 c1bc a449 09be
000003b0: 0dfe 293e 17a2 03be 6310 023e 1861 e9bd
000003c0: 6dc0 083d e732 2bbe 45cd ad3c 2617 183e
000003d0: 1223 c2bd 3b4f f7bc 1221 013e 5049 c73d
000003e0: f143 cd3d 8373 6d3d 63ad bb3d 2d63 903d
000003f0: 9890 cdbd 9aa4 27be 2b26 a13d 9bd0 acbc

output_layer.bias f4 [10]
-0.11624918 -0.76367027 0.2992657 0.6189873 0.29013476 0.35341296 -0.108912334 -0.028604059
-0.43477222 -0.2311815
00000000: 0d14 eebd e57f 43bf 5b39 993e f475 1e3f
00000010: 8b8c 943e 8bf2 b43e 6e0d dfbd 0f53 eabc
00000020: 779a debe d8ba 6cbe
