Lab1/model/model_CIFAR10/conv_params_c3_20.pth (torch, 302340 bytes, 10 tensors)

conv_layers.0.weight f4 [6, 3, 5, 5]
0	0xbf80f00e	-1.0073259
1	0xbf221ec8	-0.6332822
2	0xbef7c08d	-0.48389092
3	0x3b878f25	0.004136937
4	0xbf3833de	-0.71954143
5	0x3e23dc1e	0.16001937
6	0x3e89eb5c	0.26937377
7	0xbe29d80d	-0.16586323
8	0xbd870d4d	-0.06594334
9	0x3f01989c	0.5062349
10	0x3e89ee09	0.2693942
11	0x3e78e4f0	0.24306083
12	0x3f6adb23	0.91740626
13	0x3edef88c	0.43549
14	0x3f40befb	0.75291413
15	0x3f0c8581	0.5489121
16	0x3f4421dc	0.76614165
17	0x3ee60c8d	0.4493145
18	0x3de6fe9c	0.11279032
19	0xbcfa8b57	-0.03058402
20	0x3f1cfc8e	0.6132287
21	0x3d5ebcd2	0.05437929
22	0x3eb414fe	0.35172266
23	0x3f2f4c02	0.68475354
24	0x3c9b411b	0.018951943
25	0xbd1ea53d	-0.038731802
26	0x3e05ddec	0.13072938
27	0xbe9e0bbc	-0.30868328
28	0x3e4c859b	0.19972841
29	0xbe3ea8f4	-0.18619138
30	0xbcb016e3	-0.021495288
31	0x3ef3c7e0	0.4761343
32	0xbdf533dd	-0.11972783
33	0xbebd5a75	-0.36983076
34	0xbf0f323f	-0.55936044
35	0xbf3f8acf	-0.7482118
36	0xbdb80719	-0.08985729
37	0x3f51169f	0.8167514
38	0xbe597132	-0.21234587
39	0xbf19b72d	-0.6004513
40	0xbf72dcc9	-0.9486814
41	0x3c42e0ef	0.011894449
42	0x3e9d2390	0.30691195
43	0xbcd8dab5	-0.026471475
44	0xbeea2865	-0.45733944
45	0xbf03ad13	-0.51435965
46	0xbe872396	-0.26394337
47	0xbdb99499	-0.09061546
48	0x3ebf7de1	0.37400725
49	0x3e3a1db6	0.18175396
50	0x3f873798	1.0563841
51	0x3f5c848e	0.8613976
52	0x3e0862d3	0.13318948
53	0x3f09388f	0.53601927
54	0x3ee2a503	0.4426652
55	0xbdceed3e	-0.10103844
56	0x3f63b2aa	0.88944495
57	0x3f5e15c6	0.86751974
58	0x3ed8c4ad	0.42337552
59	0xbf2a8836	-0.6661409
60	0xbe86d691	-0.26335576
61	0x3e85206e	0.26001304
62	0x3f8b381e	1.0876501
63	0x3e9fc86e	0.31207603
64	0xbfc1a11c	-1.5127292
65	0xbea4d233	-0.3219162
66	0x3f0ba195	0.5454343
67	0x3f699c46	0.9125408
68	0x3f09ed52	0.5387775
69	0xbf788602	-0.9707948
70	0xbecb8906	-0.39752978
71	0xbd1d5ca5	-0.03841843
72	0xbe9a2375	-0.30105177
73	0x3ec4761f	0.3837137
74	0xbd071ff7	-0.03298947
75	0x3dae136e	0.084998
76	0x3e1369d6	0.14395842
77	0xbf5f7874	-0.8729317
78	0x3d50c938	0.050973147
79	0x3eeee870	0.4666171
80	0x3f776fd2	0.96655
81	0xbf47745c	-0.77911925
82	0xbe9813a3	-0.29702482
83	0xbf19c50b	-0.6006629
84	0x3eb84f27	0.35997888
85	0x3f4ed206	0.8078922
86	0xc0090a43	-2.1412513
87	0x3f825aa6	1.0183914
88	0x3f96b335	1.177344
89	0xbf42e255	-0.76126605
90	0x3f8d5cb7	1.1043919
91	0xc0746e30	-3.8192253
92	0x3ede224a	0.43385535
93	0x40135a4c	2.3023863
94	0xbedcb746	-0.43108577
95	0x3f6d5a63	0.92716044
96	0xbf882b3d	-1.0638195
97	0xbeec00b2	-0.4609428
98	0xbe5db6c6	-0.21651754
99	0x3ec22397	0.37917778
100	0x3eda4dd7	0.42637512
101	0xbf0e3c36	-0.55560625
102	0x3f0f1578	0.55892134
103	0x3f5781c2	0.8418237
104	0xbf1694c0	-0.58820724
105	0x3e9d0088	0.30664468
106	0xbfd23d7f	-1.6425017
107	0x3fa1ae9f	1.2631415
108	0x3ca29aa0	0.019849122
109	0xbf11872e	-0.5684689
110	0x3f24a11d	0.6430834
111	0xc031e112	-2.7793622
112	0x4000a5c4	2.0101175
113	0x3f9f1533	1.2428344
114	0xbf809a5d	-1.0047108
115	0x3fc0e856	1.5070903
116	0xc05e5bd3	-3.4743545
117	0x3f9abb1a	1.2088349
118	0x3ffb7f5b	1.9648241
119	0xbe501c94	-0.20323402
120	0x3f0fd9f8	0.5619197
121	0xbfa6a97d	-1.3020474
122	0x3e5bcb7a	0.21464339
123	0xbddc0ca6	-0.107446
124	0x3ee43574	0.44572031
125	0xbe654afc	-0.22391886
126	0x3eaf14ff	0.34195706
127	0xbe3c3e34	-0.18383104
128	0xbe7d1fcf	-0.24719165
129	0xbe7e710a	-0.24847808
130	0x3d6988fd	0.057015408
131	0xbfa8e9c9	-1.3196346
132	0x3ff8f62a	1.9450123
133	0x3c8a1685	0.016856441
134	0xbf044da5	-0.51680976
135	0x3f006724	0.5015738
136	0xc0171e71	-2.361233
137	0x401e7da9	2.4764197
138	0x3f6f853b	0.9356267
139	0xbfdece81	-1.740677
140	0x3f9ea12c	1.2392936
141	0xc04f4c39	-3.2390273
142	0x3f647157	0.8923544
143	0x3fbdec27	1.4837693
144	0xbf83bb4b	-1.0291532
145	0x3f4cc6e5	0.7999099
146	0xbebcc2ad	-0.36867276
147	0x3ef9c3b0	0.4878211
148	0xbe237aa3	-0.15964751
149	0xbe6c1008	-0.2305299
150	0xbe4d4552	-0.20045975
151	0xbf1ed041	-0.6203652
152	0xbe59c4d2	-0.21266487
153	0xbdd05525	-0.1017249
154	0xbf9af229	-1.2105151
155	0xbe7733e1	-0.24140884
156	0xbfb3fe33	-1.406195
157	0xc01eca54	-2.4810991
158	0xbfc9344b	-1.5719084
159	0xbef860bc	-0.48511302
160	0x3e53ec3a	0.20695582
161	0x40108e32	2.258679
162	0x3f53a674	0.8267586
163	0xbe9580d4	-0.2919985
164	0x3f3313c4	0.69952035
165	0x3df569f4	0.119830996
166	0x3facc170	1.3496532
167	0x4016b49b	2.3547733
168	0x3fc27ba3	1.5193981
169	0x3f617d06	0.88081396
170	0xbde314e3	-0.11087968
171	0xbfa3fcce	-1.2811525
172	0xbf784d63	-0.9699308
173	0xbe70628a	-0.2347509
174	0xbdc6c0db	-0.09704753
175	0x3e9dca1b	0.30818257
176	0x3e2da50a	0.16957489
177	0x3f25bcab	0.6474101
178	0x3f7630e5	0.9616836
179	0x3e6b9065	0.23004301
180	0x3e39c126	0.18140087
181	0xbf75d1d5	-0.96023303
182	0xbffe290c	-1.9856277
183	0xbf961adc	-1.1726947
184	0xbebf540a	-0.37368804
185	0x3e1693ae	0.14704773
186	0x4003a4f9	2.0569441
187	0x3f8e54cf	1.1119632
188	0x3e8abeb7	0.2709863
189	0x3e68ee57	0.2274717
190	0xbec1a675	-0.3782231
191	0x3f078928	0.5294366
192	0x4010da2c	2.2633162
193	0x3fb27a56	1.3943584
194	0xbe5ad490	-0.21370149
195	0x3e68f314	0.22748977
196	0xbfbf4246	-1.49421
197	0xbfc6201d	-1.547855
198	0xbf5e7f88	-0.8691335
199	0xbf5da08d	-0.86573106
200	0x3e31047c	0.17286867
201	0x3e6e0d10	0.2324717
202	0x3fb0ce11	1.3812886
203	0x3f9d8db8	1.2308874
204	0x3f3b427c	0.7314832
205	0xbdb2aead	-0.08724723
206	0xbf94d3b8	-1.1627111
207	0xbff45fa2	-1.9091685
208	0xbf2c64ba	-0.67341197
209	0xbe2e15fe	-0.17000577
210	0x3cad396e	0.021145549
211	0x3f7dcb39	0.9913822
212	0xbf17218f	-0.5903558
213	0xbf3c7b65	-0.73625785
214	0xbec70ee3	-0.38878545
215	0xbe06e234	-0.13172227
216	0xbd8b661f	-0.068065874
217	0x3f4e1c81	0.80512244
218	0x3f3a5b75	0.727958
219	0x3e6aa29f	0.22913598
220	0x3f0b5879	0.54431874
221	0xbf00d602	-0.5032655
222	0xbf543fd0	-0.8290987
223	0xbf13e1f7	-0.5776667
224	0x3dfb20b6	0.122620985
225	0x3f5a8de8	0.8537278
226	0xbf212ab3	-0.6295578
227	0xbebdb3f8	-0.37051368
228	0x3f2f07f7	0.6837153
229	0x3ffb6b63	1.9642147
230	0x3f252323	0.6450674
231	0xbec4c499	-0.38431242
232	0xbf1db782	-0.61608136
233	0x3d8ee5e0	0.06977439
234	0x3e0d5dbe	0.13805291
235	0xbdfaf877	-0.12254422
236	0xbf6171a0	-0.88064003
237	0xbf4bec73	-0.7965767
238	0xbf789658	-0.97104406
239	0xbf187b03	-0.595627
240	0xbe51f314	-0.20502883
241	0xbef3bd04	-0.47605145
242	0xbf6bdb06	-0.9213108
243	0xbfa361eb	-1.2764257
244	0xbf1ace4a	-0.6047102
245	0x3e1fd7ff	0.1560974
246	0xbf4d76f4	-0.80259633
247	0xbf891d1d	-1.071201
248	0xbf6aa25f	-0.9165401
249	0xbf8bd4dc	-1.0924335
250	0xbd7c0db8	-0.06153652
251	0xbe1f274f	-0.15542339
252	0xbe7f64e8	-0.24940836
253	0xbf70efda	-0.94115984
254	0xbf73d53d	-0.9524725
255	0xbe016d3f	-0.1263933

conv_layers.0.bias f4 [6]
0	0xbef36d73	-0.4754444
1	0xbf9bbb49	-1.216653
2	0xbfd01758	-1.6257124
3	0xbdbae654	-0.09125963
4	0xc00fb2ca	-2.2452874
5	0xbff66201	-1.9248658

conv_layers.1.weight f4 [20, 6, 5, 5]
0	0xbea01031	-0.31262353
1	0xbe0a30ab	-0.13495128
2	0xbe81ef5b	-0.25377926
3	0x3dbbcff4	0.09170523
4	0x3ebf97b1	0.3742042
5	0xbe5eda25	-0.21762903
6	0xbd18404b	-0.03717069
7	0xbe7ac3c8	-0.24488747
8	0xbe41eb44	-0.18937403
9	0xbde76745	-0.11298994
10	0x3d0e1c34	0.034694865
11	0x3e6e32ed	0.23261614
12	0xbf0dfc3e	-0.55463016
13	0xbe57e1d3	-0.21082239
14	0xbe32a4ab	-0.17445628
15	0xbe3a456c	-0.18190545
16	0xbec4e1cf	-0.38453528
17	0x3c6d1cae	0.01447217
18	0x3f0ad200	0.54226685
19	0x3ee7967e	0.45232004
20	0xbeb659b2	-0.35615307
21	0x3e3b5413	0.1829379
22	0x3e766d43	0.24065118
23	0xbd8c9cd3	-0.06865849
24	0x3e5c276a	0.2149941
25	0xbf48339c	-0.7820375
26	0xbef714d8	-0.4825809
27	0x3ec41c13	0.3830267
28	0x3e7d2061	0.24719383
29	0x3d9960f7	0.07489198
30	0xbf323f00	-0.6962738
31	0xbe5e7924	-0.21725899
32	0xbbd28a56	-0.0064251823
33	0x3e10a688	0.14126027
34	0xbf4a1e83	-0.7895281
35	0xbf02b373	-0.5105507
36	0x3ed131d6	0.40858334
37	0xbd7e67d9	-0.062110756
38	0xbef04f10	-0.4693532
39	0x3ec99b0f	0.39376113
40	0xbe151fda	-0.14562932
41	0xbb27ffad	-0.0025634572
42	0xbe3262be	-0.1742048
43	0xbf140d85	-0.5783313
44	0xbeeda2f0	-0.46413374
45	0x3f898e4e	1.0746553
46	0x3c358804	0.011079792
47	0xbf1e1c0d	-0.6176155
48	0xbf03af3c	-0.5143926
49	0x3e269f24	0.16271645
50	0x3d7651f0	0.060136735
51	0x3f5d1e38	0.86374235
52	0xbf124191	-0.57131296
53	0xbf3bf0a3	-0.7341406
54	0x3e696e8f	0.22796081
55	0xbf781457	-0.96906036
56	0xbf6bf59f	-0.92171663
57	0xbe3f484e	-0.18679926
58	0x3e97c49e	0.29642195
59	0xbdf3c8b9	-0.11903519
60	0xbebb693d	-0.36603728
61	0xbf3dc34d	-0.7412613
62	0xbddd2ec7	-0.10799938
63	0xbe0e173e	-0.13876054
64	0x3e8db369	0.27675942
65	0x3e1d7645	0.15377147
66	0xbef0881f	-0.46978852
67	0xbd512d35	-0.051068503
68	0xbf00b1cd	-0.502713
69	0xbe3bdf75	-0.18346961
70	0x3eb28dfb	0.34873948
71	0xbf58f9d9	-0.8475624
72	0xbcf54e3f	-0.029944537
73	0xbece6399	-0.40310362
74	0x3ee12855	0.43976083
75	0x3f0a196c	0.5394504
76	0xbf08bf96	-0.53417337
77	0xbf6dd351	-0.9290057
78	0xbf170782	-0.5899583
79	0xbd25674d	-0.04038172
80	0xbef54e35	-0.4791123
81	0xbf27b68d	-0.65512925
82	0xbf7346e3	-0.9503004
83	0x3f196ace	0.59928596
84	0x3f547b61	0.8300076
85	0xbf7c14f6	-0.98469484
86	0xbedb6f7f	-0.42858502
87	0xbe35b3f7	-0.17744432
88	0x3f220529	0.63289124
89	0x3eecfbd5	0.46285883
90	0xbf50dce7	-0.8158707
91	0x3ed9ecef	0.42563578
92	0x3f036930	0.5133238
93	0x3f188634	0.5957978
94	0xbd513474	-0.051075414
95	0xbe6aeef0	-0.2294271
96	0x3eddcc67	0.4332001
97	0x3eba837a	0.36428434
98	0x3e30072d	0.17190237
99	0xbcc39e21	-0.023879113
100	0x3eb15773	0.3463703
101	0xbdaf56a0	-0.08561444
102	0x3e0ee97d	0.13956256
103	0xbf682eec	-0.906966
104	0xbfb838d4	-1.4392343
105	0xbc0f8529	-0.008759775
106	0xbf34001d	-0.7031267
107	0xbf8d5f17	-1.1044644
108	0xbf02d831	-0.5111113
109	0xbf32249a	-0.695871
110	0xbf0ef304	-0.5583956
111	0xbee9bf2c	-0.45653665
112	0xbf7ff87c	-0.9998853
113	0x3ed5b16f	0.41736934
114	0x3eb937a9	0.36175278
115	0xbed8a401	-0.42312625
116	0xbf7d62de	-0.98978984
117	0xbf298c86	-0.66230047
118	0xbf029db2	-0.51021874
119	0x3ea990fb	0.33118424
120	0xbec3ef40	-0.3826847
121	0x3edb7c4d	0.4286827
122	0xbdbd507b	-0.09243866
123	0xbf09180f	-0.53552336
124	0x3d99457b	0.074839555
125	0x3ebc2615	0.36747804
126	0xbf82f377	-1.023055
127	0x3d6a6e05	0.05723383
128	0x3f1e6e0f	0.61886686
129	0x3f1f11c9	0.62136513
130	0xbe1e2b9e	-0.15446326
131	0x3f31f3c4	0.6951258
132	0x3e601f5e	0.21886966
133	0x3e576f89	0.21038641
134	0x3dbd0301	0.092290886
135	0x3f06d9b0	0.52675915
136	0x3f7a857f	0.9785995
137	0x3ea7f889	0.32806805
138	0xbf4f966e	-0.8108891
139	0x3f60d3c6	0.8782314
140	0x3f8ec768	1.1154604
141	0x3f0e49dc	0.5558145
142	0x3edcda25	0.4313518
143	0xbe17a304	-0.1480828
144	0xbd66d78c	-0.056357905
145	0xbf23de61	-0.640112
146	0x3f95eec2	1.1713488
147	0x3d468c19	0.04847345
148	0x3f355dbc	0.7084615
149	0x3da738e5	0.08165149
150	0x3e0effcd	0.13964768
151	0xbe5d14ed	-0.21590014
152	0xbe7acba4	-0.24491745
153	0x3eaa7465	0.33291927
154	0x3d81c0c6	0.06335597
155	0x3e56c350	0.20972943
156	0xbe0b2974	-0.13590032
157	0xbf0a77c3	-0.5408899
158	0x3de191d1	0.110141404
159	0x3e7f814c	0.24951667
160	0x3e27dcc2	0.16392806
161	0xbe95666d	-0.29179707
162	0xbec015ce	-0.37516636
163	0xbb408d0c	-0.0029380945
164	0x3c5896cd	0.013219547
165	0x3d93b8bc	0.0721297
166	0xbefb2db6	-0.49058312
167	0x3ce49c8a	0.027906675
168	0x3f03c5b4	0.51473546
169	0xbdd17cf0	-0.10228908
170	0x3e7d2901	0.24722673
171	0x3f3ca744	0.7369273
172	0x3f4a1230	0.78934
173	0xbe88e991	-0.26740697
174	0x3f03a1ff	0.5141906
175	0x3ee1f4be	0.44132036
176	0xbec4650e	-0.3835835
177	0xbf885eba	-1.0653908
178	0xbf854a9d	-1.0413395
179	0xbf36be47	-0.7138409
180	0x3dd28499	0.10279197
181	0x3f005162	0.5012418
182	0xbd352381	-0.044223312
183	0xbf445fff	-0.7670898
184	0xbf890823	-1.0705608
185	0x3ca623af	0.020280687
186	0x3e64b5bf	0.22334956
187	0xbc0b1e4d	-0.008491111
188	0x3dec6592	0.115428105
189	0xbe43c588	-0.19118321
190	0x3e4e2595	0.20131524
191	0x3e0a7960	0.13522863
192	0x3f0d4836	0.5518831
193	0xbf0f72c1	-0.56034476
194	0x3cf478ab	0.029842695
195	0xbf2f64e1	-0.68513304
196	0x3e5a78a8	0.21335089
197	0x3f399aef	0.72502035
198	0x3f3ac6bd	0.729595
199	0xbe2eb616	-0.17061648
200	0xbf8016e8	-1.000699
201	0xbf7af19a	-0.98024905
202	0xbf8f0006	-1.1171882
203	0xbf51cb41	-0.81950766
204	0xbf5d30cd	-0.8640259
205	0xbf5c99b7	-0.8617205
206	0xbfd6bca1	-1.6776315
207	0xbf5e687e	-0.8687819
208	0xbf7632c1	-0.96171194
209	0xbf9181be	-1.1367719
210	0xbeff3c17	-0.49850532
211	0xbfc64134	-1.5488648
212	0xbf811267	-1.0083741
213	0xbf8e6949	-1.112588
214	0xbf604402	-0.8760377
215	0xbf0c4c90	-0.54804325
216	0xbf0b7627	-0.5447716
217	0xbeb8e526	-0.36112326
218	0xbe97df7e	-0.29662699
219	0xbeca2957	-0.39484665
220	0xbc0838ba	-0.008314306
221	0x3f4cf164	0.8005583
222	0x3e40abeb	0.18815582
223	0xbef089d4	-0.46980155
224	0x3d06e737	0.032935347
225	0x3f0f1b66	0.5590118
226	0x3eabff55	0.3359324
227	0x3eaccd44	0.33750355
228	0xbe8243a7	-0.2544224
229	0xbea3f917	-0.32025978
230	0x3f00fcee	0.5038594
231	0xbdb71409	-0.08939368
232	0xbe327319	-0.17426719
233	0x3cad6f0f	0.02117112
234	0x3d9a5b1e	0.075369105
235	0x3e8979d1	0.2685075
236	0xbd95d9aa	-0.07316907
237	0xbe692b24	-0.22770363
238	0xbee5d385	-0.4488794
239	0xbf2eaf0d	-0.68235856
240	0x3ee46ee8	0.44615865
241	0x3ee77874	0.45209086
242	0xbe26bc50	-0.16282773
243	0xbe9f93b3	-0.31167373
244	0xbe1007ba	-0.14065447
245	0xbcf54c82	-0.029943708
246	0x3f0e1560	0.55501366
247	0xbe0172d3	-0.12641458
248	0xbea0f775	-0.31438795
249	0x3e98a15f	0.29810616
250	0x3eabe1c5	0.33570686
251	0xbe6d0a26	-0.23148403
252	0xbf123102	-0.5710603
253	0xbf423909	-0.7586828
254	0x3ea4e84e	0.32208484
255	0x3e25f693	0.16207342

conv_layers.1.bias f4 [20]
0	0x3ebb4032	0.36572415
1	0x409798a1	4.7373815
2	0xbf00fdcc	-0.50387263
3	0xc024fc0d	-2.577884
4	0xc0389481	-2.884064
5	0xc0334dce	-2.8016238
6	0x3f43d5b4	0.7649796
7	0xc04436db	-3.065848
8	0x3e7d1bde	0.24717662
9	0x4052c7e6	3.2934508
10	0xbfdb392b	-1.7126821
11	0x40896a61	4.2942357
12	0x3f31988b	0.6937339
13	0xbf8d69d6	-1.1047924
14	0x3e2ae563	0.16689067
15	0xc0e517d8	-7.1591606
16	0xbfdd0204	-1.726624
17	0xbfac42f4	-1.3457932
18	0xc0095f39	-2.146437
19	0xc00069ad	-2.00645

fc_layers.0.weight f4 [120, 500]
0	0xbefd0200	-0.49415588
1	0x3d6542b7	0.055971827
2	0xbe53e008	-0.2069093
3	0xbcd73d7f	-0.02627444
4	0x3ea7386f	0.32660243
5	0x3df2fc52	0.118645325
6	0xbe872216	-0.26393193
7	0xbdff89cc	-0.124774545
8	0x3dd45482	0.10367681
9	0xbd89f4ad	-0.06736121
10	0x3eeaf585	0.45890442
11	0xbe5df4c3	-0.216754
12	0x3e5247b1	0.2053516
13	0xbe31e2b2	-0.17371634
14	0x3e94f742	0.29094893
15	0x3b35ec01	0.0027759077
16	0x3dac9f02	0.08428766
17	0x3e3f43aa	0.18678156
18	0x3e9ac15e	0.30225652
19	0x3dec4946	0.11537413
20	0xbcf1e70d	-0.029529119
21	0x3e0c2d13	0.1368907
22	0x3e34512e	0.17609093
23	0x3dce4ddc	0.10073444
24	0x3ef2649b	0.4734238
25	0x3f56005a	0.83594286
26	0x3e4c20e6	0.19934425
27	0x3ee0bec9	0.43895558
28	0xbf03fe41	-0.51559836
29	0xbe39026b	-0.18067329
30	0x3f0ee8c6	0.55823934
31	0xbf005f31	-0.5014525
32	0xbd797237	-0.06089994
33	0x3d85288d	0.06501875
34	0x3eb2e6af	0.34941623
35	0x3e02a04d	0.12756462
36	0x3e4b2102	0.1983681
37	0xbf3330a3	-0.6999609
38	0xbe8e64e4	-0.27811348
39	0xbefce343	-0.49392137
40	0xbebcb1f0	-0.36854506
41	0xbea6d2a7	-0.3258259
42	0xbe98f67b	-0.2987555
43	0xbda8993b	-0.082323514
44	0xbf5dc3bf	-0.8662681
45	0xbe4ee0fb	-0.2020301
46	0x3d7a29e2	0.0610751
47	0x3c8e634a	0.01738133
48	0xbddb5362	-0.107092634
49	0xbee7f9cc	-0.45307767
50	0x3e8a7ee0	0.27049923
51	0xbf1d986f	-0.6156072
52	0xbe9bf92b	-0.30463538
53	0xbe418f4c	-0.1890232
54	0x3e9f5681	0.31120685
55	0xbebb48ba	-0.36578923
56	0xbdd69139	-0.10476918
57	0x3e90a041	0.28247264
58	0x3ec284f5	0.37992063
59	0xbf589d28	-0.846148
60	0xbe671494	-0.22566444
61	0x3e3a26ca	0.1817886
62	0xbef46904	-0.4773637
63	0xbf53d476	-0.82746065
64	0xbead2766	-0.3381912
65	0xbdd1f415	-0.10251633
66	0xbeacf741	-0.3378239
67	0xbf36ae80	-0.71360016
68	0x3d5d1520	0.053975224
69	0x3ecfb3b3	0.40566787
70	0xbcd31a68	-0.025769427
71	0xbca6e058	-0.020370647
72	0xbf22127d	-0.6330946
73	0xbefaaf19	-0.48961714
74	0xbec53f51	-0.3852487
75	0xbd8a8dfa	-0.06765361
76	0xbeffdf09	-0.4997485
77	0x3f00e3f4	0.5034783
78	0xbf06f67d	-0.5271986
79	0xbe8e4377	-0.27785847
80	0xbd960cca	-0.07326658
81	0xbcfbc37b	-0.03073286
82	0xbdaff8fe	-0.08592413
83	0x3e305958	0.17221582
84	0xbf74f389	-0.95684105
85	0x3e9bdd7c	0.30442417
86	0x3e4cfcde	0.20018336
87	0xbe4698f8	-0.1939429
88	0x3dcf4404	0.10120395
89	0x3f02b37a	0.5105511
90	0x3eae4282	0.34035116
91	0x3e7fa69d	0.24965902
92	0x3df5d681	0.12003804
93	0x3d42446d	0.047428537
94	0xbea8afd7	-0.32946655
95	0xbe120f29	-0.14263596
96	0x3eec2c65	0.4612762
97	0x3e8d85d2	0.2764116
98	0x3e494207	0.19654094
99	0xbdccd036	-0.100006506
100	0xbdf3e968	-0.11909753
101	0xbe9f21df	-0.3108053
102	0x3ed6431b	0.41848072
103	0xbdf2a26e	-0.11847387
104	0xbe191ab2	-0.1495159
105	0x3ed7d8d2	0.42157608
106	0x3d61ae1b	0.05509768
107	0x3f2d7389	0.6775442
108	0x3e872f3a	0.26403219
109	0x3e39feeb	0.1816365
110	0xbe9686a7	-0.29399607
111	0xbed0b64b	-0.40764078
112	0x3f025d72	0.50923836
113	0xbf019400	-0.50616455
114	0xbe869b37	-0.26290295
115	0xbdc581b9	-0.09643883
116	0xbe6463a6	-0.22303638
117	0x3f0464b8	0.51716185
118	0xbe1494dc	-0.1450991
119	0xbf098265	-0.5371459
120	0x3e26c0f4	0.16284543
121	0xbe984dda	-0.29746896
122	0xbe05fb58	-0.13084161
123	0xbdc94258	-0.09827107
124	0xbdfae7af	-0.122512214
125	0xbf2261be	-0.6343039
126	0x3f1049fb	0.56362885
127	0x3d5711e5	0.0525073
128	0x3e7e46c9	0.2483169
129	0xbe8e72e3	-0.27822027
130	0xbe0b356c	-0.13594598
131	0x3ea1997d	0.31562415
132	0xbf4e71b8	-0.8064227
133	0x3e98da3b	0.29853997
134	0x3ec44192	0.38331276
135	0xbf1e3849	-0.61804634
136	0x3e147313	0.14497022
137	0xbf0ae831	-0.54260546
138	0xbe21b11b	-0.15790217
139	0x3d24d3b8	0.040240973
140	0x3ea6c87c	0.32574832
141	0xbf2f6878	-0.6851878
142	0xbdf8f86f	-0.1215676
143	0xbf37f45a	-0.71857226
144	0xbe6faac0	-0.2340498
145	0xbd452954	-0.048135117
146	0xbf1ddc2a	-0.6166407
147	0xbf56a929	-0.8385187
148	0xbf30fda6	-0.69137037
149	0xbf0da7d9	-0.5533424
150	0xbd675e2d	-0.056486297
151	0xbe49d3d9	-0.1970972
152	0x3dc522a9	0.096257515
153	0xbedb91a6	-0.42884558
154	0xbdabea68	-0.08394319
155	0xbf008c80	-0.50214386
156	0xbe05ffd1	-0.13085867
157	0x3e8b13b8	0.27163482
158	0xbcdde7ef	-0.027088134
159	0x3f14c1f6	0.5810846
160	0xbf5a2828	-0.85217524
161	0x3e87a359	0.26491812
162	0xbe48d4b7	-0.19612394
163	0xbe463d4e	-0.19359323
164	0x3ea28921	0.31745246
165	0x3ef8175f	0.4845533
166	0xbde4ce4b	-0.1117216
167	0xbd5aa0af	-0.053375896
168	0x3eadc360	0.33938122
169	0x3df402ec	0.1191462
170	0x3e0a7d50	0.13524365
171	0xbe5ca474	-0.21547109
172	0x3ecbe30b	0.39821658
173	0x3eed0b23	0.4629756
174	0x3eb147c3	0.34625062
175	0xbeb3844a	-0.35061866
176	0x3d0552d7	0.032549705
177	0x3e4b194f	0.19833873
178	0x3e7d912e	0.24762413
179	0xbf1e9f3e	-0.61961734
180	0xbe7db227	-0.24774991
181	0xbf41ed02	-0.7575227
182	0xbf0b00db	-0.5429818
183	0xbecd6104	-0.4011308
184	0xbf282e58	-0.65695715
185	0xbefe65e6	-0.49687117
186	0xbea9c068	-0.33154607
187	0xbf4b2046	-0.7934612
188	0xbe822deb	-0.25425658
189	0xbe9dd419	-0.3082588
190	0xbeb2eaf5	-0.34944883
191	0x3e6aee60	0.22942495
192	0x3e0bb1eb	0.13642089
193	0xbe3b2027	-0.18273984
194	0xbe5a9b2a	-0.21348253
195	0x3e6f650b	0.23378389
196	0x3e333752	0.17501572
197	0x3db731bd	0.08945034
198	0xbc1655cd	-0.00917573
199	0xbea5148a	-0.32242233
200	0x3ca79289	0.020455616
201	0x3f2f4433	0.6846344
202	0xbe12265a	-0.14272442
203	0xbd2ecd27	-0.042676117
204	0x3c53fb85	0.012938385
205	0x3dba8ab3	0.09108486
206	0x3da1226e	0.07867895
207	0x3dafd40d	0.08585367
208	0x3e950049	0.2910178
209	0x3d36afe0	0.04460132
210	0xbd809b00	-0.06279564
211	0xbd99f5c4	-0.07517579
212	0xbe45b8de	-0.19308802
213	0x3c08e09a	0.00835433
214	0x3d3c8444	0.046024576
215	0xbf0fb29d	-0.5613192
216	0xbe8e1a21	-0.2775431
217	0xbecba9bf	-0.39777943
218	0xbeda92ab	-0.42690024
219	0xbebd6ccd	-0.3699707
220	0xbe26a531	-0.16273953
221	0x3eb122b3	0.34596786
222	0xbf14e5e4	-0.58163285
223	0x3d1420a5	0.036163945
224	0x3e010834	0.12600785
225	0xbe9b3503	-0.30313882
226	0xbf140ea5	-0.57834846
227	0xbdeae19d	-0.114688136
228	0xbf272a2b	-0.6529872
229	0xbd3013dc	-0.04298769
230	0xbd907a63	-0.070545934
231	0xbcd86f4e	-0.026420262
232	0x3ca55e50	0.020186573
233	0x3eb9d73c	0.36297023
234	0xbe014b76	-0.12626442
235	0x3d9cca61	0.07655788
236	0x3c5f1858	0.013616644
237	0xbe9ace7d	-0.30235663
238	0xbe48570e	-0.19564459
239	0xbe48be65	-0.1960388
240	0xbe8748ab	-0.2642263
241	0xbdafd4b7	-0.08585494
242	0x3df37aa8	0.11888629
243	0xbdc9e045	-0.09857229
244	0xbf0f76be	-0.5604056
245	0xbc7bf697	-0.015378616
246	0x3eae9dc8	0.34104753
247	0xbf034969	-0.5128389
248	0xbf0276ab	-0.5096232
249	0xbf242537	-0.64119285
250	0x3ea5367f	0.3226814
251	0x3b3685f4	0.0027850838
252	0xbe41ab02	-0.1891289
253	0xbe9994f2	-0.2999645
254	0x3e53c4f6	0.20680603
255	0xbe9d511b	-0.3072594

fc_layers.0.bias f4 [120]
0	0x3f20bf3a	0.6279179
1	0xbe9a5537	-0.3014314
2	0x3cbd35c7	0.023096932
3	0xbe4271b6	-0.1898869
4	0xbf2b100a	-0.6682135
5	0xbe48f916	-0.19626269
6	0xbe84f268	-0.2596619
7	0x3efd61f3	0.49488792
8	0x3f07a1f4	0.52981496
9	0xbe154a4b	-0.14579122
10	0xbd1d4a62	-0.038401015
11	0xbf2316fd	-0.6370695
12	0xbeb4753e	-0.352457
13	0xbdfd39b4	-0.123645216
14	0xbf430a24	-0.7618735
15	0xbf16f6ed	-0.5897053
16	0x3ea6c207	0.32569906
17	0xbec080a1	-0.37598136
18	0x3ed2ee41	0.41197398
19	0x3edc8380	0.43069077
20	0xbebbd600	-0.36686707
21	0xbe8cb595	-0.27482286
22	0x3ef6d408	0.48208642
23	0xbee827fb	-0.45343003
24	0xbe800cfe	-0.25009912
25	0x3ecc5414	0.39907897
26	0xbf0ec9c7	-0.5577664
27	0xbdc121a8	-0.094302475
28	0x3e883e3c	0.2660998
29	0xbe0c2602	-0.13686374
30	0xbe362b6c	-0.17790002
31	0xbf687833	-0.9080841
32	0x3f9043d2	1.1270697
33	0xbeaf14fa	-0.3419569
34	0x3e85ce0b	0.2613376
35	0x3f206fdb	0.6267068
36	0x3e23e89d	0.16006704
37	0xbf06f970	-0.5272436
38	0xbdf61262	-0.12015225
39	0x3f506bb8	0.81414366
40	0x3f4073d9	0.7517677
41	0x3e8eeefb	0.27916703
42	0xbf02ad5a	-0.51045763
43	0xbdd866d9	-0.10566492
44	0xbeb514f1	-0.3536754
45	0xbe967c72	-0.2939182
46	0x3f49ddf1	0.7885428
47	0xbe2f7239	-0.17133416
48	0xbf091c41	-0.5355874
49	0x3efc1363	0.4923354
50	0xbe737a32	-0.23777083
51	0xbdd2fca7	-0.10302096
52	0xbf44f727	-0.76939625
53	0x3f24570e	0.64195335
54	0x3e9d2953	0.3069559
55	0x3e0aa24e	0.13538477
56	0x3e915f35	0.2839295
57	0xbf0fe641	-0.56210715
58	0xbdcb3e42	-0.09923984
59	0x3e194dd9	0.14971103
60	0x3e1cd9e7	0.15317498
61	0x3ee2076d	0.4414629
62	0x3e75a80e	0.23989889
63	0x3da9b30c	0.082861036
64	0x3df7f3f1	0.12107075
65	0xbe7b5749	-0.24545015
66	0x3b200d02	0.0024421816
67	0xbdf7ee7e	-0.12106036
68	0x3ed7395b	0.42035946
69	0xbe16015d	-0.14648958
70	0xbf928dcb	-1.1449522
71	0xbe2cdd4b	-0.16881292
72	0xbee035bd	-0.43791
73	0x3cedbbf0	0.02902028
74	0x3c338122	0.010956081
75	0xbefafe5b	-0.49022183
76	0xbeb2efdf	-0.34948632
77	0xbd16eea0	-0.036848664
78	0x3f170a2f	0.58999914
79	0x3ee422ea	0.44557887
80	0x3e03ad17	0.12858997
81	0x3e87fd16	0.26560277
82	0x3f1a38f4	0.60243154
83	0xbeec102d	-0.4610609
84	0xbd034ef6	-0.032057725
85	0x3e59a15b	0.21252958
86	0xbe85e365	-0.2615005
87	0xbf1ac3b3	-0.60454863
88	0x3ec474f2	0.38370472
89	0xbd7781e4	-0.060426608
90	0x3e4b0db9	0.19829454
91	0x3ee4443a	0.44583303
92	0xbd1ba1ee	-0.037996225
93	0xbe0db6c7	-0.13839255
94	0x3e1e9c57	0.15489326
95	0xbdddbf78	-0.108275354
96	0x3e0c96be	0.13729379
97	0xbec2fab7	-0.38081905
98	0xbdce7b0f	-0.10082065
99	0x3cffca42	0.031224374
100	0x3e086972	0.13321474
101	0xbe9226b4	-0.28545153
102	0x3e7dcb3c	0.24784559
103	0xbd3196c5	-0.043356676
104	0x3e9edfc3	0.31030092
105	0xbd9920b8	-0.07476944
106	0xbce5241a	-0.027971316
107	0xbf2a8d62	-0.66621983
108	0xbdbca386	-0.09210877
109	0xbf1e7272	-0.6189338
110	0xbed550e8	-0.4166329
111	0x3f80f66a	1.00752
112	0xbf42dc5f	-0.7611751
113	0x3da0ee71	0.07857979
114	0xbe8f1e4e	-0.27952808
115	0x3e191985	0.14951141
116	0xbe1ded87	-0.1542264
117	0x3e97724f	0.29579398
118	0x3be6a7e8	0.007039059
119	0xbe1285e5	-0.14308889

fc_layers.1.weight f4 [84, 120]
0	0xbe4f8a29	-0.20267548
1	0xbeb8eb9b	-0.36117253
2	0x3e0f333c	0.13984388
3	0x3eb8659e	0.36015028
4	0x3c141fc1	0.009040774
5	0x3f060443	0.5235025
6	0x3cade562	0.021227542
7	0xbf526422	-0.8218404
8	0xbe5bf746	-0.21481046
9	0xbed6b831	-0.41937402
10	0x3e1a73d6	0.1508325
11	0x3d8ec449	0.06971032
12	0xbe9a4577	-0.30131122
13	0xbe301d66	-0.17198715
14	0xbe9c89fa	-0.30574018
15	0xbd201627	-0.039083626
16	0xbf1b9d32	-0.60786736
17	0xbde1e785	-0.11030487
18	0xbef5d1bd	-0.4801158
19	0xbe5e027a	-0.21680632
20	0xbdd94c9c	-0.10610315
21	0xbf0c510b	-0.5481116
22	0xbe9ba9ef	-0.30403087
23	0xbe6d7a95	-0.23191293
24	0x3e404d8d	0.18779583
25	0xbe88ff67	-0.26757357
26	0xbedfc72c	-0.43706644
27	0xbdca6ccd	-0.09884033
28	0x3e311af1	0.17295434
29	0xbf107cb7	-0.564403
30	0x3cf65b1e	0.030072745
31	0x3ec72bd0	0.38900614
32	0xbeeea327	-0.4660885
33	0x3de72ff3	0.112884425
34	0xbf0db1d2	-0.5534946
35	0xbe6f7852	-0.23385742
36	0xbe9b36ee	-0.30315346
37	0x3e8b0e17	0.27159187
38	0xbf0903c5	-0.53521377
39	0xbec1e851	-0.37872556
40	0xbdc8d24e	-0.098057374
41	0xbf27d372	-0.65557015
42	0xbec050cd	-0.37561646
43	0x3cf79133	0.030220604
44	0xbc2742af	-0.01020877
45	0x3e65d799	0.22445525
46	0xbcfb054a	-0.03064217
47	0x3e01aa98	0.12662733
48	0xbe81b149	-0.2533057
49	0xbe492d42	-0.1964617
50	0x3e41d429	0.18928589
51	0x3e3e2683	0.18569379
52	0xbcae78c1	-0.021297814
53	0xbeeafba3	-0.4589511
54	0xbea6686c	-0.32501543
55	0xbd9e940c	-0.077430815
56	0xbea12e15	-0.3148047
57	0xbdb18744	-0.08668378
58	0xbe5e7c55	-0.21727116
59	0xbedbdb84	-0.42940915
60	0x3d11c91f	0.035592195
61	0x3d598157	0.053101864
62	0xbe8c93e8	-0.27456594
63	0xbed4b622	-0.41545206
64	0xbebd3690	-0.3695569
65	0xbdef757a	-0.11692329
66	0xbf0370fa	-0.51344264
67	0xbdc4cb4e	-0.0960909
68	0x3c616b4d	0.013758493
69	0x3eb266b4	0.3484398
70	0xbe83d7e1	-0.2575064
71	0xbecae487	-0.39627478
72	0x3d8f4c30	0.069969535
73	0xbe3446ce	-0.17605135
74	0xb97dab17	-0.00024191696
75	0xbec11210	-0.37709093
76	0xbe2cf11a	-0.16888848
77	0x3d9d84ab	0.0769132
78	0xbe599589	-0.2124845
79	0x3d13320c	0.0359364
80	0xbe3c2c33	-0.18376236
81	0xbed9a2d6	-0.42507046
82	0xbee3ce05	-0.44493118
83	0xbee9477e	-0.45562357
84	0xbe154a7c	-0.14579195
85	0xbc19113a	-0.009342486
86	0x3e4987ed	0.19680758
87	0xbdbd5115	-0.09243981
88	0xbec385ba	-0.38187963
89	0x3e094da8	0.1340853
90	0x3e62a3ec	0.22132844
91	0xbeb659c4	-0.3561536
92	0x3d501bcb	0.050807755
93	0xbc075e63	-0.00826225
94	0x3da4c55f	0.08045458
95	0x3e96a348	0.2942145
96	0xbdbe6ec6	-0.09298472
97	0xbd359ef6	-0.04434105
98	0xbcc12aba	-0.023579944
99	0xbdf01cee	-0.11724268
100	0xbe27736d	-0.16352625
101	0xbd5e27df	-0.054237243
102	0xbd8bf0e7	-0.06833058
103	0x3c8fdd9c	0.017561726
104	0xbe2502ef	-0.161144
105	0x3c908f2b	0.017646393
106	0xbdbfff85	-0.09374908
107	0x3df3a7e5	0.11897258
108	0xbdcd9992	-0.10039057
109	0x3e06d953	0.1316884
110	0xbea7fee8	-0.32811666
111	0xbed5221b	-0.41627583
112	0xbf0a8b2b	-0.54118603
113	0xbebf40e8	-0.37354207
114	0xbe6bb370	-0.23017669
115	0xbf57786f	-0.8416814
116	0xbec47376	-0.3836934
117	0x3ddad50b	0.10685166
118	0xbe7e2a39	-0.24820794
119	0xbeac134e	-0.33608478
120	0x3eff61c3	0.49879274
121	0xbe0bd107	-0.13653956
122	0xbf06b376	-0.52617586
123	0x3da36740	0.07978678
124	0xbdc8fb43	-0.09813549
125	0xbe84c94c	-0.25934827
126	0xbed0883f	-0.40728948
127	0xbe86c556	-0.2632243
128	0x3de7b03c	0.11312911
129	0xbe0f15a8	-0.13973105
130	0x3e5ee6f7	0.21767794
131	0xbe3780b9	-0.17920198
132	0x3cd8432f	0.026399223
133	0xbcfee9d0	-0.03111735
134	0xbec4ae94	-0.38414443
135	0xbf171dee	-0.59030044
136	0xbe3b4452	-0.18287781
137	0xbe83fac6	-0.25777262
138	0xbeb31404	-0.34976208
139	0x3e914bd7	0.28378174
140	0xbeba62d1	-0.36403516
141	0xbd2da993	-0.042398047
142	0x3e8c34d3	0.27384052
143	0xbde455a0	-0.11149144
144	0xbe82ffde	-0.25585836
145	0xbe03a0cd	-0.1285431
146	0xbe34704f	-0.17620967
147	0xbebd487b	-0.3696936
148	0xbdefd6c4	-0.11710885
149	0xbf09bb05	-0.53800994
150	0x3ea23219	0.31678846
151	0xbf47aa65	-0.77994376
152	0xbe2cdeeb	-0.16881911
153	0xbc3a5af7	-0.011374227
154	0x3d16ef32	0.03684921
155	0x3dbcd4de	0.09220289
156	0x3dc899c2	0.09794952
157	0xbe9eb7e6	-0.30999678
158	0xbe029b3f	-0.12754534
159	0xbe4d6707	-0.20058833
160	0x3df8480f	0.12123119
161	0x3f0e3021	0.5554219
162	0xbe164d36	-0.14677891
163	0xbef441fb	-0.4770659
164	0xbf3e6f7f	-0.7438888
165	0xbe1d596a	-0.1536614
166	0xbdaea151	-0.085268624
167	0xbeaa7871	-0.33295015
168	0x3e5b6456	0.21424994
169	0xbdb9bb8c	-0.09068975
170	0x3d9b6357	0.07587307
171	0xbc9b9b7e	-0.018995043
172	0xbe5deed3	-0.21673135
173	0x3daff8c2	0.08592369
174	0xbed3a466	-0.41336364
175	0xbe503fb2	-0.20336798
176	0xbd4a67c0	-0.04941535
177	0xbe759608	-0.23983014
178	0xbd9a2a80	-0.075276375
179	0xbe5cff29	-0.21581711
180	0xbee73205	-0.4515535
181	0x3e33a634	0.1754387
182	0xbecee258	-0.40407062
183	0x3dfdcdaf	0.12392747
184	0x3e2fa97c	0.17154497
185	0xbe99ea20	-0.30061436
186	0x3d7a3672	0.06108708
187	0x3d634d9f	0.055493947
188	0xbe68cee2	-0.2273517
189	0xbeb7d9f0	-0.3590846
190	0xbf1039d1	-0.5633822
191	0xbe9b5e5f	-0.30345437
192	0xbef17042	-0.47155958
193	0xbd9bda43	-0.076099895
194	0xbed3f6d0	-0.4139924
195	0xbef69892	-0.48163277
196	0xbe962da1	-0.29331687
197	0xbec2b5fe	-0.38029474
198	0x3cc8d018	0.02451329
199	0xbe146700	-0.14492416
200	0xbe865586	-0.26237124
201	0xbead92ce	-0.33901066
202	0xbf0d8f83	-0.55297107
203	0xbdd65125	-0.10464696
204	0xbed4bd5c	-0.4155072
205	0xbe371aab	-0.17881267
206	0xbefa6509	-0.4890521
207	0xbe89c983	-0.26911554
208	0x3ee23d47	0.44187376
209	0xbe5e3e46	-0.21703443
210	0xbd8c80f6	-0.06860535
211	0xbc01e9dc	-0.007929292
212	0xbdc031ba	-0.093844846
213	0x3eaa2413	0.33230647
214	0xbdd3a3e9	-0.10333998
215	0xbf0cb821	-0.5496846
216	0xbd9188ad	-0.07106147
217	0xbf193a1b	-0.59854287
218	0x3e593d0e	0.21214697
219	0xbf009184	-0.5022204
220	0xbd30bc30	-0.04314822
221	0xbddb995a	-0.10722609
222	0xbcdde2a2	-0.027085606
223	0xbd9a39c0	-0.07530546
224	0x3e0a8341	0.13526632
225	0x3c04fa52	0.008116322
226	0x3d657cf2	0.05602736
227	0xbe1a6c95	-0.15080483
228	0xbccef82a	-0.025264818
229	0xbea614b1	-0.3243766
230	0xbd67cce3	-0.05659188
231	0xbeb9179b	-0.36150822
232	0xbd2460b5	-0.04013129
233	0xbec7205f	-0.38891885
234	0xbc0251fd	-0.007954118
235	0xbe61aeba	-0.22039309
236	0xbe966fae	-0.2938208
237	0xbefefd0d	-0.49802437
238	0xbd06bfa5	-0.03289761
239	0xbe98c998	-0.29841304
240	0xbd6854dc	-0.056721553
241	0xbe60740c	-0.21919268
242	0xbe1c9120	-0.15289736
243	0xbf16da27	-0.58926624
244	0xbf1a63d1	-0.6030856
245	0x3dcf7d59	0.1013133
246	0xbed1d408	-0.4098208
247	0xbdfc3b1f	-0.12315964
248	0x3db041eb	0.08606323
249	0xbf21c4b0	-0.63190746
250	0xbe06f4ae	-0.13179275
251	0xbe8e4e80	-0.27794266
252	0x3d934c65	0.071923055
253	0xbea6e9dd	-0.326003
254	0xbd885717	-0.06657236
255	0x3e457f4b	0.1928684

fc_layers.1.bias f4 [84]
0	0xbf96a3b2	-1.1768706
1	0x3dff14e4	0.124551564
2	0xbf0b4eac	-0.5441692
3	0x3f0d3181	0.5515366
4	0xbee6f035	-0.45105138
5	0xbe63f428	-0.22261107
6	0xbf04fafa	-0.5194546
7	0xbefee10c	-0.49781072
8	0x3ef08106	0.46973437
9	0x3f5e7cac	0.86908984
10	0xbe8986e8	-0.26860738
11	0x3d14bb9e	0.03631174
12	0xbecdc0d6	-0.40186185
13	0x3fb1c1c2	1.3887255
14	0x3f952fc6	1.1655204
15	0x3fa888a1	1.3166696
16	0x3e216f52	0.15765122
17	0x3d2c3174	0.04203935
18	0xbe2c91ef	-0.16852544
19	0x3ef28778	0.4736898
20	0xbfb584d9	-1.4181167
21	0xbec8e41b	-0.3923653
22	0xbf18966a	-0.59604514
23	0xbf6860df	-0.90772814
24	0x3ec03deb	0.3754724
25	0xbeee40ba	-0.46533757
26	0xbf050339	-0.5195804
27	0xbdfbc3a2	-0.122931734
28	0xbf324114	-0.6963055
29	0x3e3fc9e5	0.1872936
30	0x3f6ab658	0.91684484
31	0x3f975b25	1.182469
32	0xbe9ae52c	-0.3025297
33	0x3f87d0e4	1.0610623
34	0x3fe8710a	1.8159497
35	0x3fdd0544	1.7267232
36	0xbeb849e9	-0.3599389
37	0xbf9d85b5	-1.2306429
38	0xbf2eb8e3	-0.68250865
39	0xbe4e60ec	-0.2015416
40	0x3f60e643	0.8785135
41	0x3fdd2163	1.7275814
42	0xbebc1a96	-0.36739033
43	0x3dd51ea7	0.10406237
44	0xbf135a8f	-0.57560056
45	0x3f7261d2	0.9468051
46	0xbd2834eb	-0.04106609
47	0xbe81ea72	-0.2537418
48	0xbf3d7608	-0.74008226
49	0x3ebfe9b9	0.37483004
50	0x3f1c1de0	0.60983086
51	0xbeffba4f	-0.4994683
52	0x3f261152	0.6487018
53	0xbf230f66	-0.6369537
54	0xbf7de593	-0.9917843
55	0xbe3fb570	-0.18721557
56	0x3ecde551	0.40214017
57	0xbe36d873	-0.17856006
58	0xbf0b460f	-0.54403776
59	0x3e354d82	0.17705348
60	0x40018826	2.0239348
61	0xbef8c80a	-0.48590118
62	0xbe83c4db	-0.25736126
63	0xbef166b3	-0.47148666
64	0xbf0ff831	-0.56238085
65	0x3fab405d	1.3379017
66	0xbf2da091	-0.6782313
67	0x3a9f437d	0.001215085
68	0xbede1b9c	-0.4338044
69	0x3e96d01e	0.29455656
70	0xbed61a5f	-0.41816995
71	0x3dbfb7b6	0.09361212
72	0x3ea27302	0.3172837
73	0xbb68b69c	-0.0035509234
74	0xbebae0f9	-0.36499766
75	0xbdc45a16	-0.09587495
76	0xbed70a1f	-0.4199991
77	0x3e791dfd	0.24327846
78	0xbfb11b0a	-1.3836377
79	0x3f2526e2	0.64512455
80	0xbf56998c	-0.83828044
81	0x3f86d34f	1.0533236
82	0xbea70c73	-0.32626686
83	0xbeea8d2d	-0.45810834

output_layer.weight f4 [10, 84]
0	0xbda0892c	-0.078386635
1	0x3a6b1687	0.00089678954
2	0x3e1d9629	0.15389313
3	0x3da13e04	0.07873157
4	0x3dfaac16	0.12239854
5	0x3de0ed12	0.109827176
6	0x3d3d079a	0.046149828
7	0x3e1b6a7d	0.15177341
8	0xbccc3a7e	-0.024930235
9	0xbd4eaa72	-0.050455518
10	0xbccc25b8	-0.02492033
11	0x3da1b8b4	0.078965575
12	0x3d24060b	0.040044826
13	0x3df96666	0.12177734
14	0xbdfd49a7	-0.12367564
15	0xbdc028c1	-0.09382773
16	0xbe4fb5ec	-0.20284241
17	0x3e63ebcf	0.22257923
18	0xbdfb55f2	-0.12272252
19	0x3cde97a4	0.027171917
20	0x3da4725a	0.08029623
21	0xbe008540	-0.12550831
22	0x3e5905ad	0.21193571
23	0x3e88fb3b	0.26754174
24	0xbdcda5f2	-0.10041417
25	0xbd7cbf6a	-0.061705984
26	0x3e8d48d2	0.2759462
27	0x3d266a81	0.040628914
28	0x3cfba689	0.030719059
29	0xbe634726	-0.2219511
30	0xbd19dd81	-0.03756476
31	0xbe09a8d1	-0.13443305
32	0x3c7e398f	0.015516653
33	0xbdcaf8d6	-0.09910743
34	0x3d0efaca	0.03490714
35	0xbda5d887	-0.0809794
36	0xbc0590cd	-0.008152199
37	0xbda87926	-0.08226232
38	0xbd95df0a	-0.07317932
39	0x3de0e02a	0.10980256
40	0xbb3f5b2e	-0.0029198634
41	0x3d1e2834	0.03861256
42	0x3cba7d3a	0.02276479
43	0xbcbf5da4	-0.023360081
44	0xbdd9c961	-0.10634113
45	0xbe3d9ce4	-0.1851688
46	0x3bb487fb	0.005509374
47	0x3d491a37	0.049097266
48	0x3e21a14c	0.15784186
49	0x3e35277f	0.17690848
50	0x3e22f6cd	0.1591446
51	0x3e8b6d8f	0.27232024
52	0xbd6b6a2e	-0.057474308
53	0x3c38bc07	0.011275298
54	0x3c344e81	0.011005045
55	0x3e4ec5ff	0.20192717
56	0x3e3f0070	0.1865251
57	0x3dd886a7	0.10572558
58	0x3dbe72e0	0.092992544
59	0xbdb2e319	-0.08734722
60	0xbdcea83f	-0.10090684
61	0x3e1efd98	0.15526426
62	0x3c3b4990	0.011431113
63	0xbd6b7e53	-0.05749352
64	0xbd5c8843	-0.053840887
65	0x3d27ed28	0.040997654
66	0x3dd721df	0.10504507
67	0xbd48f453	-0.04906113
68	0x3e8abf1e	0.27098936
69	0xbd28da35	-0.041223723
70	0x3e2f33ea	0.17109647
71	0xbc293a46	-0.010328835
72	0xbc9a125b	-0.01880758
73	0xbe1d9991	-0.15390612
74	0xbda28ba6	-0.07936792
75	0xbc390e6d	-0.011294943
76	0xbe392079	-0.18078794
77	0x3d929e1c	0.07159063
78	0xbdc13c68	-0.0943535
79	0x3d83b983	0.06431868
80	0x3b35ef3c	0.0027761003
81	0x3c7cde19	0.015433812
82	0xbcdbbc88	-0.026823297
83	0xbd81dae8	-0.06340581
84	0x3e218108	0.15771878
85	0x3af3a7d7	0.0018589449
86	0xbe2d65b5	-0.1693333
87	0xbcb5e49b	-0.022203734
88	0x3d96ce1e	0.073635325
89	0x3c984068	0.018585399
90	0x3c792427	0.015206373
91	0xbd9a0584	-0.07520583
92	0xbd781ddb	-0.060575347
93	0xbea364ad	-0.31912747
94	0x3ccbd843	0.024883395
95	0xbc2550cc	-0.010090064
96	0x3e1c2369	0.15247883
97	0x3dafe8c6	0.0858932
98	0xbd98bebb	-0.07458254
99	0xbe3d5455	-0.18489201
100	0x3d4bff60	0.04980409
101	0xbcb0ce2e	-0.02158269
102	0xbd1663b5	-0.03671618
103	0x3d770d76	0.06031557
104	0xbbbe5ea7	-0.0058096233
105	0xbd9e3871	-0.07725609
106	0xbd4ae08b	-0.049530547
107	0xbdc7aa86	-0.09749322
108	0xbd9d61f9	-0.076847024
109	0xbd3d7199	-0.046250913
110	0x3cda43af	0.026643602
111	0x3cef9e89	0.0292504
112	0x3e4919dd	0.19638772
113	0x3b5c4616	0.003361111
114	0xbd85647d	-0.06513307
115	0xbe27bfe6	-0.16381797
116	0x3e823c2d	0.25436535
117	0xbbea7c70	-0.0071559474
118	0xbe4c226b	-0.19935004
119	0xbe23d0a1	-0.15997554
120	0xbd83c957	-0.06434887
121	0x3cc03355	0.023461977
122	0x3e74ae04	0.23894507
123	0xbd589a86	-0.05288174
124	0xbca2cc9d	-0.019872958
125	0xbddc5395	-0.107581295
126	0x3e50ccd3	0.20390634
127	0xbe1607b5	-0.14651377
128	0x3ddc2655	0.10749499
129	0x3cab44bc	0.020906799
130	0x3d89d2ad	0.06729636
131	0xbc53e453	-0.012932855
132	0x3c845b01	0.016156675
133	0xbce3e350	-0.027818352
134	0xbe894b14	-0.26815093
135	0x3dda32d5	0.10654227
136	0xbe09e813	-0.13467436
137	0x3d860cea	0.06545432
138	0x3e2895ab	0.16463344
139	0xbd70f1c6	-0.058824323
140	0x3e76bda1	0.24095775
141	0x3ea01122	0.3126307
142	0xbe1202a7	-0.14258824
143	0xbdcea1d4	-0.1008946
144	0xbea13c09	-0.31491116
145	0xbca8558e	-0.020548608
146	0x3e32c4be	0.17457864
147	0xbd04613d	-0.032319296
148	0xbd06df01	-0.032927517
149	0xbd84b43c	-0.064796895
150	0x3e87bca8	0.2651112
151	0xbd33c506	-0.043889068
152	0xbe8b2439	-0.27176073
153	0xbd83f1ae	-0.06442581
154	0xbe261e0d	-0.16222401
155	0x3d50bcca	0.050961293
156	0xbc461109	-0.012089022
157	0xbdac72db	-0.084203444
158	0x3a8afc0d	0.0010603681
159	0xbd7cd209	-0.061723743
160	0xbe226a75	-0.15860923
161	0xbe578c35	-0.21049578
162	0xbd09f7c0	-0.03368354
163	0x3d3b3d78	0.045712918
164	0x3e383c3e	0.1799173
165	0x3c00d1bb	0.007862504
166	0x3e85edb1	0.26157907
167	0xbd89b4d0	-0.0672394
168	0x3dcb6c0c	0.09932718
169	0xbd563374	-0.052295163
170	0x3e566a23	0.20938925
171	0x3c478283	0.0121771125
172	0xbdff01c5	-0.124515094
173	0x3d8a834c	0.06763324
174	0xbd87fbf6	-0.066398546
175	0x3d171f73	0.036895227
176	0x3d842617	0.064525776
177	0x3db85f39	0.09002537
178	0x3dd33c24	0.10314205
179	0x3dd0a926	0.101885125
180	0xbd2faa10	-0.042886794
181	0x3e0e480b	0.1389467
182	0x3e55f80f	0.20895408
183	0x3cd9541b	0.026529362
184	0xbd085c56	-0.033291183
185	0xbb5b8c75	-0.0033500467
186	0x3e34c78e	0.17654249
187	0xbc4fdb7f	-0.012686609
188	0x3e494093	0.1965354
189	0x3e5f4c9e	0.21806571
190	0x3cb2abaf	0.02181038
191	0x3da09263	0.07840421
192	0x3e742484	0.23842055
193	0x3ea214d1	0.31656507
194	0xbd9b3ec2	-0.075803295
195	0x3d014784	0.031562343
196	0xbdaf710c	-0.08566484
197	0xbd00a316	-0.03140553
198	0x3e43c108	0.19116604
199	0x3cbb3fc5	0.022857556
200	0xbd06c996	-0.03290709
201	0xbd8e26dc	-0.069410056
202	0xbcc7b713	-0.024379289
203	0x3d2ae4f4	0.041722253
204	0xbd3cfbb7	-0.04613849
205	0xbd83a944	-0.06428769
206	0x3d0d7488	0.03453496
207	0x3ce53cf5	0.027983168
208	0x3d6fea10	0.05857283
209	0xbc255cae	-0.010092897
210	0x3d90f725	0.07078389
211	0xbd9d4896	-0.0767986
212	0x3e1bd288	0.1521703
213	0xbdc12a63	-0.09431913
214	0xbd2104b9	-0.039311145
215	0xbccb9b8f	-0.02485445
216	0x3c66e386	0.014092332
217	0x3d113669	0.03545228
218	0x3e700dcd	0.23442765
219	0xbcc146e9	-0.023593383
220	0x3d22d7f9	0.03975675
221	0xbd2fe99d	-0.0429474
222	0xbdc4426b	-0.09582981
223	0x3da61787	0.08109956
224	0xbe32b6f1	-0.17452599
225	0xbdeb7d24	-0.11498478
226	0xbc7ed60a	-0.015553961
227	0xbc58d7ff	-0.013235091
228	0x3d103ab4	0.035212234
229	0x3d02d712	0.03194339
230	0xbd897fbf	-0.06713819
231	0xbe0c8d17	-0.13725697
232	0x3e8ad154	0.2711283
233	0xbd65b257	-0.05607828
234	0xbbc18ecb	-0.005906915
235	0x3d906392	0.070502415
236	0xbccab198	-0.024742886
237	0xbe1c237c	-0.15247911
238	0x3e6e6101	0.23279192
239	0xbdbb8bbc	-0.091575116
240	0x3cc1050a	0.023561973
241	0xbdb211e2	-0.08694817
242	0xbded54a7	-0.11588412
243	0xbcd35352	-0.025796566
244	0x3dcf3646	0.10117774
245	0x3d563673	0.05229802
246	0x3dbea759	0.09309263
247	0x3dbac3f7	0.091194086
248	0xbe391638	-0.18074882
249	0xbcc0caec	-0.02353426
250	0xbcae3c67	-0.021269036
251	0x3de1f772	0.110335246
252	0x3cbfe79f	0.023425875
253	0x3dc61d6e	0.09673582
254	0xbcf3e0c4	-0.029770263
255	0xbdc54d5e	-0.09633897

output_layer.bias f4 [10]
0	0xbeca7d76	-0.39548844
1	0xbf8e83a2	-1.1133921
2	0xbd6676c0	-0.056265593
3	0x3f7fa362	0.9985868
4	0x3ed2bee3	0.4116126
5	0x3ecc61d0	0.39918375
6	0xbccddfd7	-0.02513115
7	0xbeb777cd	-0.35833588
8	0xbdcccff0	-0.100005984
9	0xbc688c06	-0.01419354
