Lab1/model/model_CIFAR10/conv_params_13_layers.pth (torch, 127102 bytes, 16 tensors)

conv_layers.0.weight f4 [6, 3, 2, 2]
000000 df 82 a0 be f3 aa 6f 3f d8 67 0f be 8e f3 91 be
       -0.31349847 0.9362022 -0.14004457 -0.2850613
000010 8b 88 ed bf 5b f9 84 bf fb c8 a9 be 6d 06 87 bf
       -1.8557295 -1.0388597 -0.33161148 -1.0548836
000020 73 69 1a 3f 25 ef fb 3f e5 46 a3 bf fe d3 22 bf
       0.6031715 1.9682356 -1.275601 -0.63604724
000030 a5 d7 90 3f 39 06 c5 3f 26 20 9a 3f 15 bd 90 3f
       1.131581 1.5392524 1.2041061 1.1307703
000040 35 9f c9 bc ac ab 02 bf cf 18 90 bf 92 9e 81 bf
       -0.024612049 -0.510432 -1.1257571 -1.0126517
000050 36 fb 67 3e 03 61 b2 bf 7b 4b 81 3d 9a cc 60 bf
       0.22654423 -1.3935856 0.06313225 -0.878122
000060 96 00 9b 3f 5b 23 31 bf 72 bc a5 3e 66 4b 68 bf
       1.2109554 -0.69194573 0.32370335 -0.9074005
000070 63 6a 2a 40 29 99 10 c0 ed b0 5f 3f 64 74 a8 bf
       2.6627433 -2.2593482 0.8737934 -1.316052
000080 43 f6 b2 3f 39 ea d7 bf d6 83 4b 3f be af 74 bf
       1.3981403 -1.6868354 0.7949804 -0.9558066
000090 cb bf d0 3f 88 6e 8c 3e 9e 26 12 c0 d2 a4 9a bf
       1.630853 0.2742808 -2.283607 -1.2081549
0000a0 fe 7b d7 3f c0 86 ea 3f 31 09 ca bf 83 02 ff bf
       1.6834714 1.8322372 -1.5784055 -1.9922642
0000b0 31 2a c4 bd a6 67 14 be de 33 42 3f 4e 53 07 3f
       -0.0957836 -0.14492664 0.75860393 0.5286149
0000c0 54 59 49 3f 19 c4 8c 3e 5f 37 35 be 7d 8c 6b bf
       0.7865193 0.2749336 -0.17696904 -0.92011243
0000d0 80 9f 96 be 6f f7 e7 be f7 0b 38 bf c7 55 01 bf
       -0.29418564 -0.45305964 -0.71893257 -0.5052151
0000e0 a5 5e 08 3f 2f c2 23 3f 1b a4 58 3f 4d 95 f6 3f
       0.53269416 0.63968176 0.84625405 1.9264313
0000f0 57 ab f3 be ae 69 a3 3f 2e d7 50 bf 60 93 87 3f
       -0.4759166 1.2766626 -0.8157834 1.059185
000100 08 0e 16 c0 42 f8 8e 3f c3 79 f0 bf e6 7a 11 3f
       -2.3446064 1.1169512 -1.8787159 0.56828153
000110 b6 d7 8f be 97 e9 5d 3f 4a eb 8c be 30 28 3a 3f
       -0.28094262 0.86684555 -0.2752326 0.7271757

conv_layers.0.bias f4 [6]
000000 80 ab 91 bf 78 b4 59 bf 00 74 0f be 31 61 94 3e
       -1.1380463 -0.85041 -0.14009094 0.289804
000010 61 6e 1e 3f fa 49 89 bd
       0.61887175 -0.06703563

conv_layers.1.weight f4 [16, 6, 2, 2]
000000 f5 b0 de 3e 8d c7 c5 be 34 a2 8c be 85 49 c4 3b
       0.43494383 -0.38628808 -0.274675 0.0059902095
000010 1d 05 e7 bd 44 dd 6e bf b3 fc e8 be ca 6f b8 3f
       -0.11280272 -0.93306375 -0.45505294 1.4409115
000020 76 88 86 3f a9 af 15 bf 6f b0 9f bf 78 98 b2 3d
       1.0510395 -0.5847116 -1.2475718 0.08720487
000030 47 20 8c 3f d2 1e 8a bf 63 27 a0 bf dc 90 49 3f
       1.094735 -1.0790656 -1.251202 0.7873666
000040 08 99 0f c0 88 c3 9c 3e 7f 88 63 bd 65 ac e6 3f
       -2.2437153 0.30617929 -0.055550095 1.8021361
000050 e1 66 53 bf cc fa a7 3f c1 0f 5d 3f 8d 73 c3 bf
       -0.82578856 1.3123412 0.86352164 -1.5269638
000060 61 14 5e 3f ab 37 1c 3f 08 3a 0c bf b9 c6 ac 3f
       0.86749846 0.6102244 -0.5477605 1.3498145
000070 c8 d8 90 3e 54 49 f6 3f e9 95 47 c0 08 3c 84 bf
       0.2829039 1.9241128 -3.1185248 -1.033082
000080 e5 11 d7 be 24 1f 1c bf 98 71 e6 3e e5 ed f5 3d
       -0.4200584 -0.60985017 0.4500854 0.120082654
000090 e3 0a ac 3d b0 e3 e2 bd f7 95 30 be 90 4d e6 3e
       0.08400514 -0.11078584 -0.17244707 0.4498105
0000a0 2a e5 db be 83 27 72 3d 88 d9 83 3f 23 c5 8d bf
       -0.42948276 0.059119713 1.030076 -1.1075786
0000b0 50 c5 19 3d e4 97 05 3f 40 51 d9 bd 31 53 1f 3e
       0.037541687 0.5218489 -0.106112 0.15559079
0000c0 79 af b4 be cd aa 1b bf 16 d5 98 be ed 93 62 3e
       -0.35290125 -0.60807496 -0.29850072 0.22126742
0000d0 97 4e bc bf 35 5d d8 bf 53 84 a8 3f b7 5c 1b 40
       -1.4711484 -1.6903445 1.3165382 2.4275339
0000e0 a2 86 60 be 06 8f fa bc 33 c0 67 bf 14 25 9b bf
       -0.21926358 -0.030585777 -0.9052765 -1.212069
0000f0 d6 f4 cf 3e 38 82 49 3f b1 65 26 3f 31 6f 97 3e
       0.40616482 0.78714323 0.6499892 0.2957702
000100 5c 33 89 3e cd 1c e4 be d6 44 8b 3f 84 a3 b3 3e
       0.26796997 -0.44553223 1.0880382 0.3508569
000110 7f 1c dd bd 9d 96 4b 3e 2c e9 0c bf a5 fa 26 bf
       -0.10796451 0.19881673 -0.5504329 -0.65226203
000120 cc 86 84 3f 6e 38 b6 3e 68 2d 86 bf 42 2c c0 bf
       1.0353637 0.35589927 -1.0482607 -1.5013506
000130 f7 d0 3d 3f c5 47 a8 bf 94 84 89 be 49 47 63 3f
       0.7414698 -1.3146902 -0.26858962 0.8878065
000140 a1 1d 79 bf 9f 99 a1 bf 1c dc a2 3f 0e 9e 85 3f
       -0.97310835 -1.2625006 1.2723422 1.043886
000150 40 48 48 bf a7 9a 8c 3d 8f 20 91 3f ae 61 4c bf
       -0.78235245 0.06865435 1.1338061 -0.7983655
000160 3b c9 12 c0 15 c6 2a bf 52 bc 8c 3f bb 0a d0 3f
       -2.2935321 -0.667085 1.0994971 1.6253275
000170 ee 00 ad 3c 8f 34 e2 3e 34 13 75 bf 3f 99 e4 bf
       0.021118607 0.44180724 -0.95732427 -1.7859267
000180 c1 c5 8e be 81 1a 48 3f d4 31 af bf 17 ef 06 3f
       -0.2788525 0.7816544 -1.3687081 0.5270857
000190 01 35 3a 3d d7 f7 cb be 1b 78 5a 3f da a1 eb be
       0.045460705 -0.39837524 0.85339516 -0.4602192
0001a0 cf 8f 3e 3f 70 66 1a bf 80 7d 10 bf f8 5a 8e 3f
       0.74438184 -0.6031256 -0.564415 1.1121511
0001b0 35 26 ca bf fe 59 9c 3f 4c 78 91 bd 66 c0 b3 bf
       -1.579291 1.2214963 -0.07103023 -1.404309
0001c0 36 cc c9 be 12 7e 43 bf 12 73 a1 3f 20 cc 9f bf
       -0.39413613 -0.76364243 1.2613242 -1.2484169
0001d0 a5 bb af bf 37 28 1d 3f 94 47 cb 3d 31 fd cb bf
       -1.372914 0.6138949 0.09925762 -1.5936643
0001e0 e8 03 ad 3f 1a 4d 7f bf 08 16 4f 3f 5e f7 ae bf
       1.3516817 -0.9972702 0.8089299 -1.366924
0001f0 af 8d be 3e 8d ca 47 be 27 ef b3 bc 8c d0 4c bf
       0.3721747 -0.1951086 -0.021964623 -0.8000572
000200 40 b4 ad be 5b ed e1 bf ef df 50 bf 3a 56 05 c0
       -0.33926582 -1.765056 -0.81591696 -2.0833879
000210 4a ba 5c bd ba aa 9b bf 36 d1 60 be da d6 44 bf
       -0.053888597 -1.2161477 -0.21954808 -0.7689034
000220 88 ef d4 bf d3 87 3a 3f 18 84 bc bf 96 40 cf 3f
       -1.6635599 0.728635 -1.4727812 1.6191585
000230 af 85 50 be 17 49 40 3f a5 99 de 3e 8d 03 e6 3e
       -0.20363496 0.75111526 0.43476596 0.44924584
000240 65 2b 31 bf 91 d5 1d 3e 31 c7 5b 3f 75 e6 b5 be
       -0.6920684 0.154135 0.85850817 -0.35527387
000250 47 e0 d6 3e 77 73 86 3e b1 5d 9d be b2 a8 b8 3b
       0.41967985 0.26259968 -0.30735543 0.0056353444
000260 32 c3 5d 3e 5c 14 0b 3f 36 c0 8b bf 1d bc c1 be
       0.21656492 0.5432794 -1.0918033 -0.37838832
000270 1d 65 37 3e 49 15 a8 bf ec 2a 3b 3f 64 9b 70 bf
       0.17909665 -1.3131496 0.7311237 -0.9398711
000280 d3 4b e9 3f 7b 5a cf be 69 a6 88 be ca a0 86 3f
       1.8226265 -0.4049872 -0.2668946 1.0517819
000290 b3 75 da be 8d 40 a8 bf 40 d3 36 3f 69 cd c1 3e
       -0.42667922 -1.3144699 0.7141609 0.37852028
0002a0 1a 65 3e 3d 5a 65 d9 be e8 a9 92 3f 01 1b 2d bf
       0.046483137 -0.42460138 1.1458101 -0.6761933
0002b0 89 52 c6 be 8d 65 a9 3e cd ec c7 3e df 4a 36 bf
       -0.38734844 0.3308529 0.39047852 -0.71207994
0002c0 09 d1 f5 be 1f 14 4c 3e 50 ba ac bf 2b e0 8f 3f
       -0.48011044 0.1992955 -1.3494358 1.1240286
0002d0 90 f2 0b 3e 2e 2b 76 be a5 13 52 3d 5d 3a 1d bf
       0.13666749 -0.24039909 0.051288266 -0.6141718
0002e0 93 34 5c 3f 0a 68 0c bf 76 67 91 3e fe f5 02 c0
       0.8601772 -0.5484625 0.28399247 -2.0462642
0002f0 17 2f 81 3f 36 b3 86 bf 6f 19 83 3f 87 bd e2 be
       1.0092496 -1.0523441 1.0242137 -0.44285223
000300 02 87 1e 3f 62 0c 4b 3f 01 85 fe be 3a 52 56 bf
       0.61924756 0.7931577 -0.4971085 -0.8371922
000310 ce 32 24 bf a1 ff 0e bf 4b 57 a6 3e b8 52 cb 3e
       -0.6414002 -0.5585881 0.32488474 0.39711547
000320 dc 16 fa 3e be 78 9c 3e c6 7d b5 bf 51 97 99 bf
       0.48845565 0.3056087 -1.4179008 -1.1999303
000330 8d a1 98 3f 21 ab 7a 3f a3 b3 ae bf 40 01 06 c0
       1.1924301 0.9791737 -1.3648571 -2.0938263
000340 e5 c7 fd be c0 d2 ef be d0 a3 f6 bc 49 4a 9f 3e
       -0.4956657 -0.46840477 -0.030107409 0.31111363
000350 de e8 d8 3e 6b 57 fe 3d 29 8f 93 bf 4d a3 60 bf
       0.42365164 0.124190174 -1.1528064 -0.8774918
000360 5a 35 89 bf 4a c7 28 3f 6b c7 75 3e 4f 00 76 3d
       -1.0719407 0.6592909 0.24001853 0.060058888
000370 4c 37 e6 3e 06 30 01 3f 88 80 3a 3f 36 1e e8 bf
       0.44964063 0.504639 0.72852373 -1.813422
000380 f9 e9 71 bf c5 06 f1 3e 13 04 5b 3f 73 ae f7 be
       -0.9449764 0.47075477 0.8555309 -0.48375282
000390 8f 3d db bf ee 67 d8 3f d4 76 99 3f 57 b7 a5 bf
       -1.7128161 1.6906717 1.1989388 -1.2946576
0003a0 56 10 6b 3f dd 73 f6 be 4c a1 bd be ca 6f ff be
       0.918218 -0.48135272 -0.37037122 -0.49889976
0003b0 4c cd 13 3e 31 59 db bf ed b0 7c bf de 7c 9c 3f
       0.14433783 -1.7136594 -0.9870747 1.2225606
0003c0 2e 45 a4 be e5 d8 7e bf 29 f3 2d 3f d0 29 15 3e
       -0.3208403 -0.99549705 0.6794916 0.14566731
0003d0 24 e6 0b 3e 56 5b 54 be d7 be 37 bf 74 02 43 bf
       0.1366201 -0.20737967 -0.71775573 -0.7617562
0003e0 04 f3 cf 3e ab 68 0e bf db 27 0c bf 54 b0 83 3f
       0.40615094 -0.5562846 -0.54748315 1.0288186
0003f0 e8 a1 c1 3e ab 90 2f bf 6d e6 2e 3e 68 9d 55 3f
       0.37818837 -0.6858012 0.17080088 0.8344331

conv_layers.1.bias f4 [16]
000000 d9 ec 85 3b 9e 02 7b bf 77 5c 0c bf eb c0 5f 3c
       0.0040870723 -0.9805087 -0.5482859 0.013656835
000010 13 8a c1 3f 61 43 96 3f 84 93 a5 bf fe e3 a1 be
       1.5120262 1.1739312 -1.2935643 -0.31619257
000020 80 23 9e 3f a1 d0 23 bf 54 91 8b 3f 10 c9 c6 bd
       1.2354584 -0.6399022 1.0903726 -0.097063184
000030 b8 de e3 3e 97 f3 98 40 02 44 63 bf e1 ae 60 3e
       0.44505858 4.779735 -0.88775647 0.21941711

conv_layers.2.weight f4 [26, 16, 2, 2]
000000 27 b3 5c 3e bf b0 6d 3e 48 85 91 3e d1 1a 2d be
       0.21552716 0.23211955 0.28421998 -0.16904761
000010 40 03 a4 bf 10 c7 35 3d d0 28 d9 3e f6 8d b8 bd
       -1.2813492 0.044379294 0.4241395 -0.09011452
000020 49 c1 7c 3e 94 75 28 3e 23 3c 98 bf 88 ad 82 bf
       0.24683107 0.16451102 -1.1893352 -1.0209208
000030 9d 3d 9a 3e 0b 27 e0 3d 15 8d 61 be 40 4e f1 be
       0.30125132 0.10944947 -0.22026475 -0.47130013
000040 4b 06 80 be 9e e8 88 3f e1 f2 15 bd 9a f7 a7 3e
       -0.250048 1.0695989 -0.03660858 0.32806093
000050 8a 1c 5a 3f d1 23 f8 3e e8 5f 31 bf d7 03 2e 3f
       0.851998 0.48464826 -0.69286966 0.6797461
000060 16 6d 92 be 1a 07 ce 3e 4f bd c2 bd 25 23 c3 be
       -0.2859885 0.40239793 -0.09508764 -0.3811275
000070 8b 81 2a be df 05 bf bd e0 aa b4 3e 4d d9 c7 3e
       -0.16650979 -0.09327292 0.35286617 0.39032975
000080 61 93 cc bd 1e 52 18 3d f5 83 ae bd cc 15 13 bf
       -0.09989048 0.037187688 -0.085212626 -0.57455134
000090 29 69 60 3e aa a5 ef 3d 0b 7d 77 bd 75 b8 17 be
       0.21915115 0.1170152 -0.060421985 -0.14816459
0000a0 97 2a 0f bf 1b 2e 7d 3d 9e f6 06 be 7f 9e a4 be
       -0.5592436 0.061811548 -0.13180014 -0.32152173
0000b0 c0 73 d2 3e 67 9b cb bd a3 0e 27 3f e9 ea de 3e
       0.41103935 -0.0994175 0.6525671 0.43538597
0000c0 8d aa 95 be d1 6d 50 3e b8 8f 0c 3e 43 2b 39 3e
       -0.29231682 0.20354392 0.137267 0.1808291
0000d0 5f 62 8d be cc e8 72 3d 59 4f 60 be 2a a3 83 bf
       -0.27614114 0.059304044 -0.21905269 -1.0284169
0000e0 d4 d5 89 bf ff 1c be bd 0b d5 55 bf 11 f8 a3 bf
       -1.076838 -0.09282874 -0.835282 -1.2810079
0000f0 bf d3 34 bd 00 9e 09 3e d9 47 25 3c 65 bd 12 3e
       -0.04414725 0.13439178 0.010087931 0.14330061
000100 16 3d 65 3e 4a a0 7f 3c 46 a2 c5 3e fd b6 01 be
       0.22386584 0.015602181 0.38600367 -0.1266746
000110 82 c3 c0 bd ab 64 cb be ca f4 82 3e 09 15 15 bf
       -0.0941229 -0.3972524 0.25577384 -0.5823522
000120 9c e6 9a 3e 06 9a b6 3d b8 c0 5d 3d 8d a3 27 be
       0.30254066 0.089160964 0.05413887 -0.16370983
000130 c7 ba 9a be 56 50 01 3f e5 e1 c0 be 40 d7 41 3e
       -0.30220625 0.5051321 -0.37672344 0.18929768
000140 a5 e9 b9 be 65 4e 40 3e 38 41 c0 be 80 5a 99 bb
       -0.3631107 0.18779905 -0.37549758 -0.004679978
000150 ea e8 e2 3e 8a 3f 05 be 09 32 e5 3e 4f ca 4e 3e
       0.44318324 -0.1301252 0.44764736 0.20194362
000160 47 60 f7 3e ec e8 0a 3f 48 87 b8 3e d5 3e f9 3e
       0.4831564 0.5426166 0.3604071 0.4868075
000170 61 0e 07 bf 15 fe 30 bf be 90 15 3f 28 e9 01 3e
       -0.52756315 -0.691377 0.58423984 0.12686598
000180 2e 7f 72 3f 28 28 65 be c9 ba 1b 3e 96 d2 57 be
       0.9472531 -0.223786 0.15207972 -0.21076426
000190 e7 f2 31 be d5 1d 0e be c6 cf 2d 3e 66 86 00 3e
       -0.17377816 -0.13878568 0.1697379 0.12551269
0001a0 e9 aa 14 3f 4c a1 07 bf 53 62 8c 3e 94 99 cd bd
       0.5807329 -0.52980494 0.27418765 -0.10039058
0001b0 02 75 52 be b3 1b 26 bf f3 19 ef be fd e3 c9 bd
       -0.20552447 -0.64886016 -0.46699485 -0.098579384
0001c0 4a 5e 80 bd 99 57 f8 be 24 64 a1 be e3 77 48 be
       -0.06267984 -0.48504332 -0.31521714 -0.19576983
0001d0 4f f8 22 3e 28 a3 c0 3d 63 dc 54 bf dd c2 d0 3e
       0.15915035 0.094061196 -0.83148783 0.4077367
0001e0 60 34 d4 bd ab 69 27 bf 7a 8d ae be 35 e8 8a be
       -0.10361552 -0.6539561 -0.34092313 -0.27130285
0001f0 af a4 09 3f 6b 35 db bd 05 92 23 bc 35 06 8f 3e
       0.5376691 -0.10703548 -0.009983544 0.27934423
000200 d6 22 fb 3e 79 db 00 3f 15 4d 4c 3e 9b d2 80 3f
       0.49050015 0.5033489 0.1995128 1.0064272
000210 5b 67 e2 bd c4 8e e9 3c 9e 19 59 be 6c 4b 9a 3d
       -0.1105487 0.028510459 -0.21201178 0.07533917
000220 ea 1f 91 3d f3 19 63 be 0f c8 a3 be fb e1 30 3e
       0.07086165 -0.22177868 -0.3198857 0.17273705
000230 c5 45 32 3e 90 ba 28 3c bb ff a6 3e ec a7 cd bd
       0.17409427 0.010298386 0.32616982 -0.10041794
000240 bf 98 0f be 40 ed 9f be 80 8d 5b bf 1e 59 3f bf
       -0.14023112 -0.31235695 -0.85762787 -0.7474536
000250 0d 04 af 3d 50 45 76 be 54 37 9f 3e 7d b4 91 3f
       0.085456945 -0.24049878 0.310969 1.1383206
000260 f6 e8 be 3c b6 30 89 be 60 50 be bd d7 f7 37 be
       0.023304444 -0.26794976 -0.09292674 -0.17965637
000270 b3 28 18 be ef ef 0c bf cd af 72 bf 01 11 39 be
       -0.14859276 -0.5505361 -0.947995 -0.18072893
000280 25 75 af be 08 1a bd 3e 0c d3 4b be d9 f3 9e 3e
       -0.34269062 0.36933923 -0.19904727 0.31045416
000290 6b ea 0e 3f 27 c3 59 3f 13 39 78 3f f9 34 47 3f
       0.55826443 0.85063404 0.9696209 0.77815205
0002a0 50 4a 3c bd a4 a8 07 3f bc d6 9e 3e e6 ba 98 be
       -0.045969307 0.529917 0.31023204 -0.29830092
0002b0 48 8c de be 51 da 37 3d e7 e4 57 be 7a 2f 21 bf
       -0.434664 0.044885937 -0.21083413 -0.6296307
0002c0 56 a5 ff bd 3f d2 3e bc d4 39 12 bf cb d2 c2 3d
       -0.12482707 -0.011646806 -0.5711949 0.09512862
0002d0 26 75 80 3f d6 af f9 bd db f3 96 3e a9 8e 64 bf
       1.0035751 -0.12191741 0.29482922 -0.8928018
0002e0 65 72 92 be 67 9e 4b bd 2d a0 57 bf d0 78 2f bf
       -0.286029 -0.04971161 -0.84228784 -0.6854372
0002f0 22 a6 06 bf 87 12 91 be 3b d7 5d bf 84 23 92 bf
       -0.5259725 -0.28334448 -0.8665654 -1.1417089
000300 6e c1 88 3d 3a 26 38 be 3f 72 da bd 57 ec d7 3d
       0.06677519 -0.17983332 -0.10666322 0.10543125
000310 aa e2 86 be fa c0 01 bf a3 f8 d0 be ce 11 64 3f
       -0.26344806 -0.50685084 -0.40814695 0.8908967
000320 83 09 e6 3e 1b 69 d1 3e 9c 1e ca be 05 a5 ff be
       0.44929132 0.40900502 -0.39476478 -0.49930587
000330 7b ed ae 3e 6d 62 1f 3f f6 b9 c8 3d 3d 2b 98 bf
       0.34165558 0.6225956 0.09801094 -1.1888195
000340 2a b1 e6 be 54 27 08 be 40 5d c6 bd db 30 33 3e
       -0.4505704 -0.13296252 -0.09685755 0.17499106
000350 54 14 ef bd b4 a8 92 be b5 c2 f9 3e de 93 9f be
       -0.11673799 -0.28644335 0.48781362 -0.311675
000360 56 cf 0b bf 5b 24 81 3f 43 23 b4 bf 90 ec a8 3d
       -0.54613245 1.008922 -1.4073261 0.08248246
000370 13 f7 21 bf a4 b5 17 bf eb 51 15 3e a5 ad a0 3d
       -0.6326763 -0.59261537 0.1458203 0.0784562
000380 0c ad 14 be 75 94 d3 be 62 48 36 bf 8a 71 e8 be
       -0.14519137 -0.413242 -0.712042 -0.45399123
000390 ff 1c 04 3f 91 7f a4 bd 63 82 1e 3f 3d 97 95 3e
       0.51606745 -0.08032144 0.61917704 0.29216948
0003a0 64 45 a9 3d 66 70 53 bf 8b 5d 50 be fb db fb 3e
       0.08265188 -0.8259338 -0.20348184 0.4919127
0003b0 f2 d8 a4 3e 65 c7 6a 3e 8d 3f c8 3d 9a 31 b2 3e
       0.32196766 0.22927625 0.09777746 0.34803468
0003c0 f0 d1 29 bf df 13 9e bf 57 7f 5f 3e 77 c9 5d 3f
       -0.66335964 -1.2349814 0.2182592 0.86635536
0003d0 ba 6a 10 3f 1e 68 f5 3e 13 e9 75 bf 6e a9 39 bf
       0.5641285 0.47930998 -0.9605877 -0.72524154
0003e0 36 6a 0e bf 57 20 80 3c 0c 0c 18 3f 07 31 ff 3e
       -0.55630815 0.01564042 0.5939338 0.49842092
0003f0 ad 90 28 bf c8 3a 04 3f 9e bd 8e 3d eb 2c 8c 3e
       -0.6584576 0.51652193 0.0696976 0.2737802

conv_layers.2.bias f4 [26]
000000 ab 37 15 40 10 07 8f bf 06 94 87 3f 72 db 37 c0
       2.3315227 -1.117403 1.0592048 -2.8727689
000010 4e 07 ef 3e 8b 87 26 3f c9 3a 88 bf 54 21 a7 bf
       0.4668526 0.6505057 -1.064294 -1.3057046
000020 ba 0a 00 40 96 d2 01 3f 64 09 cc bf 62 08 0a 40
       2.0006547 0.50711954 -1.5940366 2.1567616
000030 f2 2c 62 40 2d 2d 08 bf c8 2d a2 bf d8 f9 08 40
       3.5339932 -0.5319393 -1.2670221 2.1402493
000040 3a 6c cc bf 81 16 d5 bd 10 dd 71 3f e6 a9 c8 bf
       -1.5970528 -0.10404683 0.9447794 -1.5676849
000050 1a 65 9d be 22 1b 81 40 70 95 a6 3f 15 fd 81 bf
       -0.30741197 4.034562 1.3014355 -1.015536
000060 0d 8f 3c 3f 73 26 cb 3f
       0.7365578 1.5871109

conv_layers.3.weight f4 [36, 26, 2, 2]
000000 06 cc 26 bf 24 8a 4c bf e0 1c b8 3e b1 52 3d bb
       -0.65155065 -0.79898286 0.3595953 -0.00288884
000010 75 0a b6 be 74 d1 55 be f6 d0 32 3f e8 7d ce 3c
       -0.35554853 -0.20880681 0.698501 0.025206521
000020 2b d6 e7 3e 3a 7c ae 3d 44 83 b4 be db 1b 79 be
       0.45280585 0.08519788 -0.35256398 -0.24327032
000030 84 05 00 bd cb af 61 be 62 5c 3f 3f 4b 17 e9 3e
       -0.03125526 -0.22039716 0.7475034 0.45525584
000040 ff 93 c7 be 9c c9 62 bf 11 fb 17 bd 87 4e 03 be
       -0.389801 -0.8858888 -0.03710467 -0.12822925
000050 d3 78 60 3e 1f cf 51 bf a4 02 9d be c3 d5 9c 3e
       0.21921091 -0.81956667 -0.30666077 0.30631837
000060 e2 67 cc 3e 24 41 4a 3f de f8 3b bf 90 b5 c8 3d
       0.39923006 0.79005647 -0.73426616 0.09800255
000070 e1 0e b2 be 16 0d e3 3e 9c a7 b5 3d 03 a8 86 3e
       -0.34776977 0.4434592 0.088698596 0.26300058
000080 36 57 b7 3d c3 c5 fe be bf ec 04 bf 2f b6 b1 3e
       0.08952181 -0.49760255 -0.51923746 0.34709308
000090 a6 cd 32 3e 5d a4 ce be 2c 62 35 be a2 ea 37 3e
       0.17461261 -0.40359774 -0.17713231 0.17960599
0000a0 c4 9a 08 be d9 6b 9f be 71 97 2e be 22 fc cd bd
       -0.13340288 -0.3113697 -0.17049958 -0.10057856
0000b0 36 83 cd be 9e 18 72 bd 9f 59 82 3e bc 1f 61 be
       -0.40139169 -0.059105508 0.25459 -0.21984762
0000c0 ca 10 6e 3e d4 1b 91 be bd 60 85 3d 01 08 33 3d
       0.23248592 -0.28341544 0.06512592 0.043708805
0000d0 6e a4 38 bf a3 8d 21 bf c6 dc fe 3d 66 8d 50 3f
       -0.721259 -0.63106745 0.12444453 0.81465757
0000e0 af 16 4f be 17 b2 a9 3d 01 e7 af be db 16 39 be
       -0.20223497 0.08285921 -0.3435593 -0.18075125
0000f0 0e 96 97 be 30 a7 0f bf f1 80 7e be e5 3f 84 3e
       -0.2960667 -0.5611448 -0.24853875 0.25829998
000100 aa c1 a5 3e 92 70 9e bd 93 98 80 3e 4e b6 88 3e
       0.32374316 -0.07736315 0.25116405 0.26701587
000110 f3 3f 47 3d 47 44 b6 3e ec d3 8f bd 90 bc 29 3e
       0.04864497 0.35598966 -0.07022843 0.16575837
000120 59 5d ff be 1d 3c 38 be 41 83 2c 3e 39 46 34 3e
       -0.49875906 -0.17991681 0.16846944 0.17604913
000130 f4 dc 08 be da f4 85 3d e6 eb 03 be 82 c9 88 bd
       -0.13365537 0.06540842 -0.12882957 -0.066790596
000140 54 3f fc 3e 82 04 12 3f d2 42 09 be 92 92 83 3d
       0.49267066 0.5703813 -0.13404396 0.064244404
000150 2b 89 67 3e e5 c7 0f 3e c1 c4 eb be e2 07 a8 be
       0.22610919 0.14041097 -0.4604855 -0.32818514
000160 fc 4b 31 be 9f aa b5 be d9 b3 5b 3e 7f 65 b2 3e
       -0.17314142 -0.35481736 0.21455325 0.3484306
000170 c7 55 cb 3b 9d 31 0f 3d 40 eb df 3c 7b bb db be
       0.006205294 0.034959424 0.027333856 -0.42916474
000180 bc 2c bb bd f5 f2 6a 3e bd 32 d9 bd da 18 42 be
       -0.09139392 0.22944243 -0.10605381 -0.18954793
000190 af 9f a5 3c 50 c0 d0 3e a9 bf a0 3e 96 fe 34 3e
       0.020217745 0.40771723 0.31396225 0.17675242
0001a0 40 df b6 3e aa 5a 19 bf 60 4a 04 3f 97 60 25 bd
       0.357172 -0.5990397 0.5167599 -0.04037532
0001b0 23 42 3e be de c6 10 bd 5d 78 ce 3d 7d 7e 68 3d
       -0.18579917 -0.035345905 0.10081551 0.056761254
0001c0 1e 63 1b 3e 46 70 29 3f cf 1c 2e bf 0c 9c 5e bf
       0.15174529 0.6618694 -0.6801271 -0.8695686
0001d0 ad 32 bc 3e 3d 15 4f be c8 ce 01 bf bb 37 1b bf
       0.36757413 -0.20222946 -0.5070615 -0.6063191
0001e0 c2 2d 13 bf dc b7 1a 3f 24 0d aa be 00 73 18 bf
       -0.57491696 0.604368 -0.3321315 -0.59550476
0001f0 0f 9b 16 be 20 5e 85 3d 39 42 0d bf 66 d3 20 bf
       -0.14707588 0.065120935 -0.5517917 -0.6282257
000200 e5 09 86 bc 2d 85 e2 be 8f 5d 2a be 79 b0 e2 3e
       -0.01636214 -0.4424223 -0.16637252 0.44275263
000210 df 35 ba be ea dc 79 3e 6e b4 36 3f 2d a6 2a 3f
       -0.36369225 0.24400678 0.71369064 0.66659814
000220 fb 87 c6 3e a4 60 06 bf 9e b5 4d 3f 45 e9 f6 bc
       0.3877562 -0.5249121 0.8035525 -0.030140528
000230 98 d2 83 bd 6b 98 9c bd 32 a2 12 be 21 61 02 bf
       -0.06436652 -0.07646259 -0.14319685 -0.50929457
000240 ca 01 a8 3d d3 7f 33 bd 02 31 95 3d 11 c0 78 3e
       0.08203466 -0.043823075 0.07284738 0.24292018
000250 45 e5 fd be 60 8b 18 3e 3f ca 97 3d f5 f5 10 be
       -0.4958898 0.14896917 0.07411622 -0.14156325
000260 66 72 7e 3d 8e 52 b5 3e d3 fa a8 be ff a7 66 bd
       0.062120818 0.35414547 -0.33003864 -0.056312557
000270 51 af cf 3d a3 31 55 bd f5 67 2b 3e c0 1a b7 bc
       0.10140861 -0.05204929 0.16738875 -0.022351623
000280 4c 08 c2 be 5e 89 33 bd cc b4 e3 bd b2 4f e8 be
       -0.37896955 -0.043832175 -0.11118469 -0.45373303
000290 54 29 9b 3e 31 88 25 bd a2 84 16 be 7e ed 61 bc
       0.30304968 -0.040413085 -0.14699033 -0.013789533
0002a0 ea e3 37 3d ab 99 a7 3d 5c 1f 63 3e 2b 65 84 be
       0.04489509 0.08183607 0.22179931 -0.25858435
0002b0 1b 0b ab 3d 22 15 d5 3e 82 42 f9 3e d0 05 f6 3d
       0.083517276 0.41617686 0.48683554 0.120128274
0002c0 81 7a ca bd d2 7a 11 3f 1b 9c d4 bc 46 8d d7 be
       -0.09886647 0.56828034 -0.025953343 -0.4209997
0002d0 01 a4 84 3e 52 b5 8b bd f2 77 a8 bd 6c b1 d8 be
       0.25906375 -0.068216935 -0.08226003 -0.42322862
0002e0 4d 62 2c 3c 81 7c 96 3e 2b da 2e be a4 10 a2 3e
       0.010521484 0.29391864 -0.17075412 0.3165332
0002f0 78 b8 eb bd 62 4f 46 bd 49 44 ac be d6 55 b9 3e
       -0.11509794 -0.04841555 -0.33645847 0.361983
000300 3f 16 c5 3c ae 7e d4 3e ff 54 4d be fb 81 1a 3e
       0.02405846 0.415029 -0.20051955 0.15088646
000310 54 61 0c bf cd 18 50 be f2 65 9b bb 9c 2b 15 3e
       -0.5483601 -0.20321961 -0.0047423774 0.14567417
000320 39 29 f9 be e5 ea 84 be bf b3 82 3d 89 23 09 be
       -0.48664263 -0.2596046 0.0638194 -0.13392462
000330 24 4b 59 3d 0f 8a fd 3e d9 2a 71 3d 55 b4 e6 bd
       0.053050175 0.49519393 0.058878753 -0.11264864
000340 73 ec bf be cc 8d 0c 3e 3d eb 2f 3e fb 6e b4 3e
       -0.37485084 0.13725966 0.1717958 0.3524092
000350 47 81 e0 be 01 e2 d0 3e a6 e6 3e 3f 84 fb b5 bd
       -0.4384863 0.40797427 0.7457069 -0.088858634
000360 8a 0e f8 bc 21 af 33 bd 94 30 06 3f 51 4a 73 3f
       -0.03028037 -0.043868188 0.52417874 0.9503527
000370 c5 d1 10 bf d9 e9 03 3f df 1c ec be 47 ae 2c 3f
       -0.5657008 0.515287 -0.46115777 0.67453426
000380 d2 15 16 3f 2a a8 25 3e c7 13 57 3e 58 e0 57 be
       0.58627045 0.16177431 0.21003638 -0.21081674
000390 80 c1 4d 3e 3f c3 42 3c 56 14 40 3e 57 7b aa be
       0.20093346 0.011887371 0.18757758 -0.33297226
0003a0 af 16 10 be f1 e3 b6 bc 74 4f a9 be 36 77 7e 3d
       -0.14071153 -0.022325488 -0.3306843 0.062125407
0003b0 8f e6 32 bf b0 d5 89 be a2 c5 34 3e 39 f7 2b bf
       -0.69883054 -0.26920843 0.17653516 -0.67174107
0003c0 83 f7 56 3e 53 b3 97 3d c1 da 88 3e 67 63 6d be
       0.20992856 0.0740725 0.26729396 -0.2318245
0003d0 6d ef 69 3e f5 d2 3c 3e c3 b4 85 be f9 6e 2d 3d
       0.2284524 0.18439849 -0.26114473 0.04234216
0003e0 bd 07 ad 3e a9 6e 80 3d 8f 5e 06 bf af e5 83 3e
       0.33794966 0.06271107 -0.52488035 0.25761172
0003f0 b0 be 69 be 1f 88 4c 3e e9 11 34 be e6 26 90 3e
       -0.22826648 0.19973801 -0.17584957 0.28154677

conv_layers.3.bias f4 [36]
000000 04 6c 95 3d 0c 0d 81 3f 72 df 0f bf 8b e9 8a 3e
       0.07295993 1.0082107 -0.56200325 0.27131304
000010 94 ff b6 bd 27 15 ed be 88 f8 24 40 7a 0c 92 be
       -0.089354664 -0.463052 2.5776691 -0.28525144
000020 d6 00 c1 bf f4 89 d5 be 0c 24 24 3e 27 05 ed 3f
       -1.507838 -0.41706812 0.16029376 1.8517197
000030 24 d2 1e 40 71 6f b2 3e cb b5 2f bc 9d 59 04 3e
       2.481576 0.34850648 -0.010724495 0.1292481
000040 2d 21 e2 3e 46 39 5a 3f 62 b3 48 be ca 74 62 3f
       0.44165936 0.8524364 -0.19599679 0.88459456
000050 14 00 e9 3e 7c c2 95 bf ab 45 45 bf 66 b1 5a 3c
       0.45507872 -1.1699977 -0.7705943 0.013347959
000060 e3 d9 88 bf 80 85 43 3f 1d 5f 77 3f 7c 8e 00 bf
       -1.0691494 0.7637558 0.96629506 -0.50217414
000070 57 37 0f 3f e2 cd 53 be 59 a3 11 be 4e 5d 81 be
       0.55943817 -0.20684007 -0.14222468 -0.25266498
000080 d9 91 1c 3f 2e df 5a be 78 db 14 bf 53 f7 73 be
       0.61160046 -0.21374199 -0.5814738 -0.23824815

conv_layers.4.weight f4 [50, 36, 2, 2]
000000 0a 0d 1f be f8 f4 fc bc d6 81 f8 3d b6 c9 2d bd
       -0.15532318 -0.030878529 0.12134139 -0.042428695
000010 2a db 93 3e d8 b5 80 3e 11 9c e2 3e 4c ef 20 be
       0.28878146 0.25138736 0.44259694 -0.15716285
000020 34 d3 be 3e f7 93 4c be bb 25 a6 bd f3 b2 97 3e
       0.3727051 -0.19978319 -0.08112665 0.29628715
000030 43 bb a8 3c bb d3 ae 3e 39 58 f3 be e1 cb 6e be
       0.020597106 0.34145913 -0.47528246 -0.23319961
000040 d0 1a 92 bd 05 c5 e5 bd e8 14 20 3c ca 66 36 3e
       -0.0713402 -0.11219219 0.009770609 0.17812648
000050 f7 3a 52 3e 7e 5c 86 be ef 56 8c 3d 5e 0b ea 3e
       0.20530306 -0.2624244 0.06852519 0.45711797
000060 ea 9e 80 bd b8 b5 c8 3e f8 aa a4 be 3c f2 8c be
       -0.062803105 0.3920114 -0.3216169 -0.2752856
000070 f1 f7 79 3e 1d 1b 8d 3e cf e8 b6 3e 35 a8 03 be
       0.24410988 0.27559748 0.35724494 -0.12857135
000080 79 30 b9 be 4c bd c8 3d af bb 41 3c 1c 59 a3 3e
       -0.36169794 0.098017305 0.011824532 0.31903923
000090 29 8d a6 be 52 4f 9b 3e c5 30 95 bc 26 ef d8 be
       -0.32529572 0.30333954 -0.018211732 -0.42369956
0000a0 2a aa 6b bd 36 08 4f 3d 79 c2 f9 3d 03 34 62 3e
       -0.057535328 0.05054494 0.12195296 0.22090153
0000b0 d6 60 33 3e 93 16 18 bf b9 5b 5b be 13 55 af bd
       0.17517409 -0.59409446 -0.21421708 -0.085611485
0000c0 bf b4 bc bd 62 c2 00 3d b9 90 a5 bd eb c1 23 bf
       -0.09214162 0.031435378 -0.08084244 -0.6396777
0000d0 9d 84 03 be f6 b9 cf bd a8 27 57 3e c7 4f 1f 3e
       -0.12843557 -0.10142891 0.21011221 0.15557776
0000e0 1e a3 3f 3e 89 3f 5a be 7b c3 92 be f2 c3 9c 3d
       0.18714568 -0.21313299 -0.28664765 0.07654561
0000f0 71 a6 a9 3e 64 b0 1f be f4 ff 04 3e f9 bd d3 3e
       0.33134797 -0.15594631 0.12988263 0.41355875
000100 8f d1 b6 be 9a 76 a8 3e 12 2c ba be 52 1f 88 3e
       -0.35706756 0.32902986 -0.36361748 0.26586396
000110 5c 9f 0c be 70 05 af be 19 83 2a bd a7 12 07 3f
       -0.13732666 -0.34183836 -0.04162893 0.52762836
000120 db c4 af 3d 3d ec 5c bf 8b 10 b5 be de 3b 83 bc
       0.08582469 -0.8629797 -0.35364184 -0.016019758
000130 af 57 9e be 83 c5 1b 3e ae 41 34 bf c0 45 e5 be
       -0.30926272 0.15212063 -0.7041272 -0.44779778
000140 7d e7 9d be 4b 03 82 be 5b 96 89 3d d9 98 6c bd
       -0.30840674 -0.25393137 0.06718131 -0.057762954
000150 7c 73 a6 be 0d 25 b7 be 40 71 29 bd 64 e3 8f 3d
       -0.32509983 -0.35770455 -0.04136777 0.07025793
000160 0e 6f 5d 3e 07 97 26 be 41 a7 71 3e 61 14 e1 3d
       0.21624395 -0.1626855 0.23598959 0.10990215
000170 a1 c8 79 be 7e 62 d9 3d 76 0e 27 3e 1f 68 04 be
       -0.2439294 0.10614489 0.1631411 -0.12930344
000180 2b e4 0e bd 8e 85 86 bd dd da 3e 3d 1d 35 04 bf
       -0.034885567 -0.06568442 0.046595443 -0.51643544
000190 b1 97 6f be 1b 58 a4 3e 7e a8 e8 3d 4d 06 dd be
       -0.2339771 0.3209847 0.11360262 -0.4316887
0001a0 b0 ae 84 be 37 25 be be 6e f7 11 bf b1 e6 17 be
       -0.25914526 -0.37137768 -0.5701817 -0.14834096
0001b0 dd 6b 99 be 34 01 ce 3e 9b 28 ec 3c 8f 15 d7 3e
       -0.29965106 0.40235293 0.028827956 0.42008635
0001c0 a3 bb dd be 4f 8a b8 be 41 0c c2 be 88 95 72 3e
       -0.43307218 -0.3604302 -0.37899974 0.23689854
0001d0 17 3a ad bc 57 e9 88 3e ca a0 d8 bd b1 29 65 be
       -0.021145863 0.26740524 -0.10577543 -0.22379185
0001e0 87 45 21 3c 72 a8 46 be 11 16 86 3e 07 77 15 bf
       0.009843237 -0.19400194 0.2618871 -0.58384746
0001f0 67 ea 00 bc 52 b4 73 be b6 33 af 3d d1 64 b3 bd
       -0.007868386 -0.23799255 0.08554785 -0.087594636
000200 66 ef bb 3c 0f 27 f8 3e 55 51 63 bd 91 2a 31 3c
       0.022941303 0.484673 -0.055497486 0.010813371
000210 bc 8e 94 be 8c 3c 3c 3e db a7 cb bd 19 da 17 be
       -0.29015148 0.18382472 -0.09944125 -0.14829291
000220 7d f6 af 3d 8e 65 07 bc bb 13 d3 3e 02 46 b9 3e
       0.08591936 -0.008263959 0.4122599 0.36186224
000230 cc 5e d0 3e fd 03 8f 3a 03 73 0b 3f 3c 96 a9 bc
       0.40697324 0.0010911223 0.5447237 -0.02070152
000240 b1 ed 03 bf 7c fd b0 be 07 14 f6 be d2 7e 02 be
       -0.51534563 -0.34568393 -0.48062155 -0.1274369
000250 a3 30 98 be 59 61 40 be dd 88 7c 3e 91 4f 7f bd
       -0.29724607 -0.18787135 0.24661584 -0.06233174
000260 92 7f 6e be e0 55 c2 be e8 4f 24 3f 82 be f3 bc
       -0.23290852 -0.37956142 0.6418443 -0.029753927
000270 5f ce 24 be bf 6a cb be de 2d af 3e 4c 33 07 3f
       -0.1609435 -0.39729878 0.3421468 0.5281265
000280 b4 83 ab bd 11 99 de bd 4b 6c 86 3e 57 9a df bd
       -0.0837473 -0.10869039 0.26254496 -0.1091811
000290 7f 4d 91 3e 11 a0 05 bf 99 b1 0c be ac 5f fa bd
       0.28379437 -0.52197367 -0.13739623 -0.12225279
0002a0 78 ae 89 bd 7b 66 91 bd 9f e2 76 be 92 1e c5 3e
       -0.067227304 -0.07099625 -0.24109887 0.38499886
0002b0 4e 50 be bd 3b da b5 bd a7 3f db be 4b e2 86 be
       -0.09292661 -0.08879515 -0.42822 -0.26344523
0002c0 6f 87 09 3e 36 68 e8 be 71 52 8b 3e 97 12 b2 3e
       0.1343057 -0.45392007 0.27211335 0.34779808
0002d0 73 6a 6e 3e 8c 74 4c 3e 4d 1e 94 3e 72 38 3b bd
       0.23282795 0.19966334 0.28929368 -0.045708127
0002e0 33 70 54 be 49 2b 04 3f 4c 39 01 bd 23 45 49 3e
       -0.20745926 0.5162855 -0.031548783 0.1965528
0002f0 5d b3 0d 3e cf b0 16 3e c9 23 37 be 58 73 99 be
       0.13837953 0.14715885 -0.17884745 -0.29970813
000300 b4 3f e8 3d f1 a1 10 bf 6e e7 91 be 80 e6 a0 bc
       0.113402754 -0.564971 -0.2849688 -0.019641161
000310 0c fe 56 bf 05 e7 8c 3e f4 26 80 be 1e a1 c3 3e
       -0.83981395 0.27520004 -0.2502972 0.3820886
000320 23 5b 14 3c 6e 06 2f bd 1f 8a 89 3e 82 1f 09 bf
       0.009054932 -0.04273074 0.2686319 -0.535637
000330 1e aa cb 3d bc 94 8f bb aa 11 0c 3e 8c 9b af 3e
       0.09944557 -0.004381744 0.13678613 0.3429836
000340 73 83 de 3e 9a dd cd 3d 9a 0c 02 3d 0a 25 b8 be
       0.43459663 0.10052033 0.0317503 -0.3596576
000350 32 a7 00 3e c2 e0 23 3e c3 13 63 be f4 5a bf 3e
       0.1256378 0.16003707 -0.22175507 0.3737408
000360 59 c7 3a 3e 41 2b 81 be 27 55 9b be ad 6b 27 3e
       0.18240108 -0.25228313 -0.30338404 0.16349669
000370 54 d8 19 be c6 62 13 bf 19 c1 00 bf 98 d6 8e 3d
       -0.15023929 -0.5757259 -0.50294644 0.06974524
000380 e7 bd 04 be 99 72 f6 3d 8b 1d 88 3e 9a c3 dd be
       -0.12963067 0.120335765 0.2658504 -0.43313295
000390 4d 57 bf be 5e 5b 32 3e 1f fe 39 bf 60 db da 3d
       -0.37371293 0.17417666 -0.72653383 0.10686374
0003a0 a1 83 91 3e cb 43 42 3e c4 fd ad be 91 79 5d be
       0.28420737 0.18971173 -0.3398267 -0.21628405
0003b0 53 ab b7 be 79 a1 3f 3e e3 24 bb 3c f9 bf cb be
       -0.35872898 0.1871394 0.022844737 -0.397949
0003c0 96 ac 85 3c 51 c4 29 be d6 73 d5 3d ab 2b 68 3e
       0.016317647 -0.16578795 0.104224846 0.22672908
0003d0 e0 ca 9c 3d 92 5f f5 be 21 a7 03 be a2 07 3d 3e
       0.07655883 -0.47924477 -0.12856723 0.18459943
0003e0 d0 e6 a4 be 8d 77 c7 be 97 bb 24 3e a3 ce e9 3e
       -0.32207346 -0.38958398 0.16087185 0.45665464
0003f0 f0 c4 2f be ed 04 a4 3d aa 3d b9 3c 10 21 1c be
       -0.1716497 0.08008752 0.022612412 -0.15246987

conv_layers.4.bias f4 [50]
000000 5c 12 8b be c4 8e 80 be 8c 4a 9f 3e 05 7b d6 be
       -0.27162445 -0.25108922 0.31111562 -0.4189073
000010 6c 42 00 bd a7 9f 85 be 55 92 33 be 7a 77 63 3e
       -0.031313345 -0.26098368 -0.1753629 0.22213545
000020 3c 95 6f be 4f d1 6f bd 72 99 5f 3d c2 0b cf be
       -0.23396772 -0.05854922 0.054589696 -0.40438658
000030 5f 67 a9 be 61 43 12 bd f1 85 23 3f fc 1a 7b 3e
       -0.33086678 -0.03570879 0.63876253 0.24522012
000040 36 5f c4 bd ce e2 de 3e 9d b4 f7 be 3c 55 9d bf
       -0.095884725 0.43532413 -0.48379984 -1.2291636
000050 e7 ba 20 3f b9 83 c5 be 50 8b 64 be 86 85 dc bd
       0.6278519 -0.3857706 -0.22318769 -0.10767655
000060 d8 44 52 3f 54 4c c3 be a4 47 f4 be 09 5f c1 3e
       0.821363 -0.3814417 -0.47710907 0.3776782
000070 cb 5f 3f 3e 2f d2 38 3f 7e e6 88 bd f9 57 49 bb
       0.18688886 0.72195715 -0.06684588 -0.0030722602
000080 bf 85 59 3f a5 6a 74 be 17 eb e6 bd 44 bb f0 be
       0.84969705 -0.23868807 -0.112753086 -0.47017872
000090 7c d4 4d 3f 70 29 48 3e 61 0e c8 3d 24 24 87 bd
       0.8040235 0.19547057 0.097683676 -0.0659869
0000a0 07 13 0e 3f 8b a0 1a 3e cc 57 01 3d bc 8a 44 be
       0.55497783 0.15100305 0.03157787 -0.19193548
0000b0 a1 96 06 3f 65 b2 61 3e e7 3e 47 3d f8 31 98 bd
       0.5257359 0.22040708 0.048643973 -0.07431406
0000c0 40 3b b8 bd f7 c7 fa 3d
       -0.08995676 0.122451715

fc_layers.0.weight f4 [120, 50]
000000 e5 9d 5e bd 0a f8 0f 3e 21 a1 b3 bd f5 e9 49 be
       -0.0543498 0.14059463 -0.08770967 -0.19718154
000010 e9 41 c9 3e 4a d7 a6 be cd 05 84 3e 36 36 55 be
       0.39308098 -0.32586128 0.25785676 -0.20821461
000020 57 13 24 3d f7 09 0f bf 3a b5 a5 3d d9 f2 cd 3d
       0.040057506 -0.5587458 0.08091207 0.10056085
000030 a9 57 08 bf 7e 1b 27 3e d4 85 8a bc e9 f2 85 be
       -0.5325876 0.16319081 -0.016909517 -0.26161888
000040 fa 30 3d be 7b 25 3b be 7c 63 eb bc 38 14 3f be
       -0.18475714 -0.18276016 -0.028733961 -0.18660057
000050 17 cd dd be 0c 03 0f 3d 10 34 85 be 93 8e 49 3d
       -0.43320534 0.034915015 -0.26016283 0.049208235
000060 0f 93 9a be b3 53 b8 be 5b 21 20 bd 88 73 0a bf
       -0.30190322 -0.36001357 -0.03909431 -0.54082537
000070 19 c9 ca bc 78 d4 b7 be 4f b1 24 3e 29 92 61 be
       -0.024754094 -0.35904288 0.16083263 -0.22028412
000080 f6 ed e1 be a4 08 a7 be a4 2c 96 bd 41 bf 8a bd
       -0.44126862 -0.3262378 -0.07332733 -0.0677476
000090 28 33 a4 be fe dc 10 3e b7 37 8d be f3 c9 97 3d
       -0.3207028 0.14146802 -0.2758157 0.07411566
0000a0 14 d3 39 3e c3 d8 4b 3d b4 fd 94 be 56 40 65 be
       0.18146926 0.049767267 -0.2909981 -0.22387823
0000b0 06 a9 45 be b7 10 17 3e ae e2 29 3d 72 dd cf bd
       -0.19302759 0.1475247 0.041475944 -0.10149659
0000c0 f4 30 8f 3d 1c e9 99 be aa 5b ca 3d 0a cc b5 be
       0.06991759 -0.3006066 0.09880765 -0.35507232
0000d0 18 9f 4f be c4 f3 5d be 18 de 18 bf 44 87 3d be
       -0.20275533 -0.2167502 -0.5971389 -0.18508631
0000e0 90 d3 0f 3e 6f 66 3b be e6 ca 96 bd 61 55 7a be
       0.14045548 -0.18300794 -0.073629186 -0.24446632
0000f0 1f d1 6e be fe 2d 2f be a0 73 d0 bd 61 c1 46 be
       -0.23321961 -0.17107388 -0.10178304 -0.19409706
000100 4a 85 ac 3e a7 0e d7 3c 69 0e 0c 3d c5 06 3c be
       0.3369544 0.026252104 0.03419343 -0.18361957
000110 0d d2 ac bd 0d 82 cb be 86 77 28 3e 70 51 c6 bd
       -0.084385015 -0.39747658 0.16451845 -0.09683502
000120 2f d4 4a be 68 4b 8f bd 79 e9 57 3b 14 3f 8f bd
       -0.19807504 -0.069968045 0.0032945557 -0.06994453
000130 ec 42 df be 5d d2 b0 be a6 9e cf bd 12 9c be be
       -0.43605745 -0.34535494 -0.10137682 -0.37228447
000140 31 c1 91 be 1b 60 d6 3d 62 0b 22 3e e0 87 28 be
       -0.28467706 0.104675494 0.15824655 -0.16458082
000150 12 c3 e4 be 30 b9 fb bc 4e b1 bf 3d 07 fa cc bc
       -0.44680077 -0.030727953 0.0935999 -0.025021566
000160 6f e0 eb be a4 8d 8e 3d c8 7c d0 be 09 f5 81 be
       -0.46069667 0.069606096 -0.407202 -0.2538226
000170 e4 49 5f 3d b3 d0 8a 3c 71 a6 4a 3e 9d 4e 7f be
       0.054513827 0.016945219 0.19790055 -0.24932332
000180 35 5f 83 be 4a a1 b3 be fe 04 1f be 12 c8 82 be
       -0.25658575 -0.3508399 -0.15529248 -0.25543267
000190 7d 99 0e be a3 77 5a be ad 32 ab be 9e c0 f2 3b
       -0.13925739 -0.213347 -0.334371 0.0074082157
0001a0 d4 df 8e be cb ec 2f be 94 76 58 be 79 1e a6 3b
       -0.27905142 -0.17180173 -0.21138984 0.0050695506
0001b0 cd 2f 99 be f7 23 44 3d 92 8c 7d be 2a 28 2f 3d
       -0.29919282 0.04788586 -0.24760655 0.042762913
0001c0 07 78 4b 3e af 64 c3 bd 03 c7 f9 3d 9d 0e 8a be
       0.19870006 -0.09540688 0.121961616 -0.26964274
0001d0 22 2b 82 bd 8b 13 60 3e d6 2b f9 be c8 0e 26 bd
       -0.06355883 0.21882455 -0.48666257 -0.04054144
0001e0 f4 df 33 be f8 86 11 3e 15 b2 39 3c 8a 86 05 be
       -0.175659 0.14211643 0.011333962 -0.13039604
0001f0 bc 14 96 bd bb 94 73 bc 57 9c ed bc 96 67 58 3e
       -0.073281735 -0.014867003 -0.029005213 0.21133265
000200 8f f4 1e be 4f 0d 88 3c ac c9 d5 be 70 3c 8e be
       -0.15522979 0.016607909 -0.41755426 -0.27780485
000210 d8 24 9e be dc ee 23 3d 03 79 89 be fd ab 28 bf
       -0.30887485 0.040022716 -0.26850137 -0.65887433
000220 c9 30 c4 bd da 1c 0a bf db 99 17 be 2d a0 5a be
       -0.095796175 -0.53950274 -0.14804785 -0.21350165
000230 5a b7 bb be b7 6a a2 be c2 7e 53 be 16 84 88 be
       -0.36663324 -0.31722042 -0.20653823 -0.26663274
000240 c1 7a 7c be c2 0f 73 be 5b a9 81 be 0c ba 39 3d
       -0.24656202 -0.2373648 -0.2532452 0.045343444
000250 28 05 1c be 8e 4c 70 be 12 5a f4 3d 5f 09 20 bf
       -0.15236342 -0.23466703 0.11931242 -0.625143
000260 6c a3 de bd df 02 5b be 5b e2 94 be 85 3d d9 be
       -0.10871014 -0.21387814 -0.29078946 -0.42429748
000270 50 af 07 be a1 6d 8d be cb 27 c0 be d1 61 82 bd
       -0.1325047 -0.27622703 -0.3753036 -0.06366313
000280 f3 f6 88 3c 65 8a d6 be 18 05 81 bc ca 37 75 3e
       0.016719317 -0.41902462 -0.0157495 0.23947063
000290 7f ce a9 3d c2 5b e2 3c d9 8e 5e be 33 c5 59 3c
       0.08291339 0.027631644 -0.2173418 0.013291645
0002a0 14 e0 dc bd 63 a5 64 be df ca 66 be 1a c8 18 3e
       -0.10784927 -0.22328715 -0.22538327 0.14920083
0002b0 15 3b 65 bd ec 81 2d be 5e 74 ff bd 8b c1 90 be
       -0.05596455 -0.16944093 -0.12473367 -0.28272662
0002c0 4e 6b 9f 3e 0d d7 ed 3b b3 b7 bb 3e 1b d0 18 3e
       0.31136554 0.007258302 0.3666359 0.14923136
0002d0 e1 d0 5c be 16 93 e6 3d b6 78 a8 be 6a 4d a5 bd
       -0.21564056 0.11258523 -0.32904595 -0.08071406
0002e0 66 72 cb be 69 39 fb be ac 8f 04 bd 47 c9 e5 be
       -0.39735717 -0.49067238 -0.03236358 -0.44880125
0002f0 e0 77 fb bc 52 c4 83 be ef 01 bb bd 70 89 82 be
       -0.03069681 -0.25735718 -0.09131228 -0.25495481
000300 64 07 48 be 77 fb d3 3e 63 5b 46 be ed 89 68 bd
       -0.1953407 0.4140279 -0.19370799 -0.05677216
000310 ff 93 48 be 3c 53 0c 3e 1b 9e 8e 3c db 10 e3 be
       -0.19587706 0.13703626 0.017409375 -0.44348797
000320 f0 32 40 be c7 6c 01 be 06 07 94 be 3c ca 9a bd
       -0.18769431 -0.12639152 -0.28911608 -0.075581044
000330 f0 81 e2 bd a6 e5 a6 be 75 5c 84 be bd a1 7c 3d
       -0.1105994 -0.32597083 -0.2585179 0.061677683
000340 18 e2 c7 be d9 07 13 be f7 2f 14 bd 3b cd b7 bd
       -0.39039683 -0.14358462 -0.036178555 -0.089746915
000350 72 1d 01 3e b3 8b 5d 3d a1 a9 e7 3d 02 78 81 be
       0.12608889 0.054088306 0.11311651 -0.2528687
000360 23 d3 1d be 54 9a 63 3e 15 74 4f bd 53 ab 55 bd
       -0.15412574 0.2222684 -0.050647814 -0.05216534
000370 0e b1 4e be c2 a9 8a bd cf e5 5c be e3 38 e1 bd
       -0.20184729 -0.0677066 -0.2157204 -0.109971784
000380 c3 fe 80 3d de 3a 59 3e 26 15 a8 be 2c e1 b5 3d
       0.06298592 0.21213862 -0.32828635 0.08880839
000390 76 e0 e7 3c 20 28 31 3d 18 57 f0 3d 93 a8 41 be
       0.028305274 0.043251157 0.11735362 -0.18911962
0003a0 49 33 67 be d9 92 89 be 26 92 b7 bd f3 68 25 bf
       -0.22578157 -0.26869848 -0.089634225 -0.64613265
0003b0 d9 ea dc 3d 37 6b a4 be 4f 9d 11 be 2e a1 a9 bd
       0.10786981 -0.32113048 -0.14220165 -0.08282696
0003c0 ff a0 96 3e da 4b f0 be 1c 62 ca bd 6d 25 42 bd
       0.29419705 -0.4693287 -0.09881994 -0.047398973
0003d0 f8 93 0d 3e fa d4 9e 3e d6 05 87 be e9 a3 51 3e
       0.13825977 0.31021863 -0.2637164 0.20472683
0003e0 ed 3b 81 be 54 06 8f 3d 00 cf a4 3d 3f 83 f3 3d
       -0.25241032 0.06983629 0.080472946 0.118902676
0003f0 5d a4 64 bd ca 1c d3 be c0 7d 37 3e 32 4b ac be
       -0.05582081 -0.41232902 0.17919064 -0.3365112

fc_layers.0.bias f4 [120]
000000 0c cd d9 ba 87 de c1 3d 47 04 9d 3b b9 e9 d4 3e
       -0.0016616895 0.09466272 0.0047917697 0.41584566
000010 61 8a 24 3d ac c0 ec 3e 5a cf 02 be 80 3b 3a be
       0.04017103 0.46240747 -0.12774411 -0.1818676
000020 92 85 95 3e 85 94 76 3e 56 15 10 be d5 da 09 3c
       0.2920347 0.24080093 -0.14070639 0.00841399
000030 f3 d2 51 bb 91 f3 35 3c c8 d3 56 3e 73 90 a7 be
       -0.0032016605 0.011105434 0.20979226 -0.32727394
000040 fb b8 d4 be 07 66 ef bc 06 3c 3c bf c5 9e f8 3c
       -0.4154738 -0.029223455 -0.7352909 0.030349145
000050 d4 ba 65 3e 13 7d 08 bf e5 8c c4 bd eb b2 d3 be
       0.2243455 -0.5331585 -0.09597186 -0.4134744
000060 41 50 1a bc b4 f6 a9 be 23 77 1a 3e 0e a3 ba bd
       -0.009418548 -0.33196032 0.1508451 -0.091131315
000070 f5 36 b3 3e 8a c1 68 3e 66 ea 00 3f fb b3 3f 3f
       0.35002866 0.2273008 0.50357664 0.74884003
000080 89 76 66 be f2 be ab 3c 44 64 eb 3d ba 6b a1 3e
       -0.22506155 0.020965073 0.114937335 0.315275
000090 ab 87 0a 3e 3c 04 5e 3d 6c 54 b6 be 13 82 f9 3a
       0.13528316 0.054203257 -0.35611284 0.0019035958
0000a0 73 fe 48 3e 85 44 de 3e 42 30 66 be 5c 4d 14 3e
       0.19628315 0.4341165 -0.22479346 0.14482635
0000b0 21 ed 8b 3e ce 0a 0e 3e 83 e9 a4 be 0d 34 e5 3e
       0.27329352 0.13871309 -0.32209405 0.44766274
0000c0 ed e6 01 3f 48 55 b0 bc 4c 3b 15 3e f5 2b e1 be
       0.5074299 -0.02152504 0.14573401 -0.4397885
0000d0 94 78 8d 3e 35 fd e8 3c 73 ab 24 bf 81 b7 8f 3e
       0.27631056 0.028441051 -0.6432411 0.2806969
0000e0 e7 74 5b 3f 94 f3 a0 be d7 34 0f bf a7 10 fa 3c
       0.85725254 -0.31435835 -0.5594 0.030525519
0000f0 50 4b 5e 3e 84 e6 91 be ee b7 07 3f 99 34 a6 be
       0.21708417 -0.28496182 0.5301503 -0.32462004
000100 c3 93 09 3f 46 8b 85 3c 88 15 c1 bd 7d 11 51 3e
       0.5374109 0.016301762 -0.09427935 0.20416827
000110 0d 59 85 3e d5 6c 53 3c b7 f5 25 be b1 19 2e bd
       0.26044503 0.012904366 -0.16207014 -0.04250497
000120 5a 56 35 be c0 5f 66 3f 4c 21 42 be 8c 5e b7 be
       -0.17708722 0.8998985 -0.18958014 -0.3581432
000130 6a ea 5e bd 03 e1 ce be 6b 18 20 3e 49 2c 79 3f
       -0.054422773 -0.40406045 0.15634315 0.973332
000140 c1 d9 3b 3d 9f 0a 70 be 30 36 e3 be fb 41 9d be
       0.045861963 -0.23441552 -0.4437728 -0.30714402
000150 05 b9 c2 be 6d c1 f1 bd b0 fa 93 bd 8a 72 ff bd
       -0.38031784 -0.11804471 -0.07225549 -0.124730185
000160 69 48 a1 be 29 71 0a 3e bd f2 53 be 30 e9 66 3e
       -0.31500557 0.1351973 -0.20698066 0.22549891
000170 94 9b 13 be a6 eb c7 3d 87 c5 ad be 56 64 00 3f
       -0.14414817 0.09761743 -0.33939764 0.501531
000180 1b 25 97 bd 9d 4b bb be 9c a9 35 be 77 3b e2 be
       -0.07380124 -0.36581126 -0.17740482 -0.44185993
000190 29 d9 d3 be e2 32 a6 bc ea 03 c7 3e 56 8a 75 3d
       -0.41376618 -0.020287935 0.38870174 0.05994638
0001a0 5b 41 f1 bd 6f e2 6b 3e d0 ab 8e 3d 62 c2 b2 bc
       -0.11780044 0.23035596 0.069663644 -0.021821205
0001b0 f0 16 4d 3c f0 1e 94 3e 3d 58 52 bc 75 71 0a bf
       0.012517676 0.28929853 -0.01283842 -0.5407937
0001c0 f2 01 83 bd f1 51 4b bf 68 b4 8b 3d ff e6 92 bd
       -0.063968554 -0.7942191 0.06821519 -0.07172965
0001d0 24 94 86 be 0d 42 53 38 8a 41 0b 3f d1 ee 01 be
       -0.26284897 5.0367835e-05 0.5439688 -0.12688757
