Lab1/model/model_CIFAR10/conv_params_c1_8.pth (torch, 255734 bytes, 10 tensors)

conv_layers.0.weight f4 [8, 3, 5, 5]
00000000: a2d1 94be 1482 a0bc 4bd4 adbe 7a3f 8ebf
00000010: e5ec abbe 207d a5be 3676 45bf e776 c6bf
00000020: 06a2 00be 1ae5 d43e cdd0 6cbe 00b6 3fbf
00000030: 1c3b 4d3f fa00 123f cc79 9a3e 71e3 edbe
00000040: 745a de3e 0c9f 9a3f 8e1f 083f ea78 1e3b
00000050: 2bf3 3d3f de83 763f 7b2e ce3e 5e11 6e3e
00000060: 4324 babd 3d66 9c3e bac7 9e3e 71b4 ffbd
00000070: a2b7 f0be 211f d13e 024d ad3e f3a4 62bf
00000080: 4ffd e2bf 3530 b93e 9787 f63d 6ca7 6abe
00000090: 700b 21bf 4c8a 443f 19ec 833f e82d 5e3e
000000a0: bc24 17bf 19f2 c03e a86d 203f 7eaa 4d3e
000000b0: 6557 0f3e 36bd adbe 480e 4a3e 4f04 afbe
000000c0: 1c9f 4bbc 82e7 a7be a440 343e 1256 3a3f
000000d0: 25ad 873e 9168 19bf 0ea9 c43e 1694 5cbe
000000e0: 9c6e ebbe 06f9 f1bf 67bd 0cbe a082 32be
000000f0: 21df 5bbe 8230 cdbe 18ef d63e 5901 023f
00000100: b0dd cb3c bc3a 18be c02a 323f f63e 7e3e
00000110: ca83 0bbe 7594 4b3e 5773 223f 0faa ab3e
00000120: 2a6c 05bf 3587 a63c fb1f a53e 8939 14be
00000130: 7e47 e3be d8b9 96be 930d 433e d290 503f
00000140: 402b 2bbf c9a4 72bf 7552 e1be ee5a 8dbe
00000150: 91ad 1f3f 89c2 febe a1a9 08bf 7dcf 42bf
00000160: 5c43 a53c 6a21 0f3f ed70 563d dbaa d2be
00000170: 8f0b cc3d 65b4 52be dd13 903e 77f7 c03f
00000180: c9d5 0f3f 476a 84bd a101 80bf 7448 72bf
00000190: 4e73 053e 7683 793e c56c dfbd 7fb2 3dbe
000001a0: 8a43 a23d d616 d7bd 41ae 323e b99b 953e
000001b0: b64f 1dbf e25c bdbe cc66 f8bd 4914 8a3e
000001c0: ff27 be3d 4bea 7a3d 9d53 44bf bb91 fcbe
000001d0: c8cc 80bf 4a76 1cbf 6ffa 57bf 5d20 c8be
000001e0: abd4 443e b5b1 38bf 295d babf abdf ffbf
000001f0: 99f1 86bf 9399 c4be e0f1 363d e532 123d
00000200: 8a26 55ba 894d 71be e8e1 dabb 108f a13e
00000210: 040a 293f f07d 143e 75ab d4be 1c19 df3e
00000220: 6828 8e3f f62f b63f 9598 e03f fb1b d03e
00000230: 9449 95be ec75 0ebc 79ec d33e d94d 763f
00000240: 681f aa3f 1e95 bb3e 70c9 cb3e a0e1 3ebf
00000250: cd1c 65bf c327 fa3d 39cd c4be 00dc ab3f
00000260: 90c2 0340 874f fe3f 623c d83f 5ba8 e6be
00000270: 1ca5 453e 965f a33f a655 793f 396f 7d3f
00000280: 121d 50bf cafc 9dbd a4b8 113f adc0 033f
00000290: 392f c8bd a785 b1be 0e1d 403d 6769 6dbd
000002a0: 6ce2 37be 3a70 a13d 173a 82bf 0821 8ebf
000002b0: 4e51 04bf 5b05 a9bf d618 00bf ab22 9cbf
000002c0: 1955 6cbf d799 3dbf af47 60bf 54ec b0bf
000002d0: 9ca1 61bf 361e 9cbf ee56 1bbe 2da9 7abe
000002e0: ef18 9bbe b673 a03e 79d3 e73d 8c92 82be
000002f0: bcf1 f5be 9fa3 64be 4fca 043f 82c0 123f
00000300: 3bf3 2abf 9c05 6abf 614f 10be 26c3 9c3f
00000310: 236a a53e 5127 0d3e 6b35 70bf 797e 133f
00000320: 030e 043f 6971 1ebe c42b d5be 543e 65bd
00000330: ee99 86be dd02 e1be 9072 e0bf 8261 3bbf
00000340: 3b79 483e 7efd 6d3e b398 c93e fa4c 0cbe
00000350: 9988 27bf 9678 97bd d73d 82be d699 113f
00000360: 446d 873e 7109 9ebe fc44 9fbe faa2 b7bd
00000370: 3889 f13f f08c b53e 452f 363f cc22 8a3e
00000380: b453 503f bc1e b63e d5a0 41bd 6898 27bf
00000390: 1a46 d13d 3b65 f0be c6cd 9a3e b290 9ebc
000003a0: 5eeb 48c0 1d68 2f40 62a0 55bf 20ca 253f
000003b0: 30f7 0340 4fb3 96c0 2be3 523f ac19 903f
000003c0: 0532 62be ac14 0540 ae87 3dbe c2da f2bf
000003d0: bc63 5fbf 938a 173f 89e9 d4bd 8f9b e03e
000003e0: 7236 d53e 86d4 27be f66e f0be 106e 24be
000003f0: e1c1 9bbe ec8e 8a3f 4596 473f 305c 9cbe
-0.29066187 -0.019593276 -0.3395103 -1.1113122 -0.33579174 -0.32322025 -0.771335 -1.5505036
-0.12561807 0.4158104 -0.23126526 -0.74887085 0.8016832 0.5703274 0.3017105 -0.46462587
0.43428385 1.2079787 0.5317315 0.0024180957 0.7419917 0.96294963 0.40269837 0.23248813
-0.090889476 0.30546752 0.31011754 -0.12485588 -0.470151 0.40844062 0.33847815 -0.8853294
-1.7733554 0.36169592 0.120375805 -0.22915429 -0.6290808 0.76773524 1.0306426 0.216972
-0.5904043 0.37684706 0.6266732 0.20084569 0.13998182 -0.3393342 0.1973201 -0.34182975
-0.012428071 -0.32793814 0.17602783 0.7278758 0.26499286 -0.5992518 0.38410228 -0.21540865
-0.45982826 -1.8904121 -0.13744126 -0.17432642 -0.21471836 -0.4007607 0.4197929 0.50783306
0.024885982 -0.14866155 0.6959648 0.24828705 -0.13624492 0.1988085 0.63457245 0.33528182
-0.5211817 0.020328144 0.32250962 -0.14475073 -0.44390482 -0.29438663 0.19048147 0.8147098
-0.6686287 -0.9478269 -0.44008222 -0.27608436 0.62374216 -0.49757794 -0.53383833 -0.7609785
0.020173721 0.5591036 0.05235379 -0.41145977 0.09963142 -0.20576628 0.28140154 1.507552
0.56185585 -0.06465583 -1.0000497 -0.94641805 0.13032266 0.24366555 -0.10909418 -0.18525122
0.07923038 -0.105024025 0.17449285 0.2922037 -0.61449754 -0.36984926 -0.12128982 0.269686
0.092849724 0.061258595 -0.76690084 -0.49329934 -1.0062494 -0.61117995 -0.84366506 -0.3908719
0.19221751 -0.7214616 -1.455968 -1.9990133 -1.054248 -0.38398418 0.044664264 0.035693068
-0.0008131048 -0.23564734 -0.006679762 0.3155446 0.6603091 0.14501166 -0.4153706 0.43573844
1.1106081 1.4233387 1.7546564 0.40646347 -0.29157698 -0.008695107 0.41391352 0.96212536
1.3290834 0.36637205 0.39802122 -0.74563026 -0.8949707 0.12214615 -0.38437822 1.3426514
2.0587502 1.986802 1.6893427 -0.4505032 0.19301265 1.2763546 0.97396314 0.9899784
-0.8129436 -0.07714231 0.56922364 0.51465875 -0.09774632 -0.3467228 0.04690271 -0.057961848
-0.17957467 0.07882734 -1.0173978 -1.110383 -0.5168656 -1.3204759 -0.50037897 -1.219808
-0.9231735 -0.74062866 -0.8760938 -1.3822122 -0.8813722 -1.219672 -0.1516988 -0.24478598
-0.3029246 0.3133828 0.11319632 -0.2550243 -0.4803599 -0.22328041 0.518712 0.57324994
-0.6677739 -0.9141481 -0.1409278 1.2247055 0.32307538 0.1378453 -0.9383151 0.57614857
0.5158388 -0.1547295 -0.41634953 -0.055967644 -0.26289314 -0.43947497 -1.7534962 -0.7319566
0.19577496 0.23241231 0.39374313 -0.13701239 -0.65442806 -0.07396047 -0.25437805 0.5687536
0.2645055 -0.30866578 -0.31107318 -0.08966632 1.8870001 0.3545909 0.7116588 0.26979673
0.8137772 0.35570323 -0.047272522 -0.6546693 0.10218449 -0.46952233 0.30235118 -0.019356105
-3.1393657 2.7407296 -0.8344785 0.64761543 2.0619621 -4.7093883 0.8237788 1.1257834
-0.22089393 2.0793867 -0.18508789 -1.897301 -0.8726156 0.5919582 -0.10396106 0.43868682
0.416431 -0.16389665 -0.46959656 -0.1605761 -0.30421355 1.0824866 0.7796367 -0.30539083

conv_layers.0.bias f4 [8]
00000000: e0ed c3bf 23bb dabf 52aa b7bf ce1f b0bf
00000010: 394d be3e 2fec b6bf 3239 cabf b90b 5dbf
-1.5306969 -1.708836 -1.4348853 -1.3759706 0.3716829 -1.4290828 -1.5798705 -0.8634601

conv_layers.1.weight f4 [16, 8, 5, 5]
00000000: aec9 e8bb bbf2 1d3e 0f74 053f 0580 3abd
00000010: 029c f43e 26ac 1abf 7ef3 f2bd 924f c73d
00000020: 6604 c63f ce2e 20bf 7db9 8dbe 2330 563f
00000030: 8660 4b3f 3665 b2be 009a f8be 4ba4 b73e
00000040: 5fc6 a1bd 6f0b 9abf 82b9 dabe 078b 493f
00000050: 8bc6 64bf a93e 7fbf fa28 da3e a0b1 8b3e
00000060: 5399 b63e 382d e53d 7ac3 0fbf 4197 51bf
00000070: 77a0 9cbe 67bf f1be d64d f3be 919a 60bf
00000080: 7b14 9dbe e687 81be f215 4d3f 47e2 19bf
00000090: 1017 cdbe 0616 a23e 59de 6d3f a26e ba3e
000000a0: a6a1 db3d 422f 34bf 3651 ff3d f5cb 493c
000000b0: 8419 1b3d 521d 41be 244c 383e 5f33 13be
000000c0: 47d9 e23e 2bf4 143f b4d3 17bf e53f 23bf
000000d0: 9c2d bd3d 8916 bf3d 5b62 78be 3aeb 4abe
000000e0: bdb6 613f 07c0 0cbf dcdf 0abf 78ed 1c3f
000000f0: 4110 08bf 8dab 90bf fcc5 923e e23b b23f
00000100: 70a2 2e3f 2be9 1cbf 1390 b23e 90ee 873e
00000110: b35e 55bf 1df2 e8be 2e14 3abf 764e c2bd
00000120: a606 fabe 2fe2 233f c3ea 283f 6f03 41be
00000130: adb9 06be 8288 133e 65d9 3c3d 0a27 4ebe
00000140: d323 4ebe 65a0 1dbf 2ad0 17be a25c 82be
00000150: 6d23 11bf 3ef1 80bc f49f 6ebe 0d40 0fbf
00000160: 1bbb ddbe 2483 463f bc80 d0be f13b e0be
00000170: 5cc5 7abf 48ca 82be b9ce ae3e 6646 d33e
00000180: 08bc 1bbe 1241 023f 1ce3 143e ea54 97be
00000190: b566 0ac0 3e31 d1bf fcc6 9ebf e9a3 703f
000001a0: 9565 623f cb38 71bf 81d9 29bf e790 c0be
000001b0: a1cf 8fbc 919e 713f 4a8b c5be 259f 13bf
000001c0: 0d45 75bc 4423 a8bd 6d45 853f 9ca5 debe
000001d0: e8e5 87bf 16e2 c8be 6e6f cc3e f241 2c3f
000001e0: adea 15bf 9d46 52bf efc9 2e3e 13e8 da3e
000001f0: 2b3f 1d3f 523e acbf ed35 d3be 8103 dbbe
00000200: fcfb cfbe 6f85 0cbf 3290 e23e 1da2 db3e
00000210: f846 bbbe f5e3 cb3e 2fa7 9b3e ba61 07be
00000220: 3110 3cbf f569 683e fe69 203f f062 663e
00000230: 6160 9d3d ed78 9d3e 2d4f 13bc a474 3ebf
00000240: fce3 32bf 3a92 683e 0bf7 293e d856 ec3d
00000250: 5d15 a8bc ff90 c53e 9483 a4bd 3dec 113f
00000260: 64b4 683e 9815 0cbf 1790 5d3c a21b 2c3e
00000270: 2c32 6ebf 26c5 793f 89a8 52bd 61cc babe
00000280: 1910 d03e 448a 4abe 1a16 e0be b72d 2f3f
00000290: 96ae 233f 4300 6e3d 3d10 21bf 028c 0cbf
000002a0: 69cf a53f db7f 1a3e cf7f 1dbe 922e e33e
000002b0: c15c 003f 4b30 cf3e c046 25bf 960d e2be
000002c0: 8e33 42bd 04a9 9b3e 4b96 04be cf03 933d
000002d0: 126c 1cbf 1b03 1dbf 11e9 babe 327a f0be
000002e0: 335c 5f3f 71bd 16be c423 81bf a4a0 4bbf
000002f0: a2d3 82bf df3a 2e3f 8b52 1dbd d260 30bf
00000300: 6acb 39bf 4012 4cbe 6c8c 20bf 0451 7ebe
00000310: 8129 8fbd 0853 773e 42f9 24be e086 c13e
00000320: f065 01bd a164 87be 28d8 0e3d 0dd1 333e
00000330: b733 e9be 5f48 ab3d 52c6 07bf 377b 133f
00000340: c238 773e f70b 6f3f 89ac 5cbf 90ec 31be
00000350: 83ce b9be d08e 823d 675d 0e3f bed6 c5bf
00000360: b5af 6fbf 510e 9abf 85e4 01bf 78cc d0be
00000370: 8eea a63d 81e1 99bf 1b76 21bf 92f8 2c3e
00000380: d35f c23d a499 c8be 171a d53e f449 e53e
00000390: 5eed 2c3e 5130 fa3d 532b 30be 7530 d33d
000003a0: ca05 823e 7147 cf3d 88c3 2f3f 05a2 89be
000003b0: 374d adbe 45ea cebe c12a a3be 22d0 72bc
000003c0: 09fa 9abe 3752 c8bd 3520 c9be 3ff0 88be
000003d0: 8c65 92bd 5d50 ad3e 03cc 923e fbff d63d
000003e0: 6e67 683e daee c53e f3eb 07bf ccba 603e
000003f0: 63ca abbe d4c8 03bf 7371 c5bc 7493 d1be
-0.00710412 0.15424626 0.52130216 -0.045532245 0.47775275 -0.6041893 -0.11862849 0.09731974
1.5470092 -0.6257142 -0.2768058 0.836672 0.7944416 -0.34842843 -0.48554993 0.35867533
-0.078991644 -1.2034739 -0.42719656 0.78727764 -0.8936545 -0.99704987 0.42609388 0.27283955
0.35663852 0.111902654 -0.5615765 -0.8187142 -0.30591175 -0.4721634 -0.47520322 -0.8773585
-0.30679688 -0.25298995 0.8011161 -0.60110897 -0.40056658 0.31657428 0.929174 0.3641253
0.10724191 -0.7038461 0.12466662 0.012316694 0.03786613 -0.18858841 0.17997795 -0.14375065
0.44306394 0.5818507 -0.5930741 -0.6376937 0.09237215 0.0933047 -0.2425627 -0.19816294
0.8816946 -0.5498051 -0.5424783 0.6129985 -0.531498 -1.1302353 0.28666675 1.3924525
0.6821661 -0.61293286 0.34875545 0.26549196 -0.83347625 -0.45497218 -0.7268704 -0.094876215
-0.48833197 0.64017004 0.6598322 -0.18848966 -0.13156767 0.14407542 0.04610576 -0.2013208
-0.20130853 -0.6157287 -0.14825502 -0.25461298 -0.5669468 -0.015740033 -0.23303205 -0.5595711
-0.43306813 0.77543855 -0.40723217 -0.43795732 -0.97957397 -0.25544953 0.34142092 0.41264647
-0.15208447 0.5088054 0.1453976 -0.29556972 -2.1625187 -1.6343153 -1.2404475 0.9400011
0.8843625 -0.94227284 -0.6634751 -0.37610552 -0.01755506 0.9438258 -0.38582832 -0.5766471
-0.014970076 -0.082098514 1.0411812 -0.43485725 -1.0617037 -0.3923499 0.39928764 0.67288125
-0.5856121 -0.82139 0.17069219 0.42755184 0.6142451 -1.3456519 -0.4125208 -0.4277611
-0.40621936 -0.54891104 0.44250637 0.4289712 -0.36577582 0.39822355 0.30400988 -0.13220873
-0.73462206 0.2269667 0.6266173 0.22498679 0.076843984 0.30756322 -0.008991045 -0.7439673
-0.69879127 0.22712031 0.16598146 0.11540002 -0.020518 0.38587186 -0.08032909 0.57001096
0.22725064 -0.5472045 0.013523123 0.16807416 -0.93045306 0.9756645 -0.05143026 -0.36484054
0.40637282 -0.19779307 -0.43766862 0.6842913 0.6393827 0.05810572 -0.629154 -0.54901135
1.2953922 0.15087835 -0.15380786 0.44371468 0.5014153 0.40466532 -0.6456108 -0.4415099
-0.047412448 0.30402386 -0.12947957 0.07178461 -0.611024 -0.61332864 -0.3650594 -0.46968228
0.8725006 -0.14720704 -1.008904 -0.79541993 -1.0220835 0.6805858 -0.038408797 -0.68897736
-0.7257601 -0.19928837 -0.62714267 -0.24835593 -0.06990338 0.24152768 -0.1611071 0.37798214
-0.031591356 -0.2644396 0.03487411 0.17560215 -0.45547268 0.08363413 -0.5303699 0.57609886
0.24142745 0.9337763 -0.8620077 -0.17375398 -0.36290368 0.063748956 0.5561127 -1.5456159
-0.9362748 -1.2035619 -0.5073932 -0.40780997 0.081502065 -1.2021943 -0.6307084 0.16891697
0.09490933 -0.39179718 0.41621467 0.44782984 0.16887423 0.12216247 -0.17204027 0.10311977
0.25395042 0.10121048 0.6865773 -0.26881424 -0.33847973 -0.40413108 -0.31868556 -0.014820131
-0.30268887 -0.09781306 -0.39282385 -0.26745793 -0.07148275 0.33850375 0.28671274 0.10498043
0.22695705 0.38658792 -0.53094405 0.21946257 -0.33552846 -0.51478314 -0.024101948 -0.4093281

conv_layers.1.bias f4 [16]
00000000: 655e a43e 8dad 2dbe f571 963c f2ef 0ec0
00000010: 9578 c5bf 0fcd 50c0 fd88 f3c0 b8a3 2e40
00000020: 04a4 29bf aa10 b33f 7753 34c0 694c 5840
00000030: bb88 08c0 ba71 a1bf dfd8 7c40 98c4 3b3f
0.32103267 -0.16960736 0.018364886 -2.233395 -1.5427424 -3.2625158 -7.610472 2.7287426
-0.66265893 1.398946 -2.8175943 3.3796637 -2.1333454 -1.2612832 3.9507368 0.73346853

fc_layers.0.weight f4 [120, 400]
00000000: a48c 1bbe 07a3 cbbd 24f4 a0be ba92 3d3e
00000010: bea9 6d3e f60e 69be fef7 413e 1754 81be
00000020: 0d89 0a3f a209 943e 61dc 033e 889d 85bd
00000030: 7e22 5c3e dbd8 88bc 5463 c9bd 063c 83be
00000040: 52d0 a9be 88ea 37be 42e0 63be 87ca b6be
00000050: 177c 003e 5807 ff3d 7684 143e 9f65 d4be
00000060: 277c babe b5fa 9dbd 0fe9 58be 0160 bb3e
00000070: 154b 2fbf c286 9ebe ecc9 1dbf 8160 9c3e
00000080: bd65 623d 925b 83bd b616 043d 6f75 54bf
00000090: 6004 a2be c315 023e 224d 83be a895 433d
000000a0: ef4b 80bd 9a86 713e 7a41 c0be cb87 d9bd
000000b0: 96e1 40bf b656 423e b61c 1a3f 590b c43e
000000c0: 1eb7 d63d b86a cfbe 1b7b 4cbd 5619 863e
000000d0: 6923 a6be 9c49 8fbe 7c07 01bf 84f2 18bf
000000e0: ae6a 35be 37a4 553e f09c cb3d 7f69 01be
000000f0: 6059 c5be 3089 e6be 63c8 9dbe ac7a b63e
00000100: 5667 b2be 78b0 bbbe 97d7 0ebe 8585 3cbe
00000110: 66d0 9dbd 8ff0 42be 64d8 3fbe a017 8c3e
00000120: ac96 4f3e ba3a d3be 5e95 88bd e14e 09bf
00000130: 53e2 d93b 321d 3dbd b6df 5e3d a4bc 32be
00000140: 9166 dfbc 69af 29be 1a04 fdbe 77dc 0d3e
00000150: a7b1 7c3b 90c3 1d3e 596d cebe 7457 dabe
00000160: 8034 883d b2d9 fb3d 56f3 063e 11d6 0b3f
00000170: eeab 75be af9a a23e 8c78 55be 4c68 2cbf
00000180: 1fab f1be 6555 913d 1986 1bbf b293 c2be
00000190: 3791 813d 5aae 7b3d a8c0 a63d c549 173f
000001a0: 0254 a23e 0c50 bb3e d705 253e 11e8 7bbe
000001b0: 61b4 a0be 26b9 63be 1c3c 07bf b80b d93c
000001c0: 1b23 9bbd 690f d53c 11d7 87bd 2eda 173e
000001d0: b7e4 a53c 4256 3cbe e603 60bd 6a4f d4bd
000001e0: 07e7 b03e 969f 82be 4d08 97bc eb18 af3e
000001f0: 9b28 06be baee 5c3c 68c0 123f 9bdd c23e
00000200: fde4 813d 7e7a be3e dd07 14bf a4f4 2b3e
00000210: 4662 933d 8c60 b4be e318 61bf 4b3c 70be
00000220: 23cc ea3e 3b83 de3e 6442 43ba c5e1 01be
00000230: c2fc bd3e 69c6 3ebe 0855 333d 5818 23be
00000240: 1e10 17be 8fdd 7ebd 7e3c 34bd f258 a6bd
00000250: 55bc 62be 7ab0 10be f3e5 2f3e 6851 103d
00000260: 2502 22be 616e 47be 8786 073f e47e 843e
00000270: 9a41 0dbe 8bdc 7e3e 00ea 123c 67c8 0e3c
00000280: d992 80be 2e80 133e c1b8 ebbd aefa 37be
00000290: 219a 34bc a9cd 64bd c986 97be 79a4 3bbf
000002a0: 936d 3fbe cd9e d13e 562e 0fbe fb03 febd
000002b0: b29e a73d dd50 053d 016d 24be 43ec 87be
000002c0: af04 adbd 96b7 ddbe d454 92be 17dd 973c
000002d0: 60b1 703e c147 20be 396e 67be 7452 b8bd
000002e0: d404 603e 1c19 8b3d 5b1b 893e 02d4 f8bd
000002f0: 96ca 93bd 4ec1 95bd 4ced 523d 5bf1 733e
00000300: a058 083e 217b 2b3e c889 5b3d d9d7 e33a
00000310: f111 92be a169 4f3e cb6d 2dbd ef02 17be
00000320: ff4d afbd f893 0abe cbf2 9e3d 3de4 0bbf
00000330: 92b4 a23e b89d f2bc e2f0 9fbe 4435 443e
00000340: d0ce e73e d8d8 dd3e bebe 353f 9a68 8dbe
00000350: 3d5c 293f b9fd 0b3d bebb 3b3e 13de 15bf
00000360: b38e 2abe bf5b b63c 522e c33e fad1 f13e
00000370: 49f0 35be 23f5 bcbe 8688 a83e f39b d33e
00000380: b6dd 18be ec18 cbbe 7cfc ddbe 5957 e6be
00000390: 12a7 48bf 8fad 15bf 2de4 6bbe be30 053e
000003a0: c9db c7bd a4a3 e2bb 8c83 d5bb 5d41 763d
000003b0: ebb7 633e 6617 863e 839b 003e a1ea e3bd
000003c0: 50a8 77be 54aa cebc c059 273d caed 523c
000003d0: 84fe a7be b844 3fbe 92ed 54be 2de1 93be
000003e0: a2b9 f9be 4347 b7be ec8c 2ebe aae2 7a3e
000003f0: da3a 7a3e cd55 f83d edf8 973e 4b31 d03e
-0.15190369 -0.099432044 -0.31436265 0.18513003 0.23209283 -0.22759613 0.18942258 -0.25259468
0.5411537 0.289136 0.12877037 -0.06524187 0.21497533 -0.016704967 -0.098333985 -0.25631732
-0.33166748 -0.1796056 -0.22253516 -0.3570139 0.12547337 0.124525726 0.14503655 -0.4148378
-0.36422846 -0.07713834 -0.21182655 0.36596683 -0.6847394 -0.30962187 -0.61636233 0.30542377
0.055272806 -0.0641395 0.03224822 -0.8299169 -0.31643963 0.12703614 -0.25644785 0.047750145
-0.06264483 0.23586503 -0.37549955 -0.106216036 -0.75344217 0.1897839 0.6020006 0.38289908
0.104841456 -0.40511107 -0.04992209 0.26191205 -0.3244889 -0.27985847 -0.50402045 -0.5974505
-0.17716476 0.20863424 0.09942043 -0.126379 -0.3854475 -0.4502654 -0.30816945 0.35640466
-0.34844464 -0.36658072 -0.13949428 -0.18410309 -0.077057645 -0.19037078 -0.1873489 0.27361774
0.2027232 -0.41255742 -0.066691145 -0.53635985 0.0066492944 -0.04617042 0.054412566 -0.17454773
-0.027270587 -0.1657082 -0.49417192 0.13853632 0.0038558037 0.15406632 -0.403178 -0.42644846
0.066506386 0.122973815 0.13178763 0.54623514 -0.23991367 0.3175864 -0.20846766 -0.67346644
-0.47200868 0.07096366 -0.6075149 -0.38003308 0.06326526 0.06144557 0.08142215 0.5909694
0.31704718 0.36584508 0.16115509 -0.24600245 -0.31387618 -0.22238597 -0.52826095 0.026494846
-0.07575055 0.026008325 -0.066328175 0.14829323 0.020250661 -0.1839228 -0.054691218 -0.103667095
0.3455126 -0.2551238 -0.018436575 0.34198698 -0.13101427 0.013484651 0.5732484 0.38059697
0.06342504 0.3720283 -0.578245 0.16792542 0.071964785 -0.3522991 -0.879286 -0.234605
0.4585887 0.43459496 -0.00074485526 -0.1268378 0.371069 -0.18630375 0.043782264 -0.15927255
-0.14752242 -0.062223013 -0.044003002 -0.08122434 -0.22142155 -0.1412982 0.17177562 0.035233885
-0.1582113 -0.194757 0.5293965 0.2587806 -0.13794556 0.24888818 0.008966923 0.008714772
-0.25112036 0.14404365 -0.115098484 -0.1796672 -0.011023075 -0.055860195 -0.2959502 -0.7329784
-0.18694143 0.40941468 -0.1398252 -0.12403103 0.081845656 0.03254782 -0.16057207 -0.2654744
-0.08448159 -0.43304127 -0.28580344 0.018538041 0.23505163 -0.15652372 -0.2260064 -0.09000102
0.21876842 0.067918986 0.26778683 -0.12149812 -0.072163746 -0.073122606 0.051495835 0.23822539
0.13315058 0.16746189 0.053598195 0.0017383053 -0.28529313 0.20255138 -0.042341035 -0.14747213
-0.085597984 -0.13533008 0.07761153 -0.5464514 0.3177839 -0.029616222 -0.31238467 0.19160944
0.45274973 0.433295 0.70994174 -0.27618867 0.6615637 0.034177516 0.18333337 -0.58541983
-0.16655998 0.022260545 0.38121277 0.47230512 -0.17767443 -0.36905774 0.3291666 0.41329917
-0.14928326 -0.3966745 -0.43356693 -0.44988516 -0.7837993 -0.58467954 -0.23036261 0.13006875
-0.097587176 -0.00691648 -0.0065159258 0.06012093 0.22238128 0.26189727 0.12559323 -0.11128736
-0.241853 -0.025227703 0.040857077 0.012874076 -0.32811368 -0.18678558 -0.20793751 -0.28882733
-0.4877444 -0.35796556 -0.17045945 0.24500528 0.24436513 0.1212574 0.29682103 0.40662608

fc_layers.0.bias f4 [120]
00000000: aba0 b8bd 46ce 033e f412 153f 708f 17bf
00000010: ac46 c23d ce05 d1be 5fa7 a93d 9756 8b3e
00000020: 5a52 093d 6eb2 cabe e850 41bf 19e2 a5be
00000030: 33b4 3ebf bd62 c83e 1a44 fcbe 395c a9be
00000040: 7d9b 493d ff07 99bd 8660 5dbe 94b6 c43a
00000050: bb83 c5be 3dea 0abe b608 133e 71ed 8bbd
00000060: ce92 b0bd 70a8 2dbf 3c88 ebbe ce8f a4be
00000070: ce1f dcbe b721 33be 473a eabe 5626 7ebe
00000080: 05db b13d 1b7f b63e a22a ed3e 1b16 c4be
00000090: 04c3 9bbe 2e96 90be e3ef f6bd 4e53 373f
000000a0: 717c cb3e 0935 21bf a901 8f3c d1cc a53e
000000b0: d240 ccbd b880 413f 4b73 0ebf 2e13 03bf
000000c0: 969f 453e 4a7a 8e3e bc49 673e 04c1 16bf
000000d0: 9d9c b7be dd70 023f 130d 713e 97e6 383e
000000e0: a653 77be c0bf 94be 86df 06be e0dc e4be
000000f0: bedd 583f b696 883e 5917 01be 7010 8a3e
00000100: f172 b3be 647e ae3d c03e 813f 5f27 bfbe
00000110: 718b 3ebe 296e c43e fd9d 87be c53a 0a3e
00000120: 47a3 503e e82d b4bd 0467 853e 5504 c73e
00000130: 871e 50be f2d1 3f3e 4bae 013e e45b 90be
00000140: 85e7 21bf db90 0fbe 8fc7 21be 2021 903e
00000150: 9d8a 3e3e e964 01bf 1698 353f 196f 873f
00000160: 8ba3 143f 9e56 2ebe e89f 08bf e7c7 a8be
00000170: be45 883e a398 fcbe 8f51 403e 5075 9e3e
00000180: 7a81 d7bb cf6e d23d 4348 e93d ab4c b83e
00000190: ee61 d23d 89d3 bdbe b01d aebe 4f5d 423e
000001a0: 3080 ac3d 9387 95be d93c 13bf 18e4 8d3e
000001b0: 97f4 28bf a1aa 0a3f 1006 253e 74dc fdbe
000001c0: 11d0 a13f 4061 233e f95e f8be a82f 103f
000001d0: 3249 02be d592 f63d 8854 71be c852 06bc
-0.0901502 0.12871656 0.58232045 -0.59203243 0.09486136 -0.4082474 0.08283877 0.272145
0.033525802 -0.39589256 -0.7551408 -0.3239906 -0.7449371 0.3913783 -0.49270707 -0.33078173
0.04922055 -0.07472228 -0.21618852 0.0015008026 -0.38577065 -0.13565917 0.14358792 -0.06832398
-0.08621751 -0.6783514 -0.46002376 -0.32140964 -0.42993015 -0.1749333 -0.45747587 -0.24819311
0.08684353 0.3564385 0.4632159 -0.38298115 -0.30422223 -0.28239578 -0.120574735 0.7161149
0.3974338 -0.6297155 0.017456846 0.32382825 -0.09973301 0.75587034 -0.55644673 -0.5120114
0.19299158 0.27827674 0.22586721 -0.5888827 -0.35861674 0.50953466 0.23540144 0.18056713
-0.24153003 -0.29052544 -0.13171205 -0.44699764 0.8471335 0.26677483 -0.12606563 0.26965666
-0.3504863 0.08520201 1.0097275 -0.37334725 -0.1860788 0.38365296 -0.26487723 0.13498981
0.20374785 -0.087978184 0.26055157 0.38870493 -0.20324145 0.18732432 0.12664144 -0.28195107
-0.63243896 -0.14020102 -0.15798782 0.28150272 0.18607564 -0.505446 0.7093519 1.0580779
0.58062047 -0.1702523 -0.53369 -0.32965013 0.2661571 -0.49335203 0.18781112 0.30948877
-0.006576714 0.10275041 0.11390736 0.35995993 0.10272585 -0.3707545 -0.34007025 0.18980907
0.08422887 -0.29204997 -0.5751472 0.27713084 -0.65998214 0.5416661 0.16115594 -0.49582255
1.2641622 0.15955067 -0.48509958 0.5632272 -0.12723234 0.12039725 -0.23567402 -0.0081984475

fc_layers.1.weight f4 [84, 120]
00000000: 58fc 5ebe d6ce dbbe 09ec 083e c028 dbbd
00000010: 4a18 573e 129f eebe 178a 59be 7751 8cbe
00000020: 5023 0abe 4571 a7be 8909 1cbe b2d9 dabe
00000030: 6d46 75be 02a3 11bf e88d 24be 50bf babd
00000040: 2922 86be 1a6c 4f3c 6a58 a0be dd85 773c
00000050: e0f6 7fbd a0eb 36be 790e dabd 9cf0 4b3e
00000060: e10e d1be 30b6 5cbd ca27 d9be b7b5 91bb
00000070: ad84 b43d 52ea 09bf 381f ecbe c98a 35bf
00000080: e06b 0fbb c813 e8bc 1ec4 583c f022 72be
00000090: 275a 11bf 44b5 5ebe bad1 67be 49cb 863d
000000a0: 7724 7fbd 59a0 16be 3759 543e e3b5 fdbd
000000b0: 7530 723e 785b 033e ef4d cdbe c1b5 ffbd
000000c0: 0f48 a2be eabf 11be f436 04be 38ad 4a3c
000000d0: b0a8 5bbe e716 5dbe 9e88 5ebd c353 76be
000000e0: 45f5 86be 6080 84be 112a afbe 51de 593e
000000f0: a184 8b3e 3aa8 28be 6507 cdbc fa57 ce3e
00000100: b5aa 19be dedc 97bc 0d9e a83e 7e42 2ebe
00000110: 414b 4ebf 101f 0c3e ffd0 77be c62f 7e3e
00000120: bf35 88be 608d 35be f1fc 0ebe 0caf 91be
00000130: b748 14bf 4da9 60bc 7be5 62be 43e9 dfbe
00000140: e62e 4c3d eb0f 58be a436 c5bd d345 b9be
00000150: b254 273d 16dc a2bd 644f 61be bc85 113d
00000160: 0e41 dabd 41bf 0abe c05d 93be 3751 6dbe
00000170: fcea b9be bb0f 20bf 1416 443d f75f 1a3e
00000180: 0aea 1fbe 881d be3e ff75 17bf b69a 90be
00000190: 78cd 1abe a33a cabe 0038 a0be f8e3 adbd
000001a0: 4ba4 4d3e 9e5e 9abe 52a7 c9be f2fe c43e
000001b0: 70df 8abe 6e82 b23e c4be 76be 6dec a2bd
000001c0: 2cce 813e 76ef 0ebb 8660 14bf e77f 57be
000001d0: 478c d93d 6079 f0bd 489c d5bd 37a2 ad3e
000001e0: 3ca1 813c c79f 87be 5105 5ebd 651a ffbe
000001f0: 390e e7bd ebc8 84bd cb39 13bf 2d1b d2be
00000200: b473 76be 29dc 9a3d 6efb 1a3e c92d 9fbe
00000210: 8540 c93e cd1f ccbe 022f 593e 5eab 0f3f
00000220: d194 ebbd e831 e23e 8cdc 32be d3b2 a4be
00000230: 6298 c0bd 5ed6 2cbe 80f2 0fbe a523 1fbd
00000240: b7dd a93e 0adf 8a3e 980f f83d 52d9 3cbe
00000250: 3a4e 89be e626 84be 07e2 29bf fe33 49be
00000260: ffbd d8bd 0586 98be a4ec cc3c 7604 7cbe
00000270: 0fa1 ed3d 2292 cebc 5106 cabd b13c b7be
00000280: e8b8 3aba e941 23bd cdc2 5bbf 1658 2a3e
00000290: 128c 083d e44b 143d 6948 623e 086c 433d
000002a0: 45f6 25be 8bf7 10bf 2afe 733e 22d4 51be
000002b0: 5322 173e 83bd 01be c4fb 713e ea9b 23bf
000002c0: c0d8 fe3c 576d d73d ab23 9dbe 357b 743e
000002d0: d473 10bf dc15 c3be 9099 0cbe 8ab7 44be
000002e0: 7b5d 1b3e 35d9 e4be c208 d5be 4b0f 96be
000002f0: bc99 98be 665a d43d 0385 fbbe 4eff 34be
00000300: 01b9 27be 1936 bf3d 3922 ebbe 3ba0 913e
00000310: 515e 6cbc a588 ccbd c861 98be b027 fbbd
00000320: d892 a03e 6d33 0bbf 7f1a a43e bbcf 51bf
00000330: b16f 03bf ae45 ad3e 1755 a7be 3a2c 52bf
00000340: a999 8b3e 809b 2abe 0430 5d3e ba2d 74be
00000350: a111 8b3d 5936 5dbd 84b4 debe 68e6 59bf
00000360: bf3e 45be 4f95 1cbe 207e bdbe a66a 4e3d
00000370: 5628 13bf c5da 063e 88c2 19be ba7b 893e
00000380: b258 90be 7706 953e 1c8c bc3e 1bb0 a0be
00000390: 9b93 a9be 1988 a9bd fabe efbd 8928 10bf
000003a0: 90d7 8ebd 9b6e b0be 485b 0abe d33b 2a3e
000003b0: d739 58be 9816 e3be 6d5a 48be 1bdb ae3d
000003c0: 5056 6f3d c88a bdbe 4473 bf3e 4586 5fbe
000003d0: fcf8 32bd e830 e5be 6d28 0bbf 750c 85bd
000003e0: 3015 f4be f8a2 a6bc 7ca6 653d 4160 3bbe
000003f0: 8c38 c23e 090d 90be 91ef 493e cc7b 933d
-0.21775949 -0.4293124 0.1337129 -0.10701132 0.2100536 -0.46605736 -0.21244083 -0.27405903
-0.13490033 -0.32703605 -0.15238012 -0.42744213 -0.23952647 -0.56889355 -0.16069758 -0.09118521
-0.26197937 0.012660051 -0.31317455 0.015107599 -0.062491298 -0.17863321 -0.10647292 0.19916004
-0.40831664 -0.053884685 -0.4241317 -0.004446711 0.088143684 -0.5387317 -0.46117568 -0.70914894
-0.0021884367 -0.028329745 0.013230352 -0.2364614 -0.56778187 -0.21748835 -0.22638598 0.06581742
-0.062290635 -0.14709605 0.20737158 -0.12388208 0.23651297 0.12827861 -0.4009852 -0.12485839
-0.316956 -0.14233366 -0.12911588 0.0123704 -0.21451068 -0.21590768 -0.054329507 -0.2405539
-0.26359 -0.25879192 -0.34211782 0.21276213 0.27249625 -0.16470423 -0.02502794 0.40301496
-0.15006526 -0.018537935 0.32933083 -0.17017552 -0.8058358 0.13683724 -0.2420082 0.24822912
-0.26603505 -0.17729712 -0.13963677 -0.28453863 -0.57923454 -0.013712239 -0.22157852 -0.43732652
0.049849413 -0.21099822 -0.096295625 -0.36186084 0.040852256 -0.07952134 -0.22002941 0.03552793
-0.106569394 -0.1354952 -0.28782463 -0.23175512 -0.3631209 -0.62524 0.047872618 0.1507567
-0.15616623 0.37131906 -0.5916442 -0.28243035 -0.15117443 -0.3949786 -0.31292725 -0.08490747
0.20082204 -0.30150312 -0.39385468 0.38475758 -0.27123594 0.34865135 -0.24096209 -0.07955251
0.2535261 -0.002181021 -0.57959783 -0.21044885 0.10622459 -0.117419004 -0.10430199 0.33912823
0.015823953 -0.26489088 -0.05420429 -0.49824825 -0.1128201 -0.064836346 -0.5751006 -0.41036358
-0.24067575 0.075615235 0.15134975 -0.3108962 0.39307037 -0.39868012 0.21209338 0.5612086
-0.11502994 0.441787 -0.17466944 -0.32167682 -0.09404065 -0.1687865 -0.1405735 -0.038852353
0.33176968 0.2712329 0.12112349 -0.18442276 -0.26817495 -0.25810927 -0.66360515 -0.1964874
-0.10583114 -0.2978975 0.025015183 -0.24611077 0.11602985 -0.025216166 -0.09864486 -0.3578849
-0.000712289 -0.03985778 -0.8584412 0.16635165 0.033336706 0.036205187 0.22097935 0.04771045
-0.16207226 -0.5662772 0.23827425 -0.20491078 0.14759187 -0.12669949 0.23631197 -0.6390978
0.031109214 0.10518902 -0.30691275 0.23875125 -0.5642674 -0.38102615 -0.13730454 -0.1921064
0.15172379 -0.44696966 -0.41608244 -0.29308543 -0.2980479 0.10368805 -0.49124917 -0.17675516
-0.16379167 0.0933649 -0.45924547 0.2844256 -0.014426784 -0.099870004 -0.297621 -0.12263429
0.31362033 -0.54375345 0.32051465 -0.81957597 -0.513423 0.33842224 -0.32682106 -0.82098734
0.2726567 -0.16660881 0.21600348 -0.23845568 0.06790472 -0.054006908 -0.43497097 -0.851172
-0.19262217 -0.15291332 -0.37010288 0.050394677 -0.5748342 0.13169391 -0.15015614 0.26852208
-0.2819267 0.29106495 0.36825645 -0.31384358 -0.33120427 -0.08277912 -0.11706348 -0.5631185
-0.06974709 -0.34459385 -0.13511384 0.16624384 -0.21115814 -0.44353175 -0.19565745 0.08537885
0.058431923 -0.37019944 0.37392628 -0.21828564 -0.04369448 -0.44763875 -0.5435856 -0.064965166
-0.47672415 -0.020341381 0.056066975 -0.18298437 0.37933767 -0.28134945 0.19720294 0.07201347

fc_layers.1.bias f4 [84]
00000000: 6b12 da3f b8fb 8ebf 5e8a 39bf 44db b0be
00000010: 14af 463f d9d1 cebe 5e68 073f f5c9 c93d
00000020: d1c7 03bf e59b 4e3c 5e2c 64be a729 1c40
00000030: eabc e4be d9f8 18bf 38ef 45bf 1406 853f
00000040: da5e 6e3f 9835 343d 3912 da3d 2b6c 11bf
00000050: 67cc 113e 65a9 2e3d 4646 80bf 232f 41bf
00000060: ffac 23bf 450d 24bf 2bf4 50bd c277 c83e
00000070: 3acb cc3d 94c8 d53f 0351 763e 661c ffbe
00000080: 6a9e 203e 7193 d83d 94bb 84bf 95ee aa3f
00000090: acdc a73e ea00 113e e122 153e 6de9 d13e
000000a0: b661 3a3e ef42 70be 7448 a73f accf a33f
000000b0: 8d9d c0be d51f c7bd 3dcb c5be a976 be3e
000000c0: cdc3 c53e fc02 c93f a99f ae3f 533a 65bf
000000d0: f3fa 153f 29c2 c7be f49a 55bf 03ae c7be
000000e0: 90f6 3abf fc1d 243f e28e a7bf 3501 5d3e
000000f0: eb6f 873f 62c6 f5bd 786f c8be 450b 4ebe
00000100: 3343 10bf c2ba dfbd 2362 21bd e391 26bf
00000110: e03a 03bf f097 2ebf bcbe 943e 7edb 2cbe
00000120: 2d16 33be 7533 293f cfa7 fcbc 68a7 c3bd
00000130: 655c ae3f 6481 15bf 63f4 a1bf 6d61 063f
00000140: 8a25 123d bd48 11bf 93f6 fd3c 73df b2bd
1.7036871 -1.1170568 -0.72476757 -0.34542286 0.776109 -0.40394476 0.52893627 0.09852973
-0.5147677 0.01261041 -0.2228255 2.4400423 -0.4467538 -0.5975471 -0.77318144 1.039248
0.9311348 0.043996423 0.10648007 -0.56805676 0.1423813 0.042642016 -1.0021446 -0.7546255
-0.63935846 -0.6408275 -0.051014107 0.39153868 0.099997 1.6701837 0.24054341 -0.49826354
0.1568543 0.10574997 -1.0369744 1.335406 0.32785547 0.14160505 0.14564086 0.40998402
0.18201336 -0.23463033 1.3068986 1.2797751 -0.37620202 -0.09722868 -0.3863162 0.37199906
0.38625947 1.5704036 1.3642474 -0.8954212 0.58586043 -0.3901532 -0.83439565 -0.38999948
-0.73032475 0.6410825 -1.3090479 0.21582492 1.058103 -0.12000729 -0.39147544 -0.20121486
-0.5635254 -0.10924293 -0.03940023 -0.65066355 -0.5126171 -0.6820059 0.2905177 -0.16880605
-0.17488928 0.6609414 -0.030841736 -0.095534146 1.3621947 -0.5840056 -1.2652706 0.5249241
0.03568033 -0.56751615 0.031001365 -0.08734026

output_layer.weight f4 [10, 84]
00000000: 78ce 9e3b 435d ddbd e72a f93d a94b 4cbd
00000010: f044 ccbb 802d babc 9dcf 37be ad7a 213d
00000020: 6cfe 44bc ba29 48be bf96 193e 7340 35bd
00000030: 4e24 9e3d 0107 503d 997b 163e 27f5 2abe
00000040: adfb 4cbd d1f5 a3bd d565 10ba d70a 773d
00000050: 4d73 12be 13ec 66bd e325 4a3e 9545 073e
00000060: 3b70 903e f47d a8bc 9e8b 85bc a5e9 e53d
00000070: 9239 7abe ddd3 25be 095f ee3d cc70 4ebe
00000080: 163d c53d 1175 683c 48f3 8cbd fb18 5cbd
00000090: ffb5 593e 730a 30bd 9946 8d3d a94c 923e
000000a0: 9eca aebd 2d16 09bc 49bc bbbd a013 26be
000000b0: c03b f23d 2fff 3bbd 53e8 3fbc ca40 7cbd
000000c0: 369d 9e3d 641f dbbd 430f 2539 5862 3f3e
000000d0: 9856 d9bd c3e4 063e edb2 803e 4749 9dbc
000000e0: d882 50bd 6f76 abbd 2684 1f3c a8c8 24be
000000f0: 701e 9d3d 36cc 99bd 8050 bf3d 43f0 413e
00000100: a0a7 96bd aa83 0cbb 63f4 00be a629 863d
00000110: 58ff 773d bc65 a8bd c291 86bd 6f72 be3d
00000120: bbdf b4bd e30d 993d d6d3 3e3d c8fb 163e
00000130: 5de5 a2bd 057c b03c 9a81 1a3e d93e 90bd
00000140: e6b2 793b 6e30 143d 3e74 fabd e562 973d
00000150: 2f5f 2fbe 633b 6c3e a775 b53d 7e6e 2b3d
00000160: f9e5 11bc 47ff 4ebc 9e11 a3bd d01c 28bd
00000170: 2966 023c 56cf 55bd da3e 4cbe edbf cebd
00000180: e5ef 973e a3bf 82bd 0478 963d eed0 37be
00000190: f2e6 0a3d 4ba0 3cbe e319 96be 251c b3bd
000001a0: 79a8 cbbd c6ce 2d3e ee24 d63d 46b2 a5bc
000001b0: 77bc 57bd f2e6 c13c 06a4 3f3d a1e0 46be
000001c0: 2240 19bd b045 13be d4bc 45be 22f8 56bc
000001d0: ee08 ac3d 88ad 19be b0a8 393e 6fe7 28bd
000001e0: 61d8 b4bd 66e8 693d 2c7e 883d b154 94bd
000001f0: 9bb7 1a3e 8ac1 223e ad80 73bd dad8 94bd
00000200: 9782 493e 1752 ce3a 3be5 8dbd f920 7ebe
00000210: 1f18 743d 580e e1bc e1a4 81be 818f c83d
00000220: ba81 973d 778f 25be 4ffe 3e3d 868f c8bd
00000230: d70e 5c3d 0ee4 00bc 8792 7d3e 028c 72be
00000240: 313b 343d 4d87 23be 65ad 5d3e f758 9bbc
00000250: f271 c0bd 2ad7 303d ebf4 213c c708 a33e
00000260: 6a5e fdbc 8515 453e 981f 0fbe 0344 eabd
00000270: ecd5 3abe c3fb 3bbd 49c1 703e 1bb3 613b
00000280: 57db 6ebe 8bf9 e1bb fb87 9d3b 135f 79be
00000290: 899b 20be b91c 163e 8caa 25be 874e 973d
000002a0: a31d a23d b929 3dbd 6e7b d63b 4aef 4cbe
000002b0: 0b52 cf3d 7096 13bd 911d d33b 54bd 2b3b
000002c0: a67a 713c 3864 173e 76c2 4a3e 25ff ea3c
000002d0: 3d11 f6bd 146c 593e e958 563e dff5 fbbd
000002e0: 8bdc 003e 13e6 383e 876b 0bbe dd42 3e3e
000002f0: 82dd 423b 9ecd 543d d5e1 97bc 8d6b 143e
00000300: ac86 6f3d d24d 883e 90da 5dbc 9314 203e
00000310: 6949 b4bd 318f c03d 9a63 b43d d6f7 2cbd
00000320: 54b0 29ba c9d8 033e fe38 2ebb 4c8b 053e
00000330: e0ed d9bc f8d7 593c 12c4 26be 4251 c83d
00000340: 085a 8dbd 3612 60bd 5548 0e3d ab83 24bd
00000350: dad4 41be 123e c5bd d0ce 88bd 57da e33d
00000360: 6028 9bbc f6bb be3d 3cfb 873c 1096 933c
00000370: dcf3 b9b9 2d33 86bd e3b1 d93d 532b 503e
00000380: abf0 003e 87a8 8cbd 9200 afbc d2d9 3a3e
00000390: 2bed 22be 34c0 193e 16cb 02bd ca22 68bd
000003a0: 9c73 223e 9e2c 6ebc e383 9b3d c25b 1ebd
000003b0: 2bca f13d cb15 82bd d18e 063d a7ee 47bd
000003c0: 5f25 c9bd 6237 c6bd fc54 afbc 80af ccbd
000003d0: 4489 a43d 2ed1 ca3d 56d8 453d 8880 c3ba
000003e0: 87af fb3d 7be4 a03e fca5 bebd c48e 02be
000003f0: ea7e 1ebd 4bd4 37be 9765 0ebd 80a2 2c3e
0.0048463903 -0.10808804 0.12166386 -0.049876843 -0.006233804 -0.022726774 -0.17950292 0.039423633
-0.0120235495 -0.19547167 0.14998911 -0.044250917 0.07721768 0.05078793 0.14695586 -0.1669508
-0.050044704 -0.0800587 -0.0005508338 0.060313072 -0.14301796 -0.05637748 0.19741015 0.13210137
0.28210625 -0.020567872 -0.016301926 0.11226205 -0.24436024 -0.161941 0.1163922 -0.20160216
0.09630792 0.014188067 -0.0688234 -0.05373476 0.21260832 -0.042978715 0.06898231 0.28574112
-0.0853474 -0.0083671035 -0.09166772 -0.16218424 0.11827803 -0.04589766 -0.011713105 -0.061585225
0.07744829 -0.10699347 0.00015741312 0.18689859 -0.106122196 0.13173203 0.2513651 -0.01919998
-0.050906032 -0.08372199 0.0097360965 -0.1609217 0.07671821 -0.07509653 0.09341526 0.18939309
-0.07356191 -0.0021440783 -0.12593226 0.065509126 0.06054625 -0.08222529 -0.0657077 0.0929917
-0.08831736 0.07473352 0.04658874 0.14744484 -0.07953904 0.021543512 0.15088502 -0.07043237
0.0038101017 0.036179 -0.12229203 0.073919095 -0.17126153 0.23069529 0.08860331 0.04185342
-0.008904927 -0.012634105 -0.079623446 -0.041043103 0.007958927 -0.052199684 -0.19945851 -0.10095201
0.29675213 -0.06384208 0.0734711 -0.17950794 0.033911653 -0.18420522 -0.29316625 -0.087456025
-0.09944243 0.16973409 0.104562625 -0.020226609 -0.05266997 0.023669694 0.046787284 -0.19421627
-0.037414677 -0.14382052 -0.19310313 -0.013120683 0.08400141 -0.15007603 0.18130755 -0.041236337
-0.088303335 0.057106398 0.066646904 -0.07242716 0.15109102 0.15894142 -0.059448887 -0.07267924
0.19678722 0.0015741017 -0.06928488 -0.24817266 0.059593316 -0.02747266 -0.25321105 0.09792996
0.0739779 -0.16168009 0.046629246 -0.09793 0.05372509 -0.0078668725 0.24762927 -0.23686221
0.04400176 -0.15969582 0.21648176 -0.01896332 -0.09396733 0.043173946 0.009885053 0.31842634
-0.03092881 0.1924649 -0.13976896 -0.114387535 -0.18245667 -0.045894396 0.23511232 0.003443903
-0.23325859 -0.006896203 0.00480747 -0.24352674 -0.15684332 0.14659394 -0.1617834 0.07388025
0.07915809 -0.046182368 0.0065454757 -0.20013157 0.1012307 -0.03603214 0.0064427336 0.0026205378
0.014738714 0.14784324 0.19800743 0.028686116 -0.12015007 0.21232635 0.20932354 -0.123027556
0.1258413 0.18056516 -0.13615237 0.18580194 0.002973408 0.051953904 -0.018540302 0.14494152
0.058478042 0.26621872 -0.013540879 0.15632848 -0.088030644 0.094023116 0.0880806 -0.042228542
-0.00064731133 0.12875666 -0.0026584263 0.13041419 -0.026602685 0.01329612 -0.16285732 0.09781124
-0.06901938 -0.054704867 0.03473695 -0.04016463 -0.18928853 -0.096309796 -0.06680071 0.111256294
-0.01894015 0.093131945 0.01659929 0.018015891 -0.0003546764 -0.0655273 0.10629632 0.20329027
0.12591808 -0.068680815 -0.021362577 0.18247154 -0.15910785 0.15014726 -0.03193196 -0.056673802
0.15864414 -0.014537005 0.07593515 -0.038661726 0.118061386 -0.06351813 0.032851044 -0.04881158
-0.09821581 -0.09678532 -0.021402828 -0.099944115 0.08033994 0.09903179 0.048302017 -0.0014915625
0.122893386 0.31424317 -0.09309003 -0.12749773 -0.038695253 -0.17952077 -0.034764852 0.16858864

output_layer.bias f4 [10]
00000000: 5e1e 21be 55ab 52bf a360 b03c 43b7 513f
00000010: 50ad 073f e3ed d53d 9d94 91be bcbd 05bf
00000020: d986 cc3d 3560 cd3c
-0.1573424 -0.8229268 0.021530455 0.8192026 0.5299883 0.10445764 -0.28433695 -0.52242637
0.09986658 0.02507029
