Lab1/model/model_mnist/LeNet-5.pth (torch, 181240 bytes, 10 tensors)

conv_layers.0.weight f4 [6, 1, 5, 5]
000000 8a 86 1c 3e 9b 83 ea 3d d9 b5 ed 3d cd c9 98 3e
       0.15285698 0.11450883 0.1160695 0.29841462
000010 06 e6 b4 3e 21 43 a2 3e 07 15 1d 3f 62 e2 11 3f
       0.35331744 0.3169184 0.6136021 0.5698606
000020 71 95 aa 3e d3 f7 7c 3d 9c fd a8 3e 24 bd 85 3c
       0.3331714 0.06175978 0.3300599 0.01632554
000030 8e f9 97 3d 6e ae e5 bd 2c bc 1c 3e a4 4d 73 bc
       0.07420646 -0.112149104 0.15306157 -0.014850054
000040 bc 72 d5 be f5 12 85 be c7 6e d4 be 8a 1e 12 be
       -0.41689098 -0.25991026 -0.41490766 -0.14269462
000050 3e 97 e5 be 33 87 15 bf 11 aa c2 be 04 02 29 be
       -0.4484195 -0.5840942 -0.38020375 -0.16504675
000060 71 eb 97 bd 90 ad 58 bd 3f 86 4b 3e 43 28 1b 3e
       -0.07417954 -0.052899897 0.1987543 0.15152077
000070 04 fd ad 3d 2f 76 28 be 3f 58 db 3d 2c 1a 8e 3e
       0.084955245 -0.16451333 0.10710191 0.27754343
000080 2e a1 e3 3e 3a ae bd 3d 5a 11 d0 be 2a c4 25 be
       0.44458908 0.09261747 -0.40638238 -0.16188112
000090 db 52 4f 3e 95 5d 2c 3f 1d 58 ae 3e 7f 13 ce be
       0.2024645 0.67330295 0.340516 -0.4024925
0000a0 64 c4 1f 3e db cc e2 3e 3b 41 f8 3e ef c4 44 3e
       0.15602261 0.44296917 0.48487267 0.19215749
0000b0 b0 a0 0e 3e af 96 85 be 22 d8 09 3e 9d be 4d 3e
       0.13928485 -0.26091525 0.13461354 0.20092244
0000c0 ea 12 2d 3e 10 71 be 3d ea 8e ae bd 33 76 a8 bd
       0.16901746 0.09298909 -0.085233524 -0.0822567
0000d0 2d 18 fa bb 82 20 44 3e 33 34 66 3e 9e dc 77 bc
       -0.0076322765 0.19153026 0.2248085 -0.015128283
0000e0 cb a2 41 3e 1e be 62 3e a7 05 71 3e ca 9c bc 3d
       0.18909757 0.22142836 0.23537312 0.09209593
0000f0 24 55 fd bd df 01 d0 3d 3d 54 00 3e c0 73 f4 3d
       -0.12369755 0.10156607 0.12532134 0.1193614
000100 d4 f4 4a bd 59 b6 7e be 11 af cf bd 5b 89 09 3e
       -0.049549893 -0.24874248 -0.10140813 0.13431303
000110 e0 8a a9 3e ea f3 20 3e 0d 75 b3 be 29 a8 e9 bd
       0.33113766 0.15718046 -0.3505024 -0.11409027
000120 fc ec 4d 3e 9c 04 c4 3e 78 c2 37 3e b0 05 48 be
       0.20109934 0.38284767 0.17945278 -0.1953342
000130 e2 53 2a 3d 09 02 be 3d 73 87 6a be 6a fd 84 be
       0.041583903 0.09277732 -0.22903232 -0.2597459
000140 9b 32 df bd 5a b5 2e be 9a 5c 2f 3d 40 dc 59 3e
       -0.10898324 -0.17061368 0.04281292 0.21275425
000150 d0 1a 43 be 09 79 3b bc af d6 55 3e 15 12 44 3e
       -0.19053197 -0.011442431 0.20882677 0.19147523
000160 87 35 4a 3d 56 a3 a0 3e d8 e5 0e 3e bf 63 b5 bd
       0.049367454 0.31374615 0.13954866 -0.08856916
000170 98 ec 6c be a7 04 9c bd 2c c2 6c bd dd ed 4b be
       -0.23137128 -0.07618075 -0.057802364 -0.19914956
000180 b7 5b 40 3d 7b d9 86 3d bc 32 1f be 2f 40 5e bd
       0.046962466 0.0658445 -0.15546697 -0.05426043
000190 1b a7 9e 3d 19 61 b4 bd 3e 8f 81 bc f5 70 d0 be
       0.077467166 -0.088075824 -0.015815374 -0.4071118
0001a0 ed 6d 3d be d2 c1 82 be 20 1c 8c be de e0 70 be
       -0.18498965 -0.25538498 -0.27365208 -0.2352328
0001b0 86 56 d4 3c 7b 16 48 bd 41 fe e2 bd bc b1 be 3d
       0.025920164 -0.048849564 -0.11083651 0.09311244
0001c0 1d e1 ea 3e 13 a7 28 3f 3c 25 df 3e 6f ac 0a be
       0.45874873 0.65879935 0.43583095 -0.1354234
0001d0 a1 1e 53 3d a1 07 0c 3f b1 a9 3a 3f 53 f9 3b 3e
       0.051542882 0.5469914 0.7291518 0.18356828
0001e0 a6 d9 df 3d 8f 72 96 3c 69 01 01 be e8 76 8f 3e
       0.10930185 0.018365173 -0.12598194 0.28020406
0001f0 ec f6 64 3e a5 3c 19 3e bb 1f 12 3d 39 41 f5 3d
       0.22359818 0.1496454 0.03567479 0.11975331
000200 c2 7a 02 3e 8a 52 88 bb 47 36 fe 3d 1b ae 51 bd
       0.12742141 -0.00416023 0.12412696 -0.05119143
000210 f4 da 36 3e 85 91 b5 bd 12 6c c6 bd 40 e5 ee bc
       0.17856961 -0.08865646 -0.096885815 -0.02916205
000220 48 5c 13 be 32 2f 17 bd 65 8a 53 3e 2b b7 61 3e
       -0.14390671 -0.036910243 0.20658262 0.2204253
000230 63 18 60 bd b4 5e 2d be e4 f4 9b bd 5c cb 96 3d
       -0.054710757 -0.16930658 -0.076150686 0.073630065
000240 03 c7 16 3e 46 31 2e be f1 1f 7e be 34 24 f5 3c
       0.14724354 -0.17010984 -0.24816872 0.02992449
000250 33 7d 63 3e 2f 9d 14 3e
       0.22215728 0.14513086

conv_layers.0.bias f4 [6]
000000 c1 bd d9 3d 06 c7 9a bd 43 6b 56 be b8 1b 7f 3e
       0.10631896 -0.07557492 -0.20939355 0.24912918
000010 ba 9b 69 3b b9 05 d8 bd
       0.0035645799 -0.105479665

conv_layers.1.weight f4 [16, 6, 5, 5]
000000 9e 1e 77 bd 63 8b 81 bd 1c cc ee bc 0c 92 8e 3d
       -0.060331933 -0.06325414 -0.029150061 0.0696145
000010 40 ce 04 3e 87 11 2a 3d 91 4b 8c 3d 96 83 3f 3e
       0.12969303 0.04152062 0.06850351 0.1870254
000020 a1 71 b0 3c be 1e 18 3d bb 43 64 3d 2d 49 15 3d
       0.021538557 0.037138693 0.055728655 0.03644674
000030 1c 53 fe 3d 8b 69 be bc 96 d3 09 be 42 eb 13 be
       0.124181956 -0.023243686 -0.1345962 -0.14445212
000040 24 61 cd bc dc 52 10 be e4 74 f4 3b a2 dc 76 3d
       -0.025070734 -0.14094108 0.0074602235 0.060269006
000050 1a 87 bb bd 06 b7 b0 bd 38 8b 95 3d 87 70 20 3e
       -0.09156628 -0.08628659 0.073019445 0.15667926
000060 cf 1f 75 3d 5b a2 03 be 0c 08 83 3d 95 99 a5 3d
       0.05984479 -0.12854902 0.06398019 0.08085934
000070 3a 2a 8c bb b8 6b 99 bd 8e 23 9d 3b 3e ef f8 bc
       -0.0042774947 -0.07491249 0.004795498 -0.030387517
000080 05 d0 e4 bd 56 7f 38 be 3e 46 8e be fc 5a 6b be
       -0.11172489 -0.18017325 -0.27787966 -0.22983927
000090 09 7e 39 be b1 f1 8c be 00 da 08 be 22 58 86 3c
       -0.18114485 -0.27528146 -0.1336441 0.016399447
0000a0 b5 64 5e be 58 30 41 be 30 35 d1 bd a5 53 a0 3d
       -0.21718104 -0.18866098 -0.10215223 0.07828454
0000b0 1c be 1f 3e 02 bd a7 3d 80 97 46 3e ca 2c 2b 3e
       0.15599865 0.08190347 0.1939373 0.16716304
0000c0 85 90 03 3d 4b fd da 3d 8f 05 68 bc 79 76 c5 3d
       0.032120246 0.10692843 -0.0141614815 0.096417375
0000d0 c8 04 dd bc fa 32 72 bc 81 e6 ec bd d6 58 03 ba
       -0.026979819 -0.014782662 -0.11567403 -0.0005010491
0000e0 08 0e c8 bd 49 da b9 bb f0 9d a4 bd 36 5d cc bd
       -0.09768301 -0.0056717736 -0.08037937 -0.09978716
0000f0 40 ff f6 bd f0 27 12 bd 98 f8 1c bd 00 c2 4c bc
       -0.12060404 -0.03568262 -0.038323015 -0.012497425
000100 e5 b4 07 bc 89 34 fe bd 05 f7 cc bd 20 0a f7 bc
       -0.008282875 -0.12412364 -0.10008053 -0.030156195
000110 9c b3 60 3c ba 58 ce 3d f2 8b 03 3e fc 00 d6 3c
       0.013714697 0.10075517 0.12846354 0.026123516
000120 b0 0e 5b 3d 1f 26 d9 3d e9 db 8f bc 83 ee 5e 3c
       0.053480804 0.10602974 -0.017560916 0.01360667
000130 19 51 04 bd 2d 48 a3 3b ac a0 03 bd 14 ee 9b 3c
       -0.032303903 0.0049829693 -0.03213565 0.019034423
000140 58 fb 9b bd 0b be 68 bd dd 92 ce bb 50 f4 77 3d
       -0.076162994 -0.056821864 -0.0063041286 0.06053573
000150 2c 94 06 bd 10 fc 27 bd f7 82 24 3d a8 e6 00 bc
       -0.03285615 -0.04101187 0.04016396 -0.007867493
000160 7d 39 6b 3d e6 46 0b bd d2 62 43 bd 1d 3b 8f bd
       0.057427872 -0.03400316 -0.047701664 -0.06993697
000170 7f 1f 3a 3c 9d 77 9a 3d 2d ad 9f 3d 65 10 28 3d
       0.011360048 0.07542346 0.077967025 0.04103126
000180 0a 90 00 3d 48 d0 b3 bc d3 44 9b ba 84 a7 91 3d
       0.031387366 -0.021949902 -0.0011846073 0.07112029
000190 46 1b b7 3d b7 64 86 3d 9f a5 69 3d 58 5f 46 bd
       0.08940749 0.065621786 0.057042714 -0.04843077
0001a0 6e 20 77 be a9 a8 e6 3b 3b 17 00 3c 1c 58 bd bd
       -0.24133465 0.007039149 0.007818039 -0.09245321
0001b0 3e 20 24 be 82 7c 49 be 3c 7a 8c be c3 90 86 be
       -0.16027924 -0.19676402 -0.27437007 -0.2628232
0001c0 21 d3 57 be 94 73 c3 3d e5 33 1d 3e 55 37 32 bc
       -0.21076633 0.09543529 0.15351827 -0.01087745
0001d0 a2 2c b8 3d cc 49 5e 3e 7e c4 8e 3e 86 fe 3a 3c
       0.08992888 0.21707839 0.27884287 0.011413222
0001e0 69 b0 32 3e 3a ff 87 3e 30 4f ff 3d be 47 a3 3d
       0.17450108 0.2656191 0.12466276 0.07972668
0001f0 aa 18 b7 bd 5e 3f 1c bd c4 a1 33 3c a3 fe 2e bd
       -0.08940251 -0.03814637 0.010963861 -0.04272331
000200 dc df 59 bd e1 e4 4d bc b4 83 9e bc f1 03 c4 3b
       -0.053192005 -0.012566776 -0.01934991 0.005981915
000210 f5 6e 70 bd b4 c2 57 3c a4 6b a7 bc ef aa 91 bd
       -0.058699567 0.013168979 -0.02043707 -0.07112681
000220 ba f9 8a 3c cd 1b 3e 3c ad f6 c9 3d 1e a5 a1 3d
       0.016964782 0.011603308 0.09861503 0.07892822
000230 77 b0 f6 3c b6 2a 69 bc 13 33 ae 39 bb 8a 0e 3d
       0.030113442 -0.0142313745 0.0003322592 0.034800272
000240 fe 18 bf bd 82 45 53 3c 9f fb c2 bc dc 66 37 bc
       -0.09330939 0.01289499 -0.023801623 -0.011193957
000250 37 ec 76 bd 34 53 81 3c 9f e5 48 3c c7 05 0e bd
       -0.060283866 0.015786745 0.012261777 -0.03467348
000260 34 67 6f 3d 43 d8 ba 3d 2b 52 2d bc 9d 4c f2 3c
       0.05844803 0.0912328 -0.010578672 0.029577548
000270 8f 97 18 bd e7 19 d3 3c 4e 97 da 3c 75 45 70 3d
       -0.037253913 0.025769187 0.026683476 0.05865999
000280 8e 60 6e bd 68 41 9a bd a2 70 4d 3c 55 a8 a4 bd
       -0.05819755 -0.075320065 0.012539061 -0.08039919
000290 62 7d 6c 3d ce 6e e1 3c b9 4f 86 3c dc 86 3a bd
       0.057736762 0.027518656 0.016395437 -0.04553877
0002a0 2e d7 9f bc f8 60 9c 3d 42 29 59 3c de c6 b6 bc
       -0.019511785 0.07635683 0.013254466 -0.022311624
0002b0 82 99 74 bd 9e 2d ab bd 5a ea 86 3c 65 1b d4 bc
       -0.05971671 -0.0835831 0.01646917 -0.025891969
0002c0 d0 b8 a9 3c 25 66 a6 3d 9a b0 a9 3d 9a 50 f8 bb
       0.020718008 0.08124951 0.08285637 -0.007577968
0002d0 33 00 9c bd a9 4f 80 bd df b2 e8 3b 09 9c 42 bd
       -0.076172255 -0.06265194 0.007101401 -0.047512088
0002e0 f0 e5 1b bd 99 52 b5 bd 36 f1 ae bd 92 7c 84 bd
       -0.038061082 -0.08853645 -0.08542101 -0.064690724
0002f0 3c bf 8b bd a0 10 10 bd ef 9d c6 bd 6f b2 1a 3c
       -0.068235844 -0.035172105 -0.09698092 0.009441956
000300 e2 e9 5a 3d 29 2e 62 bd cb 57 1f 3d 03 29 30 3d
       0.053445704 -0.055219803 0.038902085 0.04300786
000310 5d f6 a1 3c de 22 a1 bd 5d 22 a7 3d f0 02 7c 3d
       0.019770795 -0.078679785 0.08160851 0.06152624
000320 b7 88 56 3d 07 a0 0c bd 07 79 03 bd bf a9 36 3c
       0.052376475 -0.0343323 -0.032097843 0.011148869
000330 97 26 09 bc 79 14 aa bd 6d 22 2b bd ff 27 14 bd
       -0.008371017 -0.08304686 -0.041780878 -0.036170956
000340 c4 1b 96 3d ff 3c 23 bd b2 b0 49 bc 3c 84 ad bd
       0.073295146 -0.039853092 -0.012310194 -0.08472487
000350 98 29 2b 3d 30 a6 8a bd 04 81 a2 3c 75 4a 75 bc
       0.041787714 -0.06769979 0.01983691 -0.014971365
000360 e3 d3 1b 3d fa bd 44 bd 32 41 56 bd d1 0a 52 bd
       0.038043868 -0.04803274 -0.05230827 -0.051279847
000370 7e 8a 41 3d 9d ce f1 3c 1a 11 8a 3c b9 5a 09 3d
       0.047251217 0.029517466 0.016853858 0.033533785
000380 f3 b5 32 bd 29 92 99 3d 34 24 97 bd ec 1c 04 3d
       -0.04363055 0.07498581 -0.07379952 0.032254145
000390 69 e3 15 3d b8 be 6b 3d 5f 9d 3b 3c 9d 40 5c bd
       0.03659383 0.05755493 0.011451094 -0.053772558
0003a0 fc b1 ff 3c fe c9 75 3c c0 80 24 3c d2 ed 57 3d
       0.0312128 0.015001772 0.010040462 0.052717037
0003b0 91 96 75 3d 50 1c 6c bc 4a 9d 32 bd aa dc 99 bd
       0.059958044 -0.014411047 -0.043607034 -0.075127915
0003c0 a6 4a f8 3b 4b 69 0b bd 35 a3 49 3d eb cd 8a bb
       0.007577258 -0.034035962 0.049227912 -0.004235973
0003d0 fa ce 06 3d 56 32 8e 3d 6d c2 97 3b 07 e5 1e bd
       0.032912232 0.069431946 0.0046313317 -0.038792636
0003e0 eb cc 3e bd c8 ac 4d bd 3d ce 98 3d 4d df bc bc
       -0.046582144 -0.050213605 0.07461212 -0.023055697
0003f0 18 c4 dd bc 8e 40 bd bc cf d3 c5 bd 0e 47 c1 3c
       -0.027071044 -0.023102071 -0.0965954 0.023593452

conv_layers.1.bias f4 [16]
000000 67 92 49 3c e5 ac 5f bc e1 b3 c4 3c 45 45 2b 3c
       0.012302971 -0.013652061 0.024011554 0.010453527
000010 ed 11 b5 bd f6 9d 7d bd 36 44 08 3e eb 9f 46 be
       -0.0884131 -0.06191822 0.1330727 -0.19396941
000020 30 55 83 bc e3 ee 01 bd 31 b0 be bd 5f f6 78 bd
       -0.016031832 -0.03172196 -0.093109496 -0.060781833
000030 74 48 28 be 3b ae 9f bd a4 6a 15 bd 58 61 ea bd
       -0.16433889 -0.07796904 -0.036478654 -0.11444348

fc_layers.0.weight f4 [120, 256]
000000 18 e6 d3 bd d6 d5 a0 3c 19 97 14 3c 5d 98 c1 3c
       -0.10346621 0.019633215 0.009069228 0.023632223
000010 23 a9 b3 bb e2 b5 16 3b fe b6 1b bc 36 9f 89 3c
       -0.005482809 0.0022996594 -0.009504078 0.01679955
000020 4e a9 08 bc 13 0c 15 3d 9c e1 81 3d 92 3b 22 bd
       -0.008341147 0.036388468 0.0634186 -0.039607592
000030 5d f7 a7 3d cb 66 96 3d b6 93 59 bd 2c cc 16 bd
       0.08201478 0.07343825 -0.053119384 -0.036815807
000040 30 ed 64 3d b7 60 ba 3b b7 a4 4c bd f3 a4 0e bd
       0.055890262 0.005687799 -0.04996177 -0.034825277
000050 4c bd 3c 3d f3 20 1f bd ae 91 64 3d ef 10 7b bb
       0.046078965 -0.038849782 0.055802993 -0.0038309654
000060 21 e8 16 3d 07 5c 09 bc a4 98 e2 bc 0d a3 1b 3c
       0.03684247 -0.008383757 -0.027660675 0.009499324
000070 93 21 91 3d 12 50 91 ba fb ed ae bc 2a 3c 22 3c
       0.07086482 -0.0011086485 -0.021353712 0.00990204
000080 91 ea 21 bd cc 05 6e bc 5d db 4c 3d f8 24 5c bd
       -0.03953034 -0.014527749 0.05001389 -0.053746194
000090 8a 75 04 3d 69 05 e9 3c 95 ea 36 3d 1b 4f 7c bd
       0.032338656 0.028444963 0.04465731 -0.06159888
0000a0 83 2e cd 3c 98 59 74 3d 63 38 c8 3c 84 af 3e 3d
       0.025046593 0.059655756 0.02444095 0.046554103
0000b0 b2 18 12 3c 4a e6 a2 3c 65 e6 17 bd e4 13 4b bd
       0.008917021 0.019885201 -0.037084956 -0.049579516
0000c0 02 47 0c be d4 4f 9f bd 12 1a 57 bd d7 18 f7 3c
       -0.13698962 -0.07778898 -0.052515097 0.030163212
0000d0 ee 0e be 3d 49 82 82 3c a7 b5 b5 3d 60 b0 32 3c
       0.09280191 0.015931265 0.08872538 0.010906309
0000e0 e8 21 55 3b c2 2f 9c bd fb d8 13 3d df 48 36 3d
       0.003252143 -0.076262966 0.0360956 0.04450309
0000f0 f6 9d 55 3d e8 ac 70 3d 32 e9 0b 3e 3f 7f a5 3c
       0.052152596 0.058758646 0.13663176 0.020202277
000100 65 e6 17 bd 83 63 30 bd c8 28 b5 bc 3a c0 92 ba
       -0.037084956 -0.04306365 -0.022114173 -0.0011196204
000110 44 91 84 bd ea eb 2f 3d 17 18 23 3c 8f aa b2 bc
       -0.0647302 0.042949595 0.009954474 -0.021809844
000120 61 a1 84 3d 64 3f 83 3d 86 d9 42 3b c3 66 85 bd
       0.06476093 0.06408575 0.0029731705 -0.06513741
000130 0c ad 16 be 25 99 27 be 73 97 7c 3d 3f 45 1c bd
       -0.1471445 -0.16367014 0.06166787 -0.038151976
000140 f7 55 28 bd 3f c4 33 bd 6a 22 01 3d 28 75 20 bd
       -0.041097607 -0.043888327 0.03152696 -0.03917423
000150 fe 80 8f bd 2b d4 1b 3b d7 f1 18 3d 5d 46 a0 bc
       -0.07007025 0.0023777585 0.03734001 -0.019564802
000160 e9 91 66 3c 5e e3 bd 3c 68 9a e0 bd 7b e9 e7 bc
       0.014072874 0.023179706 -0.10966951 -0.028309574
000170 96 88 e4 bc 73 61 03 bd 2a 63 e6 3c b1 f7 ed 3c
       -0.02789716 -0.032075357 0.028123457 0.029048773
000180 af 36 17 3d e8 e5 fb 3d d4 9e a3 3d fa 6b 8c 3b
       0.036917385 0.122997105 0.079892784 0.0042853327
000190 de d6 6f 3c 3f 18 b4 bc d7 41 4e bd 1e b6 f5 bc
       0.014638631 -0.021984218 -0.05035576 -0.029994067
0001a0 e2 7c eb 3d 2e 7d 5f 3d 19 57 87 3d a2 8c 9c bd
       0.11498429 0.05456274 0.066084094 -0.07644011
0001b0 e8 2f db 3d ae 2a 98 bd a5 c4 09 bd cc aa 12 bc
       0.10702497 -0.074300155 -0.0336348 -0.008951854
0001c0 2c eb 10 bd 18 67 c8 bc 0a 55 41 3c 52 61 16 3d
       -0.035380527 -0.024463221 0.01180006 0.036713906
0001d0 96 37 41 bd f3 e6 61 3d 24 6f 20 bd a5 f2 63 bc
       -0.04717215 0.05515189 -0.039168492 -0.013912831
0001e0 fb aa e6 bd e1 3a e0 3c e7 8f aa bd b9 5f 12 3c
       -0.11263081 0.027371826 -0.083282284 0.008933955
0001f0 ad f1 1d bc 2e 81 46 bd 9c 41 04 3e 65 ba 33 3d
       -0.0096401395 -0.04846304 0.12915653 0.04387893
000200 18 3b b2 3d ee 44 3d 3c 9b fa 31 bd 99 f1 3f 3d
       0.087026775 0.011552079 -0.043451887 0.046861265
000210 2e 61 9a 3d fb 3b 65 3d 24 94 69 3d 94 5c 41 3d
       0.07538067 0.055965405 0.057026044 0.04720743
000220 18 a1 41 3d 5d ed 70 bc b3 a8 95 3d 58 89 a7 bc
       0.04727277 -0.014705029 0.073075674 -0.020451233
000230 99 e6 f2 bd ee 9c 98 bd da ac aa bd 55 62 e0 39
       -0.11860389 -0.07451807 -0.0833375 0.00042797872
000240 0c dc 70 3d 69 7c 08 3d d3 10 81 3d e9 a5 17 bc
       0.058803603 0.03332177 0.06302037 -0.009255865
000250 05 cd 5e 3c 99 f3 8c bd 27 3a 43 bd 20 00 6b 3c
       0.013598685 -0.068824 -0.04766288 0.0143432915
000260 68 2c 65 3d 02 38 7f bd 22 e0 0a 3c 15 b3 48 3d
       0.055950552 -0.062309273 0.008476289 0.04899891
000270 22 08 8c 39 f2 6f 1a 3d bf 4f 4c bd e3 08 7d bd
       0.0002670894 0.037704416 -0.04988074 -0.061776053
000280 71 d6 83 bd 2e 26 e6 bc ab a4 dd bc 34 06 6e bd
       -0.06437386 -0.028094377 -0.027056059 -0.058111385
000290 b7 97 b6 bc 94 e5 ec 3c 9c cd cb 3b 95 b0 d5 bb
       -0.02228914 0.028918065 0.006219579 -0.0065212944
0002a0 e4 5a 18 3c 39 96 8d bd 05 ab da bc 7e e1 ae 3c
       0.009299014 -0.06913418 -0.026692877 0.021347757
0002b0 ec f0 2e bc 61 fc 70 bd 7f 8d b4 3d 51 9c 18 bc
       -0.010677557 -0.058834437 0.08816051 -0.0093146125
0002c0 9e 51 03 3e c2 e2 08 bc 33 6b a0 3d b4 c9 66 3c
       0.12824103 -0.0083548445 0.07832947 0.014086176
0002d0 cc f2 07 bd 01 40 7f bc 5c 08 05 3d e9 aa 3e 3b
       -0.033190534 -0.015579225 0.032478675 0.002909357
0002e0 cf bf 41 3d eb 7a 4b 3d 21 ff b7 3d 27 7f f5 3c
       0.047302064 0.04967777 0.08984209 0.029967858
0002f0 4c 62 a2 bc 08 ed 0e be a8 65 02 bc 60 43 3b bd
       -0.019822262 -0.13957608 -0.007958807 -0.04571855
000300 a1 bb 8d 3d 89 79 7f 3d 26 42 ea 3c 49 1a 7e 3c
       0.06920553 0.062371764 0.028595995 0.015509197
000310 fa f1 07 3d e7 23 7d 3c 77 54 ff ba 45 bd 2c 3d
       0.03318975 0.015450454 -0.0019480129 0.04217269
000320 7e 2b 8b bd b1 2b 1e 3b d5 e7 04 3b 2f ec be bc
       -0.06795405 0.0024134929 0.0020279784 -0.02330598
000330 50 91 da 3a 55 c8 8c bc 41 2a 70 bd 75 51 15 bd
       0.0016675387 -0.01718537 -0.058634046 -0.036454637
000340 e1 21 10 3c 14 97 43 bd 23 e0 4f 3d 2b f6 2e bd
       0.00879714 -0.0477515 0.050750863 -0.042715233
000350 2a 27 c6 3c 94 ac 34 bd be 8f e7 3b 9a df f2 39
       0.024188597 -0.044109896 0.007066696 0.00046324433
000360 b2 bc c8 bd c4 e7 2e bd fb 22 25 3d a4 e8 d5 3c
       -0.09801616 -0.042701498 0.040316563 0.026111908
000370 74 79 41 bd a8 7e 17 bd 58 d7 60 3d 2f 41 20 3d
       -0.047234967 -0.036986023 0.054892868 0.039124664
000380 86 ef 12 bd 6e 3f 35 3d 08 a8 85 bb f1 16 fa bc
       -0.03587296 0.044249944 -0.004078869 -0.030528517
000390 43 b8 9c bc e3 8e 3c bd 55 ee 8c 3a f6 02 88 3c
       -0.019130832 -0.046034705 0.0010752181 0.016602974
0003a0 44 c3 6c bd 28 03 51 3c 74 df 86 3d aa f4 75 bd
       -0.057803407 0.0127571 0.06585589 -0.060047783
0003b0 71 e7 74 bd 22 69 3d bd 01 3d 15 3d a0 cd 5b 3d
       -0.059791032 -0.04624284 0.03643513 0.053662896
0003c0 37 54 21 3d d3 d4 07 bd 09 a3 22 3c 91 44 3e bd
       0.039386954 -0.03316195 0.009926566 -0.04645211
0003d0 b5 f9 33 bd 1c c6 ce bc bd 84 34 3d 4e e0 f8 3c
       -0.04393931 -0.02524095 0.0440719 0.030380394
0003e0 86 eb 79 3d a0 a5 a0 bd 40 05 37 3d ff 97 ff bc
       0.06101563 -0.078440905 0.04468274 -0.031200407
0003f0 bc 04 e1 bd d4 94 97 3c 29 b2 a5 3c c6 ce 0b bd
       -0.10987231 0.018503584 0.020226555 -0.03413274

fc_layers.0.bias f4 [120]
000000 65 84 f3 3c ef ca 00 3d 6b d2 84 3c 39 5e 05 bb
       0.029726217 0.031443533 0.016213616 -0.002035035
000010 f2 7e 32 bd 42 44 34 3d ac 5a 51 3c 73 8f 0f bd
       -0.043578096 0.04401041 0.0127779655 -0.035048913
000020 a3 d4 fa 3c 77 74 ce 3b 56 cf 22 3d cf a7 25 bd
       0.030618971 0.006300505 0.039748512 -0.040443238
000030 4f f1 c5 bc 2e 7f 7a bc ff 03 cf bc 29 3e 13 3d
       -0.024162916 -0.015289111 -0.02527046 0.035947952
000040 31 4e 51 3d 0b bd 30 bb 07 9c b0 3c c3 93 f2 bb
       0.05109996 -0.0026968147 0.021558775 -0.0074028685
000050 94 82 2d bd 64 4c 8a 3d e6 61 33 3d 20 0f ed 3c
       -0.042360857 0.067528516 0.043794535 0.028937876
000060 2e a2 4c 3d b6 bd 16 bd 3e ad 2a 3d 2f 0d 4f 3c
       0.049959354 -0.036802016 0.041669123 0.012637421
000070 ba 75 1b 3c 4f ce 3d bc 77 2c 87 3c 6d 87 66 3d
       0.009488517 -0.011584832 0.016500695 0.056281496
000080 ad 3c 22 3c f8 ca 36 3d 8e 04 40 bd 28 e0 65 3d
       0.009902162 0.04462716 -0.046879344 0.056121975
000090 0a 33 9c bc 92 68 35 3d e6 b3 fd 3a 97 c4 5e 3d
       -0.019067306 0.04428918 0.0019355982 0.0543867
0000a0 40 88 e2 3c aa 1f 86 3d 75 8b f7 bc d4 27 6b 3b
       0.02765286 0.06549008 -0.030217865 0.0035881894
0000b0 3c 2f 02 3c ac 2a c1 3c 5d d4 2c bd eb 1e 09 bd
       0.007945832 0.023579918 -0.042194713 -0.03347675
0000c0 c3 a3 1c 3c a8 2e 8d 3c b6 1b eb 3c 24 24 5f bd
       0.009560528 0.017234161 0.028699737 -0.054477826
0000d0 d9 97 5b bd f1 22 14 bd 4e b0 da 3b bc 6c 46 bd
       -0.05361161 -0.036166135 0.006673849 -0.04844354
0000e0 21 04 01 3d 7c 2a 52 3d cb e5 bb bc 96 d6 35 3d
       0.03149808 0.051310048 -0.022936722 0.0443941
0000f0 fe 78 17 3d dd e5 d5 bc 07 f3 52 bd ec 7e 8f 3c
       0.03698062 -0.026110584 -0.0515013 0.017516576
000100 21 59 1e 3d e4 86 97 3d 3d 89 7d bd 77 db 04 3d
       0.03865922 0.07398775 -0.06189846 0.03243586
000110 d4 11 15 3c 3d 25 e9 3c 9a d9 51 3d 8c e1 08 bd
       0.009098489 0.02846014 0.05123291 -0.033418223
000120 dd 69 e0 39 70 11 3f bd 8d ad 8b bd d1 8e 93 3d
       0.00042803484 -0.04664749 -0.068202116 0.072049744
000130 b1 a6 e6 3c cc df 0e bd 88 24 3c 3d f7 20 10 bd
       0.028155657 -0.034881398 0.045933276 -0.035187688
000140 67 63 03 bd 25 01 14 bd 04 65 4b bd d3 ed 57 3c
       -0.03207722 -0.036133904 -0.049656883 0.01317926
000150 0c a9 63 bc bc cd 1f bd 03 0b 3f 3c 1f eb 10 bc
       -0.013895284 -0.039014563 0.01166034 -0.00884512
000160 92 ff 10 3d 9b 11 08 3d d7 76 0c bd 8e 46 c0 3d
       0.03539998 0.033219915 -0.034293022 0.09388457
000170 3e 42 a7 3d 28 9b 9b 3d 94 eb 36 bc 75 88 3a bc
       0.081669316 0.07597953 -0.011164565 -0.011385073
000180 63 c3 8c 39 f3 a7 ef 3c f7 e8 a4 3c ba 52 5d 3c
       0.00026848455 0.02925489 0.020130618 0.013508493
000190 35 3e 07 3d f5 d5 af 3c d5 69 07 bd 27 b4 4f bd
       0.03301831 0.021464327 -0.033059914 -0.050708916
0001a0 51 23 2a bb a1 e5 d2 3b 33 62 55 3d 67 ab 32 3d
       -0.0025960992 0.0064360653 0.052095603 0.043620493
0001b0 c5 15 b5 3d f7 7a 65 3d d2 80 ff bb 4f ec 86 3c
       0.08842043 0.05602547 -0.007797339 0.016470103
0001c0 5f a9 73 bd f6 de 4c bc 0b a2 36 bd c5 e1 36 bd
       -0.059487697 -0.01250433 -0.04458813 -0.044648904
0001d0 87 9b a9 3b 9a 63 00 3c a9 e0 5b bd d2 46 54 3d
       0.005176011 0.007836247 -0.05368105 0.051825352

fc_layers.1.weight f4 [84, 120]
000000 10 28 ae bd 75 09 9e bd 82 48 91 3d 21 b4 20 3d
       -0.08503735 -0.077166475 0.07093908 0.039234284
000010 08 19 71 3d c9 a2 b5 bd d2 b8 aa bd f5 14 4d 3d
       0.058861762 -0.088689394 -0.08336033 0.050068814
000020 a3 c5 68 3d 7b 91 bd 3c 42 5c 19 bd d7 06 f3 bc
       0.056829106 0.02314066 -0.0374415 -0.029666347
000030 f6 53 8c 3d a9 5a c4 3c 3e f6 64 3c 84 0b 09 bd
       0.06851952 0.023969011 0.013974724 -0.033458248
000040 39 1c 44 3c f3 00 ab bd 49 d8 68 bd bf 41 74 3d
       0.011969619 -0.083497904 -0.05684689 0.059633013
000050 8f 1f 5c 3d 3c 0b 86 bc 90 b2 40 bc 58 7f ba bd
       0.053741034 -0.016362779 -0.011761323 -0.0910632
000060 a3 71 35 bd 6b c3 2a 3d f2 e4 93 3d af 0c 82 bd
       -0.044297826 0.04169027 0.07221402 -0.063500755
000070 96 be 1a bd 05 7f ef bc 56 99 5c bd 07 1e 30 bd
       -0.037779413 -0.029235372 -0.05385717 -0.042997386
000080 40 fc 7c bd bd d4 16 3d 7a 7e 5c bd 8b 53 c6 bd
       -0.061764 0.036823977 -0.053831555 -0.09683903
000090 78 5f db 3d 2a d7 45 bd 80 e2 93 3d 18 5a d6 3c
       0.107115686 -0.0483009 0.07220936 0.026166007
0000a0 82 61 b8 3d 59 9d 9f 3b 76 ae 9e bc 47 9b 84 3c
       0.09002973 0.004871052 -0.019370299 0.016187323
0000b0 8a c4 bc 3d 9d d7 a7 3d a2 8d 40 3d 1b 42 81 3d
       0.09217174 0.08195422 0.04701007 0.06311437
0000c0 61 6a 3d bc 99 3a 98 bd bd f8 d1 bb 26 13 f5 3c
       -0.011561007 -0.074330516 -0.0064078257 0.029916357
0000d0 da a1 87 3d 10 a5 81 bd 97 64 22 bd f9 c4 01 3b
       0.066226676 -0.06330311 -0.03964671 0.0019801243
0000e0 54 82 63 bb eb 96 c9 3d 77 65 77 bd 79 87 4f 3d
       -0.0034715133 0.098432384 -0.0603995 0.050666306
0000f0 0d 53 b7 3d a9 52 a8 3c 1f 57 58 bc 35 91 bf bc
       0.089513876 0.020547228 -0.013204365 -0.02338467
000100 d5 60 08 bd c0 ca a4 3d 2d 4e 3f bd 17 01 95 bd
       -0.03329547 0.08046484 -0.046705414 -0.072755985
000110 91 cc bf 39 26 75 66 3c b5 f3 9e 3b 8c d3 46 bd
       0.00036582773 0.014066016 0.0048508295 -0.04854159
000120 a6 1a 9a bd 60 5f 12 bd 41 d5 38 bd 88 87 e6 3c
       -0.07524614 -0.035735488 -0.04512525 0.028140798
000130 4b 06 74 bc 21 06 49 bd 2a 54 7e bd 93 56 a8 bd
       -0.0148940785 -0.04907811 -0.062091984 -0.08219638
000140 3f 62 89 3d da 0e 73 bd e2 75 ba bd 89 68 67 bd
       0.06708192 -0.059340335 -0.091045156 -0.056496177
000150 04 7a 8f 3c 02 9b b8 3c 70 5e 1b 3d ee 75 43 bd
       0.017514236 0.022534851 0.03793186 -0.04771989
000160 e2 56 78 bd 4a b3 b8 3c cf 3d 11 bd 29 f9 06 3d
       -0.060629733 0.02254643 -0.035459336 0.03295246
000170 21 e3 96 bd 66 a7 43 bc f6 c8 42 bd 2f 52 98 3d
       -0.0736754 -0.011941766 -0.047554933 0.0743755
000180 b5 0f a5 bd 64 11 f6 3b de 45 aa 3d fc 6b e0 bc
       -0.080596365 0.0075093973 0.08314107 -0.027395241
000190 7a 38 64 3d de fb 8f bb 50 75 c2 bb a5 77 9e bd
       0.055717923 -0.0043940386 -0.005934395 -0.07737664
0001a0 c2 e4 a5 bd 9d a8 39 bc 28 15 8b bd eb f3 23 3d
       -0.08100273 -0.011331704 -0.067911446 0.04002754
0001b0 17 32 62 bc c5 2b 6c bc 6d d2 c9 3b d8 44 0c bd
       -0.013805888 -0.014414732 0.006159118 -0.034245342
0001c0 f5 d0 a9 3d f4 78 88 bc e3 7f 6e bd 93 32 9b bd
       0.082918085 -0.016659237 -0.05822743 -0.07578006
0001d0 4c 9e 02 bc 5e 0d 50 3d 0b 6e 70 3d fe 55 3f bc
       -0.007972311 0.050793998 0.058698695 -0.011678217
0001e0 db f1 ff 39 38 20 ed 3d d9 05 b7 3d d8 a0 ce bd
       0.00048817587 0.11578411 0.08936662 -0.10089272
0001f0 00 b1 51 3c 84 f2 a6 bd 13 06 80 3d f4 84 4c 3c
       0.012798548 -0.08151725 0.062511586 0.01248287
000200 4c 65 69 bd 65 55 a5 3d b9 e1 57 3e fb 4c cc 3d
       -0.05698137 0.08072928 0.210822 0.0997562
000210 f0 48 62 3d b0 67 5e 3c 38 4e 6b bc 37 98 88 bd
       0.05524534 0.013574526 -0.0143619105 -0.06669658
000220 3b 78 59 3d 50 85 c1 bc cc 3c 80 bd 51 f2 d5 3c
       0.053093176 -0.023623139 -0.06261596 0.026116522
000230 3e 89 73 bd e3 62 de bc 6d 7e 89 bd 93 d3 1d bd
       -0.059457056 -0.027146762 -0.06713567 -0.03853185
000240 12 02 af 3d 65 48 8b bb 46 da b1 bd 70 76 29 bd
       0.08545317 -0.0042505735 -0.086842105 -0.041372716
000250 3b 03 b6 bd d7 86 86 bd 55 ce f2 bc fe e0 07 3d
       -0.08887335 -0.065686874 -0.029639402 0.033173554
000260 60 e5 a1 3b 4d 0d 41 3e 61 dd 7b bd e3 ed 10 3d
       0.0049406737 0.1885273 -0.06149042 0.035383116
000270 17 9f 0e bd 73 31 86 3b 3e 44 a1 3d 8d 7a a1 3d
       -0.03481969 0.0040952503 0.07874344 0.07884703
000280 f3 84 85 3d 98 48 7f 3d 03 b5 1c bb e3 25 be 3d
       0.06519499 0.06232509 -0.0023911602 0.0928457
000290 a7 92 b7 3d d8 50 5a bb f4 9f 9a bd 75 df 25 ba
       0.089635186 -0.0033312347 -0.0755004 -0.0006327548
0002a0 73 d0 8a bd 9b d8 6a bd 64 fe 60 3d 79 2b e6 3c
       -0.0677804 -0.057335477 0.054930106 0.028096901
0002b0 c7 d0 2c 3d 57 9e db 3b d7 57 f9 3d 98 6d f2 bc
       0.042191293 0.006702225 0.12174957 -0.029593274
0002c0 ce 3a 29 bd d2 a0 1e bd d8 09 ce bd e9 ed 59 3d
       -0.041315846 -0.03872759 -0.10060471 0.053205404
0002d0 53 65 5d bd f4 fe 87 bd 66 0c 24 3d 91 88 e3 3d
       -0.05405171 -0.06640425 0.040050887 0.11110032
0002e0 21 b3 b6 bd df 69 de bd 3a 89 98 3d b8 79 47 bd
       -0.08920885 -0.10860037 0.07448049 -0.048700064
0002f0 4b 6d 83 3d a6 85 d1 3d 6a 97 1e 3d 82 d7 ba 3d
       0.0641733 0.102305695 0.03871862 0.09123136
000300 6c 58 e0 3c d4 cf 8f bd e4 47 f5 bc d3 55 c8 3d
       0.027385913 -0.07022062 -0.029941507 0.09781995
000310 6d a3 e7 3c b9 0c 94 bd 10 0d 88 bd e3 db 2e 3d
       0.02827617 -0.07228989 -0.066431165 0.04269017
000320 5c c8 3e bc 6e e4 54 3d 01 12 ac bb f3 66 07 bd
       -0.011644449 0.05197566 -0.0052511697 -0.033057164
000330 f8 30 d3 bb 69 21 f1 3c b1 57 86 bd ce 5b 74 3d
       -0.0064450465 0.029434877 -0.065596946 0.059657864
000340 fb 70 48 bd ea 46 99 bd 22 65 97 3d 24 e1 be 3d
       -0.04893587 -0.07484229 0.073923364 0.09320286
000350 bd 9b 7e 3e 4c 6e 07 bd 83 74 71 bd 3b 61 88 3c
       0.24864097 -0.03306417 -0.058949005 0.016647926
000360 37 2d 16 3d 42 98 ba ba 33 1a b4 bc e9 e0 e4 3d
       0.036664214 -0.001423605 -0.021985149 0.11175711
000370 d0 76 b5 bd da 0a a4 3d 53 67 8f bd f5 74 09 bd
       -0.08860552 0.08009882 -0.070021294 -0.033558805
000380 8d 10 f6 3c e5 30 96 bc 8f 47 84 3d 77 03 f3 3c
       0.030037189 -0.018333862 0.06458961 0.029664738
000390 a8 11 fa bc bf 7f 0d be 2b f8 90 3d 38 58 43 bd
       -0.030525997 -0.13818263 0.07078584 -0.047691554
0003a0 d1 bd 0b 3d 07 75 5a 3d 63 5f 6d 3c 41 97 e0 bd
       0.03411657 0.053334262 0.014488074 -0.109663494
0003b0 1d 3f 9e 3d 0d 93 af 3d 48 c6 f3 bb 77 16 2b 3e
       0.07726882 0.085729696 -0.0074394085 0.16707788
0003c0 0c b3 9c 3c f8 1b 09 be b1 f5 0c bd 86 2e cb bd
       0.019128345 -0.13389575 -0.034413997 -0.09920983
0003d0 d5 33 ca 3c 34 33 3b bb ea aa 75 bc 76 bb 1d 3b
       0.024682919 -0.0028564455 -0.014994362 0.0024068034
0003e0 0f 75 66 3d 36 e6 db 3c b7 84 41 3d e3 31 92 bd
       0.05626398 0.026843172 0.047245707 -0.071384214
0003f0 7d 6b a4 bd d0 50 8b 3b 53 cd 24 3b 37 7b 7a 3d
       -0.08028314 0.004251577 0.0025146797 0.061152663

fc_layers.1.bias f4 [84]
000000 9a 8f 8f 3d f8 1a 65 3d 1c b7 8b bd b8 d8 87 bd
       0.07009812 0.055933923 -0.06822035 -0.06633133
000010 9b 46 a2 3d 55 47 9c 3d 79 a4 8a bc d9 11 e6 bc
       0.07923623 0.07630793 -0.01692413 -0.028084682
000020 5c bc 07 3d 82 b3 c0 3d 34 62 eb bc 0e 44 26 bc
       0.033138618 0.094092384 -0.02873335 -0.010148061
000030 45 ff 4f bd 7e ad 02 bd f9 c0 1f bb 2b 69 01 3c
       -0.050780553 -0.031903736 -0.0024376495 0.007898609
000040 ca f8 20 3d 92 0c dc 3c bf b1 ba 3c 2a 04 7f bd
       0.039299764 0.026861463 0.022789834 -0.06225983
000050 1a 4d 0a bd 30 9f 30 3d a9 81 bb bc 02 34 7d 3d
       -0.033764936 0.043120563 -0.022888975 0.061817177
000060 6c 6d e2 3d 08 92 a4 bd a5 8f 2d 3d bf 10 c9 3d
       0.11056027 -0.08035666 0.04237332 0.09817647
000070 db 05 87 bd a4 9a 4c bd 3b 68 c2 3d aa 8b 8d bd
       -0.06592914 -0.049952164 0.09492537 -0.069114044
000080 17 4f 5a bd 41 81 37 bd 04 11 27 3d bd 7d a7 3b
       -0.053298082 -0.044801 0.04078771 0.0051114247
000090 9e d9 40 bc 99 1a 54 3d 05 bf 9b 3d bf 24 00 ba
       -0.011770634 0.051783178 0.076047935 -0.0004888288
0000a0 88 ce 0b bd a6 34 04 3e f4 eb 47 3d 8b 61 0a 3e
       -0.03413251 0.12910709 0.048809007 0.13513772
0000b0 3c f4 25 bd d5 78 57 3d 51 3e 71 3d 4f 78 ae bc
       -0.040516123 0.05260547 0.05889732 -0.021297602
0000c0 4b b6 7c bd 7c 49 b2 3c 08 e0 e2 3d cb 2c 02 bd
       -0.061697286 0.021763556 0.11077887 -0.031781
0000d0 cf 7a 3e bd fc 8d 4b 3d 0c c0 37 3d 22 36 93 bd
       -0.04650384 0.049695954 0.044860885 -0.071880594
0000e0 dc 33 86 bd 43 e3 36 3d cc 71 5a 3d e8 ed 50 bd
       -0.0655286 0.044650327 0.05333118 -0.051008135
0000f0 50 0a a3 ba 85 d7 c1 bc 27 60 b4 3d 72 16 93 bb
       -0.0012438986 -0.023662338 0.08807402 -0.0044887597
000100 70 2d ad bd df ca 6f bd fb b5 f0 3b ec a5 40 3d
       -0.08455932 -0.058543082 0.0073459125 0.047033235
000110 3e a0 f4 bc fd ff a9 3d 5f a7 06 3c d3 1e 90 3b
       -0.029861566 0.08300779 0.008218615 0.004398206
000120 08 b1 6a bc 68 65 fb bb 9e 64 8b bd 7e e7 be 3d
       -0.014324434 -0.0076720007 -0.068063006 0.093214974
000130 d1 d7 bb bd 27 26 af bd 0a a5 22 bd 90 77 f2 3d
       -0.09172023 -0.08552199 -0.039708175 0.11839211
000140 7a 9f 53 bd 9b c3 87 bd f6 97 04 bd 20 32 7e bd
       -0.05166576 -0.06629106 -0.032371484 -0.06205952

output_layer.weight f4 [10, 84]
000000 6d 9b 31 bb ec 8f 88 bd 32 00 49 3e ff 00 e4 3d
       -0.0027100698 -0.06668076 0.19628981 0.111330025
000010 7d ba 17 be 7a ab 80 bd 13 8a 38 3e e3 4c 95 be
       -0.14817233 -0.062827066 0.18021421 -0.29160222
000020 65 42 7e 3e a7 c5 6d be 2f f2 89 be ba 66 e4 3d
       0.24830015 -0.2321993 -0.26942584 0.11152406
000030 8c 60 35 3e bb 61 8f bc 58 15 b5 bd 8b f4 d6 3e
       0.17712611 -0.017502656 -0.088419616 0.41983446
000040 53 43 08 be 6b e0 81 3e 86 d2 0a 3e 59 90 66 bd
       -0.13306932 0.2536653 0.13556871 -0.056290004
000050 57 ad b1 3d 57 eb 40 be da f1 03 be e5 4d 92 bd
       0.0867564 -0.18839775 -0.12885228 -0.071437635
000060 a4 4a 5f 3e 7c 74 29 3e 3b d8 0b bd 95 2d 2d be
       0.21805817 0.16548342 -0.03414176 -0.1691192
000070 6f f1 db bd c1 21 8d bd bd 3b 7f be 30 ce 4c be
       -0.10739409 -0.06891204 -0.24925132 -0.2000053
000080 65 55 c8 bd 5e 33 23 3e 34 2c 78 be 67 7d 5b be
       -0.09781913 0.15937564 -0.24235612 -0.21434556
000090 5d ce 22 3e 3f 06 94 3e 8c e2 1e bd 11 6e 42 bc
       0.15899034 0.28911015 -0.03879027 -0.011867062
0000a0 30 24 3f 3e 9a 48 6e be b0 b8 50 be 93 63 08 be
       0.18666148 -0.23269883 -0.20382953 -0.13319235
0000b0 b6 09 4e bd 22 51 98 be c8 ba 99 3d c5 d7 c6 3d
       -0.05030223 -0.297494 0.07506329 0.097091235
0000c0 08 07 d5 bd 31 af 1e be b9 65 58 be c9 4e ce bd
       -0.10401732 -0.15496518 -0.21132554 -0.10073621
0000d0 38 2b fb bb 66 dc 61 be ae 58 91 3d e9 62 c6 bd
       -0.007665064 -0.22056732 0.070969924 -0.09686834
0000e0 ea 2a 55 3d af c3 49 be e3 21 f1 bc 7f 87 b2 3d
       0.05204288 -0.19703554 -0.029435104 0.0871725
0000f0 9e ad a3 bd 4c 6d 21 bb 32 e7 68 bd 6c a4 63 3e
       -0.07992099 -0.0024631796 -0.05686111 0.2223069
000100 3c 6b eb bd 19 91 93 bd 5c 3b b1 3d ba e5 24 be
       -0.11495063 -0.072054096 0.086539 -0.16103259
000110 e2 22 fe bd 83 74 10 3c 40 85 96 3d 7c c6 86 3d
       -0.12408997 0.008816841 0.07349634 0.06580827
000120 31 09 ab bd 8b 10 2b 3e 3f 7a cf bd 65 61 25 3e
       -0.083513625 0.1670553 -0.101307385 0.16150434
000130 97 7d 50 3c 16 43 3b 3d 6e 3f 21 3d 40 13 47 be
       0.012725255 0.045718275 0.039367132 -0.19440937
000140 73 1a a8 3d 85 da fc 3b 4f 22 ee ba 88 51 a0 3c
       0.0820817 0.0077164792 -0.0018168184 0.019570127
000150 f4 3c 6c 3d 9a 8a d8 3e 96 f4 53 3d ec 80 f0 bd
       0.057675317 0.42293245 0.051746927 -0.1174334
000160 a2 28 35 be 90 1c 59 be 01 5d 9a bd 6c 4c 4f be
       -0.17691281 -0.21202302 -0.0753727 -0.20243996
000170 46 00 81 be 2e 7f 87 3e bd d2 2c be e6 fd f1 3d
       -0.2519552 0.26464218 -0.16877265 0.118160054
000180 60 25 34 be 83 75 cd bd 74 9c 62 be 3a 5c ee bd
       -0.17592382 -0.10032179 -0.22129995 -0.116386846
000190 87 d5 2b bd f5 5e 17 3d 8d 82 94 3d b5 f5 44 3d
       -0.041951682 0.036955792 0.07251463 0.048085887
0001a0 38 53 59 be b9 45 21 be fc d2 76 bd bd 0b 95 bd
       -0.21223152 -0.15749253 -0.060259804 -0.072776295
0001b0 bf f7 68 bd 70 ac a9 bd db e0 44 3e 47 ac 67 be
       -0.056876894 -0.08284843 0.192264 -0.22624312
0001c0 74 0a 7e bd ea 23 df 3d 0c 08 67 3e 22 b2 36 be
       -0.062021688 0.10895522 0.22561663 -0.1784139
0001d0 73 72 cc 3d 0e f8 dc bc 74 79 ac 3e 6a d8 52 be
       0.09982767 -0.02697375 0.3368641 -0.20590368
0001e0 3e 62 31 3d 9b 19 86 bd 5e 08 8e bd 2a a5 d6 bd
       0.04330658 -0.065478526 -0.0693519 -0.10480721
0001f0 45 59 23 3e a6 17 91 bd 6c c3 68 3d 83 af b2 3e
       0.15952022 -0.07084589 0.056826994 0.3489953
000200 9d 1e af bc 88 97 7a 3e 88 79 a0 be 79 8c 2c be
       -0.021376902 0.24471867 -0.3134272 -0.16850461
000210 c1 1d 25 3e 0b c7 77 3e ac 4e 89 3e 67 8f 90 3e
       0.16124631 0.24197023 0.26817834 0.28234407
000220 b4 bd 5b bd f9 e9 13 3e 02 24 96 bc 06 f5 9a bc
       -0.053647712 0.14444722 -0.018327717 -0.018915664
000230 06 e0 0c be 4a bb d7 bd c6 2d 6c be 72 29 9d 3d
       -0.13757333 -0.105337694 -0.23064336 0.07673921
000240 70 a4 80 be 32 ec 20 be f2 b0 ff bd bc 7f 75 bd
       -0.25125456 -0.15715101 -0.124849215 -0.05993627
000250 94 54 96 bd 92 85 a8 bc 38 25 e5 3d 04 d1 78 3c
       -0.07340351 -0.020571504 0.111887395 0.015186552
000260 15 53 04 bc 09 c4 38 be 6d 01 60 3d 57 2e cc bd
       -0.008076449 -0.18043531 0.05468886 -0.09969776
000270 34 42 30 3c 71 5d 18 3e c7 e0 97 3c 91 98 ab 3d
       0.010757972 0.14879395 0.0185398 0.08378709
000280 35 bf 05 bd f5 97 69 bd 6e 62 01 be 98 78 12 3d
       -0.032653052 -0.057029683 -0.12635204 0.03575954
000290 19 84 10 bd a2 c3 a4 3c 5d 32 8e bd f6 f8 a8 3d
       -0.03528223 0.020112816 -0.069432 0.082506105
0002a0 55 45 f4 bd 88 a3 69 3d c9 66 a3 3b b0 57 49 bd
       -0.119272865 0.05704072 0.004986618 -0.04915589
0002b0 5d bf a4 3d 2e 13 e9 3d 69 05 f3 bc 90 a8 c9 bd
       0.08044312 0.11380611 -0.029665666 -0.09846604
0002c0 14 1c 01 be d5 0b f3 bd 21 9d 8d 3d 2b 01 d9 bd
       -0.12608367 -0.11867491 0.069147356 -0.10595926
0002d0 87 4a bb bd b0 2d 89 bd c8 e3 2e 3d d8 7b e2 bd
       -0.09145074 -0.06698167 0.042697698 -0.110587776
0002e0 d8 f0 fe 3d da 18 25 3e 2e 06 37 be cf 31 72 bd
       0.12448281 0.16122761 -0.17873451 -0.059129532
0002f0 04 0a 43 bb b3 ed 16 be 41 5f 71 be c4 fa 1c be
       -0.0029760608 -0.14739113 -0.23571493 -0.15330034
000300 61 fe 71 3d bd cf a9 3d 0e ff b4 3d 10 22 74 be
       0.059080485 0.08291576 0.0883771 -0.23841119
000310 85 6a 38 be 51 85 86 bd 27 28 50 3e bb a5 95 3e
       -0.18009384 -0.06568397 0.20327817 0.29228005
000320 4a ca a1 3e 9a 86 0b 3e 0a e4 1b be 58 e1 c0 bd
       0.31599647 0.13625565 -0.15223709 -0.09417981
000330 bb e8 ed bc 0c b9 6a 3e 94 04 23 3e bf 67 d6 3d
       -0.029041639 0.22922152 0.15919715 0.10469007
000340 3b ba 2e 3e c8 a0 31 3e 16 20 40 3e 3a 4a 90 be
       0.17063229 0.1734649 0.1876224 -0.2818163
000350 a0 d9 2f bd 84 ad aa bd e0 ca 12 be 8a 11 e2 3d
       -0.042932153 -0.08333877 -0.14335203 0.110385016
000360 5c f9 ab bd 13 48 19 3e b7 bf 07 be 87 5f 56 bd
       -0.08397171 0.149689 -0.13256727 -0.052337196
000370 ab 6a 85 3d cc aa 21 3e d0 ef 0a bd 56 79 c5 3d
       0.06514486 0.1578781 -0.03392011 0.096422836
000380 1a e3 39 ba 20 59 38 3e 37 8f 22 3d 07 8b 7d bd
       -0.0007091031 0.18002748 0.03968736 -0.061900165
000390 84 f7 8a be 11 73 f1 bd 73 43 b1 bc 93 1a 3f be
       -0.27141964 -0.11789525 -0.021638608 -0.18662481
0003a0 ab 34 c2 3d 5a d6 b7 bd 81 ac 8d 3c 8b 54 62 be
       0.09482702 -0.08976431 0.01729417 -0.22102563
0003b0 c9 ac 42 bd 2e 85 4d 3e dd f0 1f 3e f3 54 3a be
       -0.047528062 0.20070335 0.15619226 -0.18196468
0003c0 9a 30 e0 3e 45 38 3f 3e ae 9d 08 bd 94 24 00 3e
       0.4378708 0.18673809 -0.0333535 0.12513953
0003d0 a0 cc c7 3d 5b f2 45 3d 33 f2 39 be aa 7f 38 bd
       0.09755826 0.04832683 -0.18158798 -0.045043625
0003e0 ed e4 6b 3d 18 77 bd 3b cd 2a 97 3d 4e 6d db 3c
       0.057591368 0.0057820193 0.073812105 0.026785519
0003f0 ca 0d a6 bd 5f dd 50 be d9 00 7d 3d a2 06 ea bd
       -0.08108099 -0.20396946 0.061768387 -0.11427046

output_layer.bias f4 [10]
000000 4e fa 04 bd 54 5d 16 3e 8e 09 db bd e5 6e 2f 3c
       -0.03246527 0.1468404 -0.10695182 0.010707592
000010 c2 dc 00 be 07 89 ae bd ab b3 0f be da 7a 73 bc
       -0.12584212 -0.0852223 -0.14033382 -0.014860833
000020 fc af 39 3d 64 77 02 bd
       0.045333847 -0.03185214
