Lab1/model/model_mnist/MLP1240.pth (torch, 765200 bytes, 4 tensors)

fc_layers.0.weight f4 [240, 784]
0	0xbcf1a8c8	-0.029499426
1	0x3cfaa371	0.030595513
2	0xbc83ed87	-0.016104473
3	0x3cf40131	0.029785724
4	0x3c13d400	0.009022713
5	0xbcc55f37	-0.024093254
6	0xbb5b4e93	-0.0033463582
7	0x3c480653	0.012208539
8	0x3cd571a5	0.026055166
9	0xbcde6643	-0.027148372
10	0xbc19e10a	-0.009392032
11	0x3cff9e2c	0.031203352
12	0xba429725	-0.0007423035
13	0x3d0ad7bc	0.033897147
14	0x3c00bb7c	0.0078572
15	0x3c9cf3dc	0.01915925
16	0xbbd7b15c	-0.006582422
17	0x3cbb80ea	0.02288862
18	0xbcdbfd68	-0.026854232
19	0xbadce94a	-0.0016854194
20	0xbcdcb8da	-0.026943613
21	0x3c44082e	0.011964841
22	0xbcba9b61	-0.022779169
23	0x3cd273e1	0.025690021
24	0x3c5e1ec1	0.013557137
25	0x3c17c665	0.00926361
26	0xbc4a3f0e	-0.012344135
27	0x3bf0c0a5	0.007347184
28	0x3c6bb793	0.014387029
29	0x3c3609c1	0.011110724
30	0x3cbab033	0.022789096
31	0xbc21e3ee	-0.009881003
32	0x3b7cf2ca	0.0038596862
33	0x3ca5eb35	0.020253757
34	0x3d121f63	0.035674464
35	0x3b9426a5	0.0045212083
36	0xbce92888	-0.02846171
37	0xbc4e488e	-0.012590541
38	0x3d0b148d	0.033955146
39	0x3a0ac187	0.000529312
40	0x3cadec8e	0.021230962
41	0xbcdc05ee	-0.026858296
42	0xbcb8f5c8	-0.022578135
43	0xbcdcbca3	-0.026945418
44	0xbcf06914	-0.02934698
45	0xbc9f0d7e	-0.019415613
46	0xbbfd16ee	-0.0077236807
47	0xbc694b18	-0.014239095
48	0xbbf2f91c	-0.00741495
49	0xba9eb725	-0.0012109025
50	0xbc300653	-0.010743695
51	0xbc289e0e	-0.010291589
52	0xbcfb2cf5	-0.030661086
53	0x3c8340bc	0.016022079
54	0xbccf65cc	-0.025317095
55	0x3c128620	0.008943111
56	0xbc4995ce	-0.012303783
57	0xbc0a212a	-0.0084307585
58	0xbc8e9c00	-0.017408371
59	0xbcd4ae21	-0.025961937
60	0x3c388eca	0.011264512
61	0x3bafc805	0.0053644204
62	0xbd012385	-0.031528015
63	0xbcafea3a	-0.021473993
64	0x3cbbb3df	0.022912918
65	0xbb7e7a7b	-0.0038830328
66	0x3c9017fe	0.017589565
67	0x3c84069c	0.016116433
68	0xbc7c2ffe	-0.015392302
69	0xbcdd8ac4	-0.027043708
70	0x3ca09df7	0.019606574
71	0x3cee982a	0.029125292
72	0x3cc2692c	0.02373179
73	0xbcdc1ac3	-0.02686823
74	0x3c06968a	0.008214602
75	0xbcbc68c2	-0.022999171
76	0x3bfc123e	0.0076926043
77	0xbc626e21	-0.013820202
78	0xbd100598	-0.035161585
79	0x3ca94559	0.02066295
80	0xbc6a062b	-0.014283697
81	0xbcfa26d3	-0.030536091
82	0xbcbd015a	-0.023071934
83	0xbcaeeffa	-0.021354664
84	0x3d0e246f	0.034702715
85	0x3b519a6e	0.0031982916
86	0xbc464433	-0.012101221
87	0xbd059c9b	-0.032620054
88	0xbd04460f	-0.032293376
89	0xbc83902c	-0.016059957
90	0xbce358a6	-0.027752232
91	0x3c223bd7	0.009901962
92	0x3bf90fc1	0.007600755
93	0xbd3bd7a7	-0.04585996
94	0xbd15d9d3	-0.036584686
95	0x3cb0b705	0.021571646
96	0xbcbf399a	-0.023342896
97	0xbcdb718c	-0.026787542
98	0xbd0877c0	-0.033317327
99	0x3c60a488	0.013711102
100	0x3c81bd84	0.015837438
101	0x3bb4249b	0.005497528
102	0x3b5999c7	0.003320323
103	0x3c9b4ea3	0.018958395
104	0xbca3b1ba	-0.019982208
105	0xbc9815a8	-0.018565014
106	0x3c64e645	0.013970916
107	0xbd171dfe	-0.036893837
108	0x3c96f55f	0.018427549
109	0x3afe85a0	0.0019418485
110	0xbbc5deae	-0.0060385084
111	0x3ca0a267	0.01960869
112	0xbd01317f	-0.031541344
113	0x3cd64d05	0.026159773
114	0x3ce69801	0.028148653
115	0xbcebdda7	-0.028792216
116	0x3d07727d	0.03306817
117	0xbc6d1143	-0.014469448
118	0xbceafbfc	-0.028684609
119	0xbcc5d0fc	-0.024147503
120	0xbc86a03e	-0.016433831
121	0x3d31695b	0.043313365
122	0x3d8f02f6	0.06982987
123	0x3daad934	0.083422095
124	0x3cb3c179	0.02194284
125	0xbcb19cc6	-0.0216812
126	0x3d0607a5	0.032722134
127	0x3e21c04c	0.15796012
128	0x3d1d8d87	0.03846505
129	0x3d0b651c	0.034031972
130	0x3c9bc02f	0.019012539
131	0xbc847dbe	-0.01617324
132	0xbcd91fe3	-0.026504463
133	0x3cf285f8	0.029604897
134	0x3c8d8be9	0.017278628
135	0x3cf56dee	0.029959645
136	0xbbc59176	-0.006029303
137	0xbb9c86a9	-0.004776795
138	0xbcb31086	-0.021858465
139	0x3b616c25	0.0034396735
140	0xbc2564d3	-0.010094839
141	0xbca2e6f5	-0.01988552
142	0xbca93b2e	-0.020658102
143	0xbcd5e16c	-0.026108466
144	0x3d024770	0.03180641
145	0x3cdd3330	0.027001947
146	0xbc22dd38	-0.009940438
147	0xbc59be5f	-0.013290017
148	0x3cde9880	0.027172327
149	0x3ced63c9	0.028978245
150	0x3df659f9	0.1202888
151	0x3e098927	0.13431226
152	0x3d3fedc4	0.04685761
153	0x3d6eac24	0.058269635
154	0xbcea0f66	-0.028571796
155	0x3cd87544	0.026423104
156	0x3d9dbc84	0.07701972
157	0xbd0121c5	-0.031526346
158	0xbcff837b	-0.031190624
159	0x3c6a1cda	0.014289105
160	0x3d84cfde	0.0648496
161	0xbd0e68b2	-0.034767814
162	0x3c897bb9	0.016782628
163	0x3d0c4839	0.034248564
164	0x3af1f7ea	0.0018460725
165	0x3d4790e5	0.048722167
166	0x3c2f242b	0.010689775
167	0xbcad6360	-0.02116555
168	0xbcf859b8	-0.030316219
169	0xbcf45a6c	-0.029828273
170	0x3bc9d8df	0.0061598863
171	0x3bce8c84	0.006303372
172	0xbcd66556	-0.026171368
173	0xbd4ded87	-0.05027535
174	0xbc961659	-0.018321203
175	0x3c3f376a	0.011670927
176	0xbc9328f7	-0.01796387
177	0xbcbed408	-0.023294464
178	0x3ca9f3bd	0.020746106
179	0x3d30c2f9	0.04315469
180	0xbce554fd	-0.027994627
181	0x3e057dc2	0.13036254
182	0xbb38ee4c	-0.0028218208
183	0xbd824658	-0.06361073
184	0x3c46af56	0.012126764
185	0x3cd92112	0.026505027
186	0xbc7419cc	-0.014898729
187	0xbd8dbb07	-0.06920438
188	0xbcfbf024	-0.030754156
189	0x3a8296b9	0.0009963132
190	0xbd41b3cb	-0.047290605
191	0xbb93439d	-0.004494144
192	0x3cdd6ac3	0.027028447
193	0x3d365744	0.044516817
194	0x3d116569	0.035497103
195	0xbcf1135e	-0.02942818
196	0xbc75ae40	-0.014995158
197	0xbc80f222	-0.015740458
198	0xbcb8f4f0	-0.022577733
199	0x3b646562	0.0034850468
200	0xbc44c65c	-0.012010183
201	0x3ca98154	0.020691551
202	0xbd083f4b	-0.033263486
203	0xbc959edb	-0.018264225
204	0x3c9ffb3e	0.019528981
205	0xbd41bc70	-0.04729885
206	0xbc9f9d79	-0.019484269
207	0xbc57858e	-0.0131544005
208	0xbd79733f	-0.060900923
209	0x3ddcf517	0.10788935
210	0x3e099cb0	0.13438678
211	0x3be62003	0.007022859
212	0x3d0d0b59	0.03443465
213	0x3cd822de	0.026383813
214	0x3b05f63a	0.0020440952
215	0xbccfdce7	-0.02537389
216	0x3cda9f4e	0.02668729
217	0x3a86b629	0.0010277677
218	0xbda8a302	-0.08234216
219	0xbcdd5c82	-0.02702165
220	0xbd15e4c7	-0.036595132
221	0x3ce3474d	0.02774396
222	0x3cdce7fd	0.02696609
223	0xbc115fe1	-0.008872957
224	0xbceef37a	-0.029168833
225	0xbc2f611b	-0.010704304
226	0xbc91522a	-0.017739374
227	0xbd03af81	-0.032149795
228	0xbcaab5dd	-0.020838672
229	0x3c40c568	0.011765815
230	0x3ceef35b	0.029168775
231	0x3d1bb382	0.03801299
232	0x3da7f213	0.08200469
233	0x3dabeccc	0.08394775
234	0x3bb5f57a	0.0055529447
235	0xbda51fc3	-0.08062699
236	0x3c29fb1d	0.0103748115
237	0x3cb13c28	0.02163513
238	0xbca47ac9	-0.02007808
239	0x3daa13c2	0.0830455
240	0x3cf715b6	0.03016172
241	0x3c896822	0.016773287
242	0xbd627f7a	-0.055297352
243	0xbd2fd985	-0.042932052
244	0xbdda577f	-0.1066122
245	0xbd1faaed	-0.038981367
246	0xbd9559eb	-0.07292541
247	0xbd67ead7	-0.056620445
248	0xbc390b08	-0.011294134
249	0xbd0e43d6	-0.034732662
250	0xbc9fb4aa	-0.019495327
251	0x3c8b676f	0.017017094
252	0x3cf562cc	0.029954337
253	0xbc40ebbf	-0.011774956
254	0x3c89cad5	0.01682035
255	0x3b674463	0.0035288564

fc_layers.0.bias f4 [240]
0	0xbd905fe5	-0.070495404
1	0x3d9036d2	0.07041706
2	0x3d2f0c96	0.042736612
3	0x3d29065f	0.04126584
4	0x3db92935	0.09041063
5	0xbd97cfa1	-0.07412649
6	0x3df9920b	0.121860586
7	0xbe43bffe	-0.19116208
8	0x3dd0cde0	0.101955175
9	0xbde7f657	-0.113262825
10	0xbd7408c9	-0.05957869
11	0xbdd73bbd	-0.10509441
12	0x3da4a4f1	0.080392726
13	0xbb94c7df	-0.004540428
14	0x3e6fa8e3	0.23404269
15	0xbcaa12e8	-0.020760968
16	0x3cb023e3	0.021501487
17	0xbd938f3d	-0.07205055
18	0x3c9de0e6	0.019272279
19	0xbde8d226	-0.11368208
20	0x3de5156f	0.11185729
21	0xbc4e7f72	-0.0126036275
22	0xbd718472	-0.0589642
23	0x3e29d2ac	0.16584271
24	0xbc71e635	-0.014764358
25	0x3d9ea292	0.077458516
26	0x3b2041b8	0.0024453234
27	0xbc655e37	-0.013999513
28	0xbc219181	-0.009861351
29	0xbe4c5cfb	-0.19957344
30	0x3b63848c	0.0034716455
31	0x3de12a4f	0.10994398
32	0x3d53910e	0.051652007
33	0xbcd3e711	-0.025867017
34	0xbc823a13	-0.015896833
35	0x3d63e442	0.055637605
36	0x3ceb3d32	0.028715704
37	0xbc0ec57b	-0.008714075
38	0x3e03cbf5	0.12870772
39	0xbca1b053	-0.019737398
40	0xbde676ce	-0.11253129
41	0x3d711159	0.058854435
42	0x3dcfa31e	0.10138534
43	0xbbb1a357	-0.005421083
44	0x3dbe13a5	0.09281091
45	0x3d414410	0.04718405
46	0xbddb8ae8	-0.10719854
47	0xbd92b71e	-0.07163833
48	0xbdd9fd3b	-0.10644003
49	0x3ba09f97	0.004901837
50	0xbd275b17	-0.040858354
51	0x3c5a8fcd	0.013339949
52	0x3d8c1926	0.06840734
53	0x3d0e9d9a	0.03481827
54	0x3dcf2654	0.101147324
55	0x3d919296	0.07108037
56	0x3ddb9af3	0.107229136
57	0xbde59f81	-0.112120636
58	0x3cc1429d	0.023591334
59	0xbc23beb8	-0.009994201
60	0x3d54bc40	0.05193734
61	0x3d7cc653	0.061712574
62	0x3d28b15f	0.04118478
63	0x3e4021da	0.18762913
64	0xbc72af22	-0.014812263
65	0x3e3d3dee	0.18480656
66	0x3e57fef0	0.21093345
67	0x3dc640c9	0.096803255
68	0xbc96983f	-0.018383143
69	0xbd7a68b7	-0.06113502
70	0xbc23c6be	-0.009996114
71	0xba8b3a5b	-0.001062225
72	0x3d8530ae	0.065034255
73	0x3d0418f0	0.032250345
74	0xbd1ef47c	-0.038807377
75	0xbd3f1043	-0.046646368
76	0x3c8adc18	0.016950652
77	0x3e00a0a9	0.12561287
78	0x3cc9748b	0.024591705
79	0xbc8ffe75	-0.01757739
80	0xbcc1e9af	-0.023671
81	0x3d8c1524	0.0683997
82	0x3da72c65	0.081627645
83	0x3d8b0893	0.06788745
84	0xbd14c813	-0.03632362
85	0xbcff2a00	-0.031147957
86	0xbcb2a1a4	-0.021805592
87	0xbc29199c	-0.010321047
88	0xbcc3ad16	-0.023886245
89	0x3db476ff	0.08811759
90	0x3c0636d0	0.008191779
91	0x3d918bab	0.07106718
92	0x3d7b57f0	0.06136316
93	0x3dad0765	0.08448676
94	0x3d8fa335	0.07013551
95	0x3dc4471d	0.09583876
96	0x3aa10dad	0.0012287401
97	0xbd2e22a3	-0.0425135
98	0xbd1f08dc	-0.03882681
99	0x3cbf4092	0.02334622
100	0xbce3e9ab	-0.027821383
101	0xbd460e5d	-0.04835354
102	0xbcf1a565	-0.029497812
103	0x3c0984fa	0.0083935205
104	0xbc9c49ae	-0.019078102
105	0xbcc4d118	-0.024025485
106	0x3e88b444	0.26700032
107	0x3d69ca78	0.057077855
108	0x3c90ceb3	0.017676687
109	0xbbdd81c1	-0.0067598526
110	0x3e2e1313	0.16999464
111	0xbcb409f1	-0.021977397
112	0x3d813e37	0.06310695
113	0x3d375f1e	0.044768445
114	0x3e2a57a9	0.16635002
115	0xbd603bcb	-0.054744523
116	0xbdbc9783	-0.09208586
117	0x3d960fc6	0.07327227
118	0x3e0f5eaa	0.14000955
119	0x3d129795	0.03578909
120	0x3bf7bf7a	0.0075606676
121	0x3e549026	0.20758113
122	0xbe1fa131	-0.15588833
123	0xbdcf3df1	-0.10119236
124	0xbd8746b5	-0.06605283
125	0x3da863cf	0.08222162
126	0x3cf26cb2	0.029592846
127	0x3d98b487	0.07456308
128	0x3d82accb	0.06380614
129	0x3e252b13	0.16129713
130	0x3d4b6e63	0.04966582
131	0x3ce9cc8e	0.028539922
132	0xbcd596d6	-0.0260729
133	0xbbe42854	-0.0069628153
134	0x3e7c67ae	0.24648926
135	0x3c73f035	0.014888813
136	0xbdb57df7	-0.088619165
137	0x3da61ea8	0.08111316
138	0x3daa4607	0.08314138
139	0x3d2d9d28	0.042386204
140	0xbce2ccf3	-0.027685618
141	0x3c8c345c	0.01711481
142	0xbd9f9c67	-0.07793503
143	0x3dc09397	0.094031505
144	0x3d80b361	0.06284214
145	0xbe1225d0	-0.14272237
146	0x3d86b64f	0.06577741
147	0xbb7b39da	-0.0038334043
148	0xbcca243f	-0.024675487
149	0xbdadd039	-0.08486981
150	0x3e3833af	0.17988466
151	0x3df776b1	0.120831855
152	0x3d7e3b01	0.06206799
153	0x3d4211f1	0.04738039
154	0xbc8e7efd	-0.017394537
155	0xbe2730b3	-0.16327171
156	0xbe0a967d	-0.13533969
157	0x3e107be7	0.14109765
158	0x3e01142b	0.1260535
159	0x3e02cf19	0.12774314
160	0xbdeb2e5d	-0.114834525
161	0x3e3985d7	0.18117462
162	0x3e3e4f37	0.18584906
163	0xbbe605b3	-0.0070197224
164	0x3d738f1f	0.059462663
165	0xbda06d23	-0.07833316
166	0x3db9c945	0.09071592
167	0xbd70d06c	-0.058792517
168	0x3c6b5e8e	0.014365805
169	0x3d6ddd8c	0.05807261
170	0x3d9143e1	0.07093025
171	0x3e2d8e3d	0.16948791
172	0xbbb8aa49	-0.005635534
173	0x3d31cc2c	0.043407604
174	0x3c006b8f	0.007838144
175	0xbbb67fcf	-0.005569435
176	0xbd5f84ff	-0.054570194
177	0xbcd78479	-0.026308285
178	0x3dcad0c2	0.09903099
179	0x3d88db82	0.06682493
180	0xbd2f7fdc	-0.042846546
181	0x3d689eba	0.056792
182	0x3d9dda53	0.07707658
183	0xbc188f6b	-0.009311537
184	0x3d026875	0.0318379
185	0xbcf81c62	-0.030286971
186	0x3d860912	0.06544699
187	0xbc66189d	-0.014043954
188	0x3c9c9926	0.019115996
189	0x3e321390	0.17390275
190	0xbd1402d6	-0.036135517
191	0xbca40aad	-0.020024622
192	0x3cdb0db2	0.026739929
193	0x3cb34a96	0.021886151
194	0xbe37c202	-0.17945102
195	0xbd97a24a	-0.07404001
196	0x3d34486a	0.044014372
197	0x3c3b419e	0.011429219
198	0x3e0764cd	0.13222046
199	0x3ce8fe53	0.028441584
200	0x3dbb1560	0.09134936
201	0x3a221500	0.0006182939
202	0x3e195564	0.1497398
203	0x3c81ee3c	0.01586067
204	0x3ddcb4c4	0.10776666
205	0xbcc2397c	-0.023709051
206	0xbc9a6412	-0.018846545
207	0xbbeee166	-0.007290053
208	0xbdd75d7f	-0.1051588
209	0x3c365995	0.011129756
210	0x3dd9919b	0.10623475
211	0xbcf9d4a2	-0.030496899
212	0xbde9c572	-0.11414613
213	0x3d9270b8	0.07150406
214	0x3e0b8f2a	0.13628832
215	0x3d4b57c5	0.04964425
216	0x3c3a37ec	0.011365872
217	0x3d16ae64	0.036787406
218	0x3dc13d1d	0.094354846
219	0xbda491c8	-0.08035618
220	0x3e160472	0.14650133
221	0xbc623225	-0.013805901
222	0x3da3ffd2	0.08007778
223	0xbc69e513	-0.014275807
224	0x3d8afa18	0.06785983
225	0x3d0c8012	0.034301825
226	0xbd47ccfc	-0.048779473
227	0x3e170662	0.14748529
228	0x3e1b9e7e	0.15197179
229	0xbdde6f0e	-0.10861026
230	0x3d0514c9	0.032490525
231	0x3c9402c5	0.018067727
232	0x3e15fd48	0.146474
233	0x3cb861a9	0.022507505
234	0x3c94a496	0.018144887
235	0x3b7e5fa0	0.003881432
236	0x3e33b4dd	0.17549463
237	0x3d837176	0.06418125
238	0xbb89caba	-0.004205075
239	0x3d581495	0.052754004

fc_layers.1.weight f4 [10, 240]
0	0xbed6add5	-0.41929498
1	0x3e2d1e1e	0.1690602
2	0x3e0add1f	0.13560914
3	0x3d002003	0.03128053
4	0x3bb08726	0.0053872047
5	0xbe88fa51	-0.26753476
6	0xbed47f69	-0.41503456
7	0xbebe4a1d	-0.3716592
8	0xbcd53b1c	-0.026029162
9	0x3e30bff4	0.17260724
10	0xbe275fb8	-0.16345108
11	0x3c979c2e	0.01850709
12	0xbe021f96	-0.12707362
13	0x3dd48c38	0.10378307
14	0xbe1a5d48	-0.15074646
15	0x3d5fbf19	0.054625604
16	0x3e5ebc71	0.21751572
17	0xbc9fa029	-0.01948555
18	0xbe9c1f0e	-0.30492443
19	0x3eb84787	0.3599207
20	0xbe0e1976	-0.138769
21	0x3dcb2878	0.09919828
22	0xbd698968	-0.057015806
23	0x3ecb01c0	0.39649773
24	0xbd9afb17	-0.07567423
25	0xbdfa4a6f	-0.12221228
26	0x3eb42dac	0.35191095
27	0xbebdbfd4	-0.37060416
28	0x3bde0da0	0.0067765266
29	0x3e52f2e5	0.2060047
30	0xbc92dfc5	-0.017928967
31	0xbf1109ae	-0.56655395
32	0xbe75cb8c	-0.24003428
33	0xbdf64967	-0.12025719
34	0xbdff27ec	-0.12458786
35	0xbdf96558	-0.12177533
36	0x3e327bd6	0.17430052
37	0xbe01eaaf	-0.12687181
38	0x3e532e8d	0.20623226
39	0x3f0e0351	0.5547381
40	0x3d559ed0	0.05215341
41	0xbe6eb3f2	-0.23310831
42	0xbeaeb659	-0.34123495
43	0x3e73b644	0.23799998
44	0xbec51864	-0.3849517
45	0xbe9343aa	-0.2876256
46	0x3d705b3d	0.05868076
47	0xbe930fb6	-0.28722924
48	0x3d6d0c2c	0.057872936
49	0x3f22ceeb	0.6359698
50	0xbe6f5594	-0.23372489
51	0xbe22f4b5	-0.15913661
52	0xbe1c251e	-0.15248534
53	0xbe826a9a	-0.25471956
54	0xbcc0fac2	-0.02355707
55	0x3e7df8de	0.24801967
56	0x3d7e7c60	0.062130332
57	0xbdc46cee	-0.09591089
58	0xbea6969a	-0.32536775
59	0x3e04c86b	0.12967078
60	0x3e217607	0.1576768
61	0x3e868fcb	0.2628158
62	0xbf1aa4e1	-0.60407835
63	0x3dcf208a	0.10113628
64	0xbdfb8ba0	-0.12282491
65	0x3cd15bc5	0.025556454
66	0xbf4bf771	-0.7967444
67	0xbcd53b10	-0.02602914
68	0x3deedc26	0.11663084
69	0xbe3a1467	-0.18171845
70	0xbc2f2b23	-0.010691437
71	0xbe21b017	-0.15789829
72	0xbe229985	-0.15878876
73	0x3e0af560	0.13570166
74	0xbe6f619d	-0.2337708
75	0xbe02b5ba	-0.12764636
76	0xbdbefeaf	-0.09325921
77	0x3b03c585	0.0020106744
78	0x3ef0b001	0.4700928
79	0xbeb93578	-0.36173606
80	0xbd81c6c6	-0.06336741
81	0xbecdbd20	-0.40183353
82	0xbd326cc2	-0.04356075
83	0xbe055a62	-0.1302276
84	0xbe71091c	-0.23538631
85	0xbd8a00af	-0.06738412
86	0x3efef8d4	0.49799216
87	0x3d8cf94d	0.06883488
88	0x3ecbfc61	0.39840987
89	0xbe495712	-0.19662121
90	0xbec50099	-0.38477018
91	0xbb88fe4e	-0.004180706
92	0x3b9fd575	0.004877741
93	0x3c1d2172	0.0095904935
94	0x3de541f8	0.11194223
95	0xbe3ec7b5	-0.1863087
96	0x3e09421d	0.13404126
97	0x3edbf273	0.42958412
98	0x3e2fba0b	0.17160814
99	0xbcff9ba2	-0.031202141
100	0xbe77b96d	-0.24191828
101	0x3dd37248	0.10324532
102	0x3ead2ce0	0.338233
103	0x3e0bad82	0.13640407
104	0xbbf63a54	-0.0075142775
105	0xbd28959e	-0.04115831
106	0x3e6f2cff	0.23357008
107	0xbf0d792d	-0.55263025
108	0xbd23a92a	-0.03995625
109	0x3e956657	0.29179642
110	0xbe904b3e	-0.28182405
111	0x3d1cc2e0	0.038271785
112	0xbde63fd4	-0.11242643
113	0xbe9f4601	-0.31108096
114	0xbebe31c6	-0.3714735
115	0x3df0c8ab	0.117570244
116	0x3ea4686f	0.32110927
117	0x3e6781e4	0.22608143
118	0xbe65d7b4	-0.22445565
119	0x3e8293ec	0.2550348
120	0xbdd1a845	-0.10237173
121	0x3e0b4df6	0.13603958
122	0x3ea47f73	0.32128486
123	0xbe56242c	-0.20912236
124	0xbe51f020	-0.20501757
125	0xbf449178	-0.7678447
126	0xbe9a6226	-0.30153006
127	0x3e6afd92	0.22948292
128	0x3e8f052c	0.27933633
129	0x3e98de07	0.29856893
130	0xbe5e624b	-0.21717183
131	0x3df36138	0.118837774
132	0xbf0e2353	-0.5552265
133	0xbe80f664	-0.2518798
134	0x3cd98c57	0.026556177
135	0x3d0fbe1d	0.035093416
136	0xbe1b6743	-0.1517611
137	0xbe211b9b	-0.15733187
138	0x3e845191	0.2584348
139	0xbd59aac2	-0.053141363
140	0xbd60d9d0	-0.054895222
141	0xbec30f51	-0.38097623
142	0x3e9e7c2b	0.30954108
143	0x3e2bb3f6	0.16767868
144	0x3e8d2ce1	0.27573302
145	0xbf1c4212	-0.61038315
146	0xbbcf2e99	-0.0063226935
147	0xbe7e0c23	-0.24809317
148	0xbe522056	-0.20520148
149	0x3eb790f6	0.35852784
150	0xbf1fc59f	-0.6241092
151	0xbd25afca	-0.04045085
152	0xbe59073c	-0.21194166
153	0x3e43dee0	0.19127989
154	0xbcba023b	-0.022706142
155	0x3e14b91e	0.14523742
156	0x3eb798ef	0.35858867
157	0xbe096ce3	-0.13420443
158	0xbbe9869d	-0.007126643
159	0xbe0f19b6	-0.13974652
160	0xbe9a6eee	-0.30162758
161	0x3da7f7ef	0.082015865
162	0xbe0b75de	-0.13619182
163	0x3dc97f5c	0.09838745
164	0xbde7ce61	-0.113186605
165	0x3de26575	0.11054508
166	0xbe596797	-0.21230923
167	0x3ed07678	0.40715384
168	0x3e87e65e	0.26542944
169	0x3d9fefbe	0.07809399
170	0x3cbc55be	0.022990104
171	0x3e02eda5	0.12785967
172	0x3d2d3cde	0.042294376
173	0xbe1d2f6d	-0.15350123
174	0xbdca7ba8	-0.09886867
175	0x3dcce3e1	0.10004402
176	0xbe600966	-0.21878585
177	0x3dcd6d33	0.10030594
178	0xbf0e44a6	-0.555735
179	0x3da305ec	0.07960114
180	0xbe86e53f	-0.26346776
181	0x3ea569b4	0.32307208
182	0xbedccb97	-0.43124077
183	0x3d804f3a	0.06265111
184	0xbe59f55b	-0.21285002
185	0x3d3db308	0.046313316
186	0x3dcfc12a	0.10144265
187	0x3d6aebf5	0.057353932
188	0x3ea89d4c	0.32932508
189	0xbda0ff6c	-0.07861218
190	0xbdc3f20b	-0.095676504
191	0xbcc53fc2	-0.024078254
192	0x3e82728e	0.25478023
193	0xbd57eef2	-0.05271811
194	0x3efd9bdc	0.49532974
195	0x3e93fecf	0.2890534
196	0xbe850eb4	-0.2598778
197	0x3cccc61d	0.024996812
198	0xbe22de8d	-0.15905209
199	0xbef4a435	-0.4778153
200	0x3e815683	0.25261316
201	0x3f101429	0.5628076
202	0xbdb0547f	-0.08609866
203	0xbd38eca6	-0.04514756
204	0x3cb70b64	0.022344299
205	0xbe93a7cd	-0.2883896
206	0xbe9a8d22	-0.301858
207	0x3e827ba9	0.2548497
208	0xbe01a766	-0.12661514
209	0xbd7f2d92	-0.06229932
210	0x3e8a991d	0.2706994
211	0x3e22ee29	0.15911163
212	0x3e4d8a5b	0.2007231
213	0xbe8e8701	-0.27837375
214	0xbcb5ad61	-0.0221774
215	0x3d722523	0.059117448
216	0xbd03147b	-0.032001954
217	0xbf16095b	-0.58608025
218	0x3ee06b44	0.43831837
219	0xbe042612	-0.12905148
220	0x3e2c68f3	0.1683691
221	0x3dde31c4	0.10849336
222	0x3eb17bd8	0.34664798
223	0xbd976ba8	-0.07393581
224	0x3e1b9495	0.15193398
225	0xbe9242b8	-0.28566527
226	0xbd1fea84	-0.03904201
227	0x3e6010b6	0.21881375
228	0x3e33fc9d	0.17576833
229	0xbd91f5b8	-0.07126945
230	0xbd8fa8c1	-0.07014609
231	0x3d10bfe8	0.035339266
232	0xbed9e83e	-0.4256
233	0x3ef14d20	0.47129154
234	0xbe694000	-0.2277832
235	0x3e72dc23	0.23716788
236	0x3d6ccebd	0.05781435
237	0xbca28825	-0.01984031
238	0xbd4e8d3b	-0.050427657
239	0x3d9aee9a	0.07565041
240	0x3dcdf377	0.10056203
241	0xbe4926ee	-0.19643757
242	0xbe402679	-0.18764676
243	0x3e85f05d	0.26159945
244	0xbed6075e	-0.41802496
245	0xbe0c413f	-0.13696764
246	0x3e91edee	0.28501838
247	0x3e87ea08	0.2654574
248	0x3eb9cf69	0.36291054
249	0x3d1372b2	0.035998054
250	0x3eb2f061	0.3494902
251	0xbcc0bdb1	-0.023527952
252	0x3d00707e	0.03135728
253	0x3de2a358	0.110663116
254	0xbf26fd78	-0.6523051
255	0x3d9c4de2	0.076320425

fc_layers.1.bias f4 [10]
0	0xbe5d37ce	-0.21603319
1	0x3da19fb9	0.07891793
2	0xbdb110e8	-0.08645803
3	0xbe4ba12a	-0.19885698
4	0x3d8a958f	0.06766807
5	0x3e9638bd	0.29340163
6	0x3c961abf	0.0183233
7	0xbd898f79	-0.06716818
8	0x3e38a2bb	0.18030827
9	0xbd76b1c4	-0.060228124
