Lab1/model/model_mnist/MLP1120.pth (torch, 383632 bytes, 4 tensors)

fc_layers.0.weight f4 [120, 784]
00000000: b7e6 1fbc 537c f63b 5cda 98bb 97a8 283c
00000010: ce90 0c3c ccb2 fd3c eed2 303b 4560 243c
00000020: 41a5 d53b a5e7 c33c b502 db3c 612a d73c
00000030: 38ee 23bc 5c4f 9fbc 93d8 fb3c ba40 e13c
00000040: d03c 893c 655f 4c3c 3398 98bc 6301 c6bc
00000050: 9128 c0bc 5ec1 d53c 23f2 0ebd c18f 473c
00000060: dc78 04ba ba95 fb3c c51e 17bc 1a66 883c
00000070: b754 36bb 913d e6bc fc77 82bc 6e78 7dbc
00000080: 475b 863c 9d25 233c 8eb8 a33c 0495 a6bc
00000090: 2a02 13bd 53b2 fbbb 6f2b 023c 40ae 033c
000000a0: 7296 f7bc 7396 013d f944 ab3c 09fe d73c
000000b0: b299 fd3b 5419 843c 9b25 283b 1deb c1bc
000000c0: 6ff6 87bc 466d 29bb ebd6 053d 6a61 f33c
000000d0: 3e0b a3bc c5e3 063c 4eec ccbc c55c 3a3c
000000e0: a5e3 d7bc fc33 16bc 0381 083d f280 d03c
000000f0: 5c7b 063d 3387 d03c 6510 5d3c 678c 1ebd
00000100: 6688 6fbc a0c5 c33b 98b0 fabc 3b85 cdbb
00000110: c02c 95bc b823 bb3c 7e79 753c e6f3 493b
00000120: 40e3 39bd c8e1 9c3c 1d55 22bd afb5 1dbd
00000130: 634c ad3c c802 15bd a0d1 e43c 5e36 0dbd
00000140: 0b97 873b 2e3c 723c 3c17 283c 1829 7bbc
00000150: 35b3 e03c 95eb a93c b707 b9bc 859d b03c
00000160: 3085 0ebd 1949 793c 10da 86bc 7105 07bd
00000170: d070 013d cf80 023d a7b7 213d e719 e73c
00000180: 4a11 5cbd 045c 75bd d7bf bcbc 0c1f 48bb
00000190: 9da9 1ebd 67c0 393c 1e87 21bd 57b1 773c
000001a0: 51aa 12bc ad9b 8b3c 501c 1dbd fe38 c4bb
000001b0: 3860 3ebc 47da 7a3c 4493 0f3d fcd4 2b3c
000001c0: d359 e8bb 938e a1bc a690 efbc c3f1 c9bc
000001d0: 2105 b6bc 5e2e dc3b e84f 0a3c 660e cd3c
000001e0: d51b 333b 6237 6c3d 5136 463c d6a6 85bc
000001f0: 6f1e 36bc 61ae 19bc 1242 dfbc 4168 50bd
00000200: 1bc7 36bc f749 89bc 54b9 c3bc 7364 be3c
00000210: a906 683c 2959 39bc 0c04 c13c ff5f 92bc
00000220: 9545 18bb f922 29bc 50fa 553b 2e91 e3bc
00000230: 4a26 ea3b 3af2 903c 7df3 4ebb 2d1a f23c
00000240: d07f a2ba ad45 043c 85f0 8bbc 334b 8a3c
00000250: 26d9 803d 384a 613d 9ebf 923c bc88 073d
00000260: edf1 cb3c 1093 923d e45d 5e3c 14df 10bd
00000270: 8b8c 60bd 4a42 90bd aaaf b7ba f40f 3abc
00000280: 38de a73b af2c 4d3d eaa3 0f3c 35ed 0b3c
00000290: d2b2 4bbc 45eb 203c 4110 acbc 01b5 023d
000002a0: c173 be3b 4ac5 203c 4248 f33c e7c3 253b
000002b0: bbe7 feba a7fb 193c bd32 2c3d dfbe d0bb
000002c0: a7e6 60bc 04bb 7a3d 41b0 913d 8037 84bb
000002d0: eef0 9a3d ea16 babc 9418 95bb cb72 2d3c
000002e0: f9e4 72bd 61ac b7bc d970 17bd a242 2dbd
000002f0: 5e32 d8bc 7534 b73c 0589 3d3c 0689 303c
00000300: 9178 403d e18e 0a3c 0ace 953c 8927 babb
00000310: 7641 00bd c6c2 4abc 252e 08bd af47 9fbc
00000320: 60dc 133d 0592 6e3c 4926 033c a7eb 57ba
00000330: ed95 8cbc fa3f ad3c 668b a6bb 2eb2 793d
00000340: 49c5 d43c d9a4 7837 856f 803c 16a7 c83c
00000350: 0c2c 9bbc f2f5 cbbd f5f4 0cbd d06b 93bd
00000360: 7bf5 1e3b 2989 223d d635 903d 6dd9 123d
00000370: 7d0e 313c ecd7 d1bc 0161 133d 26d1 ebbc
00000380: c010 a93b e8cd 0f3d 06d3 ab3b 5a08 003d
00000390: 6ec3 cbbc d032 8c3b be66 843c 115a 7d3c
000003a0: d591 2cbd 2bd4 0fbd 0f07 863c 23d3 513d
000003b0: 611c 763d 08af c13c b817 003d 14f0 053d
000003c0: c4ea 17bb 7505 6abd 1749 c6bd 9903 33bd
000003d0: 2dea 22bd af7e 293d 274a 7d3d da8d 443d
000003e0: 6488 53bb 129d a1bb 6bb5 643b 4355 993b
000003f0: c0c6 87bb 0ba1 cdbc 40e4 853c 96a4 33bc
-0.009759597 0.007522145 -0.0046647023 0.010294101 0.008579446 0.030969046 0.0026981193 0.010032718
0.006519944 0.023914168 0.02673469 0.026265325 -0.010005526 -0.019447021 0.03074292 0.027496684
0.01675263 0.012473916 -0.018627262 -0.024170583 -0.023456844 0.026093181 -0.03489889 0.01218027
-0.000505341 0.030711044 -0.009223645 0.016650248 -0.002782149 -0.028105529 -0.015926354 -0.015470607
0.016400946 0.009957698 0.019985463 -0.020334728 -0.035890736 -0.00768117 0.007944926 0.00803715
-0.030223105 0.03163762 0.020906912 0.02636625 0.007739269 0.016125359 0.002565718 -0.023671681
-0.016597 -0.0025852486 0.032675665 0.029709537 -0.019902822 0.008233015 -0.025015023 0.011374657
-0.026353667 -0.0091676675 0.03332616 0.02545211 0.03283249 0.025455093 0.013492678 -0.038708117
-0.014619922 0.0059744865 -0.030601785 -0.006271986 -0.018209815 0.02284418 0.014982579 0.003081554
-0.045382738 0.01915063 -0.03963195 -0.038503345 0.021154588 -0.036379606 0.027931988 -0.034475677
0.004137879 0.014784856 0.010259446 -0.015329622 0.027429203 0.020742217 -0.022586687 0.021559486
-0.034794986 0.015215182 -0.016461402 -0.032964174 0.031601727 0.031861123 0.039481785 0.028210593
-0.053727426 -0.059902206 -0.023040695 -0.0030536084 -0.038735975 0.011337376 -0.0394355 0.015117965
-0.008951739 0.017042005 -0.03835708 -0.0059882393 -0.01161962 0.01531083 0.035052553 0.010487791
-0.007090786 -0.019721305 -0.029243778 -0.024651414 -0.022219243 0.0067193946 0.008441903 0.02503128
0.0027329822 0.057670005 0.012097911 -0.016314905 -0.011115654 -0.009379954 -0.027253184 -0.050880674
-0.011155869 -0.016758902 -0.023892082 0.023241257 0.014161744 -0.011312761 0.0235615 -0.01786804
-0.0023234833 -0.01032328 0.0032650419 -0.027779188 0.0071456777 0.017693628 -0.0031578236 0.029553497
-0.001239771 0.008073253 -0.017082462 0.01688156 0.06291418 0.05500242 0.017913636 0.033089384
0.024895633 0.07156956 0.01357219 -0.035368994 -0.054821532 -0.07043894 -0.0014014144 -0.011356343
0.005122926 0.05009144 0.0087671075 0.008540441 -0.012432771 0.009821718 -0.021003844 0.0319109
0.005812139 0.009812662 0.029697541 0.002529377 -0.0019447723 0.0093983775 0.042040575 -0.00637041
-0.013726867 0.06121351 0.07113696 -0.0040349364 0.07565485 -0.022716004 -0.004550049 0.010586451
-0.059300397 -0.022421064 -0.036972854 -0.042299874 -0.026391204 0.02236388 0.0115683125 0.010774856
0.04698998 0.008456917 0.018286724 -0.0056809825 -0.03131243 -0.012375539 -0.03324713 -0.019443361
0.036098838 0.014561181 0.008004733 -0.0008236714 -0.017161334 0.02114867 -0.0050825356 0.06096094
0.02597298 1.48203335e-05 0.015678177 0.024493735 -0.018941902 -0.0995902 -0.034413297 -0.07198298
0.0024255204 0.039681587 0.070415184 0.035851885 0.010806677 -0.025615655 0.035981182 -0.028786253
0.0051594675 0.035108477 0.005243662 0.031257965 -0.024873462 0.0042785183 0.016162273 0.015463368
-0.042131264 -0.03511445 0.016360788 0.051226746 0.060085658 0.023643032 0.03127262 0.03269966
-0.0023180703 -0.05713411 -0.096819095 -0.043704603 -0.03977411 0.04138058 0.061838295 0.047986843
-0.003227734 -0.0049320543 0.0034898173 0.0046793534 -0.004143566 -0.025101205 0.01634419 -0.010964533

fc_layers.0.bias f4 [120]
00000000: bc8a 2f3a d768 5e3d 48ab d93d 9d36 8f3d
00000010: 42d1 8bbb 6945 2e3e 6918 5abd 4209 b63e
00000020: 50ae de3d b58b 9a3c 8f04 cbbb bfcc 413e
00000030: b6d0 243e f283 6bbd 50e9 f8bd 9883 2f3e
00000040: 1229 fc3d c1b6 083b 6e28 c0bc e29d f73d
00000050: eb03 30bd de3f e23d a122 26ba 443b 303d
00000060: 2086 163c e672 9cbb b922 0cbe e366 8f3e
00000070: 936f 9f3e 09cf 33bc 0c5a 973d 154a 90bd
00000080: 093e 033e c59d 113d 1671 7b3c 05f2 5d3d
00000090: cf08 6ebc 36a9 083e 21ef 423e f8ef 20be
000000a0: 44a3 88bd 51c8 423d 89ec a73d bc71 d13d
000000b0: 6251 473e b0b2 743c 113f 1e3d 7d5c 003e
000000c0: 5556 fa3c 434d 473d 8c6f 9abe ec15 903d
000000d0: 978f 08be 5498 8fbd eb47 ecbb 13ef 8b3d
000000e0: 9e27 773d ce9c aa3d b81c f03d 13fc 93bc
000000f0: a9fc 383e 5052 38bd 410b 683e 8245 bfbc
00000100: 8d7e 93bc 02a8 0abe 34e8 75bc 74b2 833c
00000110: 79c5 4c3d 1470 2bbd 2fbf 1c3e 828d 8e3e
00000120: 3255 bdb5 7a5f 78be 1361 f93c b768 cd3c
00000130: 9378 063e 97f9 8a3d 4f5b a03d 23f8 84bc
00000140: 75fc 003e 6bf1 1cbe 7ffb fe3d e6c6 e8bc
00000150: 5b59 813d 38bf 4d3d 1627 26bd 498c 603e
00000160: f73c 0f3e b612 a93a 0a50 0d3e f38b 763d
00000170: 3ea1 d43d 1fdc 983d 8a23 04be caae 8a3e
00000180: 6718 1a3e 18c9 323d 2c0b c13c 8fb7 5c3b
00000190: 6cfd 91bd b3d3 0e3c 5e1b 073e 302a 05bc
000001a0: 2133 6b3e 5295 c8bc 6852 c3bc aad3 303e
000001b0: 2089 033d 9ad3 7d3e 75d0 f13d 5b90 963e
000001c0: d3ee 7a3d 922a a8bd 6f30 543c 2217 553c
000001d0: fa84 623d 583c a03c 8e16 a83d 8c70 acbd
0.0006696393 0.0542992 0.106283724 0.069928385 -0.004266889 0.17018665 -0.053245936 0.35553938
0.10873091 0.018865446 -0.006195612 0.1892576 0.16095242 -0.05749888 -0.12153876 0.17140043
0.12312521 0.0020860883 -0.023456778 0.12090661 -0.042972486 0.11047338 -0.00063375576 0.04302527
0.009187251 -0.004774439 -0.1368512 0.28008184 0.31139812 -0.010974654 0.07390222 -0.0704538
0.12816633 0.03555085 0.015346786 0.054185886 -0.014528467 0.13345799 0.19036533 -0.15716541
-0.066717654 0.047554318 0.081994124 0.10226771 0.19464639 0.014935181 0.038634364 0.12535281
0.030558744 0.048657667 -0.3016323 0.07035431 -0.13336025 -0.07011476 -0.0072107217 0.06832709
0.060340516 0.08330689 0.11724228 -0.018064534 0.18065132 -0.045000374 0.22660543 -0.023348574
-0.01800468 -0.13540652 -0.015008975 0.016076304 0.049993012 -0.041854933 0.15307306 0.27842337
-1.4106392e-06 -0.24255171 0.030441796 0.025074346 0.13131933 0.06785887 0.07829916 -0.016231602
0.12596305 -0.15326469 0.12450313 -0.028415155 0.06315871 0.05023119 -0.04056462 0.21928515
0.139881 0.0012899253 0.13800064 0.06019206 0.10382317 0.0746386 -0.12904182 0.27086478
0.15048371 0.04364881 0.023564897 0.0033678745 -0.071284145 0.008717465 0.13194034 -0.008127734
0.22968723 -0.024485264 -0.023843005 0.17268243 0.032113194 0.24787751 0.11807338 0.2940701
0.061262917 -0.08211245 0.012951001 0.013006004 0.055302598 0.019560024 0.08207427 -0.08419904

fc_layers.1.weight f4 [10, 120]
00000000: 13e5 bebc 4ee9 133b 6c29 9bbe 6793 78be
00000010: ec9b 32be c9ee 5f3e dcf6 c33d 5f77 d13e
00000020: 1027 ca3e c7c2 903c cdf2 cb3d e17b 16be
00000030: b5a3 ddbc 6878 4abe d74a 00bf 8ddc 8fbe
00000040: 12c8 83bd 7421 4f3e 9392 0bbe 4b8f 00bf
00000050: 52f1 ce3e e5bc 0abf 38e3 bc3e 2235 9ebb
00000060: 64c6 b53e cc37 f83e 8e7e 313f 23be 52bf
00000070: 02d7 9a3d 5c2a ba3e d483 a4be 1244 88be
00000080: bb3d 15bf 4581 b3bd 5f6b 26bf 62bd 78be
00000090: ac27 a5bd 6d58 80be fc59 443e bb3b 9abe
000000a0: ede9 543f 85d2 e13d 8aab acbc 73d4 59be
000000b0: bf32 743d 6a79 bd3e 7466 f93e 2032 fd3e
000000c0: 25e7 76be cba6 44bf 7675 423e f25a dd3e
000000d0: ce05 d23e 9d81 7cbe fca3 e83e b0f9 4b3e
000000e0: dc73 463c a33d 1dbe 7ffe 143e b741 36bc
000000f0: d444 10bf 41d6 6b3e 11d3 30bd 3cf7 e13d
00000100: 25e0 1abe 0a8f 9dbc c960 d2be 6dd6 d1be
00000110: 2b3d 34be b556 0a3e 466c 2ebe bcb1 223d
00000120: 36f6 8e3d a0e0 e4be f594 1cbe caf9 cd3d
00000130: b19c f0be 02a5 513e 89ba f73d 0109 373e
00000140: 3fd8 9dbd 3105 06bd 19a8 cf3e 057b 2a3f
00000150: 9e60 323d 1330 1e3d a869 1d3e 1dbb 78bd
00000160: 66ff a4be 93a8 ea3e 1398 ea3e da02 9c3e
00000170: 0cae 3d3d 038f 42bd b822 b73e 9d4f dfbe
00000180: 903e d0be 7b7a 4ebd 89e1 ecbe 84e6 13be
00000190: 6a1a bcbe fc5f 41bf 6602 34be 5fea 8fbc
000001a0: 46b6 343e 3a92 12bf 9cf3 543e ce41 163d
000001b0: 890d 9c3e 1241 693e 75e9 d2be 1968 c7be
000001c0: d27f ebbe fbfc a8bd 37d0 0e3f 6986 a6bc
000001d0: cec8 21be e94c 953e 20f5 1c3f 5fe6 8dbf
000001e0: 2627 cc3d 911c 00be b4db a4be b437 febd
000001f0: a01b 22be 35ba f83e 2618 e8bd 8fa7 c13c
00000200: 749e 87be 09ba 853f 4503 01bf e568 7cbe
00000210: fb2b 0e3f 7d29 3fbd f590 ef3e 7d77 ca3e
00000220: 176e e3be 4bd0 61bd 29a5 3dbe ed06 a33e
00000230: 6f98 91be c61d 823e 95fa 8b3e b4f4 ab3e
00000240: f8ee 923e 1625 bbbd 2fb3 113d 324b 0c3e
00000250: 5097 e0be da10 b6be 92cf 8fbd bf09 4e3f
00000260: 6666 b0bd ab3b 98be 2c7a b3be 0f4d 143d
00000270: 3061 ad3d 334b d6be 81e8 3c3f 098c 7c3e
00000280: c179 50bd 2472 1d3e f7e6 de3e 4fe3 783e
00000290: fed1 ccbd 2b51 02bf a729 de3d d359 03bf
000002a0: ec8e 493e 7213 0c3e 0a29 143f 5797 ae3d
000002b0: 1898 d1be 9011 223d 8057 efbe 84f2 6e3e
000002c0: cc2d e03e 372d a83e 6a4b 38bd 6f74 8c3c
000002d0: b2a8 bcbe 039f e9be 526e d73e 371b 27bf
000002e0: 892b 253e 683c f3bd 958f 1cbf cab9 2c3e
000002f0: 0b82 05bd 19e0 07bf 761d 173f 7461 cbbd
00000300: 8173 45be 8ada e43e ce42 ff3e bb9c 42be
00000310: fce3 c1be eb7c 3f3d 1fcb d03c 2b61 793e
00000320: a8bd 133f ead9 073f 7c73 463e 6d14 2bbf
00000330: 5845 d0be 3782 223f da14 90bd f1be b5be
00000340: 4434 303f 156f a2bc 5dda ebbd 830c a2bd
00000350: 9f0c 9c3e b12c 62be b298 66bd e7ba 0abf
00000360: f225 e33d 0b83 fc3e 11cb 213f 3ad5 f9bd
00000370: 584f cf3e ac16 adbd 77c2 593d 36e8 93be
00000380: 610f 03bf ad38 f3bc 6db4 cbbe 9ece 043e
00000390: fb40 193f cf00 4abe 8978 b83e 2b5b dcbe
000003a0: 0c58 8bbe 30bc 3bbe 1fb6 0cbf 4bb7 eabc
000003b0: 50e9 243e 9a74 d5be 2a62 88be c04e 163f
000003c0: 42c9 833e d901 1e3f 11c5 4a3f ac92 873d
000003d0: 7778 a03e cb0a 353f 950b 043f 2787 9ebe
000003e0: a0e9 f9be c646 1fbf a3b4 f63e 27be 2dbf
000003f0: 4e5c 0c3f 192a d3be 1f00 6f3e a951 393e
-0.02330259 0.002256948 -0.3030504 -0.2427498 -0.17442292 0.21868433 0.09568569 0.40911385
0.39482927 0.017671002 0.0995842 -0.14695694 -0.0270556 -0.19772494 -0.50114197 -0.28097954
-0.06434645 0.20227605 -0.13630132 -0.5021865 0.40418488 -0.5419448 0.36892104 -0.0048281113
0.35502923 0.4848007 0.6933373 -0.82321376 0.07560541 0.36360443 -0.32131827 -0.26614434
-0.5829732 -0.087648906 -0.65007585 -0.24290994 -0.080642074 -0.25067464 0.19174951 -0.30123696
0.8316944 0.110264815 -0.02107789 -0.21272449 0.059618708 0.37006694 0.48710978 0.49452305
-0.24111612 -0.76817006 0.1899012 0.43233448 0.41020054 -0.24658819 0.4543761 0.19919467
0.012112584 -0.15355544 0.14550208 -0.011124066 -0.56355023 0.2303095 -0.04317004 0.11033484
-0.15124567 -0.019233245 -0.41089466 -0.40983906 -0.17601459 0.13509639 -0.1703349 0.039720282
0.06980555 -0.44702625 -0.15291198 0.10057409 -0.46994546 0.20473102 0.12096126 0.17874528
-0.07707261 -0.032719795 0.40557936 0.6659396 0.043549173 0.038620066 0.15372336 -0.06072532
-0.32226104 0.45831737 0.45819148 0.30470926 0.046308562 -0.047499668 0.35768676 -0.43615428
-0.4067273 -0.050409775 -0.4626582 -0.14443403 -0.36738902 -0.75537086 -0.1757904 -0.017567812
0.17647657 -0.57254374 0.20796055 0.03668385 0.30479077 0.22778729 -0.4119374 -0.38946608
-0.45995957 -0.08251377 0.5578646 -0.020327764 -0.15799257 0.2916024 0.6131153 -1.1085929
0.099684045 -0.12510897 -0.3219887 -0.12412968 -0.1583085 0.48579565 -0.11332731 0.023639468
-0.26488078 1.0447398 -0.50395614 -0.24649389 0.5553586 -0.046670426 0.4679028 0.39544287
-0.4441993 -0.055130284 -0.18520035 0.3184122 -0.2843661 0.2541334 0.27339616 0.3358513
0.28697944 -0.09137933 0.035571273 0.1370056 -0.43865442 -0.35559732 -0.07022013 0.8048362
-0.08613281 -0.29733023 -0.35054147 0.0362063 0.08465803 -0.41854247 0.7379227 0.24662794
-0.050897364 0.15375572 0.43535587 0.24305461 -0.1000099 -0.509051 0.10847788 -0.51308936
0.19683427 0.13679293 0.5787512 0.085249595 -0.4093635 0.03956753 -0.46746445 0.233347
0.4378494 0.32846996 -0.044993795 0.017145364 -0.36847454 -0.4562913 0.42076355 -0.652759
0.16129889 -0.11876756 -0.6115659 0.16867748 -0.03259472 -0.5307632 0.5902933 -0.09930697
-0.19282342 0.44697982 0.49855655 -0.190051 -0.3786925 0.04674999 0.02548748 0.24353473
0.5771127 0.53066885 0.19379991 -0.6682804 -0.40677905 0.6347994 -0.07035227 -0.3549724
0.6882975 -0.019828359 -0.11516259 -0.07912543 0.3047838 -0.22087361 -0.056297965 -0.5419144
0.11091222 0.49318728 0.6320048 -0.12198873 0.40490222 -0.0845159 0.05316397 -0.288881
-0.5119534 -0.029690111 -0.3978609 0.12969443 0.5986478 -0.19726871 0.3602946 -0.43038306
-0.27215612 -0.18333507 -0.54965395 -0.028651854 0.16104627 -0.41690522 -0.26637393 0.5871391
0.25739485 0.6172157 0.7920695 0.06619772 0.31341907 0.70719594 0.5158017 -0.30962488
-0.48811054 -0.62217367 0.4818469 -0.67868274 0.54828346 -0.41243055 0.2333989 0.18097557

fc_layers.1.bias f4 [10]
00000000: e525 aebe a8c5 6b3d ba36 abbd 1f4d f9bd
00000010: d98d 383e 1e93 943e 8f44 943c 51df aabd
00000020: 94fd 3e3d 2cb9 8abd
-0.34013286 0.057561547 -0.08360048 -0.12172913 0.1802286 0.29018492 0.018099098 -0.083433755
0.04662855 -0.067736
