Lab1/model/model_mnist/MLP1270.pth (torch, 860624 bytes, 4 tensors)

fc_layers.0.weight f4 [270, 784]
000000 26 06 03 3d b3 4f f7 3c 4a 75 b5 bb ee 7f 92 3c
       0.031988285 0.03018937 -0.0055376636 0.017883267
000010 57 46 8e 3c 5e 21 bf bc d3 47 7e 3c d3 60 6d bc
       0.017367525 -0.02333134 0.015520054 -0.014488417
000020 38 63 73 3b 73 ad 63 bc 6e 08 de 3b cc 06 fb 3c
       0.0037137996 -0.013896334 0.0067759072 0.03064289
000030 48 c7 53 3c ed 96 0c 3d 25 ed c6 39 ee fb f9 bc
       0.01292593 0.03432362 0.0003794219 -0.030515637
000040 85 45 99 bc 87 bb 94 3c cc 14 ff 3c 0d d7 09 3d
       -0.018709907 0.018155826 0.031137846 0.033652354
000050 93 1f c5 ba 85 19 c4 bc 93 45 e0 3a 95 c8 e9 3c
       -0.0015039317 -0.02393795 0.0017110578 0.028538028
000060 4a d1 a3 bb 25 11 81 bb 67 ac a8 bc 81 87 e6 3b
       -0.0049993144 -0.0039388114 -0.02059002 0.0070351963
000070 3c cd 14 bc fe 8f 0d bd 23 eb c5 bc df 4a 0d bd
       -0.009082135 -0.03456115 -0.024159973 -0.03449523
000080 bf 1c ce 3c 34 24 ee 3c cc 02 ad 3c d9 84 c3 bc
       0.025160192 0.029069997 0.021119498 -0.023867058
000090 39 3a 06 bd 15 dd bc 3a 86 b2 07 3d c3 e6 24 3c
       -0.03277037 0.0014409149 0.033129238 0.0100647835
0000a0 59 1f 59 bb ee 67 0e bd 89 39 d3 3c 9a d0 ac 3c
       -0.0033130257 -0.034767084 0.02578427 0.021095563
0000b0 23 eb 4f 3c 11 f4 e1 bb 59 f7 9e bb 25 bf 40 3c
       0.012690338 -0.00689555 -0.0048512635 0.011764322
0000c0 33 58 6b 3b 00 26 00 3d aa 53 06 3d e6 7f a1 3c
       0.0035910725 0.03128624 0.032794632 0.019714307
0000d0 95 54 f2 bc ea e4 dd 3c 75 3c fd 3c 35 23 de 3c
       -0.029581347 0.027086694 0.030912617 0.027116397
0000e0 f7 53 aa bc 61 d4 6e bc 05 5d 0c 3c 53 45 52 3c
       -0.02079199 -0.014577002 0.008567099 0.012833911
0000f0 1b 1f ca 3b 49 f1 09 bd 28 ec 75 bb f0 70 a1 3c
       0.006168259 -0.033677373 -0.0037524793 0.019707173
000100 20 6c 13 bc 37 6b b0 3c 7e df 0a 3d 19 ae 6b bc
       -0.008997947 0.021535499 0.033904545 -0.01438477
000110 71 84 d4 3c 87 2d 99 3c a5 2f ea 3c 19 48 14 bc
       0.02594206 0.018698467 0.028587172 -0.009050393
000120 86 15 c5 3c 17 3e 93 3c d7 49 8c bc c2 8b a6 3c
       0.024058115 0.017973943 -0.017125053 0.020330314
000130 82 9c ca ba 41 b7 e1 bc 73 d9 42 3c 24 ea 1d bc
       -0.001545802 -0.027553203 0.011892664 -0.009638343
000140 f9 cd 2e 3c ad 94 dd bc 6c 52 b2 bc f2 be 01 3d
       0.010669225 -0.027048433 -0.021767817 0.03167624
000150 0a 6c 9e 3c 31 6e e2 3c 13 df bc bc 4c 59 89 bc
       0.019338626 0.027640434 -0.023055589 -0.016766213
000160 6a e1 2d ba 9c e1 ff bc 50 21 a2 3b 87 60 bf bc
       -0.00066330156 -0.031235509 0.004947819 -0.023361458
000170 a9 5a 03 bc 29 4f f2 bc 4c f8 21 bd e6 0a a8 bc
       -0.008017221 -0.029578762 -0.039543435 -0.02051301
000180 3a 8d 0f 3c dd c3 bb bc dc 9b 89 bd 8c 1c 24 bd
       0.008761698 -0.022920543 -0.06719181 -0.040066287
000190 5c 8b dd bc 4d 91 b4 3c ff bc 1d bb 20 ac 28 3c
       -0.02704399 0.022041941 -0.002406895 0.010294944
0001a0 f0 2d 08 3d c3 7d 03 bc 1e 32 30 ba 5c 23 ba 3b
       0.033246934 -0.008025589 -0.0006721335 0.0056804847
0001b0 4b d1 eb 3c 29 67 eb 3c 90 66 ca 3c e0 43 87 bc
       0.028786322 0.028735714 0.024707109 -0.016511858
0001c0 2e 20 bc bb 6c 61 cd bc 7b 2c 44 3c 1b 10 0e 3c
       -0.005741141 -0.025070868 0.011973496 0.008670832
0001d0 20 a8 57 bc 5b 2f 2b 3d 0e 34 0b 3c fc 81 47 bc
       -0.013162643 0.04179321 0.0084962975 -0.012176987
0001e0 d4 76 5c 3d 5e 8f c2 3c fa e9 a3 ba fc 8b 69 bc
       0.05382426 0.023750003 -0.0012505644 -0.014254566
0001f0 c1 fa 11 3d 2c 9f 71 3d 69 33 56 3d dd 01 1b 3c
       0.03563953 0.05898969 0.052295122 0.009460893
000200 11 5e 36 3d a0 3f ca bc 09 24 69 bd ae 65 39 3d
       0.044523302 -0.024688542 -0.05691913 0.045262985
000210 b8 70 65 3d 33 a5 43 3d f8 bf 70 3c 6f 39 ac 3c
       0.0560157 0.047764968 0.014694206 0.02102348
000220 de 60 e9 3b de 03 d1 bb 9e 5f d2 3c a5 2a bd 3a
       0.007122143 -0.006378635 0.02568036 0.0014432265
000230 dc be c5 3a 77 d4 b5 3b a3 ad c6 3b df 4b dd bb
       0.0015086788 0.0055490094 0.0060631796 -0.0067534293
000240 b7 9e ec 3c ff 5a 82 3c 6a 75 01 3d a4 d7 63 3c
       0.028884275 0.015912531 0.031606115 0.013906393
000250 bf ef 0e 3d ee 41 c5 bc fc e0 d6 3b c8 d9 62 3c
       0.03489661 -0.02407929 0.006557582 0.013845868
000260 66 09 11 3e ad 12 85 3d f0 81 0c 3c 7d a7 53 3c
       0.14163741 0.06497703 0.008575901 0.01291835
000270 b2 96 3d bd 13 ce 84 bc 08 98 c7 bc 5a dd d0 3c
       -0.046286292 -0.016211545 -0.024364486 0.025496174
000280 13 2a 29 3d 27 50 4f 3d e2 44 b2 3c 49 e9 ff bc
       0.04129989 0.05061355 0.021761362 -0.031239169
000290 0a a8 88 3c 07 f1 b0 3c 1b 2c de 3b 69 0b 18 bc
       0.01668169 0.021599306 0.00678016 -0.009280064
0002a0 9c b0 82 3c b8 ce 52 3c 66 59 05 3d 9b 2e 57 3c
       0.015953355 0.012866668 0.03255596 0.01313367
0002b0 2a 45 07 3d f4 82 18 bd ea 18 1b bd a6 71 bf 3c
       0.033024944 -0.03723426 -0.037865557 0.023369621
0002c0 80 96 7a 3c c7 75 36 3d c2 ae b0 3b 63 8d 72 3d
       0.015294671 0.044545915 0.0053919265 0.059216868
0002d0 3f 16 29 3d 29 1a 80 3c ba c3 92 bd 50 e4 86 bd
       0.04128098 0.015637474 -0.07166238 -0.06586516
0002e0 d1 0e 41 bc bc ba df 3c bd 9f 2d 3c cf 67 9d bd
       -0.011783318 0.027310722 0.010597167 -0.076858155
0002f0 d8 7e ad bc 6a c6 1f bd 63 ce 5f bd 40 ad 97 bb
       -0.021178648 -0.03900758 -0.054640185 -0.0046288073
000300 1d 17 68 3c 5b e1 f1 bb 31 97 16 3c d2 d9 e4 bc
       0.014165667 -0.007381601 0.00919132 -0.027935896
000310 b6 e4 f6 bc 7e 52 f9 3c e1 4d db bc dc 0b 39 bc
       -0.030138355 0.030434843 -0.026770534 -0.011294331
000320 f9 c4 01 3d 09 23 53 bd 5d f4 8f bc c1 fb 19 bc
       0.03168199 -0.051547084 -0.017572576 -0.009398402
000330 ff 33 a8 bb c1 1a 5c 3d e4 33 fd bc f3 18 7d bd
       -0.0051331515 0.053736452 -0.030908532 -0.06179137
000340 67 1f 7e 3d 81 e6 cb bc f9 dc 51 bd b8 1d b7 3d
       0.062041666 -0.024890186 -0.051236127 0.08941215
000350 48 dc 44 3d a8 20 a8 bc d5 e4 66 3b c6 13 2b bd
       0.04806164 -0.020523384 0.003523161 -0.041766904
000360 00 58 0c 3c 78 a3 fa ba b3 8b 71 bc d6 29 8c 3c
       0.008565903 -0.0019122204 -0.01474278 0.017109793
000370 3d a5 11 3b df 80 19 3b 46 81 e5 3c 12 2a f7 bc
       0.0022223734 0.002342276 0.028015744 -0.030171428
000380 d6 d2 2c 3c 05 44 0b bc cd c9 08 bd dc 1c 86 3c
       0.010548314 -0.008500104 -0.033395577 0.016371183
000390 a1 d3 02 3d ee 4b 12 bd f4 61 18 3c 3f 28 31 3d
       0.031940106 -0.035716943 0.009300698 0.043251272
0003a0 04 09 39 3d 20 7d 3a 3d d6 13 9b 3c d9 5f 00 bd
       0.045174614 0.045529485 0.018930357 -0.031341407
0003b0 f3 2d 41 bd 16 3e 3c 3d 8c 43 43 bb eb 64 8d 3d
       -0.04716296 0.045957647 -0.00297949 0.06904014
0003c0 e5 2f 41 3c 8b ac 5c bd cd e3 19 3d e7 78 0c 3d
       0.011791204 -0.053875487 0.037570763 0.03429499
0003d0 32 e2 03 bd be 4e 38 3d 96 d6 24 3a a6 b0 f5 3c
       -0.03219814 0.04499697 0.00062880793 0.02999146
0003e0 8d 21 37 bd 62 50 a9 3c 88 2c 24 bc 34 51 7f bb
       -0.04470973 0.020668212 -0.010020383 -0.0038958313
0003f0 cc 4d 95 3b 0a 57 16 bd bc 3e f6 bc 0f 27 b2 3b
       0.0045563933 -0.0367041 -0.030059211 0.005436785

fc_layers.0.bias f4 [270]
000000 75 6e 57 3d 01 81 24 3e c9 3c 9f bc 9f 98 92 bc
       0.052595574 0.16064836 -0.019438164 -0.017895041
000010 79 fa ac bc 04 36 c3 bc 49 f9 fd bd 24 36 bf bd
       -0.021115528 -0.023829468 -0.12401063 -0.093364984
000020 ca 4d 37 3d 7d d1 6f bd 39 8d 39 3c 19 7c 7a 3e
       0.04475192 -0.058549393 0.011325174 0.24461402
000030 cc 2d 72 3c cc 8b 4e 3e 50 ff d5 bd d7 d4 5d 3d
       0.014781427 0.20170516 -0.104490876 0.054158058
000040 08 b6 59 3c 46 ed da 3d 7e db 10 bd 7d 33 aa bb
       0.013288029 0.106897876 -0.035365574 -0.005194126
000050 ae dd 25 3e 4f f1 f4 bd ea fb ae 3d 4e 7b 7b bc
       0.16197845 -0.119600885 0.085441425 -0.015349222
000060 78 1b ea 3d cf 45 ae 3d ca e1 78 bc 6d c6 91 bd
       0.114310205 0.08509409 -0.015190551 -0.07117925
000070 2f 7e b5 3b be 91 7c bc f9 4c 8d bc d0 09 57 ba
       0.005538724 -0.015415607 -0.017248617 -0.00082030613
000080 5c 3b 63 bc 79 62 1f bd 38 99 de 3d d7 c0 24 bd
       -0.013869133 -0.03891227 0.10869068 -0.04022297
000090 09 8e a1 3c a2 a2 f6 3b 0f 83 a2 3d 34 1f e7 bb
       0.019721048 0.0075267116 0.07935154 -0.0070532802
0000a0 57 d4 2d 3d a7 81 92 3c d7 58 be 3d 4d ff ea 3c
       0.04243883 0.017884089 0.092942886 0.02868619
0000b0 76 98 cb 3d f9 ed 67 bc 1a fa b9 3d 30 6c ff 3d
       0.09941189 -0.014155858 0.09080906 0.12471807
0000c0 1a d0 f4 3d 04 b3 21 3e eb b3 61 bd 7d 06 f8 3c
       0.11953755 0.15790945 -0.055103224 0.030276531
0000d0 9e a6 1d 3e 7f 50 31 3d 4a ae 1d bd 45 92 4f 3c
       0.1539559 0.043289658 -0.038496293 0.012669151
0000e0 26 11 76 bc be 8f ae 3b b8 64 a5 3c 1a c1 01 3d
       -0.015018737 0.005327194 0.020189628 0.031678297
0000f0 22 94 fb 3d fc cc 6c bd 53 3b fb 3b 35 65 54 bc
       0.122841135 -0.057812676 0.007666984 -0.012963583
000100 75 9e 58 bd 8f 22 1a be 73 87 01 3e ca b8 30 3d
       -0.05288549 -0.15052246 0.12649326 0.04314498
000110 87 ff 8b bc 2e 6f 02 3e 93 af 2b 3d b2 4c d6 3d
       -0.017089618 0.12737724 0.041915487 0.10463847
000120 ae 5d 86 3d 83 66 12 3e 05 4c b0 3d 44 ef 36 be
       0.06560837 0.14296918 0.086082496 -0.1786471
000130 ad 0d 04 bd 95 ff cf 3c 13 d1 a2 3e ef f0 4a 3d
       -0.032239605 0.025390426 0.31800136 0.04954618
000140 6b 30 38 3d 41 71 91 bc 12 b2 87 3d 6c fc 17 bd
       0.04496805 -0.017754199 0.06625761 -0.037105963
000150 3d 2e 15 bd cc 1d 98 3d 54 42 e2 3c 79 e9 1a 3d
       -0.03642105 0.07427558 0.027619518 0.037820313
000160 c3 bd db 3d d2 e4 c9 bd 70 c0 30 3e 19 7c 3f 3c
       0.107295536 -0.09858097 0.17260909 0.011687302
000170 d8 1e 28 3e 8c 3a 0f bc 80 46 35 3d a1 95 13 3b
       0.16418016 -0.008741986 0.044256687 0.0022519606
000180 64 4e f9 3c 26 d8 20 3e fc fa 29 3d 23 46 88 3d
       0.030432887 0.15707454 0.041499123 0.066540025
000190 6d 72 18 bc 3a 85 4a bd 10 93 1b 3e 1c 12 bc 3c
       -0.009304625 -0.04944346 0.15192819 0.022957854
0001a0 c8 30 99 bc 02 96 84 bd 1d 18 ee bd 31 06 58 bc
       -0.018700019 -0.06473924 -0.11625693 -0.01318507
0001b0 c3 92 e2 3c c4 44 45 bd 5d ba bc bc 30 ba 10 3c
       0.027657872 -0.048161283 -0.023038084 0.008833453
0001c0 1f 9c 3a 3c 51 d9 3c bc 4e cb aa bd 3b 9f 78 3d
       0.011389761 -0.011526422 -0.083395585 0.06069873
0001d0 25 49 80 bd 40 c9 38 3e 0c 2b cc 3b 1d 0e be bd
       -0.06263951 0.18045521 0.0062307175 -0.09280036
0001e0 0f 1b 18 3d 67 db ad 3d c1 0a 18 bd a1 db ed 3c
       0.03713518 0.08489113 -0.03711963 0.029035391
0001f0 85 de a5 3b ad ef 16 be 3b 66 1d 3e 9d ac 41 3d
       0.005061927 -0.14739867 0.15371029 0.047283757
000200 ff d8 93 3c 12 ba c7 bd e2 cb 39 3e 68 31 3e 3c
       0.018047808 -0.09752287 0.18144181 0.011608459
000210 6c 0d ca bd 9c 81 1b 3d 9f 19 13 bd d0 ba 3f 3d
       -0.09865841 0.037965402 -0.035913106 0.046809018
000220 45 7c a0 3c 6d 81 c3 bd 9a c1 d0 3d 82 96 ca 3d
       0.019590506 -0.095461704 0.101931766 0.09891988
000230 f7 21 09 bb b3 15 cc bd 37 89 d5 bd 99 4f 49 bd
       -0.0020924786 -0.09965076 -0.10426562 -0.049148176
000240 44 8b 0e be 10 60 43 3e 3b b9 f6 3b 67 8f 94 3d
       -0.13920313 0.19079614 0.0075294054 0.07253914
000250 bc bc 17 3c 1b 87 e5 3d cd e2 3a 3d db 0f 3d 3d
       0.009261306 0.1120741 0.04562645 0.0461577
000260 a9 8b 6d bd d4 da 0d 3e b3 9b 20 bd e9 35 07 bd
       -0.05799452 0.13853008 -0.039210986 -0.033010397
000270 0e 22 46 3e 6e fb 7c 3d 2c 3a 09 3d cd d6 0c 3e
       0.19348928 0.06176322 0.033502743 0.13753815
000280 8d 00 c8 3d ec 3a 15 3d d4 42 32 bd 2b e5 6d bd
       0.0976573 0.036433145 -0.043520764 -0.05807988
000290 32 f0 d8 3c 7d 3b 58 3b b4 56 d8 bd 93 39 25 3d
       0.026481722 0.0032994442 -0.10563412 0.04033811
0002a0 e4 95 8a 3d 5a 34 b3 bd 70 1d e5 3c 29 a4 86 bb
       0.067668706 -0.0875022 0.027968138 -0.004108925
0002b0 25 6b 22 3a 0b 24 17 bd eb dc c6 bc 63 67 8e bd
       0.00061957753 -0.036899608 -0.024275264 -0.06953313
0002c0 13 ff 56 3d a4 95 74 bd 29 51 ef 3d f7 dc 60 ba
       0.05248935 -0.05971302 0.11685402 -0.0008577848
0002d0 35 70 01 3e 6d cc 35 3e f4 b2 2e bd 69 11 9b 3d
       0.1264046 0.17753763 -0.04265113 0.0757168
0002e0 e5 57 29 bc 2d 91 65 3d 2e a8 47 3c 9a 97 ec 3d
       -0.010335897 0.056046654 0.012186093 0.11552353
0002f0 25 15 6f 3c 7c c9 01 3e 64 8f 9a 3d 59 c9 52 bc
       0.014592444 0.12674516 0.07546881 -0.012865388
000300 65 76 68 bb 97 e0 29 3b b9 cd 3c bd 6f 19 0a 3d
       -0.003547096 0.002592122 -0.04609463 0.03371566
000310 11 fe e9 bc f4 2c ee 3c 32 6a d1 bb fa 44 c2 3d
       -0.028563531 0.02907417 -0.0063908333 0.094858125
000320 ef 39 cd 3b c4 0a 28 3d ec fa 64 b9 cc 12 20 3d
       0.0062630097 0.041025892 -0.0002183725 0.039080426
000330 62 ac b0 bd 0c 18 c1 bc da 0a ae 3d 95 de 8d bc
       -0.086266294 -0.023571037 0.084981635 -0.01731805
000340 f1 70 a4 3d 52 9b 2b 3e 49 fd 2b bc 7a fe b0 3d
       0.08029354 0.16758469 -0.0104974 0.086422876
000350 7e ce 34 3d 8a ae 9f 3d 35 be 6c 3c 0f d1 8f 3d
       0.04414224 0.077969626 0.014449646 0.07022297
000360 42 fd 0e 3e 48 43 92 bd 79 c7 0c bd bd f4 75 3d
       0.13963798 -0.07141739 -0.03436992 0.060047854
000370 08 62 8c 3d e7 01 50 3d cb 40 b6 bb fd 10 09 bc
       0.068546355 0.050783064 -0.005561923 -0.008365867
000380 e9 e6 7a 3d 59 f3 a3 3c 65 71 e1 3b 49 43 62 3c
       0.06125537 0.020013498 0.0068799728 0.013809987
000390 4a 0f a1 3c 7f e9 38 bb df 62 47 bc 8c e0 64 bd
       0.01966061 -0.0028215346 -0.012169569 -0.055878207
0003a0 bc 0b a9 3d 7b 41 d4 3c 3c 8d 22 3d 71 c1 0b bd
       0.08254191 0.02591013 0.039685473 -0.034120027
0003b0 f8 9c a1 bd d9 43 57 3d 8b 86 67 3d b2 f7 b0 38
       -0.078912675 0.05255494 0.056524795 8.438471e-05
0003c0 1e 3d d9 3d 82 66 61 3a c6 34 b1 bd 63 f9 83 3d
       0.1060736 0.00085983437 -0.08652644 0.06444051
0003d0 d8 e3 1f be 5a 5b 8b 3d e8 34 83 b9 c2 eb df 3d
       -0.15614259 0.06804533 -0.00025025685 0.10933639
0003e0 28 d1 2e 3d e1 a0 08 bc 84 18 85 3d a3 87 0a 3e
       0.042679936 -0.008339138 0.064988166 0.13528304
0003f0 86 e3 8e 3e 9a 7a 04 3c c1 5e fe bc 71 d5 04 3e
       0.27907962 0.008085871 -0.031051042 0.12972046

fc_layers.1.weight f4 [10, 270]
000000 6b 9a e6 be 25 be fd bc 38 25 70 be 47 20 2c 3e
       -0.45039687 -0.030974457 -0.23451698 0.16809188
000010 f6 59 10 bc a5 39 a7 be 13 32 9e 3e 3d 6f 53 be
       -0.008810511 -0.32661167 0.3089758 -0.20647903
000020 bc d6 ca bd b8 9a 3e be 23 d8 70 be 03 74 7a 3d
       -0.099042386 -0.18613708 -0.2351995 0.061145794
000030 4e 02 7e 3e df a2 ee bd a8 aa 06 3f 6a 30 6d bd
       0.24805567 -0.11652159 0.5260415 -0.0579075
000040 91 27 8c 3d f9 24 cb be 6e e7 30 be e3 ce ac 3d
       0.06843484 -0.39676645 -0.17275783 0.08437898
000050 a2 52 33 3f 15 1a f5 3d 67 c1 82 3e 08 5c 16 3e
       0.7004796 0.119678654 0.2553818 0.14683545
000060 cc fc b7 bc 25 39 cc bd 82 b9 25 be eb 83 81 3d
       -0.02245941 -0.09971837 -0.16184047 0.063239895
000070 9a 30 3c bd 38 4f 9e bd 51 ff 40 3e 0f 6e e7 bc
       -0.045944788 -0.077299535 0.18847395 -0.028250722
000080 91 e4 b4 3d 85 86 6a be a8 46 be be cc d3 01 3e
       0.08832658 -0.22902878 -0.3716328 0.1267845
000090 d8 dc 7e 3c de 1b 9c be 1d 8e d9 bd c9 77 39 3e
       0.015555583 -0.3049001 -0.10622809 0.181121
0000a0 c3 b7 39 be af 13 5c be b0 63 20 3e e6 6a 1a bd
       -0.18136506 -0.21491884 0.15663028 -0.037699603
0000b0 b8 16 95 3d 84 16 5c be 19 5b f7 bd aa f5 b9 bd
       0.07279724 -0.21492964 -0.120779224 -0.0908006
0000c0 e1 b0 07 be 0c f4 ed 3d 0e 3c 46 3e 20 94 0d 3e
       -0.13251068 0.11618814 0.19358847 0.13826036
0000d0 24 de f4 bd ec df ad be 79 be 3e 3d 3b 28 55 be
       -0.119564325 -0.339599 0.046568368 -0.20816128
0000e0 de a8 7d bd 9e 92 6a bc 7d ff 89 bc f3 11 19 bf
       -0.061928622 -0.014317183 -0.01684546 -0.59793013
0000f0 ba 07 52 3e 72 45 04 3e 47 da 84 be 50 74 7f 3e
       0.2051076 0.12917116 -0.25947782 0.24946713
000100 9f ea 61 bd 37 32 3f 3e 1c fd 5c 3d bd 69 06 be
       -0.055155393 0.18671499 0.05395232 -0.13126273
000110 bf 42 b3 bd a0 5b a3 bd db 23 f6 3c 0c 40 b7 3e
       -0.08752965 -0.079764605 0.030046394 0.3579105
000120 8e 1e 9b 3d 45 26 a3 3d eb f0 90 3e 91 76 e5 be
       0.07574187 0.07966284 0.28308806 -0.4481702
000130 95 5f 11 bd 65 bd a6 3d ee b1 22 3e a7 28 8f 3b
       -0.035491545 0.08141593 0.15888187 0.00436886
000140 e9 a7 82 3c 4d d9 ea be d5 8a ef 3e de bc e3 bc
       0.015949206 -0.45868912 0.46785608 -0.02780002
000150 ce e2 e6 bd 08 76 4f bd 6e 13 12 be 4e 60 07 3e
       -0.11273728 -0.050649673 -0.14265224 0.13220331
000160 86 45 62 3e 1e b8 c9 3e 02 fd e6 3d d7 1a 4d 3d
       0.22096834 0.39398283 0.11278726 0.050074425
000170 96 ad 8c 3e c0 96 03 be 86 8c 8e 3e cb 00 17 3e
       0.27476186 -0.12850475 0.27841586 0.14746396
000180 4d 56 cd 3d f1 d7 77 3e 45 4c 9b 3d 5d 1a 96 3e
       0.10026226 0.24203469 0.07582907 0.2931699
000190 47 d2 c9 be ef 96 c3 3e 9a 54 3c bc be 94 e8 be
       -0.3941824 0.3820109 -0.01149478 -0.4542598
0001a0 52 95 9f 3c 7a 6c e8 bc 0b 66 85 3e a3 f6 c3 bd
       0.019480381 -0.028372038 0.26054415 -0.095685266
0001b0 88 3f 9e 3e f6 d3 cc 3e d2 68 3c bd 08 06 6f be
       0.30907845 0.40005463 -0.045998402 -0.23342144
0001c0 85 be 02 be c9 17 e9 bd 2a fd a4 be c2 6f ca 3d
       -0.1276799 -0.1138149 -0.322244 0.09884597
0001d0 d1 d6 9f be d6 78 f8 be 39 92 e9 3c c0 76 2a bf
       -0.3121858 -0.4852969 0.028512107 -0.6658745
0001e0 ce a8 a0 3e e5 1f 8f be e1 be b9 3d 4d fc aa 3d
       0.31378788 -0.2795402 0.090696104 0.08348904
0001f0 d4 d2 bc 3e 28 6c 38 be 12 1a ac be b3 02 28 3d
       0.368796 -0.18010008 -0.3361364 0.0410182
000200 8c b8 c0 bc bc ea 4a 3e 3f 25 3d be 61 bd 37 bc
       -0.023525499 0.19816107 -0.1847124 -0.011214585
000210 73 8c 43 bd 33 ae 90 3e bb d9 d7 bb ae 80 81 be
       -0.047741365 0.28257903 -0.006587235 -0.25293487
000220 31 e8 03 3e 6f 69 da 3d 90 89 9e bd bc 1f bd bd
       0.12881543 0.10664641 -0.07741082 -0.092345685
000230 e5 eb 90 3c d4 90 43 3e 97 00 83 be 18 99 18 3d
       0.017690608 0.19098216 -0.25586388 0.037255377
000240 67 21 bd bd 26 44 7f be 3b ef 01 3e ee 55 c4 bd
       -0.092348866 -0.2492834 0.12688915 -0.09586702
000250 b9 65 c7 bd 07 5e 99 be 16 d2 f6 bd 04 87 ba 3e
       -0.09736199 -0.2995455 -0.120517895 0.36431134
000260 22 b3 08 3d d9 52 4d be 46 6b 7f 3e 75 78 94 3e
       0.03337396 -0.20051135 0.24943265 0.2899815
000270 41 ea 8b be d5 e9 82 be b1 f0 4f bc 13 04 0d 3c
       -0.2732716 -0.25569025 -0.012691663 0.008606928
000280 07 58 4a 3d 4e e6 0c be 87 75 e7 bd a3 73 a6 3e
       0.049400356 -0.1375973 -0.113017134 0.325101
000290 ed c5 cf bd f8 18 d4 3d a1 ba 3a 3e cb 56 d7 be
       -0.10145173 0.10356325 0.18235256 -0.42058405
0002a0 d2 8a cd bd f3 00 b3 3e e8 25 27 bf 47 a8 6b 3e
       -0.100362435 0.34961662 -0.65292215 0.23013411
0002b0 eb 6d 57 3e ca 73 6f 3e d0 a7 5f 39 9d d5 4c 3e
       0.21038024 0.23384014 0.00021329452 0.20003362
0002c0 1a 8c b6 3d 18 a6 fa 3d 5f 68 40 bf ec f7 c5 be
       0.08913441 0.12238711 -0.7515926 -0.38665712
0002d0 e9 14 38 be a8 aa c6 3b 54 9d 3f be 16 33 c4 bd
       -0.17976727 0.0060628243 -0.1871236 -0.09580056
0002e0 66 f8 3d 3d ba 66 1b 3e 56 d9 78 3d 4f d2 da 3e
       0.04637947 0.15175906 0.060754143 0.42738578
0002f0 2a 99 6c bd 22 58 9d bd a1 ab 0a bf 9b 88 aa bc
       -0.057763256 -0.076828256 -0.54168135 -0.020817092
000300 6c 57 9d 3c 2e 16 72 bd c7 20 63 3c 06 00 74 3e
       0.019206725 -0.059103183 0.013862795 0.23828134
000310 7b b3 9b be 40 cd 8c 3e d2 7b cf be 93 83 88 bd
       -0.3041037 0.27500343 -0.40524155 -0.06665721
000320 c9 94 81 3e dd 7e 87 bc b9 c8 bd be 3e d4 c9 3e
       0.25308827 -0.016539985 -0.37067202 0.3941974
000330 e9 e1 19 bf a5 75 c5 bd ea ec 72 be 95 9a ac 3d
       -0.60110337 -0.096415795 -0.23723188 0.08427922
000340 05 29 35 3f c4 5e 77 be 46 71 74 3d bf e6 97 3d
       0.70765716 -0.24157244 0.05967834 0.07417058
000350 99 c8 50 3e ee 44 3a bf 6c be ab 3d 20 32 3b be
       0.20389022 -0.7276143 0.083859295 -0.1828084
000360 f6 e2 bb be a7 89 94 bd 54 1b 82 3e ab 44 50 be
       -0.36696595 -0.072528176 0.25411475 -0.20338695
000370 31 de 74 bc 84 b8 b5 3e ef 21 df 3c 53 d4 4d 3e
       -0.014945553 0.35492337 0.02723786 0.20100527
000380 e8 00 c5 bb 23 41 12 be b4 fa 15 3d e5 a6 98 be
       -0.006012071 -0.1428266 0.036616042 -0.2981483
000390 18 34 29 bc cc 9c a4 3c f6 d0 a4 3d 53 cb 45 3e
       -0.0103273615 0.020094298 0.08047669 0.19315843
0003a0 88 80 d7 be de 3f 70 bd 57 df 24 3e 58 29 b3 3e
       -0.4209025 -0.05865466 0.16100822 0.3499248
0003b0 17 79 87 3e af fe 38 be 4a b6 06 be 94 0d ad be
       0.26459572 -0.18065904 -0.13155475 -0.33799422
0003c0 46 56 ee 3d 4a b3 73 3d a4 5e db 3e 12 40 ca 3d
       0.11637549 0.059497155 0.42845643 0.09875502
0003d0 76 b5 32 be 01 47 2d bd 77 4e d4 3d 22 f7 9f 3c
       -0.17452034 -0.042304043 0.103665285 0.019527022
0003e0 03 33 1b 3d 0a fb 37 3d bd ef 5b 3e ed 85 a6 be
       0.037890445 0.044917144 0.21478172 -0.32524052
0003f0 3a ff 2e bd b1 5b 81 3e 28 83 da 3c aa 44 05 3e
       -0.04272387 0.25265267 0.026673868 0.13014475

fc_layers.1.bias f4 [10]
000000 99 42 81 be 1a 29 27 3d bc 68 e2 bb 2c ac 8d be
       -0.25246122 0.040810682 -0.006909458 -0.2767042
000010 58 4b ee 3d 21 84 96 3e 4d a3 a6 bc 29 a6 b4 bd
       0.116354644 0.2939768 -0.02034154 -0.08820755
000020 f6 80 cf 3d 46 35 9f 3c
       0.10132019 0.019434582
