Lab1/model/model_mnist/MLP160.pth (torch, 192840 bytes, 4 tensors)

fc_layers.0.weight f4 [60, 784]
0	0xbcbdbbf3	-0.02316091
1	0x3b20164a	0.0024427348
2	0x3cd5583c	0.02604305
3	0xbc33166e	-0.010930641
4	0x3ccdbcd7	0.02511446
5	0x3d05aad0	0.032633603
6	0x3c91d37e	0.017801043
7	0x3c23236a	0.009957174
8	0xbcbbd8ac	-0.022930466
9	0x3b47b5dc	0.0030473387
10	0x3cd2ef27	0.025748802
11	0x3cfc73f3	0.030817008
12	0xbcac70fd	-0.02104997
13	0xb995a3c1	-0.000285415
14	0x3d01ddc0	0.031705618
15	0xbbf8f443	-0.0075974776
16	0x3d0cee8e	0.03440719
17	0x3b361d01	0.0027788284
18	0x3c285fee	0.010276778
19	0x3b64da25	0.0034920063
20	0xbcd44b37	-0.025914771
21	0xbca3749e	-0.019953068
22	0xbb33ae4a	-0.0027417117
23	0xbc0be9e0	-0.008539647
24	0xbc113045	-0.008861606
25	0x37bb1b6e	2.230491e-05
26	0xbafec4dc	-0.0019437331
27	0x3bdccbd3	0.006738165
28	0xbcb6d061	-0.02231616
29	0xbc756721	-0.014978201
30	0x3be6786e	0.0070333993
31	0x3ca92585	0.020647774
32	0xbc075e6e	-0.00826226
33	0x3c3a6e2a	0.011378804
34	0xbcea48ac	-0.028599106
35	0x3c45e4b1	0.01207845
36	0x3ba8996c	0.0051452424
37	0xbbb2e611	-0.005459555
38	0xbc692564	-0.014230106
39	0xbca5877e	-0.02020621
40	0x3c7b6602	0.015344145
41	0x3b804382	0.0039142976
42	0xbd20c210	-0.039247572
43	0xbc23c357	-0.009995303
44	0x38af6a71	8.3644765e-05
45	0x3d1d1d14	0.03835781
46	0x3b686a23	0.0035463653
47	0xbb823689	-0.0039737863
48	0xbb377cd4	-0.0027997987
49	0xbbf15c05	-0.007365706
50	0x3d15996a	0.03652326
51	0xbcd9195f	-0.026501356
52	0xbb846993	-0.0040409057
53	0x3c750b4a	0.014956305
54	0xbc3d920e	-0.011570467
55	0x3cb89fa5	0.022537062
56	0xbcd9c831	-0.026584717
57	0xbc263c7c	-0.010146257
58	0x3cebb8bf	0.028774617
59	0xbceb27bf	-0.028705476
60	0x3b3b730a	0.0028602504
61	0xbd0e9588	-0.034810573
62	0x3c86d4df	0.016458927
63	0xbc7d6b56	-0.015467485
64	0x3d0138a5	0.03154816
65	0x3c70593e	0.0146697145
66	0x3b84bffa	0.0040512057
67	0x3a1a034a	0.0005875124
68	0xbd5f763c	-0.054556116
69	0xbd08a034	-0.033355907
70	0xbd4abe83	-0.049498092
71	0xbc999194	-0.018746175
72	0xbb95fc4f	-0.0045771967
73	0xbd1559cd	-0.036462594
74	0xba86758e	-0.0010258423
75	0x3ca80a5f	0.020512758
76	0x3c18948e	0.009312762
77	0x3ad9f5f1	0.0016629082
78	0xbb8cbf51	-0.0042952676
79	0x3b779e1c	0.003778345
80	0x3cf8c45d	0.03036707
81	0x3d0868f4	0.033303216
82	0x3c577293	0.013149875
83	0x3c1d445c	0.009598818
84	0x3cb42efc	0.02199506
85	0xbba19fae	-0.0049323654
86	0x3ce422a8	0.027848557
87	0xbcbb9c40	-0.022901654
88	0xbc0b0f17	-0.008487484
89	0x3caadb47	0.020856513
90	0x3c194d0c	0.009356748
91	0x3c8733a8	0.016504124
92	0x3a2f3d35	0.0006684841
93	0xbc9bac86	-0.019003164
94	0xbd0e9cca	-0.034817494
95	0xbcf635fe	-0.030055042
96	0xbcad02b7	-0.021119459
97	0xbd63a801	-0.055580143
98	0xbcf7cdb7	-0.03024946
99	0x3c73ab91	0.014872448
100	0x3d0c389f	0.034233686
101	0x3d031a9c	0.0320078
102	0x3da0a6e2	0.0784433
103	0x3d9b138a	0.07572086
104	0x3dea7a16	0.11449067
105	0xbbc53fdb	-0.006019575
106	0x3b1b651d	0.0023711391
107	0x3b5297e8	0.0032134
108	0x37681a7b	1.3834443e-05
109	0x3c1ab8c0	0.009443462
110	0xbb54f2a2	-0.0032493253
111	0xbc7422f3	-0.014900911
112	0xbcdeac4c	-0.027181767
113	0x3c68b40d	0.014203084
114	0x3c92e957	0.01793353
115	0xbbe3c9a5	-0.006951528
116	0xbceef171	-0.029167863
117	0x3d1dbda6	0.03851094
118	0xbc81ded9	-0.015853332
119	0x3bc4e7a9	0.0060090614
120	0x3bd01428	0.006350059
121	0x3b6061a6	0.003423789
122	0xbcd7b511	-0.026331456
123	0xbda71644	-0.08158544
124	0xbdf074f0	-0.11741054
125	0xbd40ad83	-0.047040474
126	0xbd788a4c	-0.060678765
127	0xbb790838	-0.0037999284
128	0xbbf7424a	-0.007545744
129	0xbc765e2c	-0.015037101
130	0x3c9a564f	0.018839983
131	0x3ce53d95	0.027983466
132	0x3c380ade	0.01123306
133	0xbd494d75	-0.049146134
134	0xbdbda741	-0.09260417
135	0xbc3059fe	-0.010763643
136	0xbbfdcbc6	-0.007745239
137	0xbbe6db95	-0.007045219
138	0xbd17d509	-0.0370684
139	0xbc9f8c1c	-0.019475989
140	0x3cd9eabc	0.026601188
141	0xbcbfde77	-0.02342151
142	0xbcc7a183	-0.024369007
143	0x3d129654	0.035787895
144	0xbcacff36	-0.021117788
145	0x3cb407ca	0.02197637
146	0x3af42990	0.0018628109
147	0xbc09ce9f	-0.008411079
148	0xbda5a10f	-0.0808736
149	0xbdba9b75	-0.09111682
150	0xbda9b424	-0.08286312
151	0xbdd9dd81	-0.10637952
152	0xbe339c94	-0.17540199
153	0xbe16d0c8	-0.14728081
154	0xbd057eaf	-0.032591518
155	0x3c51a6ea	0.012796143
156	0x3c2609a1	0.010134132
157	0xbd88eb2c	-0.066854805
158	0xbace69a4	-0.0015748036
159	0x3d1aaf86	0.03776505
160	0x3d0808b3	0.03321142
161	0xbd6a1adb	-0.057154518
162	0xbc4f6ec4	-0.012660686
163	0xbd7ff8bc	-0.06249307
164	0xbce984ab	-0.028505644
165	0xbd5f49ca	-0.05451373
166	0xbb021eb2	-0.0019854722
167	0xbcb8a843	-0.022541171
168	0xbcea2ade	-0.028584894
169	0x3b4bbc95	0.0031087745
170	0xbcd1d177	-0.025612576
171	0xbd07bc75	-0.03313871
172	0xbaa630b6	-0.0012679312
173	0xbc4d8b2e	-0.01254539
174	0xbd705465	-0.058674235
175	0xbda5abee	-0.080894336
176	0xbd96ee69	-0.07369692
177	0xbe04c269	-0.12964787
178	0xbe07b116	-0.13251147
179	0xbe2586a1	-0.16164638
180	0xbdf8d020	-0.12149072
181	0xbcd5ab2d	-0.0260826
182	0xbd456780	-0.04819441
183	0xbd087404	-0.033313766
184	0x3d422990	0.04740292
185	0xbd3a876e	-0.045539312
186	0xbd024b1a	-0.031809904
187	0x3cdbe4a2	0.026842419
188	0x3cb76ab2	0.022389743
189	0xbca3c752	-0.019992504
190	0x3c5d1333	0.013493347
191	0x3cacbd9f	0.021086512
192	0x3d67bc66	0.056576155
193	0x39723912	0.00023100179
194	0x3bc2b20b	0.0059416345
195	0x3c9862df	0.018601833
196	0xbceda393	-0.029008662
197	0xbcd35022	-0.025795046
198	0xbced9ff6	-0.02900694
199	0x3cccac43	0.024984485
200	0x3cb3403b	0.021881213
201	0xbd0a114b	-0.033707898
202	0xbdac76d8	-0.08421105
203	0xbdc8703e	-0.097870335
204	0xbd7ca033	-0.061676215
205	0xbdf2bf3a	-0.1185288
206	0xbddc9b4d	-0.10771809
207	0xbc8dccdb	-0.017309597
208	0xbcf120eb	-0.029434642
209	0x3bc7c3d7	0.006096344
210	0x3c9a3241	0.018822791
211	0xba937f08	-0.0011253068
212	0xbc810ac6	-0.015752207
213	0xbd3407f8	-0.043952912
214	0xbd4879ca	-0.048944272
215	0xbd269ef4	-0.040678933
216	0x3c5a6392	0.0133294035
217	0x3adeec37	0.0017007653
218	0xbc1883ee	-0.009308798
219	0x3db47a82	0.08812429
220	0xbd32717d	-0.043565262
221	0xbc7c3ba9	-0.015395083
222	0x3c849a86	0.016186964
223	0xbc7a770b	-0.015287171
224	0xbca3cb8a	-0.019994516
225	0xbbd251e6	-0.0064184545
226	0x3c766bc7	0.015040345
227	0x3cae0eec	0.02124735
228	0xbc444f9c	-0.011981871
229	0xb9452d42	-0.00018804244
230	0xbd110cdc	-0.035412654
231	0xbdda47d7	-0.106582336
232	0xbdcc676a	-0.09980662
233	0xbdc6e017	-0.097107105
234	0xba40ff1b	-0.00073622324
235	0x3cf5456f	0.029940335
236	0x3d582592	0.052770205
237	0xbd995b01	-0.07488061
238	0xbd087b9b	-0.033321004
239	0xbd365c48	-0.0445216
240	0xbc4722dd	-0.012154308
241	0xbca744c1	-0.020418527
242	0x3c96f72f	0.018428413
243	0xbd6d3626	-0.057912968
244	0x3d88f605	0.066875495
245	0x3d9424ad	0.07233558
246	0x3d8e3628	0.06943923
247	0x3d020f0c	0.03175263
248	0x3d543a54	0.05181344
249	0x3cd8e5a0	0.026476681
250	0xbc9eb5a9	-0.019373732
251	0xbb0ff65d	-0.0021966912
252	0x3bca1d0e	0.0061680144
253	0x3b6f8d79	0.003655283
254	0x3cd85fb8	0.02641283
255	0x3ca0b0e8	0.019615605

fc_layers.0.bias f4 [60]
0	0xbd5f991b	-0.054589372
1	0x3e9fcfe7	0.31213304
2	0x3f085062	0.53247654
3	0xbdd539ed	-0.10411439
4	0x3e05fb92	0.13084248
5	0x3e5204e3	0.20509677
6	0x3e55b5ad	0.20870085
7	0x3daef70f	0.085432164
8	0x3df70311	0.12061132
9	0x3ec1f174	0.37879527
10	0x3e0afc1a	0.13572732
11	0x3e204ba6	0.15653858
12	0xbd0f4750	-0.03498012
13	0xbc5ab9d2	-0.013349967
14	0x3e1199bf	0.14218806
15	0xbe14582b	-0.14486758
16	0x3ec7fb0a	0.39058715
17	0xbb8f6716	-0.0043763025
18	0xbea24ca9	-0.31699112
19	0x3e7a6f9b	0.24456637
20	0xbc8d1acd	-0.017224694
21	0xbd3b50e3	-0.045731436
22	0x3deb3f33	0.11486664
23	0x3e6ac02e	0.22924873
24	0x3cb934a5	0.02260811
25	0x3daf02ad	0.08545432
26	0x3eaaf363	0.33388814
27	0xbdda0d54	-0.106470734
28	0x3df86093	0.12127795
29	0x3ebd5396	0.36977834
30	0x3e6f003c	0.23339933
31	0x3d61c15c	0.055116042
32	0x3dc6055c	0.09668991
33	0x3ccae410	0.024766952
34	0x3e42b3a5	0.19013841
35	0xbe2d66f1	-0.169338
36	0xbe805882	-0.25067526
37	0x3eb24638	0.34819198
38	0x3dd2daf1	0.10295666
39	0xbdb50249	-0.088383265
40	0x3eab015b	0.33399472
41	0xbe805354	-0.25063574
42	0x3e4f9161	0.20270301
43	0x3d7513af	0.059833225
44	0xbcb9bea5	-0.022673914
45	0xbe1755ed	-0.14778872
46	0xbe258588	-0.1616422
47	0xbdbeccd2	-0.0931641
48	0xbe9c948d	-0.30582085
49	0x3e97cd02	0.29648596
50	0x3cd51f6a	0.026015956
51	0x3c1f6616	0.009728929
52	0xbdb15150	-0.08658087
53	0xbcd07295	-0.025445262
54	0xbd4d1381	-0.05006743
55	0x3ba0f0dd	0.0049115256
56	0xbd998b2c	-0.07497248
57	0xbe9cf530	-0.30655813
58	0x3dc16cfa	0.09444614
59	0xbe995d5f	-0.2995405

fc_layers.1.weight f4 [10, 60]
0	0x3ea764c3	0.32694063
1	0xbf8e7d4f	-1.1131991
2	0xbf02536c	-0.5090854
3	0x3d949394	0.07254711
4	0xbe5fe46b	-0.21864478
5	0x3e8c3b71	0.273891
6	0x3de79888	0.1130839
7	0xbf29e00e	-0.66357505
8	0x3eb6a3a9	0.35671738
9	0xbed00476	-0.40628403
10	0xbeb0021b	-0.34376606
11	0xbf053e96	-0.52048624
12	0xbf4af616	-0.7928175
13	0x3efc9fec	0.4934076
14	0x3e77e2a8	0.24207556
15	0x3f7d222b	0.9888026
16	0xbdc9b7cb	-0.09849509
17	0x3d91ff80	0.07128811
18	0xbe45f3e2	-0.19331315
19	0x3f06d9fe	0.5267638
20	0x3e454c29	0.19267334
21	0x3cd2fe3a	0.02575599
22	0xbec63615	-0.38713136
23	0xbf10e421	-0.565981
24	0x3f114390	0.5674372
25	0xbf2acade	-0.667158
26	0x3f3064cc	0.68903804
27	0x3eb35526	0.350259
28	0x3f0893b1	0.5335036
29	0xbe173dfd	-0.1476974
30	0x3ca00660	0.01953429
31	0x3f003aad	0.5008953
32	0x3eb4c6ba	0.35307866
33	0x3f2cc6bb	0.6749074
34	0xbc8f1f74	-0.017471053
35	0xbf01d930	-0.50722027
36	0x3f6662cb	0.89994496
37	0xbeffd6d9	-0.49968603
38	0xbd5ae786	-0.053443454
39	0xbf2d7b8d	-0.6776665
40	0x3e153ae1	0.14573242
41	0xbf71f076	-0.9450754
42	0xbdeca754	-0.11555353
43	0x3e272aa2	0.16324857
44	0x3ee8c1cb	0.45460352
45	0xbedc47c0	-0.4302349
46	0xbeef8fc4	-0.46789372
47	0x3ea4a910	0.32160234
48	0xbed82c32	-0.42221218
49	0x3d7003ca	0.058597364
50	0xbe56ee1a	-0.20989266
51	0xbf2b2283	-0.66849536
52	0x3f11daf8	0.56974745
53	0xbd986436	-0.07440989
54	0x3ea67fe8	0.3251946
55	0xbd20a8b4	-0.039223388
56	0x3f1f950d	0.6233681
57	0xbf1e6498	-0.61872244
58	0x3ee89b4d	0.45430985
59	0xbe2b4c9e	-0.16728446
60	0xbe8a5c67	-0.27023622
61	0x3e0c7838	0.13717735
62	0x3deda477	0.11603635
63	0x3ecede4b	0.4040397
64	0x3f26e12f	0.6518735
65	0xbea13b38	-0.31490493
66	0xbe488e58	-0.1958555
67	0xbfa798a6	-1.309346
68	0xbf5b0e36	-0.8556856
69	0x3ec971fa	0.3934477
70	0xbe3ed0e5	-0.18634374
71	0x3f2da0e2	0.6782361
72	0x3ee3e5d4	0.44511282
73	0xbf303216	-0.68826425
74	0x3e49da82	0.1971226
75	0xbf0247da	-0.50890887
76	0xbe227a67	-0.15867005
77	0x3f338188	0.70119524
78	0x3f3350d9	0.7004524
79	0xbf51a148	-0.8188672
80	0xbf017012	-0.5056163
81	0xbe86f325	-0.2635738
82	0xbbb1b1f5	-0.0054228255
83	0xbf471d7c	-0.77779365
84	0xbe2c4e51	-0.1682675
85	0xbf41ef93	-0.75756186
86	0xbdb954d8	-0.09049386
87	0xbe0f0179	-0.13965406
88	0xbe227c1b	-0.15867655
89	0x3f59953a	0.84993327
90	0x3f20afee	0.6276845
91	0x3e9ee172	0.31031376
92	0xbeb702d9	-0.3574436
93	0x3eb8e21f	0.36110017
94	0xbe02e7e7	-0.12783776
95	0xbdb175b1	-0.08665026
96	0xbe99fb65	-0.3007461
97	0x3d4528d7	0.04813465
98	0x3de4c624	0.11170605
99	0x3f393f03	0.72361773
100	0xbe68fed6	-0.22753462
101	0x3e3f9709	0.18709959
102	0x3da606e0	0.0810678
103	0x3da834ea	0.082132176
104	0xbf4d94f9	-0.8030544
105	0xbe9660ce	-0.2937073
106	0x3f21ae9e	0.6315707
107	0x3ed87fc0	0.42284966
108	0x3f939c4f	1.1532077
109	0xbf492700	-0.78575134
110	0xbe02dcfc	-0.12779611
111	0x3eada44d	0.33914414
112	0xbeef16a0	-0.4669695
113	0x3fc1d24f	1.5142306
114	0xbef38899	-0.47565153
115	0x3eee8a58	0.46589923
116	0xbeecc918	-0.46247172
117	0x3f7682e7	0.9629349
118	0x3f0dba91	0.553628
119	0xbdc2489c	-0.094865054
120	0xbe5b1f0b	-0.2139856
121	0xbf81da6f	-1.0144786
122	0x3fbc63c1	1.4717942
123	0x3e8cbccc	0.2748779
124	0x3efe192b	0.49628577
125	0x3f047fe2	0.51757634
126	0x3ecba66e	0.39775413
127	0xbd81a3e4	-0.06330088
128	0x3e8416f7	0.2579877
129	0x3f05f926	0.52333295
130	0x3e75dc0c	0.24009722
131	0x3e77da10	0.24204278
132	0xbf04a121	-0.51808363
133	0x3d3553f4	0.044269517
134	0x3d7f15ac	0.062276527
135	0x3f41c98f	0.7569818
136	0xbfdc7f3a	-1.7226326
137	0x3f3a5cba	0.7279774
138	0xbe747a9b	-0.23874895
139	0x3f2e82ae	0.6816815
140	0xbf0d0863	-0.5509092
141	0x3ecb750c	0.39737737
142	0x3f4fbc2b	0.81146497
143	0xbf081f02	-0.53172314
144	0x3db0faa2	0.086415544
145	0xbead3949	-0.33832768
146	0xbe229660	-0.15877676
147	0x3f102b79	0.56316334
148	0x3e37bc29	0.17942871
149	0xbf9c557d	-1.2213589
150	0x3e84528c	0.25844228
151	0xbd88cef4	-0.06680098
152	0xbe9abf89	-0.30224255
153	0x3f596ada	0.8492867
154	0x3f20f309	0.6287084
155	0x3f00d022	0.50317585
156	0xbdd4b38e	-0.1038581
157	0xbeabb80e	-0.3353886
158	0xbf30bb45	-0.6903575
159	0xbe210edb	-0.15728323
160	0xbf598379	-0.84966236
161	0x3f9fd6dc	1.2487445
162	0x3e76b86a	0.24093786
163	0xbec36de8	-0.3816979
164	0xbf29792a	-0.66200507
165	0xbf0700e3	-0.5273573
166	0x3e87039c	0.2636994
167	0x3d820b08	0.0634976
168	0xbded3d73	-0.11583986
169	0x3ea767a9	0.32696274
170	0xbe155324	-0.14582497
171	0x3f13f388	0.57793474
172	0x3e80911f	0.2511072
173	0xbf067622	-0.52524006
174	0xbcf412ad	-0.029794062
175	0xbe1c2b9f	-0.15251015
176	0x3f285ec5	0.65769607
177	0x3f4b1e04	0.79342675
178	0xbe853f9a	-0.26025087
179	0x3f26e639	0.6519504
180	0x3f1e72f4	0.61894155
181	0x3e7e06c8	0.24807274
182	0xbef9d464	-0.48794854
183	0x3ec61a95	0.38692155
184	0x3ee9ad47	0.45640013
185	0x3eb657e0	0.35613918
186	0xbf133802	-0.57507336
187	0x3f004c7b	0.501167
188	0xbe3eb3cc	-0.18623275
189	0xbf6fabdc	-0.9362161
190	0x3f5930a4	0.84839845
191	0xbf2a4629	-0.66513306
192	0x3f41a237	0.75638145
193	0xbe56e307	-0.20985042
194	0xbf17b7c2	-0.5926477
195	0x3f27f607	0.6560978
196	0xbe88dd7c	-0.2673148
197	0xbf56f484	-0.8396685
198	0x3eb6b288	0.35683084
199	0xbc294387	-0.010331041
200	0x3f845201	1.0337526
201	0x3f45a701	0.7720795
202	0xbf034b0a	-0.51286376
203	0x3efaf16e	0.4901232
204	0xbfb96d49	-1.4486476
205	0xbfa3fb1c	-1.2811007
206	0xbf296994	-0.66176724
207	0x3f00b78e	0.5028008
208	0x3c3e4e69	0.011615374
209	0x3d1489f7	0.036264386
210	0xbf0a4166	-0.5400604
211	0xbe951065	-0.2911407
212	0xbec1a9f5	-0.3782498
213	0xbf33d42b	-0.7024562
214	0x3dcd120a	0.10013206
215	0x3f2f1da3	0.684046
216	0xbb8cf34f	-0.0043014656
217	0x3e0b5808	0.136078
218	0x3f410b90	0.7540827
219	0xbd6bab79	-0.057536576
220	0x3ea09e90	0.31370974
221	0x3e9fc161	0.31202224
222	0x3e97c39b	0.29641423
223	0x3f52c5b5	0.82332927
224	0x3ec8d676	0.3922612
225	0x3f42927d	0.76004773
226	0x3f1396b3	0.57651824
227	0xbe3a0c4d	-0.18168755
228	0x3e83ab3e	0.25716585
229	0xbf50ee27	-0.8161339
230	0x3f8b37aa	1.0876362
231	0xbea866fb	-0.32891068
232	0x3e18704c	0.14886588
233	0xbe9e6368	-0.30935216
234	0x3f830b18	1.023776
235	0xbf515159	-0.8176475
236	0x3ddfe637	0.10932582
237	0x3ead0f99	0.33800963
238	0xbef065d6	-0.46952695
239	0x3f0df87a	0.5545727
240	0xbe3169fa	-0.17325583
241	0x3f69d865	0.91345817
242	0xbee186a5	-0.44048038
243	0x3f395a3e	0.72403324
244	0x3e65f3ed	0.22456332
245	0xbf5d674f	-0.8648576
246	0x3eb18a5c	0.34675872
247	0xbe22d761	-0.15902473
248	0x3f11d433	0.56964415
249	0xbf5344ed	-0.8252705
250	0xbe922fb4	-0.2855202
251	0x3dce3cb2	0.100701705
252	0x3f3b9929	0.7328058
253	0xbd90ce6b	-0.07070621
254	0x3ebd1630	0.3693099
255	0xbe7afe35	-0.24511035

fc_layers.1.bias f4 [10]
0	0xbe965691	-0.2936292
1	0xbca469dc	-0.020070009
2	0x3d3b833c	0.04577945
3	0xbf00bbfe	-0.50286853
4	0x3df5bbbb	0.11998697
5	0x3ef6c39f	0.48196122
6	0xbcf66247	-0.03007616
7	0xbd0e94ac	-0.034809753
8	0x3dfe1c8d	0.124077894
9	0x39df399c	0.00042576797
