Lab1/model/model_mnist/MLP1180.pth (torch, 574480 bytes, 4 tensors)

fc_layers.0.weight f4 [180, 784]
0	0xbc92ac85	-0.01790453
1	0xbccc5141	-0.024941089
2	0xbc2c3113	-0.010509747
3	0xbc845cfc	-0.01615762
4	0x3bc4490a	0.0059901522
5	0xbcaa9ba3	-0.020826166
6	0x3a87c8b7	0.00103595
7	0xbcedeaee	-0.029042687
8	0x3cce12fc	0.025155537
9	0xbc82055e	-0.0158717
10	0xbc8bc727	-0.017062737
11	0xbc0c296e	-0.0085547995
12	0xbcae2388	-0.021257177
13	0xbb98a5ba	-0.004658428
14	0xbc241a9d	-0.010016111
15	0xbcd2841f	-0.025697766
16	0xbc70514e	-0.014667822
17	0xbbedc193	-0.007255742
18	0xbb6c5601	-0.0036062005
19	0x3c882513	0.01661924
20	0x3b9dfb5c	0.004821224
21	0xbd0387a5	-0.032111783
22	0x3ca40fe3	0.020027107
23	0x3cc9a191	0.024613174
24	0x3d055850	0.032554924
25	0xbc94150a	-0.018076438
26	0x3cedfc18	0.029050872
27	0x3a1334dc	0.00056154816
28	0xbbd28db7	-0.006425585
29	0x3b8a2b9c	0.0042166244
30	0xbcfbe425	-0.030748436
31	0xbc0fcbc5	-0.00877661
32	0x3cfc745a	0.0308172
33	0x3d0026ec	0.03128712
34	0x3d0ee7f6	0.034889184
35	0x3c82a2aa	0.015946705
36	0x3cd2137a	0.025644053
37	0x3b99e4d7	0.0046964693
38	0x3c6ae3b4	0.014336515
39	0xbbc18bb6	-0.0059065474
40	0x3b1e969e	0.0024198662
41	0xb9d76e01	-0.00041089955
42	0x3c000c22	0.007815393
43	0xbcb104f5	-0.021608809
44	0x3c65afd5	0.014018972
45	0x3c009f32	0.007850455
46	0xbd015116	-0.03157147
47	0xbcd9c540	-0.026583314
48	0x3cac7674	0.021052577
49	0xbce25941	-0.02763045
50	0xbcb0e46f	-0.0215933
51	0xb9d7e493	-0.00041178297
52	0x3ca58420	0.020204604
53	0xbd022c64	-0.031780615
54	0xbcadbdb5	-0.021208623
55	0x3cf19138	0.029488191
56	0xbcd4af35	-0.025962451
57	0x3d0dbd4a	0.03460435
58	0xbcd86409	-0.026414888
59	0xbb72715b	-0.0036993835
60	0xbb3c5802	-0.002873898
61	0xbcaa5331	-0.020791622
62	0xbca4a02d	-0.020095909
63	0x3ccffc36	0.025388818
64	0xbce4efe2	-0.027946416
65	0x3d0d761a	0.03453646
66	0x3d357266	0.044298552
67	0xbc05f2a6	-0.008175528
68	0x3ce18d89	0.02753331
69	0x3d544de9	0.051832113
70	0x3d129943	0.035790693
71	0x3c92fd70	0.017943114
72	0xbd2d8e94	-0.0423723
73	0xbc825919	-0.015911626
74	0xbd7ccea8	-0.06172052
75	0xbd4b29ff	-0.049600597
76	0xbb5e856b	-0.0033954035
77	0xbd1b5d8f	-0.03793102
78	0xbd1127a6	-0.035438202
79	0xbc4be732	-0.012445258
80	0x3c925e2f	0.017867176
81	0x3c768549	0.015046426
82	0xbcf1b195	-0.029503623
83	0x3ca9ccb7	0.020727498
84	0x3bb17a53	0.0054161935
85	0x3a9680b7	0.0011482452
86	0xbc638805	-0.01388741
87	0x3cb60c35	0.022222618
88	0x3c75ab29	0.014994421
89	0xbcd76046	-0.026291024
90	0xbc629517	-0.013829491
91	0x3b623409	0.0034515879
92	0x3c609937	0.013708404
93	0x3d15f5b8	0.03661129
94	0x3d9b04ec	0.07569298
95	0x3df1d849	0.11808831
96	0x3df6c861	0.12049938
97	0x3df84b50	0.1212374
98	0x3d5b590e	0.053551726
99	0x3c8cebcc	0.01720228
100	0x3d2cba74	0.042170003
101	0xbbdec8a6	-0.0067988215
102	0xbb0755a8	-0.002065042
103	0xbd6cc90a	-0.057808913
104	0xbbc93ac2	-0.0061410377
105	0xbda60599	-0.081065364
106	0xbd7bb0bb	-0.06144784
107	0xbc8928fe	-0.01674318
108	0xbceccdce	-0.02890673
109	0x3c005d2d	0.007834715
110	0xbc4d4f83	-0.012531164
111	0x3cf0dfca	0.029403586
112	0x3cf7fafa	0.030271042
113	0x3c59d337	0.013294986
114	0x3cbd553e	0.023111936
115	0x3c730d5e	0.01483473
116	0x3bbb95b5	0.0057246336
117	0x3d0ed2d6	0.034869038
118	0xbc12ebd5	-0.00896736
119	0x3c3f6ee9	0.011684158
120	0x3cccc09c	0.024994187
121	0x3d6861e0	0.056733966
122	0x3d90da89	0.07072932
123	0x3de5a145	0.112124
124	0x3e130139	0.14355935
125	0x3d9fac44	0.07796529
126	0x3d9b28a0	0.07576108
127	0x3dc2c1fe	0.09509657
128	0x3d23e406	0.040012382
129	0x3d86725f	0.06564783
130	0x3d8318eb	0.06401237
131	0x3d36c137	0.044617858
132	0xbcbeda68	-0.023297504
133	0xbdb6f37e	-0.08933161
134	0xbdc28ed1	-0.09499896
135	0xbda6861e	-0.081310496
136	0xbd0532ec	-0.032519266
137	0x3c958f98	0.018256947
138	0xbceb500f	-0.028724698
139	0xbcfcbd81	-0.030852081
140	0xbb3114ee	-0.0027020532
141	0xbce18311	-0.027528318
142	0x3c65617d	0.014000294
143	0xbbac9566	-0.005266833
144	0xbc7f92a8	-0.01559893
145	0xbb2c5e82	-0.0026301448
146	0x3caa1e7d	0.020766491
147	0xbcaf4fd1	-0.021400364
148	0x3cc77653	0.024348414
149	0xbc31d735	-0.010854532
150	0x3d6f39ec	0.058404848
151	0x3e114099	0.14184798
152	0x3dea595c	0.11442825
153	0x3deafaf5	0.114736475
154	0x3cd7dec2	0.026351336
155	0x3d3f07d4	0.046638325
156	0x3d14353d	0.036183584
157	0xbd8a8137	-0.06762927
158	0x3d3c4c77	0.04597136
159	0x3d685a00	0.056726456
160	0x3d28ef6b	0.04124395
161	0x3d1f1829	0.0388414
162	0x3d5f877b	0.054572564
163	0xbc81e148	-0.015854493
164	0xbd012418	-0.031528562
165	0x3c4c0568	0.012452461
166	0xbc8f7b60	-0.017514884
167	0x3ccc7ebd	0.024962777
168	0xbc93a6f3	-0.018023944
169	0xbd0c8fe2	-0.034316905
170	0xbcbb09ce	-0.022831824
171	0xbcd58de0	-0.026068628
172	0xbc034f47	-0.008014507
173	0x3d0688af	0.032845195
174	0x3d378faf	0.04481476
175	0x3c338b5c	0.010958519
176	0xbc585879	-0.013204687
177	0x3ca04dfd	0.019568438
178	0x3d496135	0.04916497
179	0x3e0044e1	0.12526275
180	0x3dc6ad7c	0.09701058
181	0x3e124a81	0.14286233
182	0x3e05801d	0.13037153
183	0x3d22cfb5	0.039748866
184	0x3c034181	0.008011223
185	0x3c3d5f2c	0.011558335
186	0x3d884c01	0.066551216
187	0x3ccd97de	0.02509683
188	0x3d0ab830	0.03386706
189	0x3dab85df	0.08375143
190	0x3d98871f	0.07447647
191	0x3c418ea3	0.011813792
192	0xbd03e0fc	-0.032196984
193	0x3a11335b	0.00055389636
194	0x3c346727	0.011010922
195	0xbd2088dc	-0.03919302
196	0x3b3c4137	0.0028725395
197	0xbce9e808	-0.028553024
198	0xbc3b2732	-0.011422919
199	0xbc988e54	-0.018622555
200	0x3d18384f	0.037163075
201	0x3d466f5c	0.048446044
202	0x3d4123d3	0.047153305
203	0x3d35e83e	0.044410937
204	0xbcb3e7b2	-0.021961067
205	0xbda7e2e0	-0.0819757
206	0x3b65ca87	0.0035063343
207	0x3dbeea14	0.093219906
208	0x3d20954a	0.039204873
209	0x3d3ec596	0.04657515
210	0x3db6c345	0.089239635
211	0x3d31b819	0.04338846
212	0x3d98189b	0.07426568
213	0x3d2b03d8	0.041751713
214	0x3d24e564	0.040257826
215	0x3d42bf6b	0.04754583
216	0xbd0da32d	-0.034579445
217	0xbcadd62f	-0.021220295
218	0x3d0d0a71	0.034433786
219	0x3d2d4fe7	0.04231253
220	0xbca76fe4	-0.020439096
221	0xbd50be53	-0.050962757
222	0xbc9a4b18	-0.018834636
223	0xbcb615cf	-0.022227196
224	0x3d0872e5	0.033312697
225	0x3ce639bc	0.028103702
226	0x3c15242b	0.009102861
227	0x3b56c9f8	0.0032774191
228	0x3d214f7b	0.03938244
229	0xbc3f2d30	-0.011668488
230	0xbd8483ff	-0.06470489
231	0xbd450efa	-0.048109986
232	0xbd945db2	-0.072444335
233	0xbdfade8d	-0.122494794
234	0xbda609d2	-0.08107342
235	0xbe09f1e9	-0.13471188
236	0xbe218842	-0.15774634
237	0xbe19a5ae	-0.15004608
238	0xbd280c80	-0.041027546
239	0x3c83f624	0.01610858
240	0x3bd0b496	0.006369184
241	0xbc80b69b	-0.015712073
242	0x3cace1bf	0.021103738
243	0xbd492fff	-0.04911804
244	0xbcd27e96	-0.025695127
245	0xbc1afc90	-0.00945963
246	0x3cab5071	0.02091238
247	0x3c830cfb	0.0159974
248	0xbd24ff27	-0.040282395
249	0xbd1d1cf6	-0.038357697
250	0xb9a5043d	-0.0003147441
251	0xbad3d47a	-0.0016161345
252	0xbcf59f68	-0.029983237
253	0x3c872ede	0.01650184
254	0x3c4c4feb	0.012470226
255	0x3d0ed32f	0.03486937

fc_layers.0.bias f4 [180]
0	0x3a8a29f8	0.0010541072
1	0x3d9b1f7a	0.07574363
2	0x3d9f4a48	0.0777784
3	0x3e29099d	0.16507573
4	0xbd16acd1	-0.036785904
5	0x3e35ae51	0.17742278
6	0x3dd68104	0.104738265
7	0x3d21a21a	0.039461233
8	0x3ce525bf	0.0279721
9	0x3d8c9c2b	0.06865724
10	0xbd948ac2	-0.072530285
11	0x3dbf32c9	0.093358584
12	0x3dbb0ef9	0.09133715
13	0x3d92a112	0.07159628
14	0xbd13fd73	-0.03613038
15	0xbd9bcb9b	-0.07607194
16	0xbe1dd4c5	-0.15413196
17	0x3c5a6866	0.013330555
18	0x3ea6edf3	0.32603416
19	0x3e4139a9	0.18869652
20	0xbb628882	-0.0034566228
21	0xbd3f4000	-0.046691895
22	0xbc966165	-0.018356988
23	0xbdc9a135	-0.09845201
24	0xbce0f6f8	-0.027461514
25	0x3c4a0ef8	0.01233267
26	0xbda4bd0e	-0.08043872
27	0xbcc7fb0b	-0.024411699
28	0xbd8afc1c	-0.06786367
29	0xbd883c64	-0.066521436
30	0xbe642173	-0.22278385
31	0x3c33a8e7	0.010965562
32	0x3d2c8791	0.042121474
33	0xbd214c52	-0.039379425
34	0xbc601f5a	-0.01367935
35	0x3cc36a5f	0.023854433
36	0x3e888bd3	0.26669177
37	0x3e3ddee8	0.18542063
38	0xbc8bbd5a	-0.017058063
39	0x3d7cdf87	0.06173661
40	0xbdac2a7e	-0.08406542
41	0xbdd8ac58	-0.10579747
42	0x3e38f7e6	0.18063316
43	0x3dd6b5ec	0.104839176
44	0xbbd9e2b0	-0.0066493377
45	0x3da28480	0.079354286
46	0x3e0050b8	0.12530792
47	0x3d7746a9	0.06037012
48	0x3d8c960d	0.068645574
49	0x3c1d669d	0.009606984
50	0x3d0fc50a	0.03510002
51	0x3c8e29d4	0.01735393
52	0x3cfe68ca	0.031055827
53	0x3d754d3b	0.059888106
54	0x3d972733	0.073805235
55	0x3def8bdb	0.11696597
56	0x3d9765f7	0.07392495
57	0x3e021cf8	0.12706363
58	0xbdca9d4a	-0.09893282
59	0x3d187d64	0.037228957
60	0xbdca8a4b	-0.098896585
61	0x3cbe740a	0.023248691
62	0xbc006686	-0.0078369435
63	0xbc6544c1	-0.013993443
64	0xbe6e16b7	-0.23250853
65	0xba24452f	-0.00062664127
66	0x3de6ce6f	0.11269843
67	0xbd8e87ea	-0.06959517
68	0x3de0d6da	0.1097848
69	0x3de552f1	0.111974604
70	0x3d19d6a0	0.037558198
71	0x3d0c5094	0.034256533
72	0xbe3cfdac	-0.18456143
73	0xbdbe2bd7	-0.092857055
74	0x3c3bad49	0.011454889
75	0x3bea8edb	0.007158143
76	0x3def6f47	0.11691146
77	0xbca1a279	-0.019730793
78	0x3ca305d7	0.019900246
79	0x3d8bc151	0.068239816
80	0xbc71d5b4	-0.014760423
81	0xbe140885	-0.14456375
82	0xbd98fe3d	-0.07470367
83	0xbc5a4681	-0.0133224735
84	0xbe1c5def	-0.15270208
85	0x3e1d1ac5	0.15342243
86	0x3d127e7e	0.035765164
87	0x3dc166a9	0.09443409
88	0xbbc7129a	-0.0060752155
89	0x3dde4db8	0.108546674
90	0xbc7b8b65	-0.015353058
91	0x3da46c87	0.080285124
92	0x3de77bca	0.11302908
93	0x3bd9acb4	0.0066429023
94	0x3e3aa940	0.18228626
95	0xbdf8cc8c	-0.12148389
96	0x3df00423	0.11719539
97	0xbd035616	-0.03206452
98	0xbbf831c7	-0.0075742933
99	0xbd08c401	-0.03339005
100	0xbdb0a1f8	-0.08624643
101	0x3e18d4c4	0.14924914
102	0x3e35c567	0.17751084
103	0x3daaeaba	0.08345552
104	0x3cc88f89	0.024482505
105	0x3e84bbbe	0.25924486
106	0x3dae2047	0.0850225
107	0x3ca9c5fa	0.020724285
108	0xbd59f9a2	-0.053216584
109	0x3d725a42	0.059168108
110	0x3de8dcd7	0.11370247
111	0xbdb3ced7	-0.08779686
112	0x3e37ff5a	0.17968503
113	0xbca23a90	-0.019803315
114	0x3e00f9b6	0.12595257
115	0x3da3f5ac	0.080058426
116	0x3e0c854f	0.13722728
117	0x3be6c035	0.007041956
118	0xbc344525	-0.0110028135
119	0x3d2dbddc	0.042417392
120	0x3dca4766	0.098768994
121	0x3dc7b9ca	0.09752233
122	0x3dd6e668	0.10493165
123	0x3d8f2fa0	0.069915056
124	0x3ac69fbb	0.0015153805
125	0x3e1c2168	0.15247118
126	0xbe2a71eb	-0.16645019
127	0xbd2245f0	-0.03961748
128	0x3da0b304	0.078466445
129	0x3decbb2f	0.1155914
130	0x3da24fe3	0.079253934
131	0x3d940b78	0.0722875
132	0x3d5a9ede	0.053374164
133	0x3bb74962	0.0055934647
134	0x3e45cff5	0.1931761
135	0xbb4f1c4c	-0.003160256
136	0x3db4c042	0.08825733
137	0xbd0f4c97	-0.03498515
138	0x3dda1773	0.10649004
139	0xbe2f4a1a	-0.17118111
140	0x3e6e0051	0.23242308
141	0xbc892310	-0.016740352
142	0x3ea432ed	0.32070103
143	0x3cdb0a64	0.026738353
144	0x3dfe2b13	0.124105595
145	0x3d00e3e0	0.03146732
146	0x3d750f91	0.0598293
147	0x37bcfc80	2.2528926e-05
148	0xbd3c9123	-0.04603685
149	0xbc9fdc5c	-0.019514255
150	0x3c3e2ea4	0.0116078
151	0x37d452ed	2.5310985e-05
152	0xbb134c6f	-0.0022475978
153	0x3e366dd6	0.17815337
154	0xbd1f1dfd	-0.03884696
155	0x3d5d728e	0.054064326
156	0xb950108f	-0.00019842594
157	0xbc5fd0b7	-0.013660601
158	0xbc41bc46	-0.011824673
159	0xbcfd17a2	-0.030895058
160	0x3db285b6	0.087169096
161	0xbd036a81	-0.032083992
162	0x3e918e76	0.28429002
163	0x3e79d784	0.24398619
164	0x3db7bccc	0.08971557
165	0x3d9e4d5f	0.07729601
166	0x3d3dbabd	0.046320666
167	0x3cd1f42e	0.02562913
168	0x3da916d3	0.082563065
169	0xbe149b1e	-0.14512298
170	0x3b8b6819	0.0042543528
171	0x3d6cf581	0.05785132
172	0x3e28812d	0.16455527
173	0x3d701753	0.058615994
174	0xbdffaed7	-0.1248452
175	0x3e0e82be	0.13917062
176	0xbe4b27ea	-0.19839445
177	0x3d298d14	0.04139431
178	0xbe17c22b	-0.14820163
179	0x3c9475ab	0.018122515

fc_layers.1.weight f4 [10, 180]
0	0xbe7aa9a8	-0.24478781
1	0x3e36fe9b	0.17870562
2	0xbe296217	-0.16541325
3	0x3e86b44d	0.26309434
4	0x3def9975	0.116991915
5	0xbe5488b6	-0.20755276
6	0x3e99ba71	0.30025056
7	0x3be2c272	0.0069201523
8	0x3dcc956b	0.09989437
9	0xbeb5c65d	-0.35502902
10	0x3f4e2b3d	0.80534726
11	0x3c86b3dd	0.016443187
12	0xbe8cb7ae	-0.27483886
13	0xbf1e3627	-0.6180138
14	0x3bc986f5	0.0061501213
15	0x3d6328ec	0.055458948
16	0x3dd7b636	0.10532801
17	0x3ea03a35	0.31294408
18	0x3e47ab32	0.194989
19	0xbea11e66	-0.31468505
20	0x3e263034	0.16229326
21	0xbe222f1b	-0.15838282
22	0x3e85ef2f	0.26159045
23	0x3eadd8bb	0.33954415
24	0x3cca24e3	0.024675792
25	0x3e187db1	0.14891697
26	0x3e3855a9	0.18001427
27	0x3da8c48c	0.08240613
28	0x3e8a0ed1	0.2696443
29	0x3e758d77	0.23979746
30	0x3dd65589	0.10465533
31	0xbd672f2a	-0.056441464
32	0xbd9f3334	-0.07773438
33	0x3e17abb0	0.14811587
34	0xbc5b320b	-0.01337863
35	0xbeab47dd	-0.33453265
36	0xbe4d97e0	-0.20077467
37	0xbe708b1e	-0.23490569
38	0x3cc46a9e	0.02397662
39	0xbeab4224	-0.334489
40	0x3e6298ec	0.22128648
41	0x3e2d3b78	0.16917217
42	0xbe8c07aa	-0.27349597
43	0xbd8616ba	-0.065473035
44	0x3c2b6046	0.010459965
45	0x3d8ac7ef	0.067764156
46	0xbf4d1545	-0.8011058
47	0xbd91c6e2	-0.07118012
48	0xbf1331ff	-0.57498163
49	0xbd7ead95	-0.06217726
50	0x3e3b46db	0.18288748
51	0x3e83c839	0.25738695
52	0xbebb8a87	-0.36629125
53	0xbf0b4229	-0.5439783
54	0x3e7c1b59	0.24619807
55	0xbd6cb202	-0.05778695
56	0xbe9ff510	-0.31241655
57	0xbea85ac2	-0.32881743
58	0x3ed0c679	0.40776423
59	0x3f0b5084	0.5441973
60	0x3e9a777c	0.30169284
61	0xbeb34aaf	-0.35017917
62	0x3d1d64a6	0.038426064
63	0x3d03a433	0.032139014
64	0x3f2121f4	0.62942433
65	0xbcb7170c	-0.022349857
66	0xbe93e405	-0.28884903
67	0xbe601698	-0.21883619
68	0xbec589e8	-0.38581777
69	0x3e21d705	0.1580468
70	0xbefafafa	-0.49019605
71	0xbe94698c	-0.28986776
72	0x3c83725a	0.016045738
73	0x3e1e3f3f	0.15453814
74	0x3ebc6713	0.3679739
75	0xbda1c0b7	-0.078980856
76	0x3e170c5f	0.14750813
77	0xbe916b28	-0.28402066
78	0x3e89e741	0.26934245
79	0x3e67457e	0.22585103
80	0xbdb092a8	-0.086217225
81	0x3c830c87	0.015997184
82	0x3e4bbc1c	0.19895977
83	0xbd8efcc9	-0.06981809
84	0x3e898cee	0.26865333
85	0xbf006e71	-0.5016852
86	0xbec89552	-0.39176422
87	0x3e7bae40	0.2457819
88	0x3f00a616	0.5025343
89	0x3cba6508	0.022753254
90	0xbebeacdd	-0.3724126
91	0xbe87c4a4	-0.26517212
92	0xbe9fb227	-0.31190607
93	0x3ded2ccc	0.1158081
94	0xbea483c1	-0.3213177
95	0xbf11860b	-0.5684516
96	0x3d4d6232	0.050142474
97	0x3e375c46	0.17906293
98	0xbd24d9fd	-0.040246952
99	0xbecd79a0	-0.40131855
100	0xbed49a6e	-0.4152407
101	0x3e54e724	0.20791298
102	0x3eff8323	0.49904737
103	0xbe1ca278	-0.15296352
104	0xbdc13841	-0.09434558
105	0x3edc96bd	0.43083754
106	0xbd0acb8b	-0.03388552
107	0x3cb9d60e	0.022685077
108	0x3ef35039	0.47522143
109	0xbccb14d3	-0.024790203
110	0x3d93a73d	0.072096325
111	0x3ef8e4f9	0.48612192
112	0xbec1be0e	-0.37840313
113	0xbec203fd	-0.37893668
114	0xbea8819d	-0.32911387
115	0x3cb6a140	0.022293687
116	0xbe5ea0e7	-0.21741067
117	0xbdb9b1c6	-0.09067111
118	0xbd1db873	-0.038505983
119	0xbe4b990c	-0.19882601
120	0xbcc242bb	-0.02371346
121	0xbeaf4310	-0.34230852
122	0xbd6147a3	-0.05499996
123	0xbd1f9264	-0.03895797
124	0xbefa315a	-0.48865777
125	0x3da845ba	0.08216424
126	0x3e077af3	0.13230495
127	0x3eed3161	0.46326736
128	0xbe1e3841	-0.15451147
129	0xbe200211	-0.15625788
130	0xbedab4ad	-0.4271597
131	0x3de0a7ec	0.109695286
132	0xbebb77f7	-0.36614963
133	0x3ee4977a	0.44646817
134	0x3ed8a5fc	0.42314136
135	0x3e9e4975	0.30915418
136	0xbf049918	-0.517961
137	0x3e108ca7	0.14116155
138	0x3d9b619a	0.075869754
139	0x3ec6523d	0.38734618
140	0x3e046fb8	0.12933242
141	0xbf2f8774	-0.6856606
142	0x3cd53159	0.026024507
143	0x3e057c67	0.13035737
144	0x3dd70531	0.10499037
145	0x3dfd37a5	0.12364129
146	0xbf082ecd	-0.5319641
147	0xbd3b6e74	-0.045759633
148	0xbd2809bb	-0.041024905
149	0xbe296f5d	-0.16546388
150	0xbf134373	-0.57524794
151	0x3e295ff9	0.16540517
152	0x3ea8a510	0.32938433
153	0xbdd23669	-0.10264284
154	0x3eb6ae32	0.35679775
155	0xbd686481	-0.056736473
156	0xbf29efda	-0.6638161
157	0xbcd541ed	-0.026032412
158	0xbf043723	-0.5164663
159	0x3e4ce3c6	0.20008764
160	0xbde7c032	-0.11315955
161	0xbd9fc5e0	-0.078014135
162	0x3e5422bc	0.20716375
163	0xbf24445c	-0.6416681
164	0x3e37be06	0.17943582
165	0x3e8372a7	0.2567341
166	0x3d0955c5	0.03352906
167	0xbd5fd018	-0.054641813
168	0xbe27ae9e	-0.16375205
169	0x3d7b475f	0.06134736
170	0xbbb21a91	-0.005435296
171	0x3ee98fd0	0.45617533
172	0x3ea24fc1	0.31701472
173	0xbde74b3c	-0.11293647
174	0x3e600008	0.21875012
175	0x3d1bb5ab	0.03801505
176	0x3e0da5db	0.138328
177	0xbe708524	-0.23488289
178	0xbf158750	-0.58409595
179	0xbe21dac7	-0.15806113
180	0x3a035f50	0.0005011456
181	0xbe7fe154	-0.249883
182	0xbeb089e6	-0.34480208
183	0x3e229bf9	0.15879811
184	0x3e990a73	0.29890785
185	0xbe95e5d7	-0.29276916
186	0xbc7e7f15	-0.015533228
187	0xbdba770a	-0.09104736
188	0x3d105caf	0.03524464
189	0x3e9f1eba	0.3107813
190	0xbd8a853f	-0.06763696
191	0xbe91106a	-0.28332835
192	0x3eb9d3c8	0.3629439
193	0x3e828292	0.25490242
194	0xbd9aa0dd	-0.075502135
195	0xbe5a1447	-0.21296798
196	0x3ee7a2ff	0.45241544
197	0xbe29e1b7	-0.1659001
198	0xbf3ab4f6	-0.72932374
199	0x3e1b9b63	0.15195994
200	0xbe38dd82	-0.18053249
201	0xbcd70a1a	-0.026249934
202	0xbf0a9d5c	-0.5414636
203	0xbe3b7bef	-0.18308996
204	0x3eab2201	0.3342438
205	0x3d29b88d	0.041435767
206	0x3e807780	0.2509117
207	0x3e620f45	0.22076137
208	0xbe5f1781	-0.2178631
209	0xbcda589e	-0.026653584
210	0x3cb8f41e	0.022577342
211	0x3e9bab4a	0.3040412
212	0x3e99bcf6	0.30026978
213	0xbd54bedf	-0.05193984
214	0x3e950fca	0.2911361
215	0x3ebf364a	0.37346107
216	0x3e1977e0	0.14987135
217	0xbf2b61f0	-0.66946316
218	0x3e6be6c9	0.23037256
219	0x3ea930a5	0.33044925
220	0x3e4f2ca3	0.20231871
221	0x3e048e5c	0.12944931
222	0xbe9c8055	-0.3056666
223	0xbec3d840	-0.38250923
224	0x3c7c7833	0.015409517
225	0xbcea109d	-0.028572375
226	0x3edbb520	0.42911625
227	0x3e5aba14	0.21360046
228	0x3d50669c	0.050879106
229	0x3d2b6596	0.041844927
230	0xbe77426d	-0.24146433
231	0x3e56f092	0.20990208
232	0xbd967293	-0.07346072
233	0xbe934fe0	-0.28771877
234	0x3ec0c447	0.37649748
235	0x3f4572e9	0.77128464
236	0xbc5438e0	-0.012953013
237	0xbdbc3145	-0.09189085
238	0xbebae3d4	-0.36501944
239	0x3c61e16e	0.013786657
240	0x3eb5fc63	0.35544118
241	0x3e51346f	0.20430158
242	0x3f0d774c	0.5526016
243	0x3e763c7a	0.24046507
244	0xbeddbb8b	-0.43307146
245	0xbe2d3d36	-0.16917881
246	0xbe41e2c3	-0.18934159
247	0x3e943109	0.2894366
248	0x3ec5c810	0.38629198
249	0x3e1a9af5	0.15098174
250	0xbe85bf34	-0.2612244
251	0x3ec9583e	0.39325136
252	0x3d789e7b	0.060698014
253	0xbe6f530d	-0.23371525
254	0x3df0bf46	0.117552325
255	0xbe8e4355	-0.27785745

fc_layers.1.bias f4 [10]
0	0xbe48ae73	-0.19597797
1	0x3d1967ce	0.03745251
2	0x3c265651	0.010152415
3	0xbe2fcf44	-0.1716891
4	0x3e5c660a	0.215233
5	0x3ea43c34	0.3207718
6	0xbe0049c2	-0.12528136
7	0xbd430428	-0.047611386
8	0x3e35faff	0.17771529
9	0x3dad4f1e	0.08462356
