Lab1/model/model_mnist/MLP190.pth (torch, 288264 bytes, 4 tensors)

fc_layers.0.weight f4 [90, 784]
00000000: bcf0 b5bc 70d2 053d 4fd8 06bd 0ae1 033d
00000010: ca48 ff3b 5ae3 8abc 018b 433b 93c4 adb9
00000020: 3c8e 5c3c 3ef9 e5bc 25fe f23c 4a70 e1bc
00000030: 8951 acba f187 f73b e390 e9bc f280 9abc
00000040: b33d 88bc 6e77 d1b9 18ff 06bd 3a3e debc
00000050: 7878 eb3b e027 01bd 1c4f 24bc 184e ee3c
00000060: 6391 993c 81be cd3c 7a4c aa3c fc20 303c
00000070: 4a6a 043d 37f3 2abb b09b 8c3c 6e2d a63b
00000080: 51b6 013d 82bf b4bb 7a9a 083d f606 dcbc
00000090: 46f7 bdbc 23b4 d83c 4e3c fb3c a0b7 dcbc
000000a0: b6a3 62ba f8b0 c7bc 047d 82bc a168 0c3c
000000b0: 1c30 2dbb a281 1ebd 57a4 90bc d728 dabb
000000c0: 61db e3bc c169 ef3c 7bc1 c03b 81bd 213a
000000d0: 8144 6b3c ca78 f23b d86e 79bc 6eaf 17bc
000000e0: 7595 cd3c 77a7 233c 6625 d5bc dc24 d43c
000000f0: 3b40 a5bc 52b8 c6bc c4e6 673b 6164 8ebc
00000100: 1bb9 973c 1e90 3bbd 5703 5abc 9443 febb
00000110: eaff 0dbc e496 2f3d bf5a 08bd 45e9 95bb
00000120: c4bf 983b e900 2b3d 1141 db3c baaa da3b
00000130: f91b e6bc e028 a43c e160 2eba dd11 01bd
00000140: 37cd ddbc e0be f93c 77ef 823c 8757 b9bc
00000150: 3c50 793c 6f4d 0dbd c24d 7c3c 3627 2dbb
00000160: d57c e4bc 6496 8f3c b35d 323c a8a4 0ebd
00000170: aa04 20bc 6a96 34bd 044d 9fba 9570 17bc
00000180: 0347 3bbc 273c 33bc 361a 4e3c fc73 293c
00000190: 10a2 b13c 232f 8bbb cef0 f2bb 683c 0cbc
000001a0: 89ac 2dbd 307d c6bb 1bc1 42bc 813f 753b
000001b0: 839e 3dbc 8915 c93a dc0c 05bd 53ed bbbc
000001c0: 9c37 04bc 0603 4cbc 6ade 7a3c 25a7 fdbc
000001d0: c98b b73c 382a e1bc 0a3b efba eee4 a6bc
000001e0: eea8 373c a60e c4bc c282 163d 82ce 8e3d
000001f0: 2145 fe3d d7ce 233e fc1b f43d 35cc 0f3d
00000200: 3011 5f3d a205 2a3d 4a6c 8f3b f6cb 803d
00000210: 47e6 293d e0c3 923d 23dd 0d3d b42c 63bc
00000220: f3bb 1d3d d08c ad3c e30e 66bc 7b0c 903c
00000230: 2e4e ffbc 0284 03bd 5c02 14bc 9dc4 d639
00000240: 0b2e b7bc 90d8 c8bb ffd9 66bc 35d7 11bc
00000250: eb0e a1bd e552 89bd b042 64bd 1bae cebb
00000260: 0d39 b53d d75d 23b8 2944 8a3d ab9e ebbc
00000270: 1c17 a63c 3a5f 103d be16 e73c 07c0 013e
00000280: 39ec f73d fa64 093e 156e e23d 5fe9 a23d
00000290: ec8d f33c 637d 26bc fcfc f5bc e9d0 8cbc
000002a0: 3135 df3c 959b 0abd ed38 983c d359 1abd
000002b0: 5479 1dbc dde6 16bc 6aab efbb 353e a7bc
000002c0: bf06 ffbc aa33 babb 29c0 64bd a30a 7ebd
000002d0: 2d49 0d3c c185 a3bd 4e7f dcbd 6673 27bd
000002e0: e250 95bd 7e03 31bd 5763 51bd 8f88 6e3d
000002f0: 3cd4 813d c08f c63c 9995 853d 9f89 f73d
00000300: 7579 953d 300c 9d3b 377b ef3c b93b dbbc
00000310: 8bb6 38bc d043 d2bb d5c7 1cbd fe00 3fbd
00000320: b3fa da3c 32b0 473d 3f8b 8dbc b446 76bd
00000330: 4feb 093c f722 c6bb bedc b4bc 44e5 9eba
00000340: 5b9e 22b9 c49d 68bc e979 ec3c 9658 b5bc
00000350: b983 7dbd 2cca c0bd 961d d6bc 7990 8e3d
00000360: 4fc5 6c3d a60a 873c 51c1 d13d aa3f bf3d
00000370: caf3 553d b295 243c d411 fd3b da0d 00bc
00000380: 2834 9e3c 83c3 01bd 3026 0ebd 8bb7 bd3c
00000390: 2bdb 323b 8caa 7ebc 1652 23bd 0ec8 603d
000003a0: caad 6dbd 5457 09bd 5346 39bd 902e 763c
000003b0: d0ca 073d 087d 2b3e 97a1 263d 5341 1dbd
000003c0: e884 e6bd f83e 5cbd 8e47 2ebc 779a 613d
000003d0: 3277 a73d 8392 2d3d 8fa7 0b3d 0470 703d
000003e0: c835 0f3d 3e87 cb3c a80b 703d e642 d2bc
000003f0: 59cf 4f3c f650 cf3c a4cd 05bd 50be 843c
-0.022209518 0.032671392 -0.03292113 0.032197036 0.0077906596 -0.016954113 0.0029837491 -0.0003314359
0.013461646 -0.02807295 0.029662201 -0.027519364 -0.0013146858 0.0075540473 -0.02851147 -0.018860314
-0.016630983 -0.00039952568 -0.03295812 -0.027129281 0.007185992 -0.03153217 -0.010028627 0.029089972
0.018746084 0.025115253 0.02078842 0.010750052 0.032327928 -0.0026084909 0.017164081 0.0050713336
0.03166801 -0.0055159936 0.033350445 -0.026858788 -0.023189198 0.026453083 0.030668404 -0.026943028
-0.00086456107 -0.024376377 -0.015928753 0.008569867 -0.002642638 -0.038697846 -0.017656488 -0.0066577005
-0.027814569 0.029225232 0.0058824397 0.0006169901 0.014359594 0.007399653 -0.015224181 -0.009258134
0.02509568 0.009988657 -0.02601881 0.025896482 -0.020172229 -0.024257813 0.003538535 -0.017381849
0.018520882 -0.045791738 -0.01330646 -0.007759521 -0.008666972 0.04286851 -0.033289667 -0.004574927
0.004661532 0.041748915 0.026764425 0.006673184 -0.02808951 0.020039022 -0.00066520093 -0.031511176
-0.027075393 0.030486524 0.015983326 -0.022624744 0.015216883 -0.034497675 0.015399398 -0.0026421077
-0.027891556 0.017527767 0.010886597 -0.034824997 -0.009766737 -0.04408876 -0.001215369 -0.00924315
-0.011430505 -0.010939634 0.012579491 0.010342594 0.021683723 -0.0042475625 -0.00741396 -0.008559324
-0.04240087 -0.006057404 -0.01188686 0.0037421884 -0.011573437 0.0015341501 -0.032482967 -0.022940313
-0.008069899 -0.012451893 0.015311817 -0.03096349 0.022405522 -0.027485952 -0.0018251848 -0.020372834
0.01120971 -0.023932766 0.036745794 0.06972982 0.12415529 0.15996872 0.119194 0.035106856
0.05445975 0.041509278 0.0043769227 0.062889025 0.041479375 0.071662664 0.03463472 -0.0138656385
0.03850932 0.021185309 -0.014041635 0.017584076 -0.031165209 -0.032108314 -0.009033766 0.0004096375
-0.022360822 -0.006129332 -0.01409006 -0.008901407 -0.078641735 -0.06705264 -0.05572766 -0.006307376
0.08848772 -3.8949624e-05 0.06751282 -0.028762182 0.020274691 0.035247065 0.028209087 0.12670909
0.12105603 0.13417426 0.11056153 0.07954668 0.02973076 -0.01016173 -0.030027859 -0.01718946
0.027247043 -0.03383978 0.018581832 -0.03768332 -0.009611446 -0.0092103155 -0.0073141353 -0.020415405
-0.031131146 -0.0056824284 -0.05584732 -0.062021863 0.0086234035 -0.07984496 -0.10766469 -0.040881537
-0.07290818 -0.04321622 -0.05112013 0.0582357 0.063393086 0.024238467 0.06522674 0.12086796
0.07298557 0.0047927126 0.029233558 -0.026761876 -0.01127399 -0.0064167753 -0.038276512 -0.046631806
0.02673087 0.048752017 -0.017278312 -0.06012602 0.008417918 -0.0060466486 -0.022077914 -0.001212277
-0.00015508516 -0.0141977705 0.028866725 -0.022136968 -0.0618932 -0.09413561 -0.026137155 0.0696115
0.057805356 0.01648457 0.1024195 0.09338315 0.05223445 0.010045456 0.0077230725 -0.0078158025
0.01931198 -0.031680595 -0.034704387 0.02315881 0.0027291279 -0.015543591 -0.039873205 0.054878287
-0.058027066 -0.03353055 -0.045233082 0.01502575 0.0331524 0.16746914 0.040681448 -0.038392376
-0.112558186 -0.05377099 -0.010637177 0.05507895 0.081770316 0.042376053 0.034095343 0.058700576
0.0349634 0.024844762 0.058604866 -0.025666665 0.012683713 0.02530716 -0.032666817 0.01620403

fc_layers.0.bias f4 [90]
00000000: 194b 0e3e f156 633d 44bb 2a3e 37e7 c5bd
00000010: f2b7 f13e fae6 233d 7911 183d 0d6f 103d
00000020: 5c16 903d 1468 4ebb 4708 2abe ed3d e1bb
00000030: 4a2a d6bd 7cc1 343e b930 023d d5de 7a3d
00000040: b03d b9bc a4da b03d 8708 f8b8 6c04 533e
00000050: f89e 2e3e 24c2 933e 2fee 593d f216 e7bd
00000060: cb36 463c b88a f13c 7db0 89bd dd56 ef3d
00000070: 552e bb3d c8a6 9dbc 6e81 a73d 3f8b 503d
00000080: ac78 55be dca3 233d edba fbbd 7919 ac3c
00000090: 02cf af3e 55c8 9cbd 44a1 c53d 2c0b 70be
000000a0: 7928 fe3c 140c 02bd b44b 7f3c d497 b73d
000000b0: 4c51 3a3d 8222 4a3d 8a14 0e3e 17d8 413e
000000c0: 571d a13e 4169 873d c2a6 e6bd 63f5 65be
000000d0: 7cc3 c1bd 4cf6 d43d d413 c33e 89e3 a73d
000000e0: ff7c a1bc 4c6a 0dbd 3f08 17be c644 803e
000000f0: 936e 1c3d 87d2 9f3c b97e 543d cadd 60bd
00000100: a477 d6bd 49f4 c1bd 0f9a b83c 81d0 e23d
00000110: 5624 223d 7102 5abe 3edd a33d e529 3dbd
00000120: a293 80be f882 6f3e 8e9c 3b3e 5173 833e
00000130: dcd2 4abe 1c93 c3bd 6d32 923d 3b08 c83d
00000140: 0299 f33d 99ce 423e 5a9e d1bc 1df0 b03d
00000150: 1552 bbbd 0f20 6e3d 5358 063e 70e9 223e
00000160: 8dff bb3d e4ff 963c
0.13895835 0.055502836 0.16672999 -0.09663241 0.47210652 0.0400152 0.03712604 0.035262156
0.07035515 -0.003149514 -0.1660472 -0.006873837 -0.10457285 0.17651933 0.031784747 0.061247665
-0.022612423 0.086354524 -0.0001182715 0.20607156 0.1705283 0.28859055 0.053205665 -0.11283673
0.012098025 0.029485092 -0.067231156 0.1168649 0.091396965 -0.019244567 0.08178984 0.050914045
-0.20846814 0.03995119 -0.12291513 0.02100824 0.34337622 -0.07655398 0.096498996 -0.23441762
0.031025158 -0.0317498 0.015582014 0.08964506 0.045487687 0.049349315 0.13875023 0.18930088
0.31467697 0.066118725 -0.11262275 -0.22456889 -0.09461114 0.1039854 0.38101065 0.08197696
-0.019712923 -0.0345252 -0.1474924 0.2505247 0.03819139 0.019509567 0.051878665 -0.054899015
-0.104720384 -0.09470422 0.022534398 0.11074925 0.039585434 -0.21289994 0.08001183 -0.046182532
-0.25112635 0.23389804 0.1832144 0.25673917 -0.19806999 -0.09549543 0.07138524 0.09767195
0.11894418 0.19024123 -0.025588203 0.08639548 -0.09146515 0.058136042 0.1311963 0.15909362
0.09179602 0.018432565

fc_layers.1.weight f4 [10, 90]
00000000: a474 ffbe 3924 1ebe 29fc 3ebd 0422 3e3e
00000010: 2dc3 c23c 5f8c 163f 9f57 cc3e 2075 703e
00000020: 1e10 ba3d 4671 9b3e b9ac f53e 1b30 253e
00000030: 96dc 3bbf 1403 c93b 35a8 babe de00 a63a
00000040: 8db2 78bd 551c 8b3c f48a c0bd 1edd b8be
00000050: 1ac6 61bf c350 00bd 20ab d7be 5dd3 003e
00000060: 16b5 603e 475f ce3e 097d d73e d415 65be
00000070: d402 ecbd 5f7b 88be 8661 80be cec5 16be
00000080: b5c4 80bf e381 df3e 5f15 88bf 2589 b53e
00000090: 84da 923e 769f f4be d142 11be d25c babe
000000a0: 8799 82be bcda 20bf 9c11 883d 40c4 93bb
000000b0: a8da 82be c1f7 f63e 48f0 cdbe f9c0 58be
000000c0: 5873 083e 85b6 e93e 9325 d13e 0dc5 09bd
000000d0: 4ebf 59be e61d ea3e d2f5 83be 955b 12bd
000000e0: c293 e4bd 5646 ae3e bdd8 cbbe bb62 95be
000000f0: 3d52 e2bd 662a 97bd 2384 45bd 293d 3abf
00000100: a1ee 5b3e 9941 e6be 587c 8abe c2c7 883e
00000110: 74eb f53e d2ff 0ebf 95d6 36be 781b 553e
00000120: de7f 3d3d 18f0 233f 992d 7b3e eab5 da3a
00000130: ab94 173f 1b5b ac3e 683c 223e f1eb 3fbf
00000140: 36ef 0a3c e0ee 093f c534 893d 8072 333f
00000150: 741d 34be caf0 c93c 55df 95bd 158a a43e
00000160: 237b 8cbf acf4 3f3f 3c95 d33e 6e87 d0be
00000170: 575f 0bbf 6019 fe3e 3d60 263f 8cd2 12be
00000180: 9a5a 2d3e 3061 93be 4616 01bf 197d 31be
00000190: e01d ec3e 5cf9 1d3e 4a93 e8be 5ed0 1d3f
000001a0: 3adf a1be d26a 55be 18e8 073f b69c dc3e
000001b0: 26b0 0d3f b997 9abe 6655 4f3f 091f 56bd
000001c0: d696 26be 5ad9 b6be a05a 8e3e 1c45 ed3e
000001d0: 6c8c c1be 7c77 893e 3126 e53e 7c76 d43e
000001e0: 4f47 c1be 490b 0d3f f5a0 de3e 1aae 1abd
000001f0: b4e3 f53e 90b6 7cbe efb7 0fbe d490 413f
00000200: f105 f7bd 4500 ca3d f06d 0d3f ef8d 683e
00000210: 5e9a e53c 53eb 5b3e f613 8c3d 4595 fbbd
00000220: 2768 583e f0d5 1e3f 43ce 06be 0f52 92be
00000230: d0bc 18bf 9edf 713f e47e ae3e 405a 1ebf
00000240: 471d e6be 8f48 4ebe 66f6 d13e 062b 15bf
00000250: 91cc 00bf 5ff3 00bf 551d 1cbf 6bc2 75bd
00000260: 8a53 64be c341 ed3e 2618 8cbc 4a46 853e
00000270: b536 11bd af6f f0be e9af 6a3e 7946 e03e
00000280: 72f8 c9be 8f46 dbbe f0e0 773e 771b bd3c
00000290: 2e3a 14be 0d5b 08bf 1437 6dbe 574b f33c
000002a0: 4913 ecbd e0a3 a23c 1a84 c7be 3072 05bf
000002b0: 6691 adbd 6b77 0a3e 0a73 013f e4fc 8b3f
000002c0: b8fa 103e d29a 4cbe 0d34 0cbf a5a1 bebe
000002d0: ef50 77bd c1f2 053f cbce a13e 5635 173f
000002e0: f2bc f43e 2d13 143f 4022 383e 536c 273d
000002f0: e8a3 903e fbc1 37bf a1af 093f c640 aabc
00000300: 6b2d 1cbe 0bb1 2e3f 398f e5be 610a 933e
00000310: a038 42bf d91d 2dbe 7b4b 083e 92f1 d0be
00000320: ebe7 12be fc56 01bf 55d9 10bf e438 523f
00000330: 07fc 2a3f 2ff0 8a3e 1bf9 0d3e 80d4 b3bd
00000340: 59f5 843e 6450 873e 81fe d83d 044c b73e
00000350: bace 113d 17c3 693f fbfa 88be bdc8 d8bd
00000360: f26a 99bf 9f41 58bf 3d8a 383d 70b2 353f
00000370: 334e 78be 8f92 c33e b24d 12bf 534f d33e
00000380: e3a6 693e 22c0 353b ab5f 15bf 66cd 313e
00000390: f57b 89be 6ee8 cdbe 90f4 363e ffa7 98be
000003a0: 8bf1 b63e d44b e3be e141 bebe 7847 e6bb
000003b0: 3a42 903e 6fb2 29bf e041 093f fb7b 27be
000003c0: 09cd 47be 3f8a 2ebe aa16 7dbf 55a4 7f3f
000003d0: 7e19 ec3e 4788 bdbd f5b7 8d3f 9579 563f
000003e0: 078c ee3e 68e5 3f3f bd7d b2be be46 c63e
000003f0: 6e5b 3ebf 6ed7 d8be 443d d4bf f249 7a3f
-0.49893677 -0.15443505 -0.046627197 0.18567663 0.023774708 0.5880794 0.399106 0.2348218
0.09085105 0.30359858 0.4798334 0.16131632 -0.7338346 0.0061344 -0.36456457 0.0012665053
-0.060717154 0.016981283 -0.09401503 -0.361062 -0.88192904 -0.03132702 -0.42122746 0.12580629
0.21944079 0.40307066 0.42087582 -0.22371608 -0.11523977 -0.26656625 -0.25074404 -0.14723894
-1.006003 0.43653783 -1.0631522 0.35456195 0.2868234 -0.4777791 -0.14185645 -0.3639894
-0.25507757 -0.6283376 0.06643984 -0.004509479 -0.25557446 0.48235896 -0.40222383 -0.21167363
0.1332525 0.45647064 0.4084898 -0.033635188 -0.21264383 0.45725936 -0.25773484 -0.03573187
-0.11160995 0.34038037 -0.39813796 -0.29176888 -0.11050842 -0.07381134 -0.04822172 -0.72749573
0.21477748 -0.44971922 -0.27047992 0.26714903 0.480312 -0.558591 -0.17855294 0.2081126
0.04626452 0.6403823 0.24529113 0.0016686295 0.59211224 0.33663258 0.15843356 -0.74969393
0.008479884 0.5388012 0.06699518 0.7009659 -0.1758936 0.02465095 -0.07317988 0.32136598
-1.0975078 0.74982715 0.41324794 -0.40728325 -0.5444235 0.49628735 0.649906 -0.1433813
0.16929093 -0.28785086 -0.5042461 -0.17332877 0.46116543 0.15427154 -0.45424873 0.6164607
-0.3161562 -0.2084153 0.5308852 0.4308831 0.55346906 -0.3019388 0.8098968 -0.05227569
-0.16268477 -0.357127 0.27803516 0.4634179 -0.37802446 0.26848972 0.447557 0.41496646
-0.37749717 0.55095345 0.43482175 -0.037763692 0.48025286 -0.24679017 -0.14035009 0.75611615
-0.1206168 0.09863333 0.55245876 0.22710393 0.02802771 0.21476488 0.06839745 -0.1228433
0.21133481 0.6204519 -0.1316462 -0.2857823 -0.59663105 0.9448184 0.34081185 -0.6185646
-0.44944212 -0.20144866 0.410083 -0.58268774 -0.50312144 -0.50371355 -0.6098226 -0.059999865
-0.22297493 0.46339235 -0.017101359 0.2603019 -0.035452563 -0.46960208 0.22918667 0.43803766
-0.3944736 -0.4282727 0.242069 0.023084385 -0.14475319 -0.5326393 -0.23165542 0.02969901
-0.11527116 0.019853532 -0.38967973 -0.5212736 -0.08474998 0.13522117 0.5056616 1.0936551
0.14158142 -0.19980934 -0.54766923 -0.372327 -0.06037992 0.5232354 0.31603083 0.5906576
0.47800404 0.5784176 0.17981815 0.04087479 0.2825005 -0.71780366 0.53783613 -0.02078284
-0.152517 0.68238896 -0.44835833 0.28718856 -0.7586765 -0.16905917 0.13310044 -0.40809304
-0.14346282 -0.5052335 -0.5658162 0.8211806 0.66790813 0.2713637 0.13864557 -0.087807655
0.25968435 0.2642852 0.10595418 0.35800183 0.03559754 0.9131331 -0.26753983 -0.10585163
-1.1985762 -0.8447513 0.04505371 0.709754 -0.2424858 0.38197753 -0.57149804 0.41271457
0.22817568 0.0027732928 -0.583491 0.1736351 -0.26852384 -0.40216392 0.1786673 -0.2981567
0.35731158 -0.4439379 -0.37159637 -0.0070275627 0.28175527 -0.66287893 0.5361614 -0.16355889
-0.19511808 -0.17044924 -0.9886271 0.99860126 0.461132 -0.092545085 1.1071764 0.8377927
0.46591207 0.7495942 -0.34861556 0.38725847 -0.7435826 -0.4235186 -1.6581197 0.9776908

fc_layers.1.bias f4 [10]
00000000: 9ff5 bcbe 7e1d 803c 1fb3 32be 4cb5 40be
00000010: 57d1 c43c 7273 b53e 6ac5 ebbd 0eaf 05be
00000020: 9304 233d ee14 263e
-0.36906144 0.015639063 -0.17451142 -0.1881916 0.024025602 0.3543964 -0.11512263 -0.1305506
0.039799284 0.16218922
