Lab1/model/model_mnist/MLP1210.pth (torch, 669904 bytes, 4 tensors)

fc_layers.0.weight f4 [210, 784]
000000 ee 20 c9 bb 2e d9 05 bc bc c3 29 bc 5e 2f c0 3c
       -0.0061379587 -0.008169455 -0.010361608 0.023460086
000010 0e f0 a0 3c 43 da d2 bc 25 1f 7f ba 1f 0d 0c bd
       0.019645717 -0.02573884 -0.0009732119 -0.0341922
000020 aa 25 45 3c a5 e2 a2 bc 85 f4 31 bc 45 c2 08 bc
       0.012032906 -0.019883463 -0.010861521 -0.008347099
000030 66 ba 94 bc 63 6b 5b 3c bd cf fd bc 06 dd 0a bd
       -0.018155288 0.013392302 -0.030982846 -0.03390219
000040 e3 e5 d4 3c 9c c8 8e 3c 1c 38 a6 3c 0e ff f6 bc
       0.025988525 0.017429642 0.020290427 -0.030150916
000050 bc e2 79 3c 6e fa fc bb 58 a0 6e 3c b3 cd 63 bc
       0.015251812 -0.007720283 0.014564596 -0.013904023
000060 73 0f ff 3c 4a 13 4f bb 07 93 b4 bc fc 32 ed 3c
       0.031135296 -0.003159719 -0.022042764 0.028954975
000070 8b a7 0c bd 2a d9 40 3c 45 61 65 bc 7c 49 07 3c
       -0.03433947 0.011770526 -0.014000242 0.008257266
000080 b8 da fb 3b 7a b3 03 bd 41 30 e9 3c 02 14 7f 3c
       0.0076859854 -0.032153584 0.028465392 0.015568735
000090 5b 72 d8 bc 59 8d 41 bc 39 a9 ba bc d1 e5 05 3d
       -0.026421716 -0.011813485 -0.02278577 0.032689873
0000a0 be 9f a3 bc ce 44 08 3d 4a 5f 7c bc 5b 6e 96 3c
       -0.019973632 0.033268742 -0.015403578 0.018363168
0000b0 35 f3 96 3c 31 1d c6 3c 69 e3 8b 3c 36 88 f0 3c
       0.018426517 0.024183841 0.017076211 0.029361825
0000c0 1e 55 11 bd 6c 6d 0a 3d bd 82 0d 3a 32 a2 bd bc
       -0.035481565 0.03379576 0.00053982047 -0.02314863
0000d0 ca 81 48 bb ec fc 07 bd 33 b9 0e bd f7 c4 93 3b
       -0.0030594938 -0.03320019 -0.03484459 0.004509564
0000e0 8a 9d b3 bc 80 e3 05 3d ca b4 85 3c 35 10 78 bc
       -0.021925706 0.032687664 0.016321559 -0.015140583
0000f0 92 e0 ba bc d5 74 fd 3c 7f 44 e3 3a 5d 72 d3 3c
       -0.022812162 0.030939499 0.0017339139 0.025811369
000100 b4 9a b9 bc 54 b1 b8 3c 43 e7 9f bc f8 69 c2 39
       -0.022656776 0.022545494 -0.019519454 0.00037081516
000110 39 d4 02 3b a2 44 03 bd 08 57 42 bd f3 f0 1c bc
       0.001996292 -0.032047875 -0.04744628 -0.009578931
000120 af 28 1f 3c 4b 73 a0 bc 29 3a 66 3b b6 97 b1 bb
       0.00971429 -0.019586226 0.003512988 -0.0054196967
000130 8e 1c 44 bc d0 8f 10 bd 2d dc b5 3c 8c 0a a5 bc
       -0.011969699 -0.0352934 0.022199715 -0.02014663
000140 fc cc 0a 3c 9a 00 ea bc 6e 60 86 bb 98 fd 62 bc
       0.008471724 -0.02856474 -0.004100851 -0.013854407
000150 6c 21 a4 bc a0 c5 02 3d 40 0d 11 3d fc bd ac bc
       -0.020035468 0.03192675 0.035413027 -0.021086685
000160 5f 37 c0 3b 0e b7 ba ba 41 3e 99 3b fe d8 8a 3b
       0.0058659757 -0.0014245228 0.0046766107 0.0042372933
000170 10 90 8c bc 45 07 2f bc be e4 b0 bc cb cc 45 bd
       -0.017158538 -0.010682886 -0.021593448 -0.04829101
000180 1b 80 5c 3c c7 48 39 3b a0 c7 92 3d 74 5b a1 3a
       0.013458277 0.0028272138 0.07166982 0.001231058
000190 6f 73 fb 3c c8 57 79 3c 3e 17 3b bd 25 d6 15 bd
       0.030694691 0.015218683 -0.045676462 -0.036581177
0001a0 58 e5 1c bd 1d 6c 9d bc 03 51 76 3a a1 1c 1c bd
       -0.038304657 -0.019216591 0.0009396227 -0.03811324
0001b0 79 44 08 bd 52 db dd 3c 6e f4 ec bc 13 fd f8 bc
       -0.033268426 0.02708212 -0.028925147 -0.030394113
0001c0 0a f8 ef bb 99 37 6a 3a d8 90 94 3c e9 99 32 3b
       -0.0073232697 0.00089346763 0.018135473 0.0027252382
0001d0 2e 46 f0 3c ba c4 be 3c 5e d6 8c 3c 19 8b 07 bd
       0.02933034 0.023287166 0.017192062 -0.03309164
0001e0 38 8c 43 bd c3 f9 5c bc 18 db 44 bd 31 4c c3 bc
       -0.047741145 -0.013487282 -0.048060507 -0.023840042
0001f0 eb 24 1f 3d 00 dd ab 3d 8d 65 a2 3d b5 89 ba 3b
       0.038853567 0.08391762 0.079295255 0.0056926855
000200 dc fe 48 3a fc 50 16 3c c1 47 cc bc 00 fa 51 bd
       0.00076673715 0.009174582 -0.024936559 -0.05126381
000210 aa 4d cd bc 4b d2 02 bd 6c 8a 30 bd 3c be 5d bd
       -0.025061447 -0.031938832 -0.04310076 -0.0541365
000220 16 a6 f7 bb 58 14 be bc ab e9 b9 3c c0 d2 12 3b
       -0.007557641 -0.02320306 0.02269443 0.0022403449
000230 00 ed 80 3a b3 6c 6e 3c 85 cc 06 3d 1c 82 d0 3c
       0.0009836257 0.014552283 0.03290989 0.025452666
000240 3b f0 9d 3b a7 51 06 3b ba 4f 69 bc e8 4e 9a ba
       0.0048198975 0.0020495446 -0.0142402 -0.0011772783
000250 13 bc ca bc cc 6a 8c bd 8f 01 22 bc ac 0a aa 3b
       -0.024747884 -0.068563074 -0.009888067 0.0051892605
000260 8d 45 b4 3b 15 99 2b 3d 81 2e df 3c c0 d6 38 3d
       0.005501455 0.041894037 0.027243854 0.045126677
000270 fe 44 06 3c 7a 6b c1 bb 9a 12 c6 3b 1f 15 34 bd
       0.00819516 -0.005902705 0.006044698 -0.043965455
000280 66 aa c8 bc ac 63 13 bd 4a ef 79 bd 3d 55 3f bd
       -0.024495315 -0.035983726 -0.06101922 -0.04671215
000290 ef 73 5e bd 9b 9b a4 3c 7f 42 d1 bc 77 6d 0c bc
       -0.05430978 0.02009373 -0.025544403 -0.00857102
0002a0 c7 27 91 3c 86 a6 10 3d e3 7c 6a bc 2d 67 5c 3a
       0.017719163 0.03531506 -0.014312002 0.00084077084
0002b0 2c ff 24 3d 3f 54 b8 bc 3c b0 f1 bb f1 ae 81 bd
       0.040282413 -0.02250111 -0.007375745 -0.063321956
0002c0 0d aa 18 bb 39 05 7a bd 91 67 32 bd 96 ad 80 bb
       -0.0023294718 -0.061040137 -0.0435558 -0.003926943
0002d0 86 54 36 bb ad a2 3f bc 00 51 a6 bd 77 2f 9b bd
       -0.0027821376 -0.0116965 -0.08120918 -0.075774126
0002e0 09 45 47 bd 6e 48 df 3a 0c 90 6b 3d 20 6b 87 3c
       -0.04864982 0.0017035136 0.05751042 0.016530573
0002f0 85 89 09 3d a9 3a 39 3d b8 87 08 bd 58 fa e5 bc
       0.033578414 0.04522196 -0.033332556 -0.028073475
000300 48 a0 36 bd bd 31 ff bc f4 76 a3 bb 5c 03 3a 3c
       -0.04458645 -0.031151647 -0.0049885456 0.01135334
000310 7f b1 9f 3b 43 4c b9 bc 61 41 7f 3c 56 28 df bc
       0.004873454 -0.022619372 0.015579552 -0.027240913
000320 fa 53 71 bc 4d 1a 3e bd 16 ff 81 bc 39 21 e8 bc
       -0.014729494 -0.0464118 -0.015868705 -0.028336154
000330 d7 3d cb bc 00 52 8f bc 94 00 4c bc 4b 28 e1 bd
       -0.024809761 -0.017495155 -0.01245131 -0.109940134
000340 ad 08 20 bd 01 e0 9b bd 9d 61 d1 bd a2 f4 f5 bc
       -0.039070774 -0.07611085 -0.102236964 -0.030023877
000350 9f ab 42 bd 2e cb 5f 3b 47 20 e0 3d cb 8e f6 3b
       -0.047526952 0.0034148204 0.109436564 0.0075243465
000360 c7 0e 06 3b e6 2e 1f 3c e5 56 92 3c f6 17 85 3d
       0.0020455585 0.009715771 0.0178637 0.06498711
000370 f4 9c 02 3d f3 78 ea bc 17 c0 30 3a 51 fc ee 3c
       0.031887963 -0.028622126 0.0006742491 0.029173048
000380 57 d0 66 bc 47 32 c3 3b 18 00 84 bc a7 fd 93 bb
       -0.014087758 0.0059569213 -0.016113326 -0.0045163217
000390 08 5a 2f 3c 81 be 2e bd bc 92 81 3c f9 1b 34 3c
       0.0107026175 -0.042662147 0.015817039 0.010992997
0003a0 df 53 16 bd 51 7d 59 bd 4e 82 cb bb f6 6f fc bc
       -0.03670108 -0.053098027 -0.006210602 -0.030815106
0003b0 f5 4c 4a 3d a9 46 83 3d a0 6d a4 3c 67 df 30 3d
       0.0493898 0.06409962 0.020071805 0.043181803
0003c0 7a 3e 8f 3d f3 38 1e 3d f0 af 93 3d b8 86 22 3d
       0.06994338 0.03862853 0.07211292 0.03967926
0003d0 a3 56 2e 3c 6f 60 6c 3c 49 e5 8e 3d 74 ae c1 3d
       0.010640773 0.014427288 0.069773264 0.094571024
0003e0 91 81 01 3d a1 ef b8 3a f5 36 e1 3c 57 a1 01 bc
       0.031617705 0.0014109501 0.027492026 -0.007912002
0003f0 00 82 06 bd 34 49 96 3c 17 55 0d bd 44 77 ea 3c
       -0.03283882 0.018345453 -0.034504976 0.028621323

fc_layers.0.bias f4 [210]
000000 96 80 be 3c c8 8f d5 3c d4 a9 16 3d 3d e2 e5 3d
       0.023254674 0.026069537 0.036783054 0.11224792
000010 ba 00 54 bd 41 ae bb 3d 1c de cf bc 00 6c e5 bd
       -0.051758505 0.09164096 -0.025374465 -0.1120224
000020 c2 7a 87 bd e8 1e 6a 3c 0a 9a 2a 3e bd fd 82 bc
       -0.06615211 0.014289595 0.16660324 -0.015990132
000030 6d c1 ef 3b a2 e6 52 3e bc 75 43 3e db d9 51 ba
       0.0073167593 0.20595792 0.19087881 -0.000800518
000040 96 7f 20 be 5e d6 37 be 4e 95 e8 bc 4e a1 23 3e
       -0.1567367 -0.17952868 -0.028391507 0.15979502
000050 bd a9 52 3b 14 3c 68 3c a4 1f 04 3e dc 64 90 3d
       0.003214463 0.01417448 0.12902695 0.070504874
000060 d2 6e 37 3d db 3c 7d bd b4 17 37 3c 18 58 50 bd
       0.04478342 -0.061825614 0.011175085 -0.050865263
000070 66 02 1a bd 55 de ed bc 7b 7c f8 bd f3 1b 77 3d
       -0.037599944 -0.02903668 -0.12133118 0.06032939
000080 f0 70 09 bd 05 e4 42 3d fd b6 50 3b 40 00 63 bc
       -0.03355497 0.047580738 0.003184735 -0.01385504
000090 af 8f 1b 3d cf 81 24 3c fa 4d dc bc bd de b2 3d
       0.037978824 0.010040714 -0.02689265 0.0873389
0000a0 e9 8a 91 3c 90 ec 65 bc df 28 27 3e a0 79 0e be
       0.017766433 -0.014033452 0.16324185 -0.13913584
0000b0 7b 09 06 3d 0e fc 04 3e 6a 63 b0 bc 40 0b 86 3d
       0.032723885 0.12986776 -0.02153178 0.065451145
0000c0 a2 40 63 3e 44 3b 87 3c ad 93 a3 bd 8f 5d a2 bc
       0.22192624 0.016507752 -0.07987151 -0.019820003
0000d0 fd 1b 32 3d ce ce 50 bc eb 6d 0f bd df 9f eb 3c
       0.043483723 -0.012744619 -0.035016935 0.028762756
0000e0 e9 4f c4 3d 41 82 1c bd d5 92 0a 3e 32 48 aa bc
       0.09585554 -0.038210157 0.13532574 -0.020786379
0000f0 a6 d7 fd bd 6e 30 58 3d e8 9f 15 3e be 1e 95 3d
       -0.12394647 0.05278056 0.1461178 0.07281254
000100 98 d0 34 3d 9d 21 b3 3d ae 27 86 3d 59 20 0c bd
       0.044144243 0.087466456 0.06550537 -0.034210537
000110 2d 3d 88 3e ac 3b 0c 3e 29 17 98 3b 24 54 9f bd
       0.26609173 0.13694638 0.004641433 -0.077797204
000120 ef 3e 64 3d cf 02 29 3e be 99 55 bd 92 d9 a4 3d
       0.05572408 0.16504978 -0.052148573 0.08049311
000130 a7 4b 2a 3d 05 fd 08 bd 0c 6c 1e be ce c5 62 be
       0.041576054 -0.033444423 -0.15470904 -0.22145769
000140 ce 30 ca bd 9c 96 99 3c 6b f4 24 3e 43 38 a0 3d
       -0.0987259 0.018748574 0.16108863 0.07823231
000150 a6 c3 3d 3d a6 9a 5c 3d 19 b5 fe b8 1e 30 0f 3d
       0.046329163 0.05385842 -0.00012145396 0.034957998
000160 a0 7f b0 3d 3a 17 a6 bc 48 43 00 bb db e3 8b 3b
       0.086180925 -0.020274747 -0.0019571353 0.004269106
000170 ce 41 03 be 48 86 51 3d 84 29 b9 bc 30 24 3a 3e
       -0.12818071 0.05115345 -0.022602804 0.18177867
000180 12 32 a0 bc f5 02 a0 3d 79 fa 94 3c 6a 4d 16 bd
       -0.019555125 0.07813064 0.01818584 -0.03669492
000190 a9 e5 db 3d dd 05 a0 3d a0 98 a1 3d ab 65 60 bc
       0.107371636 0.07813618 0.07890439 -0.0136961145
0001a0 ee 00 66 3d 20 5a 98 3d 5e 41 0f 3e 3a ca 31 3b
       0.05615323 0.07439065 0.1398978 0.0027128593
0001b0 38 8b 58 3c fd 42 d6 3c da 3f a0 bb d7 0e 74 bd
       0.013216786 0.02615499 -0.004890424 -0.059584465
0001c0 6a 3f 93 bb c3 61 bc 3b b7 75 48 3d 3e 23 8a bd
       -0.0044936435 0.005748959 0.048940387 -0.06745003
0001d0 a9 27 57 bc 00 7f 05 3e 6c b1 86 3e e7 6f a3 3d
       -0.013132014 0.13036728 0.26307237 0.07980328
0001e0 78 40 54 3e 17 36 cd 3d 1d 7b bb 3d b3 f8 0f 3d
       0.20727718 0.100200824 0.09154341 0.035149287
0001f0 8f 57 a9 3d 4d 9c 96 bc fd cf 8f 3d 5e 6f 19 3e
       0.082686536 -0.018385077 0.070220925 0.1498389
000200 3c 57 c1 3c b9 05 43 bd c0 d6 0a be 26 eb 88 ba
       0.023601167 -0.04761288 -0.13558483 -0.0010446056
000210 cb 73 a7 3b ed af 8c bc 4e 1f de 3c a4 9b ff 3d
       0.005110239 -0.017173732 0.027114537 0.12480858
000220 c9 25 5a bb 94 d0 8f bc 26 7f 01 3e cf 78 31 bc
       -0.0033286682 -0.017555512 0.1264616 -0.010832026
000230 33 17 32 3d 48 a2 4b be ec bb 7e 3c 44 d7 d6 bd
       0.043479156 -0.19886124 0.015547734 -0.104902774
000240 d9 a1 11 3e 3e f1 96 3c 78 7a bc 3b 0c 08 10 bd
       0.14221896 0.01842558 0.005751904 -0.035163924
000250 ef 30 64 3d 8d cd 4d bd 2c 9e 45 3d 54 48 2d be
       0.05571073 -0.050244857 0.048246548 -0.16922122
000260 9a 39 a0 3d 1f 7f 32 bd dc e9 3a 3c 44 67 9b bc
       0.078234866 -0.043578263 0.0114082955 -0.01897014
000270 15 1a 91 3e ce 02 be 3d ce 21 1e be 96 69 b8 3c
       0.28340212 0.09277879 -0.15442583 0.022511285
000280 e6 4f c9 3d 16 24 25 be 26 a4 1f 3d ac 3d 9f bd
       0.098296925 -0.16127047 0.038974904 -0.07775435
000290 d8 e9 ec 3d 95 58 1c 3d 9e 2c e7 3d 91 53 cc 3d
       0.1156804 0.038170416 0.11287807 0.099768765
0002a0 c0 0e 83 3c 8c dc f5 3c 59 5e 82 bc f8 41 3c 3d
       0.015998244 0.030012392 -0.01591413 0.04596135
0002b0 a8 43 d8 3d b4 52 cb 3d 3e 56 8f 3c b6 52 2a 3d
       0.105597794 0.09927884 0.017497178 0.041582786
0002c0 49 33 4f bd 9d 5e bd bd f1 67 10 bc 35 dc 04 3e
       -0.05058602 -0.09246562 -0.008813844 0.12974627
0002d0 d3 a8 0a 3c fb 11 c8 3c 8f 49 25 bd 42 a1 01 3d
       0.008463102 0.024422636 -0.040353354 0.031647928
0002e0 14 d8 88 bd e3 1c db 3d a9 95 8a 3d 68 0e 8f 3d
       -0.06681839 0.10698869 0.06766827 0.0698517
0002f0 2a 62 60 3d d7 c1 09 bc f4 dd b3 bd fe 0c 8c 3e
       0.054781117 -0.008408031 -0.087825686 0.27353662
000300 56 70 3b 3d ce 3b c9 bb 25 09 8a 3e 35 80 1c bd
       0.04576143 -0.0061411625 0.26960102 -0.038208205
000310 91 ea af 3e 29 8e 28 3d 2f ec e7 3c 37 ec 84 3d
       0.34358647 0.0411512 0.028310863 0.06490367
000320 06 de 78 3c 05 3a 66 bb 1d cf 20 3e 6a 26 9a 3d
       0.015189653 -0.0035129797 0.15704007 0.07526858
000330 d5 d5 53 3c 42 c7 88 be 6e ef f9 3c f9 2d b5 3d
       0.0129293995 -0.26714522 0.030509677 0.08846659
000340 01 63 9c bd ad 85 d3 3d
       -0.07636071 0.10328231

fc_layers.1.weight f4 [10, 210]
000000 34 33 aa 3e e9 99 d0 bd 3d 50 dd 3e c9 2d a3 3d
       0.3324219 -0.10185606 0.4322528 0.07967717
000010 e8 d5 96 bd cc db c4 be d3 57 0b be b8 83 2a be
       -0.07365018 -0.38448942 -0.13607721 -0.16651809
000020 27 db ae be d6 c3 3a be ef c1 53 be 6a b2 5b 3e
       -0.34151575 -0.18238768 -0.20679449 0.21454778
000030 7f 7f b0 bd 50 e5 58 3e 98 bf ab bd ec 24 22 3e
       -0.08618068 0.21181226 -0.08386153 0.15834397
000040 1e ca c6 3e dc f7 08 be 03 9a 9f 3e c4 8c 2e 3d
       0.38826078 -0.13375801 0.3117219 0.042614713
000050 01 84 ae be 90 d5 fa 3d 7c 47 d3 3e 2e 45 0a 3e
       -0.34085086 0.12247765 0.41265476 0.13502952
000060 25 0b 13 3e dd ed c4 3e 2e af 36 bc 81 34 70 3e
       0.1435972 0.38462725 -0.0111501645 0.23457529
000070 08 5c 2a bf 3c 3f 6c 3e e6 01 05 3f 41 13 a2 be
       -0.6654668 0.23070997 0.5195602 -0.31655315
000080 92 70 d4 3c 7d 81 2c 3d c0 d5 0a 3f 6d 81 72 3e
       0.025932584 0.042115677 0.54232407 0.23682185
000090 dc 14 15 bd 22 69 cf bc 2a 42 3a bc db 11 40 3e
       -0.036396846 -0.025318686 -0.011368314 0.18756811
0000a0 42 b6 1e be 6b 17 d6 3e 16 37 d4 be 5d b2 8f 3e
       -0.15499213 0.41814741 -0.41448277 0.28065768
0000b0 d0 ca 3b bd 29 40 d5 bd ab 55 21 be 80 6e 35 3f
       -0.045847714 -0.10412628 -0.15755336 0.70871735
0000c0 9c 1d e6 3a f1 d3 7b be 0a fe 29 3d dd 7d 20 be
       0.0017556432 -0.24592568 0.041502036 -0.15673013
0000d0 3e 43 01 3e d3 cb e6 3b 55 08 12 bf 39 63 71 3d
       0.12623307 0.0070433407 -0.57043964 0.058932517
0000e0 57 b2 d0 bd 3b ef 67 3d 0f 73 10 bf 9f 6a ed bc
       -0.101902656 0.056624632 -0.56425565 -0.028981505
0000f0 06 2a b4 bd 81 ed c6 3d ca bb 28 3e dd 25 44 bd
       -0.08797078 0.09713269 0.16477886 -0.04788767
000100 82 0b 9e 3d 8d 74 bc be 59 b5 4b be 50 cc af bd
       0.07717039 -0.3680767 -0.19893397 -0.085838914
000110 a6 fd 79 3d cb 6a ea 3c 2b 94 49 3e b0 0b 39 bd
       0.061032914 0.028615376 0.19685428 -0.04517716
000120 0a 38 09 3d 23 c2 73 bf 8f fe dc 3d b8 5e 5c 3e
       0.03350071 -0.95218104 0.10790741 0.21520507
000130 82 f8 24 be 67 2f 8c 3e a1 dc ab be ec ad 53 bf
       -0.16110423 0.27379915 -0.33566764 -0.8268726
000140 bd 1e c7 3e 6f 1a 8f be 61 94 af 3d 8e 20 b5 be
       0.3889064 -0.27949855 0.08573223 -0.353764
000150 31 e1 31 be b5 8e 35 3e d8 91 d2 be a8 28 57 be
       -0.1737106 0.1773022 -0.41126895 -0.21011603
000160 18 27 e6 3e 9f 2b 8d 3d d5 8f c5 be b2 a9 6c bd
       0.449517 0.06893086 -0.38586298 -0.05777902
000170 2d 97 85 3e 24 8b 29 3e a4 46 3f bb 84 6c 96 be
       0.260919 0.16556984 -0.0029186392 -0.29379666
000180 ab aa 90 be 16 b4 24 3e 6a fc 0e bf 6f 1c 9c 3e
       -0.2825521 0.16084322 -0.55853903 0.30490443
000190 0b 27 e7 bd 64 7d 61 bd 13 8c 44 3e 86 27 94 bd
       -0.11286744 -0.055051222 0.19194059 -0.07234101
0001a0 54 52 cd 3c f4 23 34 3d a2 ca 19 3f d4 9e e2 be
       0.025063671 0.0439796 0.6007482 -0.442618
0001b0 2c 01 4e be 4a a8 8e bd 60 7b a1 bc 8c d4 10 be
       -0.20117635 -0.06965692 -0.01971215 -0.1414358
0001c0 96 8b 64 3d 92 70 35 3d c4 c3 0b 3e 79 55 e0 bd
       0.055797182 0.04429681 0.13648897 -0.109538026
0001d0 1e 80 0b 3e b6 93 98 bb f8 21 b5 be 38 31 14 be
       0.13623092 -0.0046562804 -0.3537748 -0.144719
0001e0 69 33 87 bd 1a b9 0c bf 92 45 1c bf fd e5 40 bc
       -0.066016026 -0.5496994 -0.61043656 -0.0117735835
0001f0 a9 2a a7 bd b0 05 5a 3e 48 06 88 3d 38 a2 8b be
       -0.08162434 0.21291232 0.06641823 -0.272722
000200 18 0e f6 3d cb ac d4 3d 10 81 02 3c f9 d0 cc 3e
       0.12014407 0.1038452 0.007965341 0.40003183
000210 fb f6 8b bc 97 71 99 be 61 22 dc 3d f5 24 46 be
       -0.017085543 -0.29969475 0.10748745 -0.19350035
000220 c4 ec d0 3e bc 11 c0 bc 7e 98 a6 be 33 8c 04 3e
       0.40805638 -0.023445956 -0.32538217 0.12944107
000230 7c 9e 78 3e 41 b7 bf be f8 b2 66 be c2 2a 21 be
       0.24279207 -0.374445 -0.22529209 -0.15738967
000240 dd e0 64 bf a5 ec e6 3e 36 8f 32 3d da 5a 96 bb
       -0.89405614 0.4510242 0.043593608 -0.004588467
000250 21 24 d7 3c 35 1f 36 3e c3 df d6 be 6f 1c c4 3c
       0.026262345 0.17785342 -0.41967592 0.02393934
000260 e7 05 cd 3d 7a bf 8b bd db a1 e9 bd ae 6d 81 3d
       0.100108914 -0.06823631 -0.114078246 0.06319748
000270 6a f1 bf 3d e9 b3 70 be c4 cc 8b 3e e8 ce c4 be
       0.09372218 -0.2350613 0.2730466 -0.38439107
000280 5d f1 0b 3e d5 df 57 be 6c 21 42 3e 00 64 0a be
       0.13666292 -0.21081479 0.18958062 -0.1351471
000290 c6 10 b0 3e aa 9b 91 be 4a bf 12 bf 82 79 28 3e
       0.34387797 -0.28439075 -0.57323134 0.16452602
0002a0 c5 86 6c 3b 4d bb ba bb b2 38 8c 3e 13 fa f6 bd
       0.003609107 -0.0056985975 0.27387005 -0.120594166
0002b0 8c a7 87 3e e9 bd 7c 3d 71 6d 7b 3d 56 1f 0b be
       0.26495016 0.06170455 0.06138367 -0.13586172
0002c0 5a f5 f0 3e 89 e3 06 be dd 8b 4d be 1f a5 39 be
       0.47062188 -0.13172735 -0.20072885 -0.18129395
0002d0 41 db 8f bd f0 ad 04 3c b8 91 a3 3c b9 3c 88 3e
       -0.07024241 0.008098111 0.019966945 0.26608828
0002e0 5a bb 91 be c3 3d 8b 3e f2 60 c7 bd d2 2e 01 bf
       -0.2846325 0.27195558 -0.09735288 -0.5046207
0002f0 eb 89 e8 3d 16 da 04 3f 8d bb 0d bd f5 92 bd bd
       0.11354431 0.5189527 -0.03460269 -0.092565455
000300 42 30 fa be 93 10 a2 3d 02 81 1f 3d 74 3a ef 3c
       -0.48864943 0.079133175 0.03894139 0.029202677
000310 49 27 78 3e 3b ea c6 be 5b 68 28 3e d3 3c eb bd
       0.24233736 -0.3885058 0.16446058 -0.11486211
000320 65 66 a0 bd 28 39 fc bd 37 25 73 3e 0e 57 4c bd
       -0.0783203 -0.12315589 0.23744665 -0.04988771
000330 ee 36 9a 3d b8 d0 27 3e 28 1f a9 3e f5 57 bc bd
       0.07530008 0.16388214 0.33031583 -0.09196464
000340 50 16 7c 3e c1 a8 13 3d 70 7b 77 bd fb cc 6e 3d
       0.24617887 0.03604961 -0.060420454 0.058300953
000350 d9 a3 b0 bd c9 62 3a 3e 9a c1 b4 3e f7 c4 90 bc
       -0.086250015 0.18201746 0.35303956 -0.017672045
000360 16 db 05 3f ba 02 14 3e c5 f4 24 3e d2 e9 f5 3d
       0.52287424 0.14454165 0.16108997 0.12007488
000370 da d0 1d be 66 17 c1 be 17 31 a3 3e cd fa 32 be
       -0.15411702 -0.37713164 0.3187339 -0.17478485
000380 fc 7e 33 be ba 9a 3e be 0c dc 1e 3f ef e3 93 3e
       -0.1752891 -0.18613711 0.62054515 0.28884837
000390 1d 1c b8 be 6a 8d 8e 3e 92 95 ba 3e 94 b5 c7 3b
       -0.3595895 0.27842265 0.36442238 0.006094644
0003a0 a0 b6 af 3e 3b f0 91 bd bc 30 9c be 12 87 11 bf
       0.3431902 -0.071258985 -0.3050593 -0.56846726
0003b0 26 86 3b 3d 1f 79 b7 be 25 88 56 3e fc 6b a4 be
       0.04578223 -0.35834596 0.20950373 -0.32113636
0003c0 c9 cf 58 bd 1a 70 e8 be d0 25 af bd 43 bf b4 be
       -0.052932534 -0.45398027 -0.08552134 -0.3530217
0003d0 4e 25 37 3d 6e e3 29 3e 06 2f a8 be b0 78 03 3d
       0.04471331 0.16590664 -0.32848376 0.03209752
0003e0 12 c0 ca bc 35 be 13 bd 42 f9 b0 bc ef 82 20 bf
       -0.02474979 -0.036070067 -0.02160323 -0.6269979
0003f0 b5 1e 82 3e a7 a0 c4 3d b6 00 cf 3e ee b9 1a 3f
       0.25414053 0.096009545 0.4043023 0.60439956

fc_layers.1.bias f4 [10]
000000 9d 46 6d be 55 1b 7f 3d cd e5 27 3c a6 00 06 be
       -0.23171468 0.062281925 0.01024766 -0.13086185
000010 32 b2 26 3e 8c 4b a6 3e 40 94 74 bd 98 26 ea bd
       0.16278914 0.32479513 -0.059711695 -0.114331424
000020 b2 b9 00 3e 89 71 41 bd
       0.12570837 -0.047227416
