Lab1/model/model_mnist/MLP130.pth (torch, 97416 bytes, 4 tensors)

fc_layers.0.weight f4 [30, 784]
-0.024290677 0.027057385 0.0058006095 0.017805858 -0.004011167 0.02968841 0.011033753 -0.014936733
-0.0056187557 -0.0018271847 -0.008889565 -0.008863101 0.0050005 0.028144894 0.007842009 0.01709237
0.0052519613 -0.0074569248 0.00519526 -0.008278149 0.021238158 0.025917983 -0.03534188 0.010646275
0.032789793 0.018359764 0.011064769 0.0053289193 -0.016300641 0.026815731 -0.026790293 0.033878215
-0.003163095 -0.03169352 -0.013247933 0.026471721 -0.023319036 -0.015297797 0.0031516105 -0.0049989712
0.020970644 -0.0015933072 0.029363627 0.026088187 0.037952684 0.05207481 0.035665147 -0.034989968
0.0022329416 0.036409885 -0.026018288 -0.012650597 -0.017201453 0.0002775959 -0.021674953 0.024018886
-0.03008244 -0.013818252 0.035430364 0.028493278 -0.02703873 0.027943302 -0.022653602 -0.027267458
0.018354649 -0.030394988 0.022597095 -0.0004224738 -0.0015764344 -0.03394962 -0.03357681 -0.0348545
-0.00514181 -0.047310386 -0.044555087 0.012367055 -0.042155985 -0.020238183 0.024332969 -0.012209035
0.031466246 -0.023436809 0.02988457 -0.020144194 0.020119531 -0.015444679 0.030680424 0.029483799
-0.00847021 0.008924259 0.021893298 0.0066573443 -0.022759702 -0.035178192 -0.056441855 -0.016560815
-0.033990443 -0.068568334 -0.118353345 -0.10997592 -0.09583787 0.025875147 0.055216078 0.08947896
0.10587722 0.04547181 -0.0044510467 -0.022756904 0.013229255 -0.0030780812 0.013375496 0.03244112
0.020903742 -0.01501604 -0.025712458 0.013839468 0.023045845 -6.904631e-05 -0.02750629 -0.05521834
-0.06598689 -0.12167536 -0.16519526 -0.08641906 -0.17152411 -0.18404394 -0.12751509 -0.10503972
-0.06493484 0.04241892 0.050310068 -0.0005529819 -0.007646549 0.021860434 -0.0017819564 -0.02415637
0.0429564 -0.0017053047 -0.037639547 0.012709667 0.022655735 -0.009678918 0.01734491 0.006948756
-0.036712084 -0.026169097 -0.06810814 -0.06846507 -0.1358534 -0.12467226 -0.13545126 -0.056976587
-0.14569287 -0.0155220395 -0.09859926 -0.070945635 -0.0604991 -0.12988828 -0.18876654 -0.2245899
-0.13226129 -0.08883462 -0.1088401 -0.116825275 -0.049839947 -0.0046530375 -0.021877127 0.022991266
0.014617575 -0.006711424 -0.026096566 -0.014604911 -0.019156203 0.043155152 0.066398986 -0.038733266
-0.061586276 -0.07760331 -0.005484376 -0.047300883 -0.09756074 -0.15553515 -0.18388434 -0.3506443
-0.48962805 -0.33827138 -0.21051368 -0.18929796 -0.103526816 0.102619916 0.12614223 -0.067081794
0.011064362 -0.02467952 0.009334606 0.02519898 0.014847386 -0.02469248 0.008639941 -0.02539001
-0.039305203 -0.0024481937 0.031879485 0.009272983 -0.06819435 0.09825606 0.13700671 -0.03164082
0.03439151 -0.019610187 0.0039597168 0.05833544 0.029985225 0.10344509 0.19859006 0.0072592637
0.1685117 0.1436597 0.22432663 0.1677206 0.0139028765 0.035131805 -0.0007549932 0.030393716
0.019337427 -0.015901674 -0.013056385 -0.04469505 -0.11374633 -0.0095649455 0.085252225 0.050288655
0.10598357 0.11031044 0.0077275974 -0.04519326 0.25343457 0.13044934 0.32158798 0.46972132
0.51061004 0.3414328 0.47818014 0.2380814 0.31407222 0.27320918 0.26064792 0.3252806
0.24400003 0.047034614 0.0070214835 -0.021381998 0.023988286 -0.005563908 0.007499236 -0.02656752
00000000: 3efd c6bc 73a7 dd3c 0a13 be3b 97dd 913c
00000010: 1c70 83bb 1c35 f33c eac6 343c 33b9 74bc
00000020: 8a1d b8bb 257e efba 8aa5 11bc 8a36 11bc
00000030: 3cdb a33b 1f90 e63c c57b 003c 4c05 8c3c
00000040: a518 ac3b 3859 f4bb 003d aa3b 13a1 07bc
00000050: a5fb ad3c f351 d43c a6c2 10bd b76d 2e3c
00000060: 974e 063d 3767 963c 0149 353c 379e ae3b
00000070: ec88 85bc aaac db3c 5177 dbbc e2c3 0a3d
00000080: ee4b 4fbb 10d1 01bd dc0d 59bc 39db d83c
00000090: 9007 bfbc 9ca3 7abc 408b 4e3b 69ce a3bb
000000a0: a1ca ab3c 85d6 d0ba fd8b f03c e5b6 d53c
000000b0: 4674 1b3d 654c 553d 9e15 123d a451 0fbd
000000c0: 8b56 123b 8822 153d 4e24 d5bc 7344 4fbc
000000d0: 10ea 8cbc 4a8a 9139 ac8f b1bc 41c3 c43c
000000e0: 736f f6bc f365 62bc 6e1f 113d bc6a e93c
000000f0: 5480 ddbc 5ae9 e43c 0c94 b9bc 0160 dfbc
00000100: 7d5c 963c e9fe f8bc 8b1d b93c 797f ddb9
00000110: 5ca0 ceba c20e 0bbd d687 09bd 98c3 0ebd
00000120: a17c a8bb 89c8 41bd 657f 36bd 309f 4a3c
00000130: c1ab 2cbd 8cca a5bc ef55 c73c 6808 48bc
00000140: c0e2 003d 8dfe bfbc 7cd0 f43c 7005 a5bc
00000150: b7d1 a43c ae0b 7dbc 8355 fb3c 0288 f13c
00000160: a3c6 0abc 0e37 123c 9359 b33c da25 da3b
00000170: 8e72 babc 0217 10bd 932f 67bd 8caa 87bc
00000180: 9039 0bbd 8e6d 8cbd 3d63 f2bd 0e3b e1bd
00000190: a546 c4bd 1ef8 d33c 412a 623d bf40 b73d
000001a0: 28d6 d83d a640 3a3d 16da 91bb b06c babc
000001b0: 84bf 583c a2b9 49bb e524 5b3c fbe0 043d
000001c0: 533e ab3c d605 76bc efa2 d2bc f0be 623c
000001d0: a4ca bc3c f5cc 90b8 df54 e1bc a02c 62bd
000001e0: 2224 87bd ee30 f9bd f228 29be 7afc b0bd
000001f0: 04a4 2fbe 0476 3cbe 5193 02be 111f d7bd
00000200: 8ffc 84bd 76bf 2d3d ee11 4e3d fdf5 10ba
00000210: e78f fabb a714 b33c 8990 e9ba 94e3 c5bc
00000220: 0df3 2f3d 8884 dfba ed2b 1abd 353c 503c
00000230: 8598 b93c 5394 1ebc ea16 8e3c 64b2 e33b
00000240: 695f 16bd 9360 d6bc 487c 8bbd 6a37 8cbd
00000250: 271d 0bbe 2b54 ffbd bcb3 0abe 4860 69bd
00000260: 8330 15be 2750 7ebc 69ee c9bd f24b 91bd
00000270: e7cd 77bd 6f01 05be 044c 41be e5fa 65be
00000280: 816f 07be edee b5bd 8fe7 debd 1742 efbd
00000290: f924 4cbd 8278 98bb a937 b3bc 2e58 bc3c
000002a0: 8e7e 6f3c 81eb dbbb 77c8 d5bc 7049 6fbc
000002b0: 78ed 9cbc 75c3 303d 31fc 873d c6a6 1ebd
000002c0: e441 7cbd 7cee 9ebd 48b6 b3bb 92be 41bd
000002d0: edcd c7bd 9b44 1fbe 2d4c 3cbe a687 b3be
000002e0: 87b0 fabe e831 adbe e690 57be 53d7 41be
000002f0: de05 d4bd 642a d23d 6e2b 013e 2e62 89bd
00000300: 4c47 353c b42c cabc 2df0 183c 176e ce3c
00000310: 7342 733c e247 cabc 8a8e 0d3c b6fe cfbc
00000320: 7efe 20bd e071 20bb 1094 023d b6ed 173c
00000330: 7ba9 8bbd 793a c93d 7d4b 0c3e ce99 01bd
00000340: 1dde 0c3d 8ba5 a0bc 83c0 813b 24f1 6e3d
00000350: 93a3 f53c 05db d33d 315b 4b3e 1edf ed3b
00000360: 558e 2c3e 871b 133e e1b5 653e f3be 2b3e
00000370: e4c8 633c 5ee6 0f3d bcea 45ba 3efc f83c
00000380: 8669 9e3c 3a44 82bc 73ea 55bc 2812 37bd
00000390: d6f3 e8bd 4ab6 1cbc b898 ae3d 7afb 4d3d
000003a0: ea0d d93d 71ea e13d c937 fd3b 911c 39bd
000003b0: 2dc2 813e 8394 053e 2ea7 a43e 507f f03e
000003c0: 57b7 023f 48d0 ae3e 07d4 f43e 9ccb 733e
000003d0: 13ce a03e 13e2 8b3e a573 853e 2e8b a63e
000003e0: 25db 793e 5ea7 403d 7914 e63b 4d29 afbc
000003f0: 1583 c43c 7151 b6bb 27bc f53b 21a4 d9bc

fc_layers.0.bias f4 [30]
0.27007097 -0.1320928 0.10845253 -0.09547265 0.053601123 -0.022434365 0.048122466 -0.16624333
-0.10787043 -0.31186762 0.36625874 0.16806075 0.08519693 0.26893064 0.14115697 0.12591861
-0.12133281 -0.21793333 0.82998836 0.17253034 -0.12052783 -0.11914209 0.07919752 0.17913055
0.20697251 0.2650314 -0.28053156 0.3189127 0.18241337 0.3021447
00000000: be46 8a3e 5643 07be 5c1c de3d 2a87 c3bd
00000010: da8c 5b3d 46c8 b7bc 101c 453d b13b 2abe
00000020: 2ceb dcbd 1dad 9fbe 4486 bb3e 1e18 2c3e
00000030: ba7b ae3d 47b1 893e 748b 103e cff0 003e
00000040: 567d f8bd ea29 5fbe 1e7a 543f cbab 303e
00000050: 4cd7 f6bd c500 f4bd 4f32 a23d 006e 373e
00000060: 9af0 533e 32b2 873e d5a1 8fbe 8748 a33e
00000070: 92ca 3a3e b6b2 9a3e

fc_layers.1.weight f4 [10, 30]
0.588024 -0.62471354 -0.94382083 -0.7525209 -0.34955907 -0.061316617 0.25931618 -0.8618377
0.5132325 0.565851 -0.022318508 -0.62513936 -0.7294716 0.29899555 -1.2533237 -0.16602966
-0.50469744 -0.3810294 -0.47398895 0.011466049 -0.15285967 0.5518983 0.6030984 0.8359345
0.40919042 1.1115564 0.08073321 -0.5763423 0.65142775 -0.39794764 -0.62134963 -0.26264408
-0.1767263 1.250119 0.65262914 -0.33447945 -0.67694795 -0.11281612 -0.79016006 0.022543257
0.33890137 -0.2741292 -0.0058168042 0.5971964 -0.36169094 0.22263263 1.1745685 1.3331538
0.50020987 -0.7159784 -0.7767704 -1.7527875 -0.2440027 0.112519614 1.1974119 -0.6252224
1.040101 -0.26405817 -0.5388433 -0.09421947 -0.56236094 0.5400266 1.4647449 1.0929452
0.35316408 -1.1434034 -0.10987138 -0.82428545 0.2167559 -1.3230678 0.6115397 0.5390424
-0.22378328 0.7669764 -0.17164402 -0.080162264 -0.27925646 0.086286746 -1.5222671 0.8960119
0.65571845 -0.18130715 -1.455201 1.0199703 0.050152473 0.4928115 0.14636698 -0.13266477
1.0941633 -0.6745215 -0.35265347 1.0870118 1.42097 0.15225129 -1.5145141 1.0143905
0.31144556 0.9099261 -0.6705596 0.29431972 0.26022807 -0.4207947 0.8114603 -0.5920414
1.7568506 -1.0046854 0.16429508 0.476232 -1.2688335 0.31394082 -0.2680835 -0.30751505
0.31419462 0.5874807 -0.27359316 -0.79753613 0.1418215 -0.79367393 -0.26357588 0.5944871
-1.6373531 0.03081515 -0.72347707 -0.8340594 1.023264 -1.0248381 0.01341754 0.6754589
0.92803085 0.2956117 -1.052126 1.0406628 0.51537806 0.21118441 0.25498158 0.5999521
-1.5603888 0.84063774 0.470606 -0.80094135 -1.2017511 -0.49639177 -0.5112164 -1.3893477
0.84284836 -0.06727128 0.8231908 0.9794401 -0.51813245 0.8311606 1.044522 1.1367812
0.32093766 -0.43327639 -0.85816866 0.72888 0.36395955 1.3915387 -0.107922226 -0.5561244
0.39279267 0.70558393 -0.42967102 -1.6909424 0.12536076 -0.30823252 1.3834518 -1.6628343
1.1280413 0.10653945 -0.40509456 0.3315486 0.49670362 -0.18102375 -1.8449341 -0.442223
-0.15695767 0.9616555 0.26654983 0.16917959 0.2363279 -0.07472444 -1.3087485 -0.29726297
-0.29503947 -0.3376062 -1.8240303 -1.036651 -0.000950541 0.8650522 0.9508571 0.6260177
-1.2792056 0.18724972 -0.0866348 1.231676 0.00061464007 -0.6426448 0.21839018 -1.0991378
0.39390594 0.7019484 0.56741977 -0.77277935 -0.46446753 0.24830656 0.5004993 -0.18619509
1.2979039 -0.4764483 0.41728202 -0.18149285 0.9965928 1.4696448 0.90629435 -0.19682315
0.4883889 -1.303101 -0.95966667 0.4875167 -1.576925 -0.978137 -0.028631566 0.4305792
-0.08167389 0.15105586 0.33186847 0.20603813 -0.19141407 1.2954714 -0.012016426 -0.18718372
0.72531813 0.68381315 0.9655341 -0.5759388 -0.15826887 -0.050750077 -0.23409918 0.87098265
0.09919849 0.20959102 -0.026687272 -0.42806274 -0.6591476 0.040224697 0.4203384 0.40838447
-0.10447214 0.07006185 0.9529479 -0.88455313 1.1197057 -0.6873541 0.35349113 0.61192054
00000000: be88 163f 3aed 1fbf 3e9e 71bf 36a5 40bf
00000010: 68f9 b2be 2227 7bbd 17c5 843e 65a1 5cbf
00000020: 3563 033f 9cdb 103f 4ed5 b6bc 2209 20bf
00000030: a7be 3abf f215 993e e96c a0bf ae03 2abe
00000040: da33 01bf 4916 c3be aeae f2be 18dc 3b3c
00000050: 3f87 1cbe 3549 0d3f a864 1a3f ceff 553f
00000060: 6881 d13e 7b47 8e3f 7457 a53d 2b8b 13bf
00000070: f8c3 263f cbbf cbbe c510 1fbf 4979 86be
00000080: bdf7 34be e603 a03f b412 273f e440 abbe
00000090: 764c 2dbf 230c e7bd ee47 4abf a3ac b83c
000000a0: 7b84 ad3e aa5a 8cbe e49a bebb dde1 183f
000000b0: 8e2f b9be cff9 633e 4358 963f c9a4 aa3f
000000c0: c10d 003f 5c4a 37bf 6dda 46bf 575b e0bf
000000d0: d8db 79be af70 e63d cb44 993f 930e 20bf
000000e0: 0822 853f a232 87be a2f1 09bf 23f6 c0bd
000000f0: e3f6 0fbf 2f3f 0a3f c37c bb3f a1e5 8b3f
00000100: ecd1 b43e 0b5b 92bf 3f04 e1bd 5f04 53bf
00000110: 42f5 5d3e 495a a9bf de8d 1c3f affe 093f
00000120: 7227 65be 9158 443f 73c3 2fbe 1d2c a4bd
00000130: b4fa 8ebe 1bb7 b03d a6d9 c2bf 0961 653f
00000140: 2add 273f 95a8 39be 0744 babf 638e 823f
00000150: ae6c 4d3d ca51 fc3e 3ae1 153e 46d9 07be
00000160: 8b0d 8c3f 71ad 2cbf ff8e b4be 3423 8b3f
00000170: 58e2 b53f c3e7 1b3e 99db c1bf 8cd7 813f
00000180: cb75 9f3e ebf0 683f cba9 2bbf 13b1 963e
00000190: 9d3c 853e 6772 d7be ddbb 4f3f 0690 17bf
000001a0: 7be0 e03f 8899 80bf f83c 283e aed4 f33e
000001b0: 2369 a2bf dabc a03e 3e42 89be 9d72 9dbe
000001c0: 1ede a03e 2365 163f 6714 8cbe 542b 4cbf
000001d0: a839 113e 372e 4bbf 6bf3 86be 4e30 183f
000001e0: c994 d1bf 0e70 fc3c cb35 39bf eb84 55bf
000001f0: 51fa 823f e52d 83bf 3ed5 5b3c e0ea 2c3f
00000200: 6e93 6d3f 6b5a 973e 11ac 86bf 7034 853f
00000210: d1ef 033f ba40 583e f28c 823e 7696 193f
00000220: d2ba c7bf 0934 573f 45f3 f03e 7e0a 4dbf
00000230: fbd2 99bf 1027 febe 14df 02bf 25d6 b1bf
00000240: e9c4 573f 86c5 89bd a2bc 523f 96bc 7a3f
00000250: 54a4 04bf f1c6 543f e6b2 853f 0c82 913f
00000260: f151 a43e 67d6 ddbe f1b0 5bbf e197 3a3f
00000270: e858 ba3e f11d b23f 5406 ddbd 2b5e 0ebf
00000280: 1f1c c93e 26a1 343f d7fd dbbe cd70 d8bf
00000290: 925e 003e a7d0 9dbe f314 b13f c1d7 d4bf
000002a0: a863 903f 5b31 da3d 8e68 cfbe bdc0 a93e
000002b0: f04f fe3e 4a5e 39be cd26 ecbf 0e6b e2be
000002c0: 83b9 20be 0e2f 763f 3879 883e 6a3d 2d3e
000002d0: f1ff 713e 2109 99bd 1285 a7bf da32 98be
000002e0: 6a0f 97be b8da acbe d379 e9bf fbb0 84bf
000002f0: ba2d 79ba 1074 5d3f 5f6b 733f b242 203f
00000300: 02bd a3bf 64be 3f3e 966d b1bd 8fa7 9d3f
00000310: cc1f 213a 5f84 24bf ada1 5f3e 8cb0 8cbf
00000320: 0aae c93e e4b2 333f 6c42 113f ded4 45bf
00000330: b0ce edbe 1344 7e3e b920 003f eda9 3ebe
00000340: b721 a63f 08f1 f3be fda5 d53e 43d9 39be
00000350: b520 7f3f 521d bc3f e802 683f 028c 49be
00000360: 1c0e fa3e 03cc a6bf b7ac 75bf ca9b f93e
00000370: aed8 c9bf 3067 7abf bf8c eabc e074 dc3e
00000380: a444 a7bd 63ae 1a3e aaea a93e a9fb 523e
00000390: 0d02 44be 02d2 a53f 8be0 44bc 17ad 3fbe
000003a0: 73ae 393f 610e 2f3f 3e2d 773f ba70 13bf
000003b0: 3c11 22be 50df 4fbd b2b7 6fbe b8f8 5e3f
000003c0: 9428 cb3d 079f 563e 449f dabc 0a2b dbbe
000003d0: e6bd 28bf a7c2 243d 9836 d73e c517 d13e
000003e0: 7df5 d5bd 967c 8f3d 65f4 733f 1372 62bf
000003f0: 8452 8f3f 70f6 2fbf cafc b43e d3a6 1c3f

fc_layers.1.bias f4 [10]
-0.3784079 0.17376477 -0.06253853 -0.2364104 -0.0037312226 0.5012262 -0.23862146 -0.21920472
0.1342438 0.17755774
00000000: aebe c1be 64ef 313e 3314 80bd 9115 72be
00000010: 8787 74bb 5c50 003f 2f59 74be 3477 60be
00000020: 3577 093e b2d1 353e
