Lab1/model/model_mnist/MLP1300.pth (torch, 956048 bytes, 4 tensors)

fc_layers.0.weight f4 [300, 784]
-0.007331487 -0.0031603235 -0.010430609 0.024673408 -0.03471936 -0.0016446753 0.013273363 0.010184458
-0.01581474 -0.03558995 -0.0046720505 -0.003351795 0.010744213 0.0030458162 -0.008087123 0.021407837
0.01941342 -0.010378122 0.023248376 -0.023227943 0.009819193 0.009491372 -0.022928167 0.023622187
0.03278797 0.021838555 0.0072946637 -0.02384031 -0.026391244 -0.018948905 0.035227843 0.0021257913
0.006656382 0.01519464 0.00076249806 0.01917486 0.021291962 0.035524406 0.008306914 0.025846416
0.0018173585 0.0024059275 -0.018763244 -0.03125864 -0.019786377 0.0014237654 -0.02317113 0.00023697186
-0.010471876 -0.01150076 -0.011468672 -0.03557952 -0.03499195 -0.0054268925 0.0051135337 -0.016545454
0.021584626 -0.011276225 0.02658421 0.021764973 0.02334586 0.015187632 -0.008674215 0.032614097
-0.01653905 -0.021334946 0.035585567 0.017501513 -0.028428061 -0.0049732877 -0.024628859 0.012642594
-0.006590647 -0.028792357 0.0020374511 -0.045762256 0.014793333 -0.032906625 -0.043692287 0.0132533
0.008055218 0.028222227 0.021922786 0.0154171 0.028305247 0.0319702 0.0271397 0.020685825
0.009778103 -0.019315436 0.0018537993 0.015967883 0.02544969 -0.0031531984 0.045087878 0.007019787
0.038032096 0.016926527 -0.012975014 0.015810458 0.0011665499 -0.005174438 0.03565064 -0.0011561277
0.03861307 0.02100083 0.0018716222 -0.0030565786 -0.037165496 -0.014091138 0.012934254 0.008952631
-0.006030858 -0.0144984 -0.0008084332 0.027502533 0.029008616 -0.010593068 -0.023148317 0.040557068
-0.015482917 -0.009153511 -0.014652639 0.008075757 -0.035382047 -0.045893166 -0.05570706 -0.019519886
-0.026026113 0.01892631 0.051591825 0.044306528 0.02416276 0.01198465 0.022727389 -0.025922826
0.005778286 0.03568219 -0.014835101 -0.002043423 -0.016274905 0.03514994 -0.0059620654 0.024149308
-0.03133598 -0.02269045 -0.034571722 0.0047436967 0.0077639245 0.05796357 0.030793257 0.055092018
-0.009419547 -0.018175965 0.016028915 -0.04418026 0.04336771 0.010682257 -0.030230524 0.03222982
0.054804675 0.043120004 0.07565135 -0.026398351 0.019215591 0.0045184796 0.016255323 -0.0018361907
0.00076392724 -0.022681026 -0.032013766 -0.007486885 0.021705594 0.040019628 -0.012605478 0.029670974
0.061733127 0.08229404 0.16853532 0.12391946 0.120942086 0.104404494 0.037699066 0.056338772
0.04523125 0.0016931532 0.010794343 0.051508076 0.06576698 0.04977949 0.025257748 0.031439655
0.030208077 0.010105925 0.03578402 0.011917984 -0.01700443 -0.018674428 0.008334584 -0.011727392
-0.05526964 -0.0010176421 -0.01567119 0.04313668 0.072823465 0.0064678094 0.08821823 0.06417978
0.090853654 0.09310791 0.05143908 0.075359054 0.11480962 0.1704804 0.18039145 0.1665247
0.09760809 0.05332095 0.062984146 0.0815248 0.03485112 -0.00085169397 0.02486694 -0.04005244
0.030619234 -0.018990776 -0.019307267 0.01781575 -0.050055943 0.0026053467 -0.026761852 -0.0023412262
0.050864026 -0.0059712697 0.051179398 0.063904114 0.0988946 0.04130575 0.13728513 0.14434382
0.11989661 0.17010419 0.10824224 0.12428636 0.10848479 0.06363131 0.105269 0.11113873
0.043988034 0.042955674 0.02853975 -0.01496418 0.0051170792 -0.025418354 0.00791139 0.0005160802
00000000: f83c f0bb 6e1d 4fbb 25e5 2abc e31f ca3c
00000010: e335 0ebd 2592 d7ba 8578 593c b7dc 263c
00000020: ea8d 81bc c4c6 11bd 0018 99bb caa9 5bbb
00000030: 7f08 303c 519c 473b da7f 04bc 7d5f af3c
00000040: e508 9f3c 0009 2abc 6173 be3c 8748 bebc
00000050: aee0 203c b381 1b3c dad3 bbbc 5183 c13c
00000060: ae4c 063d c5e6 b23c 1308 ef3b c14c c3bc
00000070: 7332 d8bc bc3a 9bbc 124b 103d dc50 0b3b
00000080: c71d da3b f0f2 783c 61e2 473a 9914 9d3c
00000090: 7b6c ae3c 0a82 113d b919 083c ddbb d33c
000000a0: 6f34 ee3a c4ac 1d3b 60b5 99bc 0f09 00bd
000000b0: 0a17 a2bc a49d ba3a 62d1 bdbc a67b 7839
000000c0: 3b92 2bbc af6d 3cbc 19e7 3bbc d5bb 11bd
000000d0: b853 0fbd 13d4 b1bb 6e8f a73b 558a 87bc
000000e0: 3ed2 b03c eabf 38bc 21c7 d93c 754c b23c
000000f0: d13f bf3c 8cd5 783c 4b1e 0ebc 5c96 053d
00000100: e77c 87bc a0c6 aebc 2cc2 113d 555f 8f3c
00000110: f7e1 e8bc f6f6 a2bb 76c2 c9bc e222 4f3c
00000120: 5bf6 d7bb f3dd ebbc c286 053b 3471 3bbd
00000130: bc5f 723c 19c9 06bd aff6 32bd 5f24 593c
00000140: 08fa 033c 4d32 e73c 6a97 b33c 0198 7c3c
00000150: 68e0 e73c 2ff3 023d 1354 de3c 5275 a93c
00000160: 5634 203c 683b 9ebc 2ffb f23a 14cf 823c
00000170: de7b d03c e4a5 4ebb 11ae 383d 3e06 e63b
00000180: 8bc7 1b3d 80a9 8a3c 2795 54bc ef84 813c
00000190: ebe6 983a 558e a9bb 6806 123d 3589 97ba
000001a0: bd28 1e3d ef09 ac3c 3851 f53a e150 48bb
000001b0: d93a 18bd 84de 66bc 31ea 533c 0eae 123c
000001c0: 819e c5bb b28a 6dbc 09ed 53ba fe4c e13c
000001d0: 7aa3 ed3c 8c8e 2dbc 8aa1 bdbc 2b1f 263d
000001e0: 10ac 7dbc 9cf8 15bc 9f11 70bc 2e50 043c
000001f0: c4ec 10bd 79fa 3bbd 162d 64bd 2be8 9fbc
00000200: b734 d5bc 590b 9b3c f351 533d c37a 353d
00000210: fbf0 c53c 445b 443c ca2e ba3c 1b5c d4bc
00000220: c757 bd3b 7d27 123d ec0e 73bc f3ea 05bb
00000230: f352 85bc 62f9 0f3d 6e5d c3bb c5d4 c53c
00000240: 285a 00bd 53e1 b9bc 149b 0dbd 0371 9b3b
00000250: 8568 fe3b 356b 6d3d 2442 fc3c 2ba8 613d
00000260: 7254 1abc c3e5 94bc 124f 833c 5cf6 34bd
00000270: 57a2 313d a204 2f3c 01a6 f7bc 6a03 043d
00000280: de7a 603d 9a9e 303d 18ef 9a3d 5b41 d8bc
00000290: 046a 9d3c c10f 943b e229 853c 56ac f0ba
000002a0: 4a42 483a 8fcd b9bc de20 03bd 8b54 f5bb
000002b0: eecf b13c 9feb 233d 3587 4ebc 8b10 f33c
000002c0: e0db 7c3d c789 a83d 8694 2c3e 7cc9 fd3d
000002d0: 7cb0 f73d 06d2 d53d 566a 1a3d 7cc3 663d
000002e0: 6744 393d cbec dd3a c2da 303c 22fa 523d
000002f0: d7b0 863d 94e5 4b3d 56e9 ce3c dec6 003d
00000300: ee76 f73c 5293 253c 4492 123d a643 433c
00000310: e04c 8bbc 1dfb 98bc c78d 083c 3f24 40bc
00000320: 6b62 62bd 6762 85ba de60 80bc 16b0 303d
00000330: 7824 953d ebef d33b c2ab b43d b070 833d
00000340: 7b11 ba3d 5caf be3d c9b1 523d d955 9a3d
00000350: 4e21 eb3d 6a92 2e3e 89b8 383e 7385 2a3e
00000360: c0e6 c73d 1267 5a3d d5fd 803d 79f6 a63d
00000370: 0cc0 0e3d 3744 5fba c1b5 cb3c 070e 24bd
00000380: 30d5 fa3c 8b92 9bbc 462a 9ebc 56f2 913c
00000390: 7607 4dbd 77be 2a3b ac3b dbbc 426f 19bb
000003a0: cc56 503d a4aa c3bb 7da1 513d 29e0 823d
000003b0: 4189 ca3d 3830 293d 7994 0c3e dece 133e
000003c0: 5b8c f53d cb2f 2e3e 1cae dd3d d989 fe3d
000003d0: 462d de3d 2251 823d 4697 d73d b49c e33d
000003e0: cc2c 343d 4af2 2f3d 32cc e93c 522c 75bc
000003f0: 2cad a73b 273a d0bc c69e 013c 8e49 073a

fc_layers.0.bias f4 [300]
-0.14251289 0.09629736 0.029007519 0.032595642 0.042904038 0.053232197 -0.032754675 0.06953621
0.07593094 0.01819695 0.1491596 -0.0020878324 0.06822122 -0.008639031 0.057864673 -0.1189968
0.07660088 -0.014013943 0.044348214 0.04354751 0.31963366 0.051523864 0.14735937 0.03895903
0.011187621 -0.03182734 0.0044283736 -0.0142475525 -0.07003917 0.11250379 -0.008935847 0.0015096554
0.10824286 0.015486347 0.22527434 0.04076518 0.0040130545 -0.118849404 -0.011171534 0.0017551689
-0.15778054 0.014407219 0.20981574 0.10907185 -0.09830965 0.06803615 -0.13978542 -0.0113017
0.005510834 0.068537876 -0.13976711 -0.1519565 -0.094112925 0.0016826413 0.02273849 0.014245998
0.023620471 0.077289514 0.010181006 -0.055035084 0.05226613 0.003957176 0.0059233964 0.11567705
0.03898771 0.2368162 0.0038365808 0.09395407 -0.06401504 0.011578853 -0.06380852 0.078092724
-0.093827985 -0.012220944 -0.05683234 0.058911834 0.08129559 0.07520376 0.045218155 0.024221605
0.027446501 -0.037330676 0.036166556 0.08758694 0.11617966 0.016164538 0.018607162 0.0014261974
-0.004915809 0.062085476 0.0732587 0.04498551 0.05876031 0.027978998 -0.13037547 0.019601151
0.20929666 -0.068114564 0.112504475 0.11831793 -0.05402726 0.022356328 0.0014875765 -0.035161998
0.092387944 0.065605946 -0.011264543 0.1691882 -0.092409976 0.010040027 0.07467226 -0.00262171
0.010181504 0.015934847 0.04981336 -0.045078464 -0.017086675 0.1510292 0.003979573 0.027296698
0.01391377 -0.04831989 -0.016211363 -0.20472176 -0.021595538 -0.0058468995 -0.008565928 0.014420267
-0.08305454 -0.034785796 -0.072898984 0.0793172 0.12898424 -0.0259479 0.089612074 0.034269784
0.0046783993 -0.106842354 -0.019752488 0.016782759 -0.028426426 -0.123590894 0.14451882 0.11564581
-0.04295297 0.06234285 0.10892809 0.049680013 -0.15726729 0.0061386446 0.07139601 0.099510565
-0.029179543 -0.0048406124 0.0014447451 -0.058878798 0.07463627 -0.033586487 0.056401968 0.13895667
0.03102045 0.035296854 0.06155776 0.14650823 0.07758538 0.04797767 0.11796979 0.019454459
0.034421783 0.0040578377 0.06458905 0.21488065 0.07735383 0.08952493 0.08167824 0.2166114
-0.008099897 -0.05317859 0.055249553 -0.006494519 0.013892651 0.050374657 -0.06415128 0.002597325
0.0677633 0.10136402 0.08893021 0.023389835 -0.022755867 0.17007355 0.13223755 0.058924336
-0.013746503 0.07131695 -0.036743667 0.020585425 0.025675641 0.0076112277 -0.10299541 0.03884134
0.043107063 0.014871626 -0.010080722 0.010560216 -0.041277267 0.021008667 0.20561008 0.044801716
0.034011208 0.05645269 -0.012037894 0.08752626 0.11583712 0.057850964 -0.082759075 0.13411024
-0.08806165 0.046122167 -0.024740791 0.021264281 0.09638447 0.023390157 0.06528827 0.13951601
0.014830448 0.02624692 -0.002303632 -0.013009226 0.07784885 -0.027568024 -0.04917409 0.0641895
0.040711448 0.07723893 0.04992333 0.06540821 -0.04400293 0.0343726 0.027007714 0.052673697
-0.0780162 -0.037994612 0.06284037 -0.117155015 0.036491495 0.20420167 -0.052070096 -0.045225147
-0.033262804 0.08675754 -0.07141889 -0.107430965 0.07457848 -0.12220422 0.04570411 0.030905606
00000000: e6ee 11be 8d37 c53d 2da1 ed3c 0283 053d
00000010: 25bc 2f3d 010a 5a3d c429 06bd 0069 8e3d
00000020: ae81 9b3d c511 953c 4bbd 183e 04d4 08bb
00000030: 91b7 8b3d b98a 0dbc 8203 6d3d 98b4 f3bd
00000040: ece0 9c3d bd9a 65bc 79a6 353d e05e 323d
00000050: 06a7 a33e b00a 533d 60e5 163e 8193 1f3d
00000060: 494c 373c 635d 02bd e41b 913b 916e 69bc
00000070: b270 8fbd 6368 e63d a967 12bc a1df c53a
00000080: 6fae dd3d 72ba 7d3c 51ae 663e 64f9 263d
00000090: f17f 833b 5167 f3bd cf08 37bc b20d e63a
000000a0: 3991 21be 420c 6c3c f0d9 563e 1061 df3d
000000b0: 9256 c9bd 8956 8b3d e923 0fbe c42a 39bc
000000c0: 3a94 b43b 965d 8c3d 1c1f 0fbe 7c9a 1bbe
000000d0: 47be c0bd 138c dc3a 1246 ba3c 0c68 693c
000000e0: b87f c13c f749 9e3d 3cce 263c 786c 61bd
000000f0: 0215 563d 33ab 813b 0d19 c23b 17e8 ec3d
00000100: 94b1 1f3d f27f 723e 256f 7b3b fe6a c03d
00000110: 511a 83bd 3bb5 3d3c 0bae 82bd 14ef 9f3d
00000120: e328 c0bd 5b3a 48bc 07c9 68bd 894d 713d
00000130: 4d7e a63d 6e04 9a3d ac36 393d 636c c63c
00000140: 7cd7 e03c 0de8 18bd 6223 143d c860 b33d
00000150: 9aef ed3d 7e6b 843c 0c6e 983c 3eef ba3a
00000160: cb14 a1bb 574d 7e3d a808 963d ba42 383d
00000170: a7ae 703d 3634 e53c 2681 05be 9892 a03c
00000180: dd51 563e a67f 8bbd bf68 e63d ac50 f23d
00000190: b04b 5dbd 9e24 b73c c9fa c23a 0706 10bd
000001a0: e435 bd3d 695c 863d eb8e 38bc ac3f 2d3e
000001b0: 7141 bdbd ed7e 243c c5ed 983d ffd0 2bbb
000001c0: 53d0 263c cc89 823c 1809 4c3d 32a4 38bd
000001d0: 5bf9 8bbc 66a7 1a3e 1467 823b 539d df3c
000001e0: 95f6 633c 14eb 45bd b1cd 84bc 95a2 51be
000001f0: 20e9 b0bc 5997 bfbb 1b58 0cbc fc42 6c3c
00000200: 8018 aabd 8d7b 0ebd 104c 95bd 0e71 a23d
00000210: 7214 043e b190 d4bc 8986 b73d 795e 0c3d
00000220: 424d 993b 2ad0 dabd f8cf a1bc ff7b 893c
00000230: 89de e8bc 391d fdbd befc 133e b6d7 ec3d
00000240: 74ef 2fbd 375b 7f3d b115 df3d 457d 4b3d
00000250: ad0a 21be af26 c93b 1238 923d 32cc cb3d
00000260: f009 efbc 009e 9ebb 9a5d bd3a e52a 71bd
00000270: e7da 983d fc91 09bd c005 673d a84a 0e3e
00000280: 991e fe3c 6f93 103d fd23 7c3d 4106 163e
00000290: 15e5 9e3d 3c84 443d 259a f13d f55e 9f3c
000002a0: dbfd 0c3d 9cf7 843b 4447 843d ac09 5c3e
000002b0: af6b 9e3d d958 b73d ec46 a73d 61cf 5d3e
000002c0: 6eb5 04bc cbd1 59bd 5b4d 623d f9cf d4bb
000002d0: 009e 633c a855 4e3d bf61 83bd e237 2a3b
000002e0: 7cc7 8a3d f097 cf3d 0b21 b63d 0a9c bf3c
000002f0: 836a babc c327 2e3e 4869 073e a55a 713d
00000300: 0339 61bc 9f0e 923d 8780 16bd c4a2 a83c
00000310: b955 d23c 9b67 f93b 42ef d2bd 1918 1f3d
00000320: 0891 303d 1fa8 733c 9d29 25bc c204 2d3c
00000330: 5a12 29bd 5e1a ac3c 738b 523e 0182 373d
00000340: 564f 0b3d f03a 673d 963a 45bc f840 b33d
00000350: 033c ed3d 22f5 6c3d 977d a9bd 3254 093e
00000360: ab59 b4bd 99ea 3c3d 33ad cabc 6e32 ae3c
00000370: 3965 c53d b79c bf3c dbb5 853d 49dd 0e3e
00000380: 68fb 723c c803 d73c 88f8 16bb a624 55bc
00000390: 386f 9f3d 56d6 e1bc c56a 49bd c975 833d
000003a0: 0cc1 263d 722f 9e3d 687c 4c3d bdf4 853d
000003b0: 6b3c 34bd 49ca 0c3d 483f dd3c 60c0 573d
000003c0: f5c6 9fbd 3da0 1bbd 74b2 803d f8ee efbd
000003d0: 1b78 153d 3e1a 513e 7447 55bd 013e 39bd
000003e0: 943e 08bd f0ad b13d 1144 92bd c404 dcbd
000003f0: 9abc 983d 3546 fabd 3c34 3b3d c12d fd3c

fc_layers.1.weight f4 [10, 300]
-0.25734746 0.12606587 -0.014410417 -0.038186166 0.08381319 0.22496277 0.11911825 0.3250644
-0.507514 0.08970627 0.30557692 -0.31793723 -0.38528147 0.21330789 0.39500797 0.11817648
0.1921078 -0.20692529 0.1835734 -0.002196372 0.22620954 0.14002903 -0.08870831 0.00077806565
0.07669039 0.013183259 -0.27321276 -0.017695656 -0.21144703 -0.2901054 -0.16104035 0.113943495
0.56860626 0.06954283 -0.4592895 -0.38987797 0.08372298 0.14180152 -0.10526529 -0.09952721
-0.2893333 0.019129895 0.17661326 -0.43008852 -0.3075194 -0.32847542 -0.0751159 0.5168633
0.33519822 -0.00044454445 -0.21711275 0.30615744 0.4191499 0.0926864 -0.062014766 0.0837345
-0.1689385 -0.150611 -0.13477878 -0.15721539 -0.19653879 0.137601 -0.08663731 0.01012829
0.0026861061 -0.27411616 0.021193348 -0.31492803 0.045347206 0.095377825 0.042365685 0.01899837
-0.14706346 0.12561612 -0.0041080858 0.20656691 0.28172716 0.25376806 0.18823102 0.07755842
-0.068992294 0.11103589 -0.2823636 -0.2323096 0.030742217 -0.035789397 -0.27705625 0.29282874
-0.46207184 0.056230552 0.0892651 0.1621709 0.0035023347 -0.054181945 -0.3385475 -0.3336335
-0.558043 0.15064941 -0.39326873 0.14875327 0.053087648 0.10155111 -0.043163817 -0.18262912
-0.25648996 0.09539733 -0.056860138 -0.0034996497 0.18130818 0.0033682273 -0.2173883 0.09673764
-0.16291259 0.5778523 -0.05554442 0.15541211 -0.0184037 -0.08987527 -0.057993077 -0.06551089
-0.2968049 0.14127494 0.27245888 -0.13271879 0.009124364 0.10303682 0.09875832 -0.14751805
0.27930677 -0.071591645 -0.25706345 -0.39633524 -0.28050125 0.053562224 -0.11860043 0.017703803
-0.29935807 -0.08013479 0.17361644 -0.21266176 0.029926738 -0.11992729 0.3458696 -0.003775411
0.0430041 -0.022856347 -0.21346684 0.37484613 0.33133465 -0.17631605 0.2140562 -0.4816926
0.44767118 0.09124042 -0.06386215 -0.31323093 -0.21442737 0.26511815 0.08022699 -0.011738059
0.06246612 -0.414367 -0.004682594 0.31195238 0.085788086 -0.19930871 -0.5748053 -0.08445984
0.20163368 -0.027897635 0.19736911 -0.03492705 -0.1747203 0.04278868 -0.029435672 -0.058515165
0.2355563 0.21469125 -0.40176174 0.13803437 0.20330171 0.081850074 -0.48318613 -0.19632539
-0.16070113 -0.3160739 -0.36206847 0.1244562 0.117978826 -0.10204322 0.34721765 -0.35098127
-0.28338024 0.37891868 -0.34873223 -0.05160364 0.003899669 0.090476714 0.20295155 -0.09924075
-0.060228538 0.18016993 0.060475715 -0.078595944 -0.13509023 -0.07424039 0.118221104 -0.057194784
0.19203803 0.2767497 -0.2562425 -0.3078365 -0.34926003 -0.11318159 -0.14326173 0.052164514
-0.3288402 0.114692256 -0.6351206 -0.053844035 -0.08080484 0.04200708 0.50546557 -0.096714124
-0.024907023 0.22621761 -0.07240729 -0.10762121 -0.17956585 -0.016477797 0.13238108 0.3003107
-0.1763553 -0.22289737 -0.05305862 -0.23544216 -0.10944245 0.027171545 0.12524033 -0.16648462
0.12999798 0.04448727 0.3059137 0.36767495 -0.15508299 -0.29413563 -0.06815776 0.46498913
-0.33815086 -0.024830868 0.21255915 -0.08863531 -0.30670238 0.27447915 -0.3464124 0.31727555
00000000: 0cc3 83be 6917 013e ab19 6cbc 1969 1cbd
00000010: 40a6 ab3d a45c 663e 45f4 f33d d76e a63e
00000020: 70ec 01bf ecb7 b73d 9474 9c3e abc8 a2be
00000030: 9d43 c5be 626d 5a3e 7c3e ca3e 8306 f23d
00000040: e8b7 443e 39e4 53be aafa 3b3e 02f1 0fbb
00000050: 79a3 673e c563 0f3e b4ac b5bd 1af7 4b3a
00000060: da0f 9d3d 99fe 573c 8be2 8bbe 7bf6 90bc
00000070: 9285 58be b288 94be c3e7 24be 355b e93d
00000080: 2e90 113f 796c 8e3d fe27 ebbe 169e c7be
00000090: f476 ab3d 6b34 113e 5495 d7bd ecd4 cbbd
000000a0: 7f23 94be 4cb6 9c3c 1bda 343e 9034 dcbe
000000b0: 2f73 9dbe ee2d a8be 5dd6 99bd 2751 043f
000000c0: 1a9f ab3e bf11 e9b9 ce52 5ebe abc0 9c3e
000000d0: d19a d63e 5ed2 bd3d 3203 7ebd fe7c ab3d
000000e0: 37fe 2cbe c539 1abe 7303 0abe 12fd 20be
000000f0: 7741 49be 47e7 0c3e e76e b1bd 21f1 253c
00000100: 6209 303b f458 8cbe ac9d ad3c 3f3e a1be
00000110: febd 393d 7355 c33d a487 2d3d 78a2 9b3c
00000120: ce97 16be 83a1 003e 1f9d 86bb 4786 533e
00000130: 8b3e 903e e3ed 813e a2bf 403e f3d6 9e3d
00000140: d54b 8dbd c966 e33d f691 90be 91e2 6dbe
00000150: 1ad7 fb3c e797 12bd 51da 8dbe a6ed 953e
00000160: ae94 ecbe 0252 663d 9fd0 b63d 2110 263e
00000170: 6d87 653b e3ed 5dbd 1956 adbe 03d2 aabe
00000180: e8db 0ebf d743 1a3e 855a c9be c752 183e
00000190: 6f72 593d 07fa cf3d 8bcc 30bd 2103 3bbe
000001a0: a752 83be ad5f c33d 2de6 68bd 615a 65bb
000001b0: daa8 393e 7abd 5c3b 0a9b 5ebe 621e c63d
000001c0: 8fd2 26be 21ee 133f 8c82 63bd 5a24 1f3e
000001d0: 5bc3 96bc 8710 b8bd 268a 6dbd 932a 86bd
000001e0: d0f6 97be 61aa 103e bb7f 8b3e 6fe7 07be
000001f0: 5b7e 153c f804 d33d cd41 ca3d f90e 17be
00000200: 4c01 8f3e a49e 92bd d29d 83be 74ec cabe
00000210: dc9d 8fbe 1064 5b3d c8e4 f2bd 9107 913c
00000220: 7645 99be b51d a4bd 82c8 313e 01c4 59be
00000230: eb28 f53c 709c f5bd d215 b13e e36c 77bb
00000240: 1125 303d 3c3d bbbc 0d97 5abe d5eb bf3e
00000250: b2a4 a93e 328c 34be 8c31 5b3e 6aa0 f6be
00000260: 2835 e53e 42dc ba3d 29ca 82bd ce5f a0be
00000270: d992 5bbe 91bd 873e 0c4e a43d fd50 40bc
00000280: 79dc 7f3d e927 d4be 7270 99bb 39b8 9f3e
00000290: aab1 af3d 9517 4cbe 7126 13bf 48f9 acbd
000002a0: 0f79 4e3e 9589 e4bc 211b 4a3e ab0f 0fbd
000002b0: e1e9 32be 2f43 2f3d 1423 f1bc 99ad 6fbd
000002c0: ac35 713e 06d8 5b3e b7b3 cdbe e258 0d3e
000002d0: 532e 503e 03a1 a73d 2c64 f7be 8609 49be
000002e0: d68e 24be 70d4 a1be 0a61 b9be e4e2 fe3d
000002f0: e29e f13d 09fc d0bd 83c6 b13e d1b3 b3be
00000300: 3717 91be a101 c23e 088d b2be 575e 53bd
00000310: 9791 7f3b db4b b93d 88d2 4f3e bc3e cbbd
00000320: 33b2 76bd 777e 383e 62b5 773d e9f6 a0bd
00000330: 1855 0abe 580b 98bd e81d f23d 1445 6abd
00000340: 9ea5 443e 23b2 8d3e 3832 83be bf9c 9dbe
00000350: 36d2 b2be c0cb e7bd 34b3 12be 75aa 553d
00000360: be5d a8be c6e3 ea3d 4397 22bf 908b 5cbd
00000370: 027d a5bd 9e0f 2c3d 3166 013f 0e12 c6bd
00000380: d009 ccbc 97a5 673e 464a 94bd 8268 dcbd
00000390: 1ce0 37be 72fc 86bc e88e 073e 53c2 993e
000003a0: 7c96 34be 353f 64be ff53 59bd c017 71be
000003b0: 5d23 e0bd dc96 de3c 003f 003e f27a 2abe
000003c0: 311e 053e 4938 363d b8a0 9c3e e43f bc3e
000003d0: 13ce 1ebe f298 96be 4c96 8bbd 0e13 ee3e
000003e0: 1c22 adbe 1b6a cbbc 1ba9 593e 6e86 b5bd
000003f0: 1808 9dbe 8888 8c3e f75c b1be f171 a23e

fc_layers.1.bias f4 [10]
-0.27522397 0.026377413 -0.024275066 -0.21506728 0.16584103 0.22436605 -0.035427168 -0.15131484
0.16033301 -0.010001219
00000000: 28ea 8cbe 7215 d83c 81dc c6bc 993a 5cbe
00000010: 3bd2 293e 37c0 653e 141c 11bd 47f2 1abe
00000020: 562e 243e 27dc 23bc
