Lab1/model/model_CIFAR10_10iters/conv_params_c1_12.pth (torch, 263364 bytes, 10 tensors)

conv_layers.0.weight f4 [12, 3, 5, 5]
000000 51 7b 5d be 06 a4 a1 be ea 77 bb be 74 83 6e be
       -0.21629073 -0.31570452 -0.36614925 -0.23292333
000010 b2 e1 33 bc ef c6 16 3d b7 4b 27 be 51 07 fa bd
       -0.010979103 0.03681081 -0.16337477 -0.12208427
000020 a9 1d a8 3c b9 71 60 bb c1 5b 0b 3e 7f 59 00 3c
       0.020521956 -0.0034247471 0.1360922 0.0078338375
000030 a3 c5 54 bc 83 b4 21 3e 95 04 03 3e 42 9b 55 3e
       -0.012986573 0.15791516 0.12794717 0.20860007
000040 c4 a6 10 3d 5b 1d d4 3d 16 f5 9e 3e 41 22 9d 3e
       0.03531529 0.103571616 0.3104636 0.30690196
000050 06 c8 b3 3d 68 7d d8 3d 91 b6 93 3d d0 09 32 3e
       0.08778386 0.10570794 0.07212556 0.17386556
000060 69 ce 88 3d 0a a4 62 3e 0d 7f 75 3e 21 61 9b 3d
       0.066799946 0.22132888 0.23974247 0.07586885
000070 2e 0e 93 3d 65 42 33 3e 5e 64 21 3e 7e 21 16 3e
       0.07180439 0.17505796 0.15760943 0.14661214
000080 bc f4 0e bd d2 58 23 3e bf bc c1 3d d7 36 2b 3d
       -0.034901366 0.15951851 0.094598286 0.041800346
000090 83 36 d1 bd db c8 af bd 8d b1 93 3d 27 e9 8a bd
       -0.102154754 -0.08583232 0.072115995 -0.067827515
0000a0 d6 33 24 3e 2f dc 72 bd d9 1d 60 bc fe 86 73 3e
       0.16035399 -0.059292015 -0.013678991 0.23781964
0000b0 e5 15 26 3e 0e b3 34 3e 24 29 e2 3b a4 ee e3 3d
       0.1621929 0.17646429 0.006901877 0.111295015
0000c0 0f e8 2a 3e 8f f5 b6 3d ef 88 5b 3e 0b ee 95 3e
       0.16690086 0.08933555 0.21438955 0.29283175
0000d0 73 67 e5 3e c0 84 06 3f 8b 10 19 3f 11 d5 1c 3e
       0.44805488 0.5254631 0.5979087 0.15315653
0000e0 34 71 bc 3d 01 e1 2a bd e0 da a0 3e 54 24 71 3e
       0.09201279 -0.041718487 0.31416988 0.23549014
0000f0 e0 47 a2 be e8 c4 be be a5 6b a6 be 81 b3 73 bc
       -0.3169546 -0.37259603 -0.32504 -0.01487434
000100 46 7b b4 bc 24 b9 92 be 23 ea ae be 06 69 7c be
       -0.022031438 -0.28656876 -0.34163007 -0.24649438
000110 ea 3c fc bd 9e a8 dd bd d7 56 a9 be a7 ca c4 be
       -0.12316306 -0.10823177 -0.33074066 -0.3843586
000120 98 42 ad be f0 3d 93 bd 3e ac 07 be 6a 9b 29 be
       -0.3383987 -0.07189548 -0.13249299 -0.16563192
000130 5e 62 37 3e 02 c9 f0 3b db b4 2a 3e b7 94 0a 3d
       0.17908618 0.0073481807 0.16670553 0.03383323
000140 be 87 ac be fe bf 1e 3f 63 d8 0b bf 15 d8 8e 3e
       -0.33697313 0.62011707 -0.54627055 0.27899233
000150 46 20 7a 3c 6d 7e 34 be 6d b1 49 3f 04 0f b2 bf
       0.015266484 -0.17626353 0.78786355 -1.3910832
000160 3d e1 01 3f 24 62 94 3d 6c 66 0b 3d 47 3d 85 3f
       0.5073431 0.07245281 0.034033224 1.0409325
000170 97 36 ad bf 71 da 21 3f de 11 3c bd 38 98 37 3d
       -1.3532284 0.6322394 -0.045915477 0.0448229
000180 c8 96 e5 3e 49 4a 81 bf ba db bb 3e cf 6f c7 3d
       0.448416 -1.0100795 0.36691076 0.09738123
000190 44 e6 7b 3c 78 22 9c 3e 71 5f 11 bf c5 3f 86 bd
       0.015374724 0.30495048 -0.5678626 -0.06555132
0001a0 ee a3 c7 bd 03 b8 10 3e c4 3f 18 3f 6b c2 84 bf
       -0.09748064 0.14132695 0.594723 -1.0371832
0001b0 da 3f ba 3c c8 00 b4 bc dd 98 85 3e a9 71 74 3f
       0.022735525 -0.021973029 0.26093188 0.9548593
0001c0 11 8e c3 bf a9 e1 d1 3e 36 ac 08 3e 2d 44 9d 3e
       -1.527773 0.40992478 0.13346943 0.30716076
0001d0 b9 9d 7f 3f 13 6c d0 bf 9a 2d 52 3f 90 84 a0 3e
       0.9985004 -1.6282982 0.8210083 0.31351137
0001e0 17 f7 85 3e 5b e8 03 3f 3b fe ad bf 71 39 b7 3e
       0.26165077 0.5152642 -1.359321 0.35786012
0001f0 8b 6c 83 bd e7 53 d1 bc e7 59 68 3e 8a e8 89 be
       -0.06417187 -0.025552703 0.22690545 -0.26935226
000200 bd 23 75 3e 15 96 7d 3d 57 42 3e be f4 61 04 3f
       0.23939414 0.061910708 -0.18579994 0.51711965
000210 16 34 11 bf b9 ba d9 3e ec 7e 16 3d 01 e7 b4 be
       -0.567201 0.4252527 0.036742136 -0.35332492
000220 8d d0 54 3f 9d 74 98 bf 61 c6 44 3f 7b e8 3f bd
       0.83130723 -1.1910588 0.768652 -0.04685257
000230 a4 de cc bd 49 13 66 3f f1 46 a8 bf ce 09 72 3f
       -0.10003403 0.89873177 -1.314665 0.9454621
000240 fa 70 bd 3d f9 5c b5 be 4b 62 cc 3e e4 10 76 bf
       0.09250064 -0.35422495 0.39918742 -0.96119523
000250 f1 af 01 3f a5 3a d9 bd 48 9b 1e 3e c8 83 96 3e
       0.5065909 -0.10606889 0.15488923 0.29397416
000260 18 58 4c be 9c 5b e1 be 12 dd 85 3d ad bc bc 3d
       -0.1995548 -0.44015205 0.065363064 0.092156745
000270 69 46 f7 be 25 f5 7b bf 66 f3 a5 3d 8f 81 2c 3f
       -0.48295906 -0.98420936 0.08103065 0.6738519
000280 66 a6 b4 be 6b 9e 5b bf 91 71 05 3e e1 bb 8b 3f
       -0.35283202 -0.857886 0.13031603 1.0916711
000290 86 95 8b 3d 38 be 9c be f4 6d a6 3e b1 2c 82 3f
       0.06815629 -0.30613875 0.32505763 1.0169889
0002a0 35 ca ba 3e be b9 4a bf f6 e4 90 3e 55 9c 05 3f
       0.36482397 -0.7918967 0.28299683 0.5219167
0002b0 8f 58 8c 3d ac ec 13 bf 9a 1c 0d be 91 23 c9 3e
       0.06852829 -0.5778301 -0.13780442 0.39284948
0002c0 08 d3 cd 3e 76 61 ce 3a e0 48 df be a4 81 bb 3d
       0.40200067 0.0015745598 -0.43610287 0.09155586
0002d0 b6 f4 a4 3e 07 9a 97 be 20 ba 3f bf f9 15 7c bd
       0.3221795 -0.296097 -0.7489338 -0.061544392
0002e0 30 cf 07 3f 97 a1 7d be 53 5b 14 bf 0c 5c 26 3e
       0.5305052 -0.24768673 -0.5795185 0.1624605
0002f0 fc f2 67 3f eb b5 d2 bd fe f0 92 be 48 74 14 3e
       0.9060514 -0.10288604 -0.28699487 0.14497483
000300 c6 47 5f 3f 36 a1 0e 3e f4 59 3f bf 1e 24 db 3d
       0.8721889 0.13928685 -0.7474663 0.10700248
000310 d7 f8 80 3e 56 08 3a be 2b 23 4d bf 2c f7 29 bb
       0.2518985 -0.18167242 -0.8013179 -0.002593468
000320 89 c7 32 bb dc 8d 48 3e f6 9c 87 be 5e a3 e2 be
       -0.0027279577 0.19585365 -0.2648694 -0.44265264
000330 1c 12 ec 3c b8 d5 49 3e 4a dc 0b bf ec fc 6d bf
       0.028817229 0.19710433 -0.5463301 -0.92964053
000340 86 7a 9b 3d f9 aa c3 3e ef e0 59 be d2 25 3b bf
       0.07591729 0.3821638 -0.21277212 -0.73104584
000350 69 9b 96 bc 0c ed 48 3f e8 5b 2e 3e 6f c3 f3 be
       -0.018384652 0.78486705 0.17027247 -0.47610041
000360 09 0e 8e 3d 81 1d 68 3f 1c b7 a4 3e 1d 20 ba be
       0.06936271 0.9067002 0.3217095 -0.36352625
000370 ec 39 79 bc 35 cb b3 3e 31 b5 4f 3d f2 3b a6 be
       -0.015211564 0.35115972 0.050709907 -0.3246761
000380 74 bf 98 3e 2a 39 46 3e bb 75 28 3e e3 6c 70 3e
       0.29833567 0.19357744 0.1645116 0.23479037
000390 8a 24 39 bc ec 02 a4 be cc b9 92 3e de 74 8b 3e
       -0.0113002155 -0.3203348 0.28657377 0.272376
0003a0 57 e2 2d bd 9a de ce be d7 c3 29 be d2 b8 10 3f
       -0.042452183 -0.40404207 -0.16578613 0.56532013
0003b0 93 d1 00 3e 01 a0 af be 1d fc a7 be 31 a8 c5 bd
       0.12579946 -0.3430176 -0.32809535 -0.096512206
0003c0 af 56 b6 3e 6c d0 8b be a0 39 f2 be ef 3c 0e bd
       0.3561301 -0.2730745 -0.4730959 -0.03472608
0003d0 c2 a1 0a 3d e7 80 96 bd b5 83 94 be 21 4f 6c bd
       0.03384567 -0.07348805 -0.29006734 -0.05769265
0003e0 d8 dc 05 3e 27 09 77 bc f9 1c e9 bd 2d 6b cb 3b
       0.13072526 -0.015077866 -0.11382479 0.0062078447
0003f0 2f 66 15 3d aa c5 8b be 93 35 53 be ea 8c 14 3e
       0.036474403 -0.27299243 -0.20625906 0.1450688

conv_layers.0.bias f4 [12]
000000 c8 2b 05 bf 4b 03 ba be 24 e2 00 bf a3 61 5b bf
       -0.5201993 -0.36330637 -0.50345063 -0.85695857
000010 22 69 44 bf 85 8b 62 be 46 f0 22 bf 38 fb 1e bf
       -0.7672292 -0.22123535 -0.6364788 -0.6210208
000020 8d 57 4e bf 19 83 f4 be 95 d2 b6 3e a2 96 80 bf
       -0.8060234 -0.4775627 0.35707536 -1.004597

conv_layers.1.weight f4 [16, 12, 5, 5]
000000 47 ab 7b be d3 0d 48 be 46 d7 9b be f8 1b 1d be
       -0.24577056 -0.19536524 -0.30437678 -0.153427
000010 e9 11 8c bd 11 22 89 bd 9a 09 43 be 3f 20 1f be
       -0.068393536 -0.06695951 -0.19046631 -0.15539645
000020 17 bd 15 3d 7c b7 ea 3d 67 98 0f be 67 6b 9f be
       0.036557283 0.11460778 -0.1402298 -0.3113663
000030 65 c1 9d be 6a 70 33 be 44 97 00 bd 47 d3 c0 bd
       -0.3081161 -0.17523351 -0.03139426 -0.09415298
000040 a7 e9 da bd db 0b 27 be 10 02 3e bd 77 09 17 3e
       -0.10689097 -0.16313116 -0.046388686 0.14749704
000050 93 2c 04 bd 6d b9 86 bb 58 a8 cb bd 36 5e 01 bc
       -0.03226907 -0.00411146 -0.099442184 -0.007895997
000060 19 9e 2d 3d f1 50 2d 3e 4c 12 2b 3e f4 24 ab 3d
       0.0423871 0.16925408 0.16706198 0.083566576
000070 ce af 23 bd de 28 10 be a7 2f 45 3d 9f 73 c8 3d
       -0.039962582 -0.1407809 0.048141148 0.09787678
000080 49 d8 c0 3d fb aa 15 be c4 d1 52 bd 76 bd 35 3e
       0.09416253 -0.14616005 -0.05146958 0.17748055
000090 93 9f e5 3d 10 be c8 3e c5 a0 13 be 99 38 63 3d
       0.11212077 0.39207506 -0.14416797 0.055473898
0000a0 a8 21 3c 3e 2c b1 45 3e 7a 98 ba 3e 99 34 7e be
       0.18372214 0.19305867 0.36444455 -0.24824752
0000b0 b5 95 88 be c5 ff 59 3e 71 00 d7 3e d9 49 8b 3e
       -0.26676717 0.21288975 0.41992524 0.2720478
0000c0 ad 76 b7 3d 75 8d bf bc d3 37 14 be 87 44 1e ba
       0.089581825 -0.023382882 -0.1447442 -0.0006037433
0000d0 e4 3e 34 3e 0f 74 90 bc 85 d3 22 bd 64 4f 81 bd
       0.17602116 -0.017633466 -0.039752502 -0.06313971
0000e0 1d a1 4d 3e fc e0 09 3c 4e 8e 4e 3e df 77 17 be
       0.20080991 0.008415457 0.20171472 -0.14791821
0000f0 b4 cd 91 bd 70 09 a0 ba e6 5d e5 3d 4c e4 1e 3e
       -0.07119313 -0.0012209844 0.1119955 0.15516776
000100 81 fe 1e 3e b0 8d 84 be 8c ef 32 3a 55 1d d1 bd
       0.15526773 -0.2588935 0.00068258564 -0.10210673
000110 aa cf 12 be 8e cc ed 3d 4c 0e b1 3b ed fc 45 bc
       -0.1433703 0.11611281 0.0054033156 -0.012084228
000120 7c 13 08 3e a0 7e 72 be e2 45 ab bd 00 0d 3b 3d
       0.13288683 -0.23681116 -0.083629385 0.045666695
000130 c7 df c6 3d 31 b2 e5 bc da 37 a8 bd 06 84 c4 3c
       0.09710651 -0.02803907 -0.08213778 0.023988735
000140 70 48 59 3d 7a 14 e8 3d 0f 2b e7 3d a8 32 a7 3d
       0.053047597 0.113320306 0.1128751 0.08163959
000150 59 5e 89 3b c3 7b 59 3c 73 ff 67 bd 28 64 06 3e
       0.0041921553 0.013274136 -0.0566401 0.13124144
000160 c1 db f7 3d bb b6 98 bc 9e 35 0d 3a fd fa 09 be
       0.121024616 -0.01864182 0.0005386713 -0.1347465
000170 ac 35 80 3d fd 32 1b 3e 1b 1d c9 bd 56 5f 8f be
       0.06260237 0.15156169 -0.098200046 -0.28002423
000180 be b5 a2 be 76 9e 52 be 59 b6 44 be 44 30 df be
       -0.31779283 -0.2056826 -0.19210185 -0.4359151
000190 04 b0 a2 be 95 3c d2 be 80 69 08 be 90 42 9a 3d
       -0.31774914 -0.41061845 -0.13321495 0.07532227
0001a0 71 59 88 3e c4 a4 81 bd 32 f9 b6 be d2 06 8a be
       0.26630738 -0.06330255 -0.35736996 -0.26958328
0001b0 9c 60 11 3e 8d 2f 80 3e bb b7 34 be 7a 8c 93 be
       0.1419701 0.25036278 -0.17648213 -0.28818113
0001c0 9b f1 3f be a1 15 84 3d 17 c3 09 3e 30 8d e4 bd
       -0.18744509 0.06449438 0.13453327 -0.11159742
0001d0 b2 d5 b3 be 90 77 72 be 82 4e df 3d 4e 3e f6 3d
       -0.35123974 -0.23678422 0.10903646 0.120236024
0001e0 41 00 1e be 59 5f 72 be e6 ff f5 bd 87 37 f5 3b
       -0.15429784 -0.23669185 -0.120116994 0.007483426
0001f0 17 c1 a7 3c 7d 13 5b 3d d5 6b ea 3d 98 a9 c8 bd
       0.020477815 0.053485382 0.114463486 -0.097979724
000200 ea f7 0a be 0f 7a 11 be db 98 46 3d cb ec b7 3d
       -0.13571134 -0.14206718 0.048485618 0.089807115
000210 10 d4 58 bd 8a 26 73 bd 81 33 16 be ff 94 ba 3d
       -0.052936614 -0.059362926 -0.14668085 0.0911045
000220 e4 9a 24 3d dd 79 74 bd 59 c7 c9 bd 79 53 5d be
       0.040186778 -0.05968653 -0.09852476 -0.21613874
000230 37 7a 87 3c fd 6e f7 3d 4b 0c 0d be d2 3e 41 be
       0.016537769 0.12081716 -0.1377422 -0.1887162
000240 c5 f2 9c bd 77 f6 0c 3d 69 4c 9b 3c 69 fc d3 bd
       -0.07663492 0.034414735 0.018957334 -0.10350878
000250 69 d5 f7 bd b5 76 e0 bd 74 60 0c 3e 75 bc 1c 3c
       -0.12101252 -0.109601416 0.13708669 0.009566416
000260 ce ae 28 bd 80 59 b5 bd b3 92 ae bd fe 90 99 3c
       -0.04118233 -0.088549614 -0.085240744 0.018745895
000270 67 aa b1 3d 22 e7 f0 3d e4 af 38 bd fb a1 82 be
       0.0867508 0.11762835 -0.045089617 -0.25514206
000280 ea d0 34 be e7 b8 9e 3e 3b 11 27 bd 91 bd 03 be
       -0.1765782 0.31000444 -0.040787917 -0.12865283
000290 7c b2 13 be 50 a7 6f bc 3b 91 f1 3d ff 7b 0f bd
       -0.14423555 -0.014627293 0.11795279 -0.03503036
0002a0 65 88 a7 bd c7 45 0d bd c2 ed 22 3e 21 3e 3e 3e
       -0.08180312 -0.034490373 0.1591101 0.18578388
0002b0 72 8c 2e be a2 2f 04 be d7 92 48 be 39 ed 69 be
       -0.17045763 -0.12908795 -0.19587265 -0.228444
0002c0 14 dc 95 be 30 60 8a be 55 17 9e bd 1a 10 09 3d
       -0.2926947 -0.2702651 -0.07719294 0.03346262
0002d0 11 65 b1 bd 96 78 b8 be c5 47 b3 be 39 f9 ff 3b
       -0.08661855 -0.360295 -0.35015693 0.007811692
0002e0 c3 71 01 3e 05 c6 95 3d ec 29 a2 be d5 62 a8 be
       0.12641053 0.0731316 -0.3167261 -0.32887903
0002f0 14 66 c6 3d 17 bc b4 3e a6 bc 76 bd 85 f3 83 be
       0.096874386 0.3529975 -0.060238503 -0.25771728
000300 df cf 5a be 6e 28 86 3d 3a 7e d9 3d 67 43 39 be
       -0.21368359 0.0655068 0.10619779 -0.18092118
000310 7e 78 b8 be 74 dd 93 be 47 dc 00 be 7d d7 04 bc
       -0.36029428 -0.28879893 -0.12584029 -0.008108017
000320 39 35 6f 3d da f1 fa 3d a9 89 27 bd 28 a1 d5 bd
       0.058400366 0.12253161 -0.040902767 -0.10431129
000330 11 16 13 bd 01 be 8e bc b4 cc 2b bd 64 25 05 be
       -0.035909716 -0.017424585 -0.041943267 -0.13002545
000340 18 58 08 bc ae f9 55 3e e4 7b d6 bd 3b 3e 2d bd
       -0.008321784 0.20896026 -0.10472849 -0.042295676
000350 8c 2a 61 be 76 b9 d2 bd 46 e2 dc bd 97 bb 86 be
       -0.21988887 -0.1028928 -0.10785346 -0.26314995
000360 16 7f 26 be 4e e0 5d 3d b5 bd dd 3c 5f 23 93 bd
       -0.16259417 0.05416899 0.027067998 -0.07184481
000370 49 1b 49 be 60 8f 4a be 7d b6 c9 3c 27 0c c9 3b
       -0.19639315 -0.19781256 0.02462315 0.006135482
000380 f7 53 ab bc f1 f8 a3 be c2 60 34 3e b1 d6 a9 bd
       -0.020914061 -0.32025865 0.17615035 -0.08292902
000390 b5 29 d9 3d 35 16 05 be a2 3c 13 bd 9d 03 4a 3e
       0.10603658 -0.12996753 -0.035946496 0.19727941
0003a0 c8 b1 f6 3d 42 78 32 be 7c 87 49 be 60 af 02 be
       0.12045628 -0.17428687 -0.1968059 -0.12762213
0003b0 11 bb c1 bd f3 09 e7 3d 1c fc b0 3d 62 5a 90 be
       -0.09459508 0.112811945 0.08641836 -0.28193957
0003c0 57 75 74 bd 68 34 21 3e 20 6b cf 3e ca d0 d4 bd
       -0.059682216 0.15742648 0.40511417 -0.10391386
0003d0 aa b7 04 be 33 f2 40 bc f9 a8 e7 3d 8c 00 f3 3e
       -0.12960687 -0.011776495 0.11311526 0.47461355
0003e0 b4 56 47 3e a9 c1 44 be 85 fd 15 be 37 08 8c be
       0.19466668 -0.192145 -0.14647491 -0.27350017
0003f0 da 13 92 be 31 6e 84 bd a9 6a 95 bd d1 fa 8e 3d
       -0.2853077 -0.0646633 -0.072957344 0.06981433

conv_layers.1.bias f4 [16]
000000 4e ed cb 3f b2 4f 22 bf 9a d5 a7 3e 63 79 ae bf
       1.5931795 -0.63402855 0.32780153 -1.3630794
000010 31 da 05 be ac 86 c2 be 96 09 1e 3f e3 c8 70 3f
       -0.13071515 -0.3799337 0.61733377 0.9405653
000020 bd 96 d3 be 57 04 83 3e fb 83 2f 3f 24 d6 42 3f
       -0.41325942 0.2558925 0.6856076 0.76108
000030 f3 31 f5 be ca ed 07 40 db 1c ac be cf 03 12 be
       -0.4788967 2.1238885 -0.33615765 -0.14259265

fc_layers.0.weight f4 [120, 400]
000000 d5 bc 96 3d ab 76 03 3e ec 1b a9 bc 7d 26 20 3d
       0.073602356 0.12838237 -0.020643197 0.039099205
000010 b2 74 15 3d 49 b6 90 3c 4c e2 f4 3a 1e cb 38 3c
       0.036488242 0.017665045 0.0018683164 0.011278896
000020 27 95 c3 bd 7e 06 04 3e b7 b7 7a 3d 61 eb 89 bc
       -0.09549933 0.12893102 0.06121036 -0.01683587
000030 a2 b8 09 3d e3 cf c9 3c 25 9f b8 bd 52 c6 51 be
       0.033623345 0.02463526 -0.090147294 -0.2048581
000040 d3 d3 b3 bd 3c 0a 10 3d a1 21 fe 3b 53 de 99 bd
       -0.08780637 0.03516601 0.0077554737 -0.07513108
000050 d5 98 4b bc ca c1 a7 3d 4d ac e5 3d 3a 98 4b 3d
       -0.012426575 0.08191259 0.112145044 0.04970572
000060 8a 0b 6a 3d 11 b5 1e 3c f9 eb 9a bd d0 b7 72 3d
       0.05713991 0.009686724 -0.075645395 0.05925733
000070 46 bc 4b bd 0b 3d 60 bc fe b3 4e 3d 1d 07 83 3d
       -0.0497401 -0.013686429 0.050464623 0.06397841
000080 83 9a 43 3d 9f 1f 00 3d e2 7c 47 3e 70 42 0a 3e
       0.047754776 0.031280156 0.19481233 0.13501906
000090 5d 62 78 3d 9e f9 e2 bd ec 8b 4b be 96 1c b0 bc
       0.06064068 -0.11082767 -0.19877595 -0.021498006
0000a0 23 1b 0b 3d 70 71 09 be 09 a5 f8 bc 6e 61 07 3c
       0.033961426 -0.13422179 -0.030352132 0.008262975
0000b0 9f b1 07 be 84 2e 06 3e 00 44 e1 3d da af b2 3d
       -0.13251351 0.13103682 0.10999298 0.08724947
0000c0 13 0e 8e bd a5 45 8f bd 0d 23 ef bd 89 14 be 3b
       -0.06936278 -0.069957055 -0.11676607 0.005800788
0000d0 09 5b 37 3e 23 32 8c 3d 32 2c 51 bd 58 7b e5 3d
       0.17905821 0.068455 -0.05106754 0.112051666
0000e0 3f 0d 00 be 89 e5 a9 3b 6d c3 9b bd 9c f6 d1 bd
       -0.12505053 0.0051848334 -0.07605634 -0.10252115
0000f0 12 f4 4e bd 06 8c a3 bd a0 b2 af 3c ea 7a c6 3b
       -0.050525732 -0.07985692 0.02144748 0.006057133
000100 5a 6f ae bd 68 d0 a7 bd c4 eb 04 bd d1 f1 f5 bd
       -0.085173324 -0.08194047 -0.032451406 -0.120090134
000110 56 e1 f2 ba b3 dc ac 3c c1 a3 19 3e a1 65 ea bd
       -0.001853029 0.021101331 0.15003873 -0.114451654
000120 75 a4 16 bd 7e aa b2 bc b6 25 fc bc 40 0d 32 be
       -0.036777932 -0.021809813 -0.0307797 -0.17387867
000130 99 ec 57 bd d9 64 bc 3d 60 6d 98 3e 51 4c 55 3e
       -0.05271587 0.09198923 0.29770947 0.20829894
000140 b2 00 84 3a a6 10 89 bc ec a6 94 3d ec 72 ad 3d
       0.0010071008 -0.016731571 0.072584 0.08469185
000150 5f 00 cd bd 31 b3 8e be e1 e1 38 be db 00 93 bd
       -0.100098364 -0.27871087 -0.18054916 -0.071778975
000160 63 d0 9b bd b4 6b 22 be 9a 0b b9 bd 4b 75 73 bd
       -0.07608106 -0.15861398 -0.09035416 -0.05943803
000170 f7 fb a9 bd 06 c0 a9 3d c2 6b 41 bc bb 2e 7d 3d
       -0.083000116 0.08288579 -0.011805477 0.061812144
000180 10 fd 04 3e 05 1c ed bd e4 06 b5 3c 74 3b 98 bd
       0.1298716 -0.1157761 0.022098012 -0.07433215
000190 49 b0 13 3e a0 ff 2b 3d 84 6f f6 3c 7d b4 09 be
       0.14422716 0.04199183 0.030082472 -0.13447757
0001a0 25 69 25 be e3 17 6c 3d 84 5b a9 3c 8e dd ce 3c
       -0.1615339 0.057639968 0.02067352 0.02525213
0001b0 32 1e 52 3c de b7 0d be 1f b9 7a 3d 05 6e 8a ba
       0.012824582 -0.13839671 0.0612117 -0.0010561353
0001c0 d6 51 9b bd 1a 75 1b be 4f 1b 80 bd 1c 7e 9c bd
       -0.07583968 -0.1518139 -0.06255209 -0.07641241
0001d0 78 26 82 3c 75 07 11 bd ec 76 81 3b e0 aa c5 bd
       0.015887484 -0.035407502 0.003950944 -0.096517324
0001e0 94 a1 17 3e ea a9 8a 3d f7 48 d2 3b 53 be c9 bd
       0.14807731 0.0677069 0.0064173895 -0.098507546
0001f0 fa 12 ee bd 7a 8b 07 3e 21 76 96 bc b6 e1 24 be
       -0.11624713 0.132368 -0.018366875 -0.16101727
000200 45 2c 3b be 72 55 4d be 43 a8 49 3e 0f 7e da 3d
       -0.18278606 -0.20052126 0.19693093 0.10668575
000210 2d 20 f8 3d 22 62 12 ba 90 f9 74 bd b5 a0 02 bc
       0.12115512 -0.0005584081 -0.059808314 -0.007972886
000220 4a 4e ed bc 54 2b 0a 3e 19 f3 c5 3d 8c ee 04 be
       -0.028967995 0.13493091 0.09665508 -0.12981623
000230 81 70 27 bd cd b3 09 3e 03 ec a7 3c 0f eb 15 be
       -0.040878776 0.13447495 0.020498281 -0.14640449
000240 eb a0 be bd b8 7c b2 3d 46 20 2f bd 63 c8 be bd
       -0.093080364 0.087151945 -0.042755388 -0.093155645
000250 24 1a 7b bc c6 2d 91 3c 37 e2 5c 3e 45 20 40 3e
       -0.015326057 0.017722022 0.21570669 0.1876231
000260 05 11 16 3e a0 60 00 3d 22 19 d3 3d e6 4f a7 bd
       0.1465493 0.03134215 0.10307528 -0.08169536
000270 8a d0 e8 3d dd 3a 44 3e 89 44 90 bd 90 ae 86 bb
       0.11367901 0.1916308 -0.07044322 -0.004110165
000280 ee 6b 9e bb b9 00 27 be 3f 4c 8a bd a9 34 13 be
       -0.0048346436 -0.1630887 -0.06752824 -0.14375557
000290 0b b3 07 be 28 5c 69 3c c5 62 ba 3a e1 12 b8 bd
       -0.13251893 0.014243163 0.001422011 -0.08987976
0002a0 16 ca f6 bd a7 52 e9 bd 9d 14 af 3d 1b 0a 37 3e
       -0.120502636 -0.11392718 0.085488535 0.17874949
0002b0 82 21 ca 3d 93 66 31 3c c4 e3 97 3d 39 ec 8a bd
       0.09869672 0.010827678 0.0741649 -0.06783337
0002c0 6a a1 21 be b0 b6 d2 bd bd 49 39 bd 22 86 87 3d
       -0.15784231 -0.10288751 -0.045236338 0.06617381
0002d0 fa 63 ce bd 75 fc 15 be 2a 1d 95 bd 2c 3e f4 bd
       -0.10077663 -0.14647086 -0.07280953 -0.11925921
0002e0 62 3b 4a 3b f7 58 49 3c d2 52 81 3d 6d b4 60 bc
       0.0030858149 0.012289277 0.06314625 -0.013714892
0002f0 2f 3f 83 bd 64 bb 86 bc 63 cf 72 3d 89 00 16 3d
       -0.06408536 -0.016446777 0.05927981 0.036621604
000300 db be 15 3e b9 bd e1 3d c4 90 1d 3c ef ad a4 bd
       0.14623587 0.11022515 0.009617034 -0.08040988
000310 b0 9f 78 bd ce 40 8d bd 9b e1 4e bb 08 39 9f 3d
       -0.060699165 -0.06897126 -0.0031567577 0.0777455
000320 04 a7 11 be e3 1f 1f bd 43 d8 25 3d 24 8c 0a 3e
       -0.14223868 -0.03884877 0.040489446 0.13530022
000330 6d 43 4a 3e a5 21 a4 bd d3 40 b8 bc 9a 47 b2 3d
       0.19752283 -0.0801423 -0.022491848 0.08705063
000340 9c d1 84 bc 4e ac d5 bc 19 d2 79 bd 27 cd 42 bc
       -0.01621323 -0.026083138 -0.06099138 -0.011889732
000350 52 7e 97 3c 23 28 92 3d 26 38 2c bd 3f f0 0e be
       0.018492851 0.07136562 -0.042045735 -0.13958834
000360 bd 76 14 bb 0d 4a d5 3d 5b 0b 71 bc 03 8e a7 3d
       -0.0022653781 0.10414515 -0.01471218 0.081813835
000370 74 af 9a bd 99 93 9a 3d cc 88 0e 3e 07 28 3f 3c
       -0.07552996 0.07547683 0.13919371 0.011667258
000380 4e 75 10 bd 23 17 e5 3e 91 b6 93 3d 08 1c c0 bd
       -0.03526812 0.44744214 0.07212556 -0.093803465
000390 48 38 00 bd 74 36 56 be c7 7c 2b be 6b 7d dc 3d
       -0.031303674 -0.2091921 -0.16746818 0.10766109
0003a0 68 b4 a4 bc 04 be 4b 3d 95 44 95 3c b2 f6 d6 bc
       -0.020105556 0.04974176 0.018221179 -0.02624068
0003b0 18 61 f6 bd 96 a0 25 be 16 1a 53 bd 22 4c a6 bd
       -0.12030238 -0.1617454 -0.05153855 -0.0811999
0003c0 8e 14 07 3e 97 c0 6d bd 40 c3 2b 3e 3c ad 21 bd
       0.13191435 -0.058044996 0.167737 -0.03947185
0003d0 e3 85 0e 3c d1 bc 9c 3c 85 a6 81 bc 6c 14 b6 bd
       0.008698913 0.019133003 -0.015826473 -0.08890614
0003e0 05 5b 9e 3c fb 94 e4 bd 02 50 b7 3c 3c 20 1b bd
       0.01933051 -0.11161228 0.022377018 -0.037872538
0003f0 2d cf a9 bd 2a 53 a4 bd 36 5b c4 bc 2f 6a 0a 3e
       -0.08291469 -0.08023675 -0.023969274 0.13517068

fc_layers.0.bias f4 [120]
000000 d3 68 96 be b4 d1 27 3e 71 b6 db bb 3c f2 99 3d
       -0.2937685 0.16388589 -0.0067050983 0.07516906
000010 33 eb b1 bc 0a 6d fc 3c 42 a1 c4 3d fc 28 3d bd
       -0.021718597 0.030813713 0.0960107 -0.046181664
000020 ee 00 9c 3e 8c 6d b9 3e fa a3 1b bd 59 45 87 bd
       0.3046946 0.3621639 -0.037998177 -0.06605024
000030 d4 34 fd 3d 76 ac 03 ba 05 21 b4 3c 8b fc a3 bd
       0.12363592 -0.0005022952 0.021988401 -0.08007153
000040 07 9b a9 3d 0c d9 4b 3e 14 69 a3 bd df b6 60 3d
       0.08281522 0.19907016 -0.079790264 0.0548619
000050 5d 46 c1 bd e1 bc be bd a3 5e ca bb 78 b2 85 3e
       -0.09437249 -0.093133695 -0.0061758324 0.26112723
000060 9f c2 3b bd 05 34 de 3c de 48 10 3d 14 d0 01 3e
       -0.045839902 0.027124414 0.03522574 0.12677032
000070 3f 41 30 bd be 8b 64 be e4 16 37 3d c0 96 fc 3c
       -0.043030974 -0.22318932 0.044699565 0.030833602
000080 7e 20 c1 bd 3a 69 a7 3e 7a 73 23 3e 8c ab 3f be
       -0.094300255 0.3269747 0.1596202 -0.18717784
000090 6f 60 23 3e 21 6f 69 3b 14 9b 91 bd 34 e8 70 bd
       0.15954755 0.0035619217 -0.07109657 -0.058815196
0000a0 89 aa 7a 3d 80 2d f2 bc 85 ee cf bd 65 65 c0 3e
       0.06119779 -0.029562712 -0.10152916 0.37577358
0000b0 54 3f 30 be cd 23 10 be 58 e8 d8 bb 00 c0 13 bd
       -0.17211658 -0.14076157 -0.0066194944 -0.036071777
0000c0 5b 3d 95 3e d7 8a d9 bd cd 6a c9 3a 6f 1b 0c bd
       0.29148373 -0.10622185 0.0015366912 -0.03420585
0000d0 bf 8f b9 3d 90 bc f0 bd e6 bd d5 bc cb a8 9e bd
       0.090606205 -0.117547154 -0.026091527 -0.077470385
0000e0 10 b8 10 3c a3 13 29 3e 55 be ad 3b 6e 98 4f 3e
       0.008832946 0.16511397 0.0053022304 0.20272991
0000f0 32 af 75 bd d6 24 2e 3e a1 85 3a 3d 9c 34 29 bd
       -0.059981532 0.1700624 0.045537595 -0.041309938
000100 e8 a9 6d bd ef b1 28 3e bc 4c 07 bc f0 9e 70 3e
       -0.058023363 0.16474126 -0.008258041 0.2349813
000110 b2 91 09 3d 98 d3 d5 bc a1 ec 1f bc 5c 60 30 bd
       0.03358621 -0.026101872 -0.009761007 -0.043060645
000120 5d 8a 39 bd 40 0e bf bb d9 01 48 3e 61 96 a9 3b
       -0.04529797 -0.005830556 0.19531955 0.0051753973
000130 24 45 f1 bd fa 13 8f 3e 1a 85 30 3d a9 92 5e bd
       -0.11780766 0.27944928 0.043095686 -0.054339085
000140 a1 b2 a9 3d 56 1c 04 3d 9b fc 62 3e dd 1d 1f be
       0.08286024 0.032253586 0.22166674 -0.15538736
000150 30 3e e5 bc 64 91 82 ba 1e 47 93 3b a8 cb 35 3e
       -0.027983755 -0.0009961543 0.004494562 0.1775347
000160 cb 02 2a be a0 09 52 3e a2 c6 9c 3e 26 9c 7b 3d
       -0.16602628 0.20511484 0.30620295 0.06142821
000170 32 3a 60 3e c5 c7 41 3d 38 b3 7e bc 18 23 66 3e
       0.218972 0.047309656 -0.015545659 0.22474325
000180 5c 53 22 be 35 92 8a 3e c6 69 6d 3d 83 2f 0d 3c
       -0.15852112 0.27064672 0.0579622 0.008617285
000190 8c 81 e4 3d 88 c4 e7 3d 3e c9 14 bd 07 86 13 bc
       0.111575216 0.11316782 -0.036324732 -0.009004123
0001a0 03 f1 37 3e 26 a1 10 3e f2 0d bc 3e d5 cc 30 3d
       0.17963032 0.14123973 0.3672939 0.043164093
0001b0 3d 5d 0a bd 67 82 b7 bd d4 a9 8a 3d f1 f6 7b bd
       -0.033780325 -0.08960419 0.067706734 -0.0615148
0001c0 2f a0 7e be 4d 3a 49 3b 90 87 38 3e 65 2e da bd
       -0.24865793 0.0030704916 0.18020463 -0.1065338
0001d0 6e b1 2a 3e 2e 1a 63 3e cf d5 3c 3d 35 95 98 3e
       0.16669247 0.22177956 0.04610234 0.29801336

fc_layers.1.weight f4 [84, 120]
000000 04 89 2a 3e 4a 66 0e 3e c0 87 39 3d 33 ff b8 bd
       0.1665383 0.13906208 0.045295477 -0.090330504
000010 5a 77 1a bd 99 1f 58 bd 20 47 66 3e d0 c9 9e 3e
       -0.03771148 -0.05276451 0.2248807 0.31013346
000020 cf 56 ac bd 0b ea 04 3e dc af 42 3c f0 3a 60 3e
       -0.08414995 0.12979905 0.011882748 0.21897483
000030 ab 51 b3 bd 7e 45 85 3a 23 d8 70 3d cc 5c 06 be
       -0.08755811 0.0010167805 0.058799874 -0.13121337
000040 19 c4 96 bd a7 65 b6 bd 42 70 c9 3d 19 c6 84 3c
       -0.073616214 -0.089061074 0.098358646 0.016207742
000050 24 bb 9d bc ca 5f eb bd 07 65 63 bd 29 5a 56 bc
       -0.019254275 -0.1149288 -0.05551627 -0.013083019
000060 c1 2c 2c 3c 3c be df 3c 55 ba b2 bd 9d e9 a7 bd
       0.010508717 0.02731239 -0.08726946 -0.08198855
000070 d6 c1 29 3c b7 6d 66 be 45 1a 44 bd 55 85 74 bd
       0.0103611555 -0.2250279 -0.047876615 -0.059697468
000080 cb 8c cd 3c 08 71 7c 3d 11 84 5b bd 15 16 09 3c
       0.02509155 0.061631233 -0.053592745 0.008367081
000090 f2 13 94 bd c3 ce 42 3d cf dd 93 3d 74 23 3a 3c
       -0.07230367 0.047560465 0.07220041 0.011360992
0000a0 67 79 33 be 72 d0 df bc 1e ec cd 3d b1 83 df 3a
       -0.1752678 -0.027321074 0.100548014 0.0017052797
0000b0 ee b7 05 bd a3 9c 02 be be b8 68 bd ae f1 a4 bb
       -0.032646112 -0.12755065 -0.05681681 -0.0050336933
0000c0 6b c2 44 bd a1 a5 1b be 8e 28 a5 bd a9 d5 a1 bc
       -0.048036974 -0.15199901 -0.08064376 -0.019755201
0000d0 e6 f3 28 be 08 80 06 be 61 03 cf 3d 37 4d a5 bd
       -0.1649929 -0.13134778 0.10108066 -0.08071368
0000e0 c3 f5 da bd ee 67 a3 bc a5 c5 95 3d d7 fa a7 bd
       -0.106914066 -0.019947018 0.07313088 -0.08202141
0000f0 08 56 1f be 06 83 c1 bd 5e 86 e6 bd 93 ee bc 3d
       -0.15560162 -0.09448819 -0.11256097 0.09225192
000100 88 74 01 bd ad 49 1b bd e4 aa a3 bc fc 39 8c bd
       -0.031605273 -0.03791206 -0.019978948 -0.06846997
000110 b9 39 ea bd db 63 67 bc 66 a5 d2 3d ce 80 4c 3d
       -0.11436791 -0.0141229285 0.102854535 0.049927525
000120 3f ed 15 bc 96 cf 00 3e 46 34 07 3d 16 d0 66 be
       -0.009150802 0.12579188 0.033008836 -0.22540316
000130 42 b2 4e bd b9 0a 1d be ae c4 12 be f7 04 24 3e
       -0.05046297 -0.15336122 -0.1433284 0.16017519
000140 93 96 ea bd 49 66 a5 bd 0e b0 75 3c 18 e7 27 bd
       -0.11454501 -0.0807615 0.014995588 -0.040991873
000150 2c 6e 12 be 9d 90 e5 3b 0c dc 35 be b7 be 9b 3d
       -0.1429984 0.0070057646 -0.17759722 0.07604735
000160 f0 21 7a 3d b0 39 a4 bd f5 d6 c6 bd 34 ad c2 bc
       0.06106752 -0.080188155 -0.097089685 -0.02376423
000170 22 41 07 be 22 fa bf bd 16 85 a3 3d 96 bb 15 be
       -0.1320844 -0.09373881 0.079843685 -0.1462234
000180 ca 93 06 be ff 0a 53 be 65 ea 99 bc f3 f7 89 3d
       -0.13142315 -0.20609663 -0.018788526 0.06736746
000190 e7 ac 6b 3d 0b 10 74 3d b8 fb bd bd 88 63 1f bd
       0.05753794 0.059585612 -0.09276527 -0.03891328
0001a0 8f eb 1a be fe 58 8b 3c 76 79 3f be 99 98 75 bc
       -0.15128921 0.017010208 -0.18698677 -0.014989995
0001b0 50 07 19 3e 0b 95 1f 3d 7d 7f 83 bc 73 f1 0b bc
       0.14944196 0.038960498 -0.016052002 -0.008541453
0001c0 34 17 ad b9 59 2b a5 bd fc b3 89 bd f5 21 d7 3d
       -0.0003301442 -0.080649085 -0.067237824 0.10504524
0001d0 87 09 02 3e d0 a5 85 3b ab 09 f8 bd d3 a3 5b 3d
       0.12698947 0.0040786043 -0.12111219 0.05362303
0001e0 0f 73 c9 bd f9 cd d2 3d 16 fa da 3c 29 71 21 bd
       -0.09836399 0.102931924 0.026730578 -0.03941456
0001f0 42 e4 5b 3d 71 fc 0d be f6 35 23 be 61 a4 87 bd
       0.05368448 -0.1386583 -0.15938553 -0.0662315
000200 2a b3 22 3e c3 d7 dc bd 20 7a 9e bd 5e 64 a6 bc
       0.15888658 -0.10783341 -0.07738137 -0.02031153
000210 1b 6a 90 bd 2b a1 3c 3d 18 a8 58 bd 71 56 70 bd
       -0.07051488 0.04605214 -0.05289468 -0.058676187
000220 01 99 38 bb 82 a3 2e be de 2d 1d be 77 60 1e 3e
       -0.002816737 -0.17054561 -0.15349528 0.15466486
000230 40 95 91 be 8e 29 ba bd f4 6f 3a 3c 4e b3 5f 3d
       -0.2843418 -0.09089957 0.011379231 0.054614358
000240 2e 62 d1 bd 40 48 c7 bd c7 31 51 be 83 a5 d5 3d
       -0.102238044 -0.097305775 -0.20429145 0.104319595
000250 d6 5f 99 be 2b 55 0e 3d 69 ab de 3c 8a 1a 6d 3a
       -0.2995593 0.03474919 0.027181344 0.0009044787
000260 9d 60 e8 3c c5 0a 48 3d ab ab 9a bd 5b 8d 14 be
       0.028366381 0.048838396 -0.07552274 -0.14507048
000270 fe d9 27 3e db af a9 3d ff 9b a0 bc 40 c3 60 3d
       0.16391751 0.08285495 -0.019605635 0.054873705
000280 a3 00 36 3d 92 ce 44 be aa 18 1a bd 6a 49 00 be
       0.0444342 -0.19219425 -0.037621178 -0.12528005
000290 52 0f b7 3d ea 6f 45 3d 8b fe 33 3e d9 b2 e6 bd
       0.08938469 0.048202433 0.17577569 -0.11264581
0002a0 bd 32 fe bd d5 f0 23 3e 51 b2 03 be aa 48 1d bd
       -0.12412021 0.16009839 -0.12860991 -0.038399376
0002b0 d4 a9 52 3a 32 04 49 be 5d b4 a8 bc c7 d6 2d bc
       0.00080361706 -0.19630507 -0.020593816 -0.010610289
0002c0 64 93 4e bd 93 b5 9a bd b6 09 84 bd 93 e3 4e 3c
       -0.05043353 -0.07554164 -0.06447165 0.0126275
0002d0 91 9d 8d 3d ad d4 13 3e 7b 16 ad 3d c3 01 95 3d
       0.06914819 0.14436598 0.084515534 0.07275727
0002e0 a6 f6 9c 3b 96 ed d4 3d 13 6f 84 3d 23 d1 a6 3c
       0.004790145 0.103968784 0.06466498 0.020363396
0002f0 a0 f6 67 bd 3f ca 96 bd 72 c4 6d bd 43 93 0e 3e
       -0.056631684 -0.07362794 -0.058048673 0.13923363
000300 25 44 d7 bb f7 6c 01 bd 7b 4c b6 bc 4e 95 f8 bd
       -0.0065694028 -0.031598058 -0.022253266 -0.121378526
000310 b2 7a 1b 3d 79 95 d0 bc 90 8c 89 3d 6b 24 b8 bd
       0.03795881 -0.0254619 0.06716263 -0.08991321
000320 30 48 ba 3d 1a cc ad 3d 74 a4 ce bd d6 36 2a bd
       0.090958 0.08486195 -0.10089961 -0.041556202
000330 db 6e 6d bc e4 da 51 be 06 50 9e 3d 2c 2d 22 be
       -0.014491762 -0.20493656 0.07730107 -0.15837544
000340 68 50 94 bd e2 5b 3a bd 2c 9c f9 3c e8 38 49 3d
       -0.07241899 -0.045497783 0.030469976 0.049126536
000350 88 4f db bb 6c c3 a7 3d f7 f2 ae bd 71 96 df 3d
       -0.0066928305 0.08191571 -0.085424356 0.10917366
000360 8e 7a 07 3e 02 6c fd 3d d6 80 2f be 6b d4 2f bd
       0.13230345 0.123741165 -0.17138991 -0.042927187
000370 fb c5 06 be 7d b1 fb bc fd 0e 89 bc 76 9d 13 3e
       -0.13161461 -0.030724281 -0.01673078 0.14415535
000380 b9 d3 aa bb 5e 09 10 3d 83 7d 17 be 7f b3 bb 3d
       -0.0052132276 0.035165183 -0.14793973 0.091650955
000390 bc 10 40 3d 09 a2 6f be 3a e6 87 bc f6 b1 16 bd
       0.04689096 -0.23401655 -0.016589273 -0.03679081
0003a0 81 6c 72 bd 07 2e 6e bd 58 59 37 bd 07 76 a3 bd
       -0.05918551 -0.058149364 -0.04476294 -0.07981496
0003b0 1c 32 2c be 91 0c 15 be 3e d1 1c bd f9 bf 9e 3e
       -0.1681599 -0.14555575 -0.038285486 0.3100584
0003c0 25 ac 60 bc 09 38 85 be 37 3d ff 3c fd 7d 7f 3d
       -0.013712917 -0.26019314 0.03115712 0.06237601
0003d0 eb e9 9e 3d c7 72 53 3e 43 48 8e 3d db b1 63 3c
       0.0775946 0.20649253 0.069473766 0.0138973845
0003e0 61 bd 7e bc b4 18 fb 3d 39 99 2d bd c6 ff 84 bd
       -0.015548081 0.12260571 -0.042382453 -0.064940974
0003f0 65 ea d5 3d ef 90 fe bd 08 df 45 3d b2 da 0d 3d
       0.10445098 -0.12429988 0.048308402 0.034632392

fc_layers.1.bias f4 [84]
000000 e4 66 07 3e 17 61 8c 3e 9b 10 43 3f 51 5b 47 3f
       0.13222843 0.27417824 0.7619721 0.7787371
000010 2d 83 9b bd d7 62 04 3f fd 93 0c bc 65 0d 3b 3d
       -0.07593379 0.5171332 -0.008580205 0.04566707
000020 11 62 da 3e 76 11 ad 3d 06 16 b7 3e b6 91 32 bd
       0.42652944 0.08450596 0.3575899 -0.043595992
000030 90 bf 3e 3e be b7 9c bd 95 b3 87 bd 7e a8 cb bc
       0.18627763 -0.076522335 -0.066260494 -0.024860617
000040 48 4e 44 3e 1a ee 57 bd 1a 9f d8 bd be 82 0c 3f
       0.19170487 -0.052717306 -0.10577221 0.54886997
000050 1b b5 8c 3e be a0 0c be d7 93 29 3e d8 ca 6e 3e
       0.27481923 -0.13733193 0.16560303 0.23319566
000060 eb fd 91 3d 53 f4 24 bd 4c 33 d3 3c 2b df d9 3d
       0.07128509 -0.04027207 0.025781296 0.10638269
000070 4e a8 15 3f d7 19 51 3e f7 5f b5 3d 33 20 b3 3d
       0.5845994 0.20420013 0.088561945 0.08746376
000080 4a 30 5b bd 8a 05 33 3f d2 29 b5 bd 9e 12 52 3e
       -0.05351285 0.69930327 -0.08845867 0.20514914
000090 4a 83 67 3e 3e 4d 33 3e a7 93 5d 3f ae da 28 3f
       0.22608677 0.17509934 0.86553425 0.6595868
0000a0 f4 0d 89 bd eb fb 50 3e 72 e9 17 3f 5c bc e3 3e
       -0.066921145 0.20408599 0.59340584 0.44479644
0000b0 cb ec a8 3e 34 43 e0 3e b3 dd 9e bc 6d c0 bf 3e
       0.3299316 0.43801272 -0.019392824 0.37451497
0000c0 4f 61 d7 3d 97 09 05 3f a4 d4 81 bb c1 29 03 3d
       0.10516607 0.5196776 -0.0039621163 0.03202224
0000d0 4e 97 45 be e5 5d 8b 3e b7 f5 3d 3e f5 6f f4 3e
       -0.19296 0.27220073 0.18550764 0.47741666
0000e0 22 d6 8a 3d b5 35 ec 3e b4 64 3d bc 01 0d 94 3e
       0.06779124 0.46134725 -0.011559654 0.2891617
0000f0 76 e4 31 3e 7c 69 3e 3d 2d c9 1a bd be fc 0d be
       0.17372307 0.046487316 -0.037789512 -0.13865945
000100 1c f9 38 3e 96 6d de 3e 42 81 cf bd be 15 55 39
       0.18063778 0.43442982 -0.10132076 0.00020321363
000110 31 cb 5c 3e 63 c8 95 bd b0 4c 84 bd 83 82 6b 3e
       0.21561886 -0.07313611 -0.064599395 0.22999005
000120 1e 5c 26 bd 69 4f 23 3e 90 18 fe 3d bc 77 7b 3e
       -0.040615194 0.15948261 0.12407029 0.24557394
000130 12 10 08 3e 5f 4c 9e bd dd 76 89 bd 41 39 b9 3d
       0.1328738 -0.077294104 -0.067121245 0.090441234
000140 27 aa 51 3c 88 c2 3d 3d 94 20 1f 3f 0f 40 fa bd
       0.012796915 0.046328098 0.62159085 -0.122192495

output_layer.weight f4 [10, 84]
000000 73 b4 4e 3e ea 03 13 be dc 9b 97 bd e5 3a 9f be
       0.20186023 -0.14356962 -0.07402775 -0.3109962
000010 df 40 da 3d 31 8b 54 3e 87 23 db 3c b3 a6 1d be
       0.106569044 0.20756222 0.02675034 -0.15395622
000020 59 76 04 be a1 8e 97 bc b4 61 3d 3d db 75 3d be
       -0.12935771 -0.018500628 0.046235755 -0.1850199
000030 4b 5b 7e 3d 19 f3 2f be 20 62 a3 3d 61 0f c0 bd
       0.062098783 -0.17182578 0.079777 -0.09377933
000040 3f b7 9b be 71 0a e5 bd 9d e2 4d 3e 7f a7 03 3e
       -0.30413243 -0.11183632 0.20105977 0.12856863
000050 f9 16 ae 3d 10 c1 ac ba 2f aa 45 3e f0 20 7d 3d
       0.085004754 -0.0013180096 0.19303201 0.06179899
000060 ba 9f ec 3d 9c 1b e9 bd c5 0b 4f 3c 6c bf 9b 3d
       0.11553903 -0.11382219 0.012637083 0.0760487
000070 58 00 74 bd 6a 89 1c be cc 76 3b 3e e1 55 07 3e
       -0.05957064 -0.15286794 0.18307036 0.13216354
000080 a6 5c 7a 3e 2c 8d b0 be 30 db 0c 3e 59 e3 be bd
       0.24449405 -0.34482706 0.13755488 -0.09320707
000090 6a b0 70 bd 29 49 9e bb 39 e1 a3 be ce 7a 8f be
       -0.05876199 -0.0048304987 -0.3200777 -0.2802338
0000a0 b1 c0 c7 3d 2b 69 b1 bd a9 fc f0 bd 97 d1 7e be
       0.0975355 -0.08662637 -0.11766941 -0.2488464
0000b0 a0 4b 6b 3e 25 e4 e4 3d 72 cd a4 be 9c 5c f3 bc
       0.22978067 0.111763276 -0.32187992 -0.029707246
0000c0 7a e6 2c 3e 57 7e 03 3e d0 7d a1 3d 6d cb 49 bd
       0.16884795 0.12841164 0.07885325 -0.049266268
0000d0 34 70 69 3e 13 00 66 3e 02 6e 92 be d0 a2 e8 3d
       0.22796708 0.22460966 -0.28599554 0.11359179
0000e0 26 8e 00 bc 66 f6 f7 bd 0e 0c 66 bd 26 fb d9 bd
       -0.007846391 -0.12107544 -0.05616384 -0.10643606
0000f0 1e 07 05 3d 93 00 b1 bd c2 f6 8f 3d e3 95 40 3e
       0.03247749 -0.08642688 0.07029487 0.18807177
000100 f1 a0 f0 3c 49 e7 86 3e 7e eb 66 bd ca 52 bc bd
       0.029373618 0.26348332 -0.056376927 -0.09195478
000110 b2 27 86 bc 14 62 1d 3e 34 5d 3c be f5 b8 18 bd
       -0.01637635 0.15369445 -0.18394929 -0.037285764
000120 f4 7e 12 3e 38 0a 21 3e 37 48 37 3e 12 38 7d 3e
       0.14306241 0.15726554 0.17898642 0.2472842
000130 12 a3 e6 3d 06 58 39 3e 48 17 02 3e 62 45 4e 3e
       0.11261572 0.18099985 0.12704194 0.20143655
000140 1c af 34 3d a4 0b 04 3e 3e 50 5c bd 2f cf 1f bb
       0.04411231 0.12895066 -0.053787462 -0.0024384966
000150 18 36 53 bd e8 fb 1e 3d ae af a1 be ad 75 8b be
       -0.05156526 0.038814455 -0.31579345 -0.27238217
000160 55 e5 06 3e 36 c7 d0 39 54 2d b6 3d c4 fe 84 3e
       0.1317342 0.00039821275 0.088953644 0.2597562
000170 09 ed 7b be 43 fe 54 3e 1e c5 90 3c bc d5 a5 3d
       -0.2460214 0.20800118 0.017672118 0.08097407
000180 3f 9a 5e 3e a7 25 4a 3e 0b cc 2c 3e 57 66 e7 3d
       0.21738528 0.19740926 0.16874711 0.11298817
000190 14 52 45 3e 0b 67 48 3d 38 c6 a4 3d 80 0f 6a be
       0.19269592 0.048926394 0.0804562 -0.22857475
0001a0 06 39 e9 bd 1a df 05 be 8e 52 75 bc 98 be ba bd
       -0.113878295 -0.13073388 -0.014973296 -0.09118384
0001b0 fb e5 d2 bd af 3c 0e 3d 23 8e 89 3a 51 48 4b 3e
       -0.102977715 0.03472584 0.001049463 0.19851805
0001c0 20 ba ad be 16 58 11 be 27 5b b2 3d a0 d9 cf bd
       -0.33931065 -0.14193758 0.08708792 -0.101489305
0001d0 9a 8d 3c be 70 10 5c be 79 66 9a bd 2c b0 05 bd
       -0.18413392 -0.21490645 -0.07539076 -0.032638714
0001e0 10 6c a9 be 29 ca a8 3d 42 54 69 be ba b1 d3 3d
       -0.33090258 0.08241684 -0.22786048 0.10336633
0001f0 4b 05 b5 bc f3 e2 8c bd 97 33 9e bd be 6d 47 be
       -0.02209725 -0.06879225 -0.07724684 -0.19475457
000200 48 c2 52 be a3 17 20 be 3d 77 2e 3e 80 65 bf bc
       -0.20581925 -0.15634017 0.17037673 -0.023363829
000210 cd bb c9 3c 51 20 8e bd 06 9d ad bb 0c fb 1f bd
       0.024625683 -0.069397576 -0.0052982597 -0.039057776
000220 8f d7 0d 3e 34 89 c9 bd 2b b8 95 3e 61 96 29 be
       0.1385176 -0.098406225 0.29242072 -0.16561271
000230 fd 94 58 be 5d bf 49 be f3 e6 44 bd 7c 57 55 3e
       -0.21150585 -0.19701906 -0.048071813 0.20834154
000240 88 35 a5 3e 75 12 fb bd 67 3b 39 3e 99 d3 8f 3e
       0.32267404 -0.1225938 0.18089066 0.28091124
000250 5b 9e 9d 3d b2 fe 80 3e 66 ec 08 3e a9 91 99 bd
       0.076962195 0.25194317 0.13371429 -0.074984856
000260 8e f0 2a be 09 eb 0f 3e 57 25 dc 3d 14 a3 56 3e
       -0.16693327 0.14054503 0.107493095 0.20960647
000270 b4 40 36 3e 7c be 56 3d 6c e8 88 3b 75 07 f9 bd
       0.1779812 0.052427754 0.0041780975 -0.121596254
000280 4b a1 2a bd 90 74 c8 3d d3 26 a6 3e de cf 1b be
       -0.041657727 0.097878575 0.32451496 -0.15216014
000290 38 92 f4 3d 10 f8 05 bd 41 7b 92 be 35 66 82 3e
       0.119419515 -0.032707274 -0.2860966 0.25468603
0002a0 fa 58 42 3e 02 7f 11 be 97 6c 38 3e 67 db cf 3d
       0.18979254 -0.14208606 0.18010174 0.101492696
0002b0 05 61 9c bb 3f 85 99 3d b8 f6 0e 3e c7 35 7d be
       -0.004772308 0.07496118 0.13961303 -0.24727546
0002c0 6d e5 0b 3e d6 f5 13 be 22 31 49 3d 2d e8 84 3d
       0.13661738 -0.14449248 0.049119122 0.064895965
0002d0 d0 06 b7 bd 8a 36 11 3e 34 3f e6 3d 02 41 0c bd
       -0.08936846 0.14180961 0.11242524 -0.034241684
0002e0 94 ca c1 bb d2 fb c5 bb 85 cc fe 3d 04 c0 32 3e
       -0.005914042 -0.006041982 0.12441353 0.1745606
0002f0 79 34 a1 bd 5d a8 18 3e df e7 ce bd 50 2e 92 3b
       -0.078713365 0.14907975 -0.1010282 0.0044610873
000300 c2 11 cd bd d2 b3 47 3e 0c 0d 06 be 9d ee 7a bd
       -0.10013153 0.1950219 -0.13090914 -0.061262716
000310 bc eb 3d bc 82 0e fb bd a3 84 20 3e 43 83 2e 3e
       -0.011591848 -0.122586265 0.15675597 0.1704226
000320 3a c9 16 3e 9c 24 14 3e d5 8a 23 3e 18 f9 a3 3d
       0.147252 0.1446709 0.15970929 0.08006495
000330 98 2e e7 3d d2 95 8a bd 0d 4b 0d bd 07 13 4f 3e
       0.11288184 -0.06766857 -0.034495402 0.20222102
000340 48 57 5e 3e ef 3e d5 3d dd 2b c5 bd 94 3b d9 3c
       0.21712983 0.10412394 -0.09627507 0.026517667
000350 a8 df c5 3d b3 fc 13 3e 4a 03 31 3e 9a 39 88 3e
       0.096618 0.14451866 0.17286411 0.26606447
000360 e1 1b 35 be 94 69 ab 3d b6 a5 ca bd 84 54 19 be
       -0.17686416 0.08369747 -0.09894888 -0.14973646
000370 83 fa 2d 3e b4 8e 7c 3e c3 28 03 be 59 d8 ad bd
       0.16990094 0.24663812 -0.12808518 -0.08488531
000380 15 61 cc 3d 5f c5 a7 3e 56 5b 3d 3e 1b 89 bd bc
       0.099794544 0.3276777 0.18491873 -0.023136666
000390 30 9d 38 be 35 43 9b bd 8a f3 24 be 65 7c 27 bd
       -0.18028712 -0.07581178 -0.16108528 -0.040890116
0003a0 7b 1b a5 3d f1 cc 60 be 2b b2 b9 3c 2b 2d 5d 3e
       0.08061882 -0.21953179 0.022667965 0.21599261
0003b0 d7 4d 01 3e ff e4 81 bd 4e 06 1e 3d ae 9c c1 bd
       0.1262735 -0.06342506 0.03858023 -0.094537124
0003c0 91 4d 53 bb b7 6e 0d bd bb 57 44 3b 4e ba 20 3e
       -0.0032242278 -0.034529414 0.0029959518 0.1569607
0003d0 22 a7 aa bc 35 61 7a 3d d9 14 8c be 89 6a ec bc
       -0.020831648 0.06112786 -0.27359655 -0.028859394
0003e0 50 39 0b 3e c5 5d 36 3e de dc 98 3e aa 90 da 3d
       0.13596082 0.17809208 0.29856008 0.10672124
0003f0 5c c0 91 bd db bf 05 3e 23 1a 5e 3e d2 40 4f 3e
       -0.07116768 0.13061468 0.21689658 0.2023957

output_layer.bias f4 [10]
000000 f3 b0 fc bd d6 4c 88 bf 45 6a aa be db 71 2e 3f
       -0.12338438 -1.0648448 -0.33284202 0.6814248
000010 36 d9 4c 3f ea 7a aa 3e 38 ef 7e 3c 89 dd 56 be
       0.8001894 0.332969 0.015559964 -0.20982946
000020 1e ef 92 3e ef 2e a1 be
       0.28698057 -0.3148112
