Lab1/model/model_CIFAR10_10iters/conv_params_13_layers.pth (torch, 127102 bytes, 16 tensors)

conv_layers.0.weight f4 [6, 3, 2, 2]
000000 f7 82 92 bd 73 45 b1 bd cb 27 22 3e f5 ce 1d 3e
       -0.07153886 -0.086558245 0.15835492 0.15410979
000010 cf 66 31 bf cc 78 39 bf b3 7d 36 be 82 5f 62 be
       -0.692975 -0.72449946 -0.17821388 -0.22106746
000020 26 5c 01 bf 27 aa 75 bd 1e 04 b3 bd db 36 43 bd
       -0.5053123 -0.059976723 -0.0874102 -0.047659736
000030 55 7c 54 be a8 f7 19 be 41 91 a1 3e c7 36 ba 3e
       -0.20750554 -0.1503588 0.31556132 0.36369917
000040 e6 6a 66 be 67 59 64 be 0a 62 d8 be 32 64 88 be
       -0.22501716 -0.2229973 -0.42262298 -0.26638943
000050 78 45 d2 3e e7 05 6c 3f 57 58 9f 3e e1 59 39 3f
       0.41068625 0.92196506 0.31122085 0.7240277
000060 b3 9c 75 bf 32 0b 0d bf 56 d4 06 3f 17 04 69 3f
       -0.9594223 -0.5509521 0.5266775 0.91021866
000070 f1 8f 8e bf 7d b8 91 bf c0 74 1b 3e 88 af 9f 3e
       -1.1137677 -1.1384426 0.15181255 0.31188607
000080 b9 e6 2a 3e 3d f7 c5 3d 4d 1c 6e 3f 5f 0a 21 3f
       0.16689576 0.096662976 0.93011934 0.6290645
000090 45 8b 31 3f 8d e0 6e 3f e1 d6 9e 3e 30 9b 8b 3f
       0.69353133 0.9331139 0.31023315 1.0906734
0000a0 db d5 c1 bf da 55 98 be b3 4c b5 bf 42 f3 2b 3f
       -1.5143389 -0.29753 -1.4164032 0.67168057
0000b0 e1 91 a5 be cf 88 b5 3d a4 8d 13 bf 78 d5 b7 3e
       -0.3233786 0.08863985 -0.57638 0.3590505
0000c0 77 fc b3 3e e6 d7 94 3e 02 d0 7b 3e 7a 1c f1 3e
       0.35153553 0.29070967 0.24591067 0.47092038
0000d0 75 f3 97 be 5b 79 06 3d d9 b4 ca 3d ce fc db be
       -0.2967793 0.032830577 0.09897775 -0.42966312
0000e0 a3 07 c5 3d 69 e0 34 3e 1d f3 f6 3e 29 cd a6 3e
       0.09620597 0.1766373 0.48232356 0.325784
0000f0 d7 52 14 3f c4 c2 8c be 6d 3d e9 3e c1 5e 21 bf
       0.57938904 -0.27492344 0.45554677 -0.6303521
000100 89 c1 0c 3f af 4a 90 bf 5f 7c ba 3e cc 60 8b bf
       0.5498281 -1.1272792 0.36423013 -1.0888915
000110 6b 99 14 3f 1a 2b 9a be de fe 98 3f 67 22 ae be
       0.580466 -0.3011101 1.1952779 -0.34010622

conv_layers.0.bias f4 [6]
000000 5c 1b 2e bf 8e 91 e5 3e 6f 84 df 3e 58 24 0c 3e
       -0.680105 0.44837612 0.43655726 0.13685739
000010 d2 41 22 be 0b 79 9f 3e
       -0.15845421 0.31147036

conv_layers.1.weight f4 [16, 6, 2, 2]
000000 8d 4e d4 3e 2c 89 0d be f5 c7 a7 3e b7 5e 03 3d
       0.4146618 -0.13821858 0.32769743 0.03207275
000010 e6 55 67 bd 96 01 0c be f2 fa 12 be 70 01 90 be
       -0.056478404 -0.1367248 -0.1435354 -0.28126097
000020 98 65 03 be e8 4f 45 bf f7 21 46 3f d4 32 62 3f
       -0.12831724 -0.7707505 0.77395576 0.8835881
000030 f9 c6 1d 3e 7e 16 d3 bc a1 36 25 bf a5 8f fb be
       0.15407933 -0.025767561 -0.6453648 -0.4913303
000040 85 11 35 3d 34 68 31 3e bc 35 5c bd 06 b2 ca bd
       0.04420616 0.17324907 -0.053762183 -0.098972365
000050 b6 fc e9 bd 80 7d f4 3d 03 a0 0f bf d2 68 b7 be
       -0.11425154 0.11938 -0.56103534 -0.3582216
000060 af 46 9c bd b0 45 01 3e 99 f2 46 3c 1e 74 f0 3d
       -0.07630669 0.1262424 0.012142801 0.117408976
000070 37 b3 ce 3e d0 a8 fe bb c1 de ca bd 54 19 a2 bd
       0.40371105 -0.007771589 -0.09905768 -0.07914987
000080 e9 35 87 be 3b 97 c9 3d 67 c6 30 be 32 07 b5 3e
       -0.26408318 0.09843298 -0.17263184 0.35357052
000090 59 8c 6c 3d 62 38 ae 3e 51 ae e3 3e be 41 b6 3e
       0.057751033 0.34027392 0.4446893 0.35597032
0000a0 a6 ce 47 3e 1d a5 e9 be a8 c4 37 3e 63 7d 3c be
       0.19512424 -0.45633784 0.17946112 -0.18407206
0000b0 44 98 c6 bd 0b 6b ac bd 3b c9 98 3d dd 17 60 bd
       -0.09697011 -0.08418854 0.07460257 -0.054710258
0000c0 41 0e 81 bd 2e 56 71 3e ce 41 ee 3e 40 87 57 3f
       -0.06301547 0.23568031 0.4653458 0.8419075
0000d0 54 d5 8b 3d 80 73 2e 3d 3d 40 e1 3d 11 8f 29 bf
       0.068277985 0.042590618 0.109985806 -0.66233927
0000e0 79 ed 7d 3e 3e 4e 29 bd de 23 a4 3d a0 38 8b bd
       0.2479762 -0.041334383 0.080146536 -0.0679791
0000f0 16 34 ee 3d 1b a6 9b 3c aa 32 be be a8 32 97 be
       0.11631028 0.019000104 -0.3714803 -0.29530835
000100 68 f6 4d 3d 64 58 e1 bd 6c 4f f6 3d 81 3b 4f be
       0.05028382 -0.11003187 0.12026867 -0.20237543
000110 99 47 aa 3d 9e 2a 8c 3e 51 9f b7 bd 2a 11 15 be
       0.083144374 0.27376264 -0.08965934 -0.14557329
000120 5e 29 61 be c0 d7 b0 bd 5d f8 81 3e 4a f7 d8 3e
       -0.21988437 -0.08634901 0.253848 0.42376167
000130 0d 07 11 bf 11 4a af be 64 46 b6 be 86 98 1b bf
       -0.56651384 -0.34236196 -0.3560058 -0.6077961
000140 75 06 ac 3e 9f 71 a7 3c df f3 04 3f 46 74 be be
       0.33598676 0.020439921 0.5193462 -0.37198085
000150 22 d9 ba 3e 15 bf fb 3e 9c 60 50 bf f2 9b 60 3e
       0.36493784 0.49169222 -0.81397414 0.21934488
000160 33 a5 ac be 78 83 9e be 73 f1 87 be 47 14 d2 bd
       -0.33719787 -0.30959678 -0.265514 -0.10257774
000170 e2 c2 ea bd 96 ec 40 3e 11 15 b2 bd 26 95 ec 3e
       -0.11462952 0.1884025 -0.08695424 0.4620754
000180 04 a5 21 bf 48 3e 1c bf 41 1c ed 3e a5 b2 3c 3f
       -0.6314242 -0.61032534 0.4631062 0.7371009
000190 ff 32 19 be 3a 38 64 3e 6c 2e 57 3e 9f 07 06 be
       -0.1496086 0.22287074 0.21013802 -0.13088845
0001a0 a4 d5 11 3f a9 28 9b bc 53 38 11 be af 20 86 bd
       0.56966615 -0.018940287 -0.14181642 -0.06549203
0001b0 79 c9 84 bf df 50 94 bf 7d c5 6e 3f 0f fc 9b 3f
       -1.0373985 -1.158718 0.93270093 1.2186297
0001c0 32 cd 51 be ff e4 02 be 30 4d 01 3e 6a 85 9e 3d
       -0.20488432 -0.12782668 0.12627101 0.077402905
0001d0 28 d4 c2 be dd 80 99 3d 7f d1 5a 3e 9c 5e 57 be
       -0.38052487 0.07495282 0.21368979 -0.21032184
0001e0 ad 89 d2 3e 8a 64 07 bf 63 b6 f8 3e 30 bc 61 be
       0.41120663 -0.52887785 0.4857665 -0.22044444
0001f0 9b a5 9c be e3 73 d0 3e 66 ce d9 be 18 32 b1 3e
       -0.30595097 0.40713415 -0.42540282 0.3460853
000200 04 e4 1d bd d5 e5 0f be 27 6b 09 3f 19 06 82 bf
       -0.03854753 -0.14052518 0.53679127 -1.0158111
000210 50 1d 97 3e c5 2d a6 be 1e 13 8d be a0 11 9f 3e
       0.2951455 -0.32456794 -0.27553648 0.31068134
000220 58 fa 47 be 77 af ff 3d 53 1e bb be 7a 57 a7 3d
       -0.19529092 0.12484639 -0.36546573 0.08170982
000230 a5 99 ac be 41 87 3e be 93 7c 05 3f dd 4e 46 bf
       -0.3371097 -0.18606283 0.5214321 -0.77464086
000240 8b 80 ac be 85 a4 63 3e 29 73 ca be 4a 11 25 3e
       -0.3369182 0.22230728 -0.39540985 0.16119877
000250 67 28 1a 3e 42 12 eb bc 66 57 c0 3e bb 03 6e bd
       0.15054475 -0.02869523 0.3756668 -0.058109026
000260 94 2f b2 3e 98 5c 16 bd 93 55 e0 be 5e 35 8f 3e
       0.34801924 -0.036709398 -0.43815288 0.27970403
000270 9e be ee be a3 fa 97 be 2f c2 2c 3f 1d 81 ab be
       -0.46629804 -0.29683408 0.674838 -0.33496943
000280 35 8a e8 3d eb 3d 82 be a5 c8 97 bd 64 74 35 3e
       0.11354486 -0.25437865 -0.07411317 0.17720181
000290 c5 36 d1 3e 01 6e c1 3d 1f 87 b1 be 93 d4 0d 3d
       0.40862098 0.0944481 -0.34673402 0.034626555
0002a0 a1 6a e5 3c 4f 19 0b 3f 36 2f 35 3e dd 85 17 bf
       0.028004946 0.5433549 0.17693791 -0.59188634
0002b0 b4 03 3b bf 27 45 3a 3d c7 76 d9 3d 6b a7 b8 3e
       -0.73052526 0.045476105 0.10618358 0.3606523
0002c0 8d 43 89 bf 2a e9 48 3f 37 b8 95 3f 36 aa 79 bf
       -1.072374 0.7848078 1.1696843 -0.97525346
0002d0 28 1d d3 be 71 c1 09 3f fe 9d f9 3e e9 5d 3b bf
       -0.41233182 0.53810793 0.4875335 -0.7319017
0002e0 8c 1d e5 be c9 ef b1 3d 82 8b 16 3e e9 cd 18 3e
       -0.44749105 0.086883135 0.14701656 0.14922298
0002f0 1a 21 56 3f 63 14 e9 be c8 93 65 bf 5b ca 48 3e
       0.8364426 -0.45523366 -0.8967862 0.19608442
000300 55 01 17 be 21 cc 41 be 29 39 f2 3d 3a f5 ba bc
       -0.14746602 -0.18925525 0.11827309 -0.022822011
000310 3f f5 f7 3e 0b ba ca 3d f5 2f b4 3d b1 87 a5 3e
       0.48429295 0.09898766 0.087982096 0.32330087
000320 eb 5a ae 3e 81 a2 7b 3e 89 7c e4 3d 99 2e 87 3e
       0.3405374 0.24573709 0.11156566 0.2640274
000330 b0 98 e5 be bc 3d b4 be 1a b0 6c bf 7e 54 9f bf
       -0.44843054 -0.3520335 -0.9245621 -1.244766
000340 09 c5 3a bd 62 bd 2d 3c fc ae b9 be f2 a2 8c be
       -0.045598064 0.010604234 -0.36266315 -0.27468067
000350 65 96 d9 bd e9 56 95 3d a2 e1 75 3e da 3c bc 3d
       -0.106243886 0.072919674 0.24011853 0.09191294
000360 a2 bf 44 3e da 91 b6 3e af 54 5c be 4a 0a 00 be
       0.19213727 0.3565815 -0.21516679 -0.12503925
000370 a4 f8 52 bf 4b a5 8d be 78 53 7f be a3 20 43 be
       -0.82410645 -0.2766517 -0.24934185 -0.19055419
000380 e1 ec ac be 27 23 0a 3e 53 83 79 bf a9 8a f0 be
       -0.33774474 0.13489972 -0.9746601 -0.4698079
000390 4d 56 d2 be 77 8e 72 3e fe 23 58 bf 8b 47 0f 3e
       -0.41081467 0.23687159 -0.8442992 0.13992135
0003a0 ac cc db bd f7 45 15 be 4a 3c db 3d 4a 70 b2 3d
       -0.107323974 -0.1457747 0.107048586 0.08712824
0003b0 ac 9d 15 bf b1 08 06 3f 92 2f 95 bf 3a 73 0b 3e
       -0.58443713 0.5235701 -1.1655142 0.13618174
0003c0 59 28 5b 3d 24 d8 33 3e 96 34 84 bc 83 ea 28 be
       0.053505275 0.1756292 -0.016138356 -0.16495709
0003d0 13 c4 ac 3b 64 22 87 be 1b 28 ed 3d 45 5b 2d 3e
       0.0052723973 -0.26393425 0.11579915 0.16929348
0003e0 55 b6 81 3d c1 7f d0 be b6 2c d2 3d 3c b4 46 be
       0.06333605 -0.40722468 0.10262434 -0.19404691
0003f0 dc 3c 78 be c1 29 3c 3e 8a 95 de be 7b 0b fe 3e
       -0.24241966 0.18375303 -0.43473464 0.49618134

conv_layers.1.bias f4 [16]
000000 f7 69 af 3e 02 1e 0e bf cf 9b 5b 3e 84 a9 5e bf
       0.34260532 -0.5551454 0.21446155 -0.8697741
000010 db 33 d7 be f5 41 04 3f 7e 8f 14 bf e8 85 4c 3c
       -0.4203175 0.5166314 -0.5803145 0.012483098
000020 23 57 67 3e 93 f4 be 3f 4f 65 1d be 25 1b ca 3e
       0.22591834 1.4918388 -0.15370677 0.39473835
000030 0d 11 a7 bd 3d 37 0c be 20 ed 17 be 47 43 77 be
       -0.08157549 -0.13692947 -0.1483655 -0.24146758

conv_layers.2.weight f4 [26, 16, 2, 2]
000000 3f 06 89 bd 73 61 44 be 20 a0 41 be e0 6e 96 be
       -0.066906445 -0.19177799 -0.18908739 -0.29381466
000010 60 b0 85 be 61 16 45 be 6e ba 0d 3d b6 9c 1d bd
       -0.26111126 -0.19246818 0.03460162 -0.03847953
000020 b0 1b 3b be a9 17 94 be eb 48 56 3e e2 1e 6d 3d
       -0.1827228 -0.289243 0.20926253 0.05789078
000030 fb 9c 67 be 29 b9 8a be 16 30 6f 3e f4 83 0a 3d
       -0.22618477 -0.2709439 0.23358187 0.033817247
000040 e4 d3 6d 3e c5 6f 09 3e 34 91 5d 3e f3 0c 47 3e
       0.23225361 0.13421543 0.21637422 0.19438533
000050 1b f3 a9 3d bf 78 07 be bd 17 b1 bd 7a fc 15 3d
       0.08298322 -0.13229655 -0.08647106 0.036617734
000060 6b 7c 50 be 2c f8 d7 bc 63 42 b8 bd 8d df 16 bd
       -0.20359962 -0.026363455 -0.08997037 -0.03683429
000070 76 73 8e be 1a 7f 30 bb 06 c0 65 be e1 81 ab bd
       -0.27822465 -0.0026931227 -0.22436532 -0.08374382
000080 6d 2d f4 bc da c4 b1 bd 43 fa 3a 3d aa 3a c4 3c
       -0.029806817 -0.086801246 0.045648824 0.023953754
000090 23 19 b1 bd 79 be 43 bd 9c f2 ea 3d f0 64 31 be
       -0.086473726 -0.04778907 0.11472055 -0.17323661
0000a0 42 b5 10 3e 16 13 43 be 5a b4 f1 3e 28 1c 44 be
       0.14131644 -0.1905025 0.4720791 -0.19151366
0000b0 1f 71 90 3d 74 8c b9 3a e7 4b 01 3d aa ce 08 3d
       0.07052826 0.0014156238 0.031566527 0.033400215
0000c0 0a 5f 52 be 97 fe fe bd 15 23 ec 3d 65 07 b9 3d
       -0.20544067 -0.12450903 0.11530129 0.090346135
0000d0 74 30 8e 3d d4 c1 0c bc 60 8b 44 3e 45 db 0e 3e
       0.069428355 -0.008591134 0.19193792 0.13950832
0000e0 83 1b cc be f8 8e 81 be cf 2d 65 be dc 3d 44 be
       -0.3986474 -0.2530439 -0.22380756 -0.19164222
0000f0 21 ed 4e be d5 21 b8 bd 92 9b 3c 3b 61 5c 86 3e
       -0.20207645 -0.08990828 0.002877925 0.26242355
000100 43 04 42 bb 90 6a 46 bd 1b af a5 3e 68 cd 93 3d
       -0.002960459 -0.04844147 0.32360157 0.072169125
000110 02 3e 4c 3e 3a 50 cc 3e 74 2e 15 be 1a b8 81 be
       0.19945529 0.39904958 -0.14568502 -0.2533577
000120 23 2f b0 bc 27 a0 49 be c8 85 ae 3e 55 3a 25 be
       -0.021506852 -0.1969 0.34086442 -0.16135533
000130 25 49 74 3d 8f 2b 0e 3e e4 f7 83 be 4d 72 c1 be
       0.05964007 0.13883804 -0.25775063 -0.37782517
000140 f8 ce c5 bd f3 36 81 be c3 ef 93 3d fd 9d fb bc
       -0.09658617 -0.25237235 0.07223465 -0.030714983
000150 54 eb 60 bd 43 3f 8f 3d 01 68 e2 bd a2 eb 9e be
       -0.054911926 0.06994488 -0.110549934 -0.3103915
000160 01 3b 1d be fd 51 99 bd 52 fe 5f be dc 64 0b be
       -0.1535454 -0.07486341 -0.21874359 -0.13612694
000170 cd a3 8b 3d 20 91 e5 bc 68 92 5a be 77 26 95 be
       0.06818352 -0.028023303 -0.21344912 -0.2913091
000180 28 6e 89 3c 34 5a 6a bd 52 dc a3 3d c5 af 35 3e
       0.01677616 -0.05721493 0.08001007 0.17742832
000190 c8 60 98 bd 93 64 75 be 15 a6 70 bd 9f 63 44 be
       -0.074403346 -0.23964147 -0.05875214 -0.19178627
0001a0 ac eb 46 be a3 77 87 be ba b6 2a bf a6 7b 55 bf
       -0.19425839 -0.26458463 -0.6668507 -0.833918
0001b0 9c 20 a3 3e 9d 7a f5 3d 53 46 b8 3e f0 49 42 3e
       0.31860816 0.11986277 0.35991153 0.18973517
0001c0 6a e7 ca 3d 76 31 b1 3e ec 79 84 3c 3c 29 52 3d
       0.0990742 0.34608048 0.016171418 0.051308855
0001d0 e9 64 ea be df 92 8f be 2f 7b f6 be a6 75 1c bf
       -0.45780113 -0.2804174 -0.48140857 -0.6111702
0001e0 67 0e 2d 3e 8d db c1 3e e4 1b 1f 3e 34 46 3f 3e
       0.16900025 0.37862816 0.15537983 0.18679124
0001f0 1b 62 8d 3e d9 09 d0 3e 31 97 d3 be cb f8 09 bf
       0.2761391 0.40632513 -0.41326287 -0.5389525
000200 ef 42 92 bd c9 f8 b0 bd f8 fa a7 be b0 71 0e 3e
       -0.07141673 -0.08641202 -0.3280866 0.13910556
000210 fa 2f ba 3e 72 06 4c bd 6c fb 70 3e 7c 8d 30 be
       0.36364728 -0.049810834 0.2353341 -0.17241472
000220 af 13 36 3f 57 94 c2 be 63 f6 28 3e 79 33 88 be
       0.71123785 -0.380038 0.16500239 -0.2660177
000230 72 f7 ae bd 9c a9 bb bd 80 c3 86 be a2 bb 65 bd
       -0.0854329 -0.0916321 -0.2632103 -0.056087144
000240 86 28 c8 be fd fb 09 be 45 9f cd be ff f6 4a be
       -0.39093417 -0.13475032 -0.40160576 -0.19820784
000250 a8 11 7b 3e ca 0f f8 3e 61 41 3c 3e 23 4a 9f 3c
       0.24518454 0.48449546 0.18384315 0.01944453
000260 4b 9e 09 3d 20 f5 9e be 79 a5 de bd 2c 49 43 bd
       0.033598226 -0.3104639 -0.10871405 -0.047677204
000270 22 ee 75 3e c4 80 0f 3e c9 6c 5c 3c 99 3e 9a 3d
       0.24016622 0.14013964 0.013453671 0.07531471
000280 4a 84 13 bf 9a b6 1a 3e d1 02 4d be 6d 1e f9 3d
       -0.5762373 0.1510872 -0.20020606 0.121640064
000290 cf bb f7 be 38 8d e9 be 04 5f df be bf 2a 5a be
       -0.48385474 -0.45615554 -0.4362718 -0.21305369
0002a0 7d 39 ac bd fc 1e 7f 3c 7c 2a 7e bd 95 92 96 bd
       -0.084094025 0.015571352 -0.062052235 -0.07352177
0002b0 00 0f 89 be 9d 44 09 3e 8e 27 0d be d2 30 9c 3d
       -0.26769257 0.1340508 -0.1378462 0.07626499
0002c0 96 8e 88 be 59 22 83 bd 27 f6 5d be 1c af 6c 3d
       -0.26671284 -0.06403036 -0.21675931 0.057784185
0002d0 0f 0b 9c bc 18 46 98 bd e5 0d 36 3d 13 80 66 3d
       -0.019048242 -0.07435244 0.044446845 0.056274485
0002e0 b6 05 8e be 64 f8 31 3e ad f7 59 be b1 c6 ed 3c
       -0.27738732 0.1737991 -0.21285887 0.029025408
0002f0 ed c2 f5 be eb 54 30 3e c2 ee cc 3d 5e 23 21 3e
       -0.4800028 0.17219894 0.10006477 0.15736148
000300 71 8b 65 be 4d 7d 97 bd 97 2d c7 be 9e d6 4b bd
       -0.22416474 -0.07396946 -0.3890197 -0.04976522
000310 6a 7c 39 3f 10 56 e0 be d6 10 30 3e 02 11 1b bf
       0.72455466 -0.4381566 0.17193922 -0.60572827
000320 98 d5 c7 be 93 7e b6 3e 3f 28 97 be 56 a3 12 3f
       -0.39030147 0.35643443 -0.29522893 0.5728048
000330 ea 12 0b be ff ea ab bb 07 38 38 be 1b cd c1 bd
       -0.13581434 -0.0052465196 -0.17990123 -0.09462949
000340 53 b9 10 3e e5 1d 3c be ba af 68 be a1 d7 4a be
       0.14133196 -0.18370779 -0.22723284 -0.19808818
000350 57 29 38 3e 18 e8 2f be 3d 0a 4c 3e 44 50 83 be
       0.1798452 -0.1717838 0.1992578 -0.25647175
000360 e4 06 cd 3c 29 c3 9b 3d e6 5a 63 be e0 64 08 3e
       0.0250277 0.07605583 -0.22202644 0.13319731
000370 f0 d6 a9 3e 70 2b 42 be f3 f4 b1 3d ec e8 a7 be
       0.33171797 -0.18961883 0.086892985 -0.32794893
000380 f3 ba 60 bd 4e 21 25 3e da 99 0d bd 16 54 fd 3e
       -0.05486579 0.16125986 -0.034570552 0.49478215
000390 93 00 f1 bd 1f 29 f2 3d be 7a c7 bd ed 7b a2 bd
       -0.11767688 0.118242495 -0.09740208 -0.07933793
0003a0 5c e6 c2 3d 4b eb f4 3d 8b 32 a4 3d 56 97 13 be
       0.09516594 0.11958941 0.08017453 -0.14413199
0003b0 d3 61 5d 3d 59 fb 0d be 5c b8 91 3c c0 3d ea bd
       0.05404837 -0.13865413 0.017788105 -0.11437559
0003c0 33 34 72 bd c3 13 f6 3d 6e 9a 8f bd 3a fc af bc
       -0.059131812 0.12015488 -0.07011877 -0.021482576
0003d0 f1 10 7a be 2b d1 36 bd 38 3b ec be a8 43 a8 3c
       -0.24420525 -0.044633072 -0.4613893 0.020540074
0003e0 1e 76 fe 3d 28 89 c3 be a9 49 c9 3d 49 72 1b bf
       0.12424873 -0.3819058 0.09828503 -0.6072126
0003f0 67 ee 69 3e 89 29 1c be 10 3e 6c 3e 4a 17 3c bd
       0.2284485 -0.1525022 0.2307055 -0.045920648

conv_layers.2.bias f4 [26]
000000 22 6a 9d be c4 1b 68 3f 55 e3 0b 3f 10 d6 2d 3e
       -0.30745035 0.90667367 0.54643756 0.1697619
000010 34 c7 d1 3f 38 51 3e bf 68 65 79 3d ec 24 c2 be
       1.6388917 -0.7434268 0.060887724 -0.37918794
000020 14 f1 94 3e 5a 64 5d be 34 77 25 bf 99 9c 97 be
       0.29090178 -0.21620312 -0.64635015 -0.29611662
000030 89 5c cb 3e 74 70 07 3f ad 45 51 3e 09 76 e1 3d
       0.39719036 0.52905965 0.20436735 0.110088415
000040 df d9 2b be c9 4e 94 3e b6 dd b6 bd 1c 55 e7 be
       -0.1678233 0.28966358 -0.08929007 -0.4518212
000050 db b5 9b 3e 0b 43 62 bf 1b 13 2e 3f 9d 69 92 3d
       0.30412182 -0.8838355 0.679979 0.071490504
000060 31 d9 8d 3d 2c 3b 36 be
       0.069261916 -0.1779601

conv_layers.3.weight f4 [36, 26, 2, 2]
000000 5a 5e 97 bd 40 d1 4d 3e 44 e3 61 3d b7 c7 38 3e
       -0.07391043 0.20099354 0.055148378 0.18044935
000010 1e d4 08 bd fc 16 6e be fa d1 b3 3d 86 27 5d bd
       -0.033405416 -0.23250955 0.08780284 -0.05399277
000020 80 96 38 bd fe 38 4d be ba 7e 37 bd 38 45 82 bd
       -0.045065403 -0.20041272 -0.04479859 -0.06360859
000030 27 1e 27 be 69 c9 af be 0f 6d 20 3d 06 0d ab 3c
       -0.16320096 -0.3433335 0.039166506 0.020880233
000040 00 7c f3 3b 8d 36 5b bd 8d 4c a2 3d 2f ef 20 be
       0.0074305534 -0.05351882 0.07924757 -0.15716241
000050 78 af c7 bc 0d 6e 24 3e e0 0d 04 bd 56 8a a3 3d
       -0.024375662 0.16057606 -0.032239795 0.0798537
000060 a9 df 17 bc ac 66 86 be c8 f8 12 be e3 40 75 bd
       -0.009269633 -0.26250207 -0.14352715 -0.059876334
000070 f4 e4 a5 be 10 da 88 be 28 52 ba 3d 7f 06 a8 3e
       -0.3240124 -0.26728868 0.09097701 0.32817456
000080 12 f9 b5 3e 9c d7 14 3d f3 4a 3b 3d 0d cc 02 be
       0.35541588 0.036338434 0.045725774 -0.12773152
000090 ce 6c d7 3d 01 ed b0 3d 28 b7 66 bd b4 21 5b be
       0.105188 0.08638955 -0.056327015 -0.21399575
0000a0 c6 a5 09 be 5b 46 0b 3e 29 7f 80 3d 97 bf fa bc
       -0.13442144 0.13601057 0.06274254 -0.030608935
0000b0 5c c4 60 3e 01 82 b4 3d c5 c2 b2 3e e4 ca be bc
       0.21949905 0.08813859 0.34914222 -0.023290105
0000c0 a4 6d 3a bd 63 32 2b bd 38 76 99 bc b3 e4 a8 3e
       -0.045514718 -0.0417961 -0.018733129 0.32986984
0000d0 01 ce d5 bc 38 3b bf 3b f4 59 16 bd 83 a4 23 3e
       -0.026099207 0.005835917 -0.03670688 0.15980725
0000e0 a0 99 21 bd d1 7b b2 bd 44 4f 8a be 3e 0b ef bd
       -0.03945315 -0.08715022 -0.270136 -0.11672066
0000f0 3a de 27 be d2 39 23 bd 03 ab f0 bd b0 32 dd bc
       -0.16393366 -0.039850064 -0.11751368 -0.027001709
000100 52 cb b4 3c 30 66 5a 3d ff 53 e7 3d 7e cd e8 bd
       0.022069607 0.05332011 0.11295318 -0.113673195
000110 60 90 e3 3d dd 99 f6 3c 7f 21 5c be ea 18 39 bd
       0.11111522 0.030102665 -0.21497153 -0.045189776
000120 69 b3 b6 bd 38 c5 8a be 54 84 f2 bd ae a4 3d bd
       -0.089209385 -0.2710359 -0.11841646 -0.04629963
000130 01 63 62 bd 0b 40 ac bd 7b a3 ba 3e 3e 26 78 3e
       -0.0552702 -0.08410653 0.3645285 0.24233338
000140 98 0d c5 3d 1f a0 f2 3d 5a 2d 76 be 30 d6 4e 3e
       0.096217334 0.11846947 -0.24040738 0.20198894
000150 5d a5 07 3e 68 71 47 bd 6d c7 65 be 6b 45 88 3c
       0.13246675 -0.048692137 -0.22439356 0.016634664
000160 1d c1 e6 3b af 2d bc be 9e 20 97 be 4d 0c ef bd
       0.007042064 -0.36753604 -0.29517072 -0.11672268
000170 ac 73 b4 3c 29 36 b8 bc 6f a4 83 3d 25 d0 71 3e
       0.022027813 -0.022486763 0.064278476 0.23614557
000180 5d 1e ae 3e a2 68 19 3e 51 32 87 bd 0d 75 73 3d
       0.3400754 0.1498132 -0.06601394 0.0594378
000190 df 03 26 bd 4f 1b 79 3e ad a9 51 bd 03 07 98 3e
       -0.040531036 0.24326824 -0.051187206 0.2969285
0001a0 e1 c5 61 3a e2 3b 44 be 98 e7 1a bd 93 c4 26 bc
       0.0008612555 -0.19163468 -0.03781852 -0.010178703
0001b0 94 d0 c4 3c 78 96 65 3e 2b 43 92 3d 3a e6 20 3e
       0.024025239 0.2242068 0.071417175 0.15712824
0001c0 6e 24 81 bd 5c 08 ce bd 41 5c 5c be 6f d7 51 be
       -0.063057765 -0.10060188 -0.21519567 -0.20492338
0001d0 4e 70 c2 bd 72 e4 1e bb 24 9d d0 bd 77 3a d0 3d
       -0.09494077 -0.002424505 -0.10186222 0.10167401
0001e0 6e 7b f1 3d 48 07 33 be f5 2b bf 3e 5a 70 d1 3e
       0.117911205 -0.17483246 0.37338224 0.4090603
0001f0 4d 1d 08 3b 2d 3e 02 3f ac f0 30 3d dc 78 a5 ba
       0.0020769418 0.5087612 0.043198273 -0.001262452
000200 2d 9e ee 3c f3 6d 12 3e 96 aa c2 3c 4c 71 0a 3e
       0.029128158 0.14299755 0.023762982 0.13519782
000210 56 af f4 3d 51 cb 02 3f b4 88 e7 bd 9a 90 ed be
       0.11947505 0.51091486 -0.11305371 -0.46399385
000220 b3 97 bb 3d 12 5d e8 3d 35 2b 79 3d e7 96 66 37
       0.09159794 0.11345877 0.06083222 1.3744203e-05
000230 fe 52 08 bd d5 b7 95 be 40 00 ad 3d cb 34 f4 3c
       -0.033282273 -0.29241815 0.08447313 0.02981033
000240 8d 47 8e bd 8e 35 fd 3d e3 26 94 be 32 6d af be
       -0.06947241 0.1236373 -0.28935918 -0.34262997
000250 b8 78 19 3d c8 b2 80 3d 7e 3a 0f be 25 19 02 be
       0.037468642 0.062841 -0.13987157 -0.12704904
000260 a4 a8 48 be c9 78 11 be ba cd 1d 3d 21 57 04 be
       -0.19595581 -0.14206232 0.038526274 -0.12923862
000270 c1 d0 fc 3d 78 6d ff 3d e1 74 eb be f3 31 1a bd
       0.12344504 0.124720514 -0.4598761 -0.03764529
000280 90 6a a2 bd f4 7e b0 bd ea f0 2f 3e 0f a7 f1 3d
       -0.079304814 -0.086179644 0.17181745 0.11799442
000290 75 56 0b be 83 60 e6 bc e6 91 0e 3c 98 92 6b bc
       -0.136072 -0.028122192 0.008701777 -0.014378212
0002a0 bc e3 ba bd d3 58 c9 3d 13 02 64 bd a5 3b cb bc
       -0.09125468 0.09831395 -0.05566604 -0.024808714
0002b0 94 07 fe bd 8a 1c 4c bd 48 a8 ba bc 9a f6 9d 3d
       -0.12403789 -0.049831904 -0.02278532 0.07713051
0002c0 74 2d d8 bd 81 b9 8f 3d fe 0d 56 be bd d2 03 bf
       -0.105555445 0.07017804 -0.20903775 -0.51493436
0002d0 fc ba f3 bd 36 d3 c1 3e 78 ab 36 be 15 35 c2 bd
       -0.11900899 0.37856454 -0.17838848 -0.09482781
0002e0 69 1d fa bc d5 2d a8 bd 67 01 41 be 26 19 57 be
       -0.030531602 -0.08211867 -0.18848191 -0.21005687
0002f0 f4 56 2a 3d f0 f8 b7 3e d8 49 d7 be 04 56 39 be
       0.04158683 0.35932112 -0.42048526 -0.18099219
000300 a0 9b 73 3e f2 46 46 3e c9 87 0f 3e 49 e4 a6 3e
       0.23789835 0.19363001 0.14016642 0.32596043
000310 ce 0c 36 bb 40 49 65 3d 77 eb 8c bc f9 d5 5f 3c
       -0.0027778628 0.05597806 -0.017202122 0.013661855
000320 79 34 d0 bd 2c 9a 15 3e 0a 3b 4e be 91 aa 14 be
       -0.10166258 0.14609593 -0.20139709 -0.14518191
000330 ca c7 86 3c 49 2f 2a 3e db 49 59 3d 31 51 91 be
       0.016452689 0.166196 0.05304895 -0.28382257
000340 14 6e 89 3d 69 12 b4 bd 41 7f 93 3d dc e0 ab 3d
       0.06710449 -0.08792574 0.07202006 0.08392498
000350 9c 99 e4 3d 55 5d 9d 3e 57 d5 59 3e a3 3a f1 3c
       0.11162111 0.3073527 0.21272789 0.029446905
000360 9e 80 60 bd 10 41 49 bc be c0 db bd f7 0f 73 3b
       -0.05481016 -0.0122835785 -0.10730122 0.0037088373
000370 a4 09 a5 bd 6a 36 75 bd 23 80 74 3c 97 ac a0 3d
       -0.080584794 -0.059866346 0.014923128 0.07845419
000380 ce e1 f6 3c 76 7a cd bd 3d a1 50 3d 34 58 b2 3d
       0.030136969 -0.10033123 0.05093502 0.0870823
000390 05 cf 1e 3d 92 34 91 3d aa 4e b7 3c 5a a7 02 3c
       0.038771648 0.07090105 0.022376377 0.00797447
0003a0 cd 98 56 3e 2d 7c 46 3d 7d 16 a8 3d 82 fb cb bd
       0.20956726 0.048458267 0.08207414 -0.09960081
0003b0 89 5a c0 bd 3a 1b 24 bd 73 1b 01 be b8 74 0a be
       -0.09392268 -0.040065028 -0.12608127 -0.13521087
0003c0 e6 31 e7 3d ea 3a c4 3d 97 72 3e 3d e1 97 f6 bc
       0.11288814 0.095815495 0.046496 -0.030101718
0003d0 4b f8 9a 3b bf b0 8f bd 98 5f d3 bc 17 87 54 bd
       0.004729306 -0.070161335 -0.025802419 -0.051886644
0003e0 c8 0a 39 bd 86 d6 25 3d ba 69 a3 3d 95 06 87 3d
       -0.045176297 0.04048779 0.0797915 0.06593052
0003f0 76 42 dc 3b cf 4c 1b bd dc b0 a3 3d 26 a1 f8 bb
       0.00672179 -0.037915047 0.079927176 -0.0075875698

conv_layers.3.bias f4 [36]
000000 2a 2d 94 3e 53 b6 13 3f 22 b9 06 3c b7 58 13 bd
       0.28940707 0.5770008 0.00822285 -0.035973277
000010 68 64 d0 be 61 cd 2e be d9 ec 98 3d de ae 33 3f
       -0.40701604 -0.17070533 0.0746705 0.701887
000020 c1 0f 4d 3e ef 71 15 bf 27 c5 d8 bd 1b 1f a3 bd
       0.20025541 -0.58376974 -0.10584479 -0.07964917
000030 8c e7 0f bf a7 b7 e9 be f0 e2 73 be 95 e2 09 3d
       -0.5621269 -0.45647928 -0.23817039 0.03366335
000040 0b 99 6b 3e a7 52 5e 3f b8 10 00 bf c8 53 02 bf
       0.230076 0.8684487 -0.5002551 -0.5090909
000050 48 44 3e be 62 75 88 3e 1b 8b 84 3f 8d 0e 85 be
       -0.18580735 0.26652056 1.0354952 -0.25987664
000060 12 f9 fa bd 01 c3 92 be 5d 9c 44 3d 6c f9 37 be
       -0.12254538 -0.286644 0.048000682 -0.1796624
000070 54 57 15 3e 83 2a f5 3d 23 77 19 bf 89 4b b3 3f
       0.14584094 0.11970999 -0.59947413 1.4007427
000080 9a 1a 2a 3d 8f c8 fc bc 1e 95 42 bd 2e 99 35 3e
       0.041529275 -0.030857353 -0.04750549 0.17734215

conv_layers.4.weight f4 [50, 36, 2, 2]
000000 19 90 4c 3e bc 80 06 be 43 cc c6 3d 29 d9 cd 3c
       0.19976844 -0.13135046 0.097069286 0.025127964
000010 10 64 af be 9a 03 17 bd f6 d8 9b be 94 dd f6 bd
       -0.3425603 -0.03686867 -0.30438966 -0.120539814
000020 6c af 87 3d ed 54 12 bc f4 06 48 3d cb b7 ba bd
       0.06625256 -0.008931381 0.048834756 -0.09117087
000030 e5 0d 89 3e c7 a8 9b bd 99 86 36 bd 58 45 b2 3c
       0.26768413 -0.07600551 -0.044561956 0.021761581
000040 6b 2b ca bc 3e 83 a8 3d 1d 2c 39 3e d9 78 39 bd
       -0.024678906 0.082281575 0.18083234 -0.045281265
000050 84 4b 8d 3d 4e 35 dc bd bf fa 76 bd 73 8a 76 3d
       0.06899169 -0.107523546 -0.060297724 0.06019063
000060 10 52 18 bd c7 21 22 bd 4b ed 97 bd c2 33 97 3d
       -0.037187636 -0.039582994 -0.07418307 0.07382919
000070 c1 33 be bd 3b 40 0f bc aa 40 3e be 73 fb b1 be
       -0.09287215 -0.008743341 -0.18579355 -0.34762153
000080 fc 93 d2 bd 43 f6 3a be a8 8e 61 bd 7d 80 3e be
       -0.10282132 -0.18258004 -0.05506769 -0.18603702
000090 e3 51 bf 3c 76 ce 26 bd b7 4c 6b bd 32 89 f9 3d
       0.023354476 -0.04072424 -0.057446208 0.12184371
0000a0 5d bc 13 be 4a 1c fe bc 6a b7 93 be fb 8f 96 bd
       -0.14427324 -0.031019349 -0.2885087 -0.07351681
0000b0 4b 06 1b bd 85 14 8e bc 9f a6 ac bb 0e 04 3c bd
       -0.0378478 -0.017343769 -0.005268886 -0.045902304
0000c0 7e e6 c3 bc 27 14 cf 3d 6b d8 07 be 21 1b cc bb
       -0.023913618 0.10111266 -0.1326615 -0.00622882
0000d0 3b b9 00 bc b4 2e ea 3d 60 12 3d bd a4 49 ad bd
       -0.007856662 0.11434689 -0.046160102 -0.084613115
0000e0 e2 84 d4 bd 0d 96 a6 bd db e7 e2 bd ee 28 05 be
       -0.10376908 -0.08134089 -0.11079379 -0.13003895
0000f0 3c 01 27 3c b4 e2 22 3e 72 6a 3c bd c7 1f 33 be
       0.010193165 0.15906793 -0.04599995 -0.17492591
000100 19 bc bd bc a4 1e 79 3d 54 5c 06 bd 6c 4a f8 bd
       -0.023160981 0.060820237 -0.032802895 -0.1212357
000110 58 de df 3d fb 14 b7 bd d8 ac 83 3d 47 8a 1a 3e
       0.109310806 -0.089395486 0.06429452 0.15091811
000120 aa db a4 3d f9 e3 a0 bc 39 c9 f7 bd e5 88 1e be
       0.0804971 -0.019639956 -0.12098927 -0.15481909
000130 1c 18 ab bd c1 0c 70 3e ce 27 6b bd 6f db b2 bd
       -0.08354208 0.23442365 -0.057411008 -0.0873326
000140 f8 0e 2f be f1 a3 4f 3d 25 fb 07 be e5 e7 f2 bc
       -0.17095554 0.050693456 -0.13279398 -0.029651592
000150 b3 6a 0a be 18 a3 24 3d e9 87 97 bd f8 7f 80 3d
       -0.13517265 0.0401946 -0.0739897 0.06274408
000160 bd 4c 0c ba 1a d2 93 bd 4f 7e 5f 3e 4a a3 6b 3c
       -0.0005352011 -0.07217808 0.21825527 0.014382193
000170 f3 3f 48 3d 3a 1d 7f bd 38 ed f4 3d f7 ac 5f 3e
       0.04888911 -0.062283732 0.119593084 0.21843325
000180 a4 3f 5a bd d0 fe 50 bc 2b 64 ab 3d 5d 73 bf 3d
       -0.05328335 -0.0127560645 0.08368715 0.09348176
000190 d4 e1 8e 3c 79 34 99 3d 91 c2 8b 3c a9 64 0d be
       0.017441668 0.074807115 0.01706055 -0.1380793
0001a0 ed 27 ce 3d b5 f9 fa bc 4e c7 cd bd c5 62 f4 3c
       0.10066209 -0.030636648 -0.1004778 0.029832253
0001b0 e0 83 05 be eb 0c 85 bd 8d f4 98 bd 55 81 08 3e
       -0.13038588 -0.064966045 -0.07468519 0.13330586
0001c0 87 ab be 3c 97 d8 93 be 28 17 6a bc 94 57 9a 3d
       0.02327515 -0.28876182 -0.014287747 0.075362355
0001d0 dc e9 00 be 5a 58 56 3d dd ec 19 be d4 91 0e be
       -0.1258921 0.052330352 -0.15031762 -0.13922817
0001e0 92 c2 01 be 43 69 e0 3c dd b5 37 bd fd 4e 1b be
       -0.12671879 0.027393943 -0.044851173 -0.1516685
0001f0 ef 4b 9a bd 49 95 01 bd 2f 3e 8d 3e f8 0e 88 3e
       -0.075340144 -0.03163651 0.27586505 0.2657392
000200 4f 1f 00 be ca 78 80 bc b2 01 df 3d 17 c3 34 3d
       -0.12511943 -0.015682597 0.10888995 0.044131365
000210 67 bf 80 bd f4 7a 6c be 99 1a e2 3d cd 6e d6 bd
       -0.06286507 -0.23093778 0.11040229 -0.10470352
000220 de 51 1b be b0 4a 83 3e a2 20 1f bd e5 26 87 3d
       -0.15167949 0.2564292 -0.03884948 0.065992154
000230 49 92 e1 3d bd df af 3e 19 04 42 be 83 e6 48 bc
       0.1101423 0.34350386 -0.18946876 -0.0122619895
000240 7a f2 55 bd ff f3 9b 3c fb e5 85 bd cf fb 72 3d
       -0.052233197 0.019037245 -0.06538006 0.059322175
000250 66 e0 2b 3d 44 49 cf bd 19 5d ea 3d ad 41 e3 bc
       0.04196205 -0.10121396 0.11443538 -0.027741278
000260 29 e9 8f bd 0d 0e c6 bd eb 1f 17 3d b8 46 6e bd
       -0.07026894 -0.09670649 0.036895674 -0.05817291
000270 30 61 a6 3c 59 85 dc bd c8 29 30 bd 07 a5 75 3c
       0.020310014 -0.107676215 -0.043008596 0.014992959
000280 31 67 74 bc 46 2e 70 3e 08 f7 d5 bd e8 8a ce bd
       -0.014917181 0.23455152 -0.10447508 -0.10085088
000290 e6 91 d3 3c 68 9c 95 3d 2a 77 df bd 9a 1c a5 3d
       0.025826406 0.07305223 -0.109114006 0.08062096
0002a0 47 78 0b 3d 15 12 55 bd f3 68 1d 3d 3e d3 fb 3d
       0.034050252 -0.052019197 0.038430165 0.122961506
0002b0 07 13 19 3e fe fa 90 3d e5 68 98 3e 5b 0c 36 3e
       0.14948665 0.07079123 0.29767528 0.1777815
0002c0 b8 d0 2c 3c 29 03 b1 3c c9 f3 29 bd ef 1e a3 bd
       0.010547809 0.021607952 -0.041492257 -0.079648845
0002d0 07 0b 2b bc 46 f3 7c 3d 18 78 93 3c 79 d0 1a 3e
       -0.010439641 0.06175544 0.018001601 0.15118589
0002e0 27 83 05 bd 93 2f ec bd 16 f2 92 3d ca 60 1d be
       -0.03259578 -0.115325116 0.071750805 -0.15368953
0002f0 cf 72 02 3c ae 6a 12 3c 72 f1 d9 bc 80 87 31 bd
       0.007961943 0.008936567 -0.026604388 -0.043342113
000300 bf 26 8f be 1a 68 cc be 9b 4e 65 3c bb 37 a4 3e
       -0.27959248 -0.39923173 0.013995792 0.3207377
000310 6f 7a 71 3c 46 9a bb 3d 9c d5 05 bd cc 03 69 3d
       0.014738663 0.09160285 -0.032674417 0.056888387
000320 f1 8a 76 bd 13 cc 93 bd ee 2c 8d 3e 57 b5 63 3d
       -0.0601911 -0.072166584 0.2757334 0.05559286
000330 db 6c d8 3c db 85 ad bd f9 68 6a bb 30 5a b8 bd
       0.026419094 -0.084727965 -0.0035768135 -0.09001577
000340 0f d0 6d 3d 62 68 28 3d c3 1a 73 bc 24 b3 38 bd
       0.05805975 0.041115172 -0.014837923 -0.045092717
000350 2d b4 22 be c8 be 7a be ad 8e 79 be f0 78 8e be
       -0.15889044 -0.2448684 -0.24370833 -0.27826643
000360 10 0b c7 bb 96 cf 1f bd b6 94 0d be e0 78 28 bd
       -0.006074317 -0.03901633 -0.1382626 -0.0411309
000370 8a 73 28 3e 53 7d df 3d 72 f7 44 bd 63 63 80 bb
       0.16450325 0.109125756 -0.048087545 -0.003918098
000380 c4 52 05 3c e3 c0 6c be de 41 d4 3b bb ba 45 3e
       0.008137409 -0.23120455 0.0064775785 0.19309513
000390 fd 59 2c bd 28 69 28 be 11 66 ad 3c 3f 58 db 3d
       -0.042078007 -0.16446364 0.021166833 0.10710191
0003a0 37 09 5a 3b 6a be 15 be 51 2c 72 3e ef f3 67 3e
       0.0033269653 -0.14623418 0.23649718 0.22651647
0003b0 02 0a 39 be 69 55 12 be fd 2d 0e 3e 78 80 df 3d
       -0.18070224 -0.14290394 0.1388473 0.10913175
0003c0 61 53 ad bc 95 37 c7 bd 1b 05 8a 3c 12 a1 73 3e
       -0.021157922 -0.09727398 0.016848138 0.23791912
0003d0 ee 49 4d 3c f2 90 f9 3c 6f 9a a7 bd 05 d4 8d bb
       0.012529833 0.030464623 -0.08183753 -0.004328253
0003e0 1f cf a9 bc c7 09 e4 3d b0 13 a1 3a 90 fb e1 3d
       -0.020728646 0.111346774 0.0012289193 0.1103431
0003f0 cd 39 e5 3c 0d 48 9e bd 21 6e a4 bd 18 c3 69 bd
       0.027981663 -0.07728586 -0.08028818 -0.05707082

conv_layers.4.bias f4 [50]
000000 7b 98 3a 3e b9 ec 14 3e 84 03 43 bd 7a 9c 4d 3e
       0.18222229 0.14543428 -0.047610775 0.20079222
000010 74 50 a7 3e 20 8d 34 3e 5f 25 68 3c e4 a6 33 bd
       0.32678568 0.1763196 0.014169066 -0.04386033
000020 44 3b 3f 3e 2f 44 ad be 09 4d a6 3e bd ba 0d 3e
       0.18674952 -0.33841082 0.32480648 0.13840766
000030 55 6a 1c 3c f2 a1 76 3e 08 a4 71 3d 64 03 25 3e
       0.009546836 0.24085215 0.058994323 0.16114575
000040 4e 96 8f bc 6f c3 f7 be 70 f5 3a 3e 38 cf 8d 3e
       -0.017527726 -0.48391291 0.1825769 0.27697158
000050 6b b0 d7 3c 6f cd 60 3e 45 98 cf 3e 8e f2 07 be
       0.02632924 0.21953367 0.4054586 -0.13276121
000060 c5 01 3f 3d c2 67 a6 be 33 44 51 3e d5 58 a2 bd
       0.046632547 -0.32501036 0.20436172 -0.079270996
000070 39 55 46 3f 22 9a 07 3e ca 30 f1 be 0d ff e9 bd
       0.7747379 0.13242391 -0.47107536 -0.114256
000080 bf c2 25 be 9c a3 25 bf 13 c3 22 3e 56 29 13 3e
       -0.16187571 -0.64702773 0.15894727 0.14371237
000090 9e 80 64 be d9 8e e0 bc 55 b4 5c 3e e5 59 f5 3e
       -0.22314689 -0.027411865 0.21553166 0.47920147
0000a0 d0 09 1a 3e 77 5a 93 be c3 5d 03 be 02 d5 3e be
       0.15042806 -0.28779957 -0.12828736 -0.18635944
0000b0 8b 6c 0a be 7c 25 95 3d 18 47 0d 3e 57 c7 42 be
       -0.13517968 0.0728254 0.13796651 -0.19021355
0000c0 dc f8 9a bd ff f5 bd 3d
       -0.075669974 0.09275436

fc_layers.0.weight f4 [120, 50]
000000 bf cc fb bd 9d fb bf bd 2e fd 2a 3c 64 12 0d be
       -0.122949116 -0.09374163 0.010436339 -0.13776547
000010 db e8 ed bd 72 bb d6 3b 2f 6c 90 bd ee c6 d2 3b
       -0.11616679 0.006553107 -0.070518844 0.0064324057
000020 f3 d2 88 3b 9e e8 13 3d fc 83 43 bc d9 46 c3 3d
       0.0041755377 0.036110513 -0.011933323 0.095349975
000030 e1 33 48 3a 12 9b 24 3e 4f 02 20 be 7d cf 3e 3c
       0.0007637125 0.1607478 -0.1562588 0.011646149
000040 75 b3 10 be 87 da 08 be 6b 4a 1e be b1 ab c2 bd
       -0.14130957 -0.13364612 -0.15458076 -0.09505404
000050 82 48 aa 3d ae 65 03 be a2 cc ba bd 8f c6 90 bd
       0.08314611 -0.12831756 -0.09121062 -0.07069122
000060 ad a7 95 bd 83 ea b3 3d 58 af 66 bd f9 bf 91 bc
       -0.07307372 0.08784964 -0.056319565 -0.017791735
000070 79 a4 8e bc 19 89 e8 bc a9 4d 9d 3d 03 af 97 bd
       -0.017412411 -0.028385686 0.07680828 -0.07406428
000080 8e 3e 6b 3d 22 a0 b8 3d 72 50 06 bd 15 d6 64 bd
       0.057432704 0.09014918 -0.032791562 -0.055868227
000090 4b a7 f8 bd f3 46 2d bc 13 26 de 3b bc 67 1b 3d
       -0.121412836 -0.010575998 0.006779441 0.037940726
0000a0 26 7a 04 bd d8 02 cc bd 5d 5b 97 bd ca 0b e8 bc
       -0.032343052 -0.0996148 -0.07390473 -0.028325934
0000b0 a0 dc 48 3c 90 0c a3 bd 14 83 c5 3d 21 2a 81 bd
       0.012259632 -0.079613805 0.09644142 -0.063068636
0000c0 64 06 dd bd c3 a7 ba bd 44 e6 38 be 3d b8 08 bc
       -0.107922345 -0.09114029 -0.1805659 -0.008344707
0000d0 b1 6a 88 bc 24 ba 0e 3d c1 e7 79 bd 93 75 90 3d
       -0.016652437 0.034845486 -0.061012033 0.070536755
0000e0 23 3d a9 bd c3 c2 ca 3d 3f 1a dc bd f3 a7 e1 bc
       -0.08263614 0.09900429 -0.107471935 -0.027545905
0000f0 a7 06 fb 3d de 2a 79 3d 7a 3c 60 3d 7e 87 49 3e
       0.12257128 0.060831897 0.054745175 0.19680592
000100 5b 22 e2 bd 2a 9b 93 bd b8 83 af 3d 90 dd d9 bd
       -0.11041709 -0.072073296 0.08570045 -0.10637963
000110 c7 12 f7 3b 63 e6 df bd 4b 24 d9 bd e0 23 c9 3d
       0.00754008 -0.10932615 -0.106026255 0.09821296
000120 1f 31 08 3e 78 63 7e bd 52 ed b8 3d 87 df 82 bd
       0.13299988 -0.06210658 0.0902964 -0.06390291
000130 09 2a 87 3d 1f 3a d6 bd 9c 8b 5a 3d 9d 05 19 bd
       0.065998144 -0.104603045 0.053355798 -0.03735887
000140 58 1b 93 3d 3e 39 37 3e 40 49 2f be de 07 fa 3d
       0.0718295 0.1789293 -0.17117786 0.12208532
000150 8b 52 4a be 18 05 f2 bb fa c4 55 be f1 53 05 3e
       -0.1975805 -0.007385861 -0.20875922 0.13020302
000160 48 d0 97 3d f7 b2 e4 3d 8a 1f a4 bd 7a 29 c3 bc
       0.07412773 0.11166947 -0.08013828 -0.023823489
000170 ef c2 12 3d b4 4e 02 bd d1 64 23 be 09 7c c9 bc
       0.035830434 -0.03181334 -0.15956427 -0.024595277
000180 30 66 eb 3d 7f b4 55 3e 86 50 05 bd 2a d5 0c be
       0.114941 0.20869635 -0.032547496 -0.1375319
000190 57 ff 2c 3e 5a 25 da 3c f4 21 16 3c 9e 40 b9 3d
       0.1689428 0.026629139 0.0091633685 0.09045528
0001a0 b1 7d f8 3d 60 84 bd bd 84 45 eb 3d 33 a1 bc 3c
       0.12133349 -0.09253764 0.114878684 0.023026085
0001b0 37 22 53 bc 38 27 42 3c ad 70 d1 3c 3a c3 22 be
       -0.012886575 0.011850171 0.025566423 -0.15894786
0001c0 16 77 3b bd 3a ec 15 be cf 93 43 be be 3b a3 bb
       -0.045767866 -0.14640895 -0.19099353 -0.004981487
0001d0 1a 0d 88 3d b0 90 ad 3d 9d c2 35 3e 50 2d 36 bd
       0.06643124 0.084748626 0.1775002 -0.044476807
0001e0 8c 70 14 be cf ec 84 bd e0 1e 2b 3e 4c bf 5e be
       -0.14496058 -0.0649048 0.16710997 -0.21752661
0001f0 5a 8a 9c 3d 35 cf b4 3d 3b 19 e4 bd c9 0c 4a 3c
       0.07643576 0.08828584 -0.11137625 0.01233215
000200 19 0e 15 3d 73 e4 f5 bd 1e 81 0c 3e e0 35 c3 bd
       0.036390398 -0.12006464 0.1372113 -0.0953176
000210 13 61 94 bd f6 29 18 be 26 f6 33 be 0f 73 4b 3d
       -0.07245078 -0.14859757 -0.17574367 0.049670275
000220 fb d9 e0 bd 14 a6 e7 bd bf 09 b1 3c 73 a5 24 3e
       -0.109790765 -0.11310974 0.021611093 0.16078739
000230 b7 67 06 be ce 83 e8 3c 3d e2 65 3d 25 a2 5e 3e
       -0.13125502 0.028383162 0.05612396 0.2174154
000240 48 5c 40 bd c7 f5 b7 bd 27 a9 e7 bd bd 93 a4 3d
       -0.046963006 -0.08982425 -0.1131156 0.08035991
000250 59 8e 88 3d af f0 ed bd 75 8c 87 bd 8d f8 af bc
       0.06667776 -0.116181724 -0.06618587 -0.021480823
000260 da c7 08 be d9 07 2f bc 9c 48 56 be 8d 32 46 3d
       -0.13357487 -0.010683023 -0.20926136 0.048388053
000270 34 0f 2e 3d 8d c8 c5 bd c4 b6 2f be fa 06 42 3d
       0.042494968 -0.09657393 -0.17159563 0.047369935
000280 ed 8f 56 be 5e c6 ad bd 18 cd e4 bd 89 f4 f5 bd
       -0.20953341 -0.08485101 -0.11171931 -0.12009532
000290 dd e0 2a 3d 54 dc d4 3c 22 c4 b1 3d ad 12 8f be
       0.041718353 0.025983967 0.086799875 -0.27943936
0002a0 7d 8e 3c bd d5 e6 93 bc 4e 75 5b 3d 97 f4 eb 3b
       -0.046034325 -0.018054405 0.053578667 0.0072007882
0002b0 c9 af 62 3e 1a dd 76 bd e7 9e 79 3d 20 27 82 3d
       0.22137369 -0.060269453 0.060942557 0.06355119
0002c0 f6 5a 4c 3d 0e b3 c9 3c aa 97 01 be 05 35 d1 bd
       0.049891435 0.024621513 -0.12655511 -0.10215191
0002d0 94 6d 47 3c 36 77 1e be ea 59 f2 3d 23 aa 72 be
       0.012172122 -0.15475163 0.11833556 -0.23697715
0002e0 3a f3 66 3e 55 72 8e 3d 2c a4 44 bd 65 30 a0 3c
       0.22553721 0.06955401 -0.04800813 0.019554326
0002f0 8c 65 35 3e ec c1 ca bd b3 f6 a7 bd 89 50 29 3e
       0.17714518 -0.09900269 -0.08201351 0.16534628
000300 f7 ed cd bb d1 04 db bd ba dc aa bc b0 0a fc 3d
       -0.006284471 -0.10694278 -0.020857204 0.12306726
000310 be 6c f3 3d 3c 68 c4 bd 0c 2a cf 3d 9e 77 04 bd
       0.11885975 -0.09590194 0.10115442 -0.03234064
000320 8f 2e ac bd 6c 08 32 3d 35 6a 4b bc a8 08 08 3d
       -0.08407318 0.043465063 -0.012415458 0.03321138
000330 0d bb b1 bd 5c 52 83 3b 48 88 07 be a2 e0 16 be
       -0.08678255 0.0040076207 -0.13235581 -0.14734128
000340 2e e6 ea 3d 50 05 9e bd e7 b3 c8 bd 57 51 71 bd
       0.114696845 -0.07715857 -0.09799939 -0.058915462
000350 cf a3 00 bc 2d 14 f5 bd 53 0d 3a 3d d0 0f 55 3c
       -0.007851555 -0.11966739 0.045422863 0.013004258
000360 47 84 59 3d 70 26 a0 bd 24 3c a0 3a 64 1d 12 be
       0.053104665 -0.07819831 0.0012224955 -0.14269024
000370 0e 43 64 3d 10 64 6d 3d 27 b1 03 3e 25 4f ac bd
       0.05572801 0.057956755 0.12860547 -0.08413533
000380 5c bd 13 be 6d 9c 91 bd 99 fd 0a be c6 d7 1d 3d
       -0.14427704 -0.07109914 -0.13573302 0.038535856
000390 71 57 13 be fd 3f 0d 3e 24 79 83 3d f5 76 d7 3c
       -0.14388825 0.13793941 0.0641959 0.02630184
0003a0 48 60 d6 bd 2b c1 99 bd f0 26 c3 bd 62 6d 54 3d
       -0.10467583 -0.07507547 -0.09528911 0.051862128
0003b0 2e 66 a7 bd 3c f8 97 3d a0 bd 2e bd c1 00 03 3e
       -0.08173786 0.07420394 -0.04266131 0.12793256
0003c0 61 00 a4 3c 89 46 95 bd d3 6b 49 bd a8 f8 de 3d
       0.020019712 -0.07288844 -0.049175095 0.10887271
0003d0 40 04 80 bd 29 cf e1 bd 31 f6 9c 3d cb 19 a2 bb
       -0.062508106 -0.11025841 0.07664145 -0.0049469224
0003e0 3e fa c0 bc 1f aa c1 3d e5 a5 05 bd d7 c7 65 3d
       -0.023556825 0.09456276 -0.032628912 0.056098785
0003f0 82 14 de b9 01 1b c1 bd f9 5f a5 3d 5a 56 e1 3d
       -0.0004235842 -0.09428979 0.08074946 0.110027984

fc_layers.0.bias f4 [120]
000000 48 27 0a bd 66 db 85 3e ba eb 12 bd ef 24 06 be
       -0.033728868 0.2614395 -0.035869338 -0.13100027
000010 13 b5 74 bc 0a 71 fc 3d ac 16 9c 3e 2f 52 93 3e
       -0.01493575 0.12326248 0.30486047 0.2877364
000020 04 e9 0f 3c 46 82 fd 3e e6 d5 d0 3e 80 c6 dd 3d
       0.008783583 0.49513453 0.40788192 0.108288765
000030 1f ba 8e bd ea f9 cc bd ae 4e c9 bd 11 84 59 3e
       -0.069690935 -0.10008605 -0.0982946 0.21241786
000040 f2 38 e6 3d b1 66 a9 3a aa fc 19 3d d4 84 91 3d
       0.1124133 0.0012924281 0.037594475 0.07105413
000050 bd aa 28 be ca 79 f5 bd d4 cc ba 3c a9 be d0 bd
       -0.16471381 -0.1198612 0.022802748 -0.101926155
000060 6d 2c a8 bd 1f be b8 bd 39 86 0a 3c f2 67 a4 3d
       -0.082115985 -0.09020638 0.008454853 0.080276385
000070 16 3e 92 bd a5 a8 d1 bd 2f 6b 18 bd ae 80 d2 be
       -0.07140748 -0.102372445 -0.037211593 -0.411138
000080 82 65 a2 3d 6c 9d ae be 88 d8 8a bd db 23 5b 3e
       0.07929517 -0.34104478 -0.06779581 0.21400397
000090 af 38 c0 bd cc 25 68 be cb de 3e bc 01 f4 1c be
       -0.093858115 -0.22670668 -0.011649798 -0.15327455
0000a0 a2 fd 82 be 31 f9 9a 3b 21 e6 97 bd 8f c5 66 3c
       -0.2558413 0.004729413 -0.074169405 0.014085188
0000b0 42 94 02 be e4 d8 9f 3e 55 a5 f4 bd d9 d6 4c 3e
       -0.12751868 0.31220162 -0.11945597 0.20003833
0000c0 21 e4 23 3e 36 af 1c 3d bd 7b 73 be 83 1e 96 bc
       0.16004993 0.03825303 -0.23777671 -0.018325096
0000d0 bd 41 7a bd 92 9c 73 bd 2f ad e2 3e f2 f1 d0 3c
       -0.06109785 -0.05947549 0.44272754 0.025505994
0000e0 a2 88 17 be db 79 b1 3d 31 98 ef bd 53 cb 19 3e
       -0.14798215 0.0866582 -0.1169895 0.15018968
0000f0 a0 3a 62 bc a0 3b 63 be 8b 68 ca bd 55 0a a8 3d
       -0.013807923 -0.22190714 -0.09883221 0.08205096
000100 e5 bd 42 3e 04 ec 4f bd c2 f0 bb bd 39 55 1a 3d
       0.19017752 -0.05076219 -0.0917678 0.03767893
000110 a4 c5 d0 3e 5c 5a 54 bd f0 33 ac 3e ca 0c ba be
       0.40775788 -0.051843986 0.33633375 -0.36337882
000120 51 fe 70 be e7 bd 0b 3e 78 be 40 bc 19 b2 18 be
       -0.23534514 0.13646661 -0.011764161 -0.14911689
000130 fc 87 6b 3e 3d 85 41 3e 5a ff 97 3e 0b e0 12 be
       0.23001093 0.18898483 0.29687005 -0.14343278
000140 b5 27 59 bd 32 fc 27 be 3e b6 82 bc 8d fd 5e bd
       -0.053016383 -0.16404799 -0.01595604 -0.054441024
000150 f9 b6 7c 3d 00 cc b0 bd b5 5a 0f be 51 6f 2c 3d
       0.061697934 -0.0863266 -0.13999446 0.042098347
000160 b8 e1 e9 bd 01 7c 16 bc 1f 04 ff bd 41 ed 7c 3d
       -0.114200056 -0.009184838 -0.12451958 0.0617497
000170 22 31 92 be 3d 6e 8b 3b 7f 25 29 be b1 13 0b 3f
       -0.2855311 0.004255085 -0.1651821 0.5432692
000180 59 5b 8a bb c0 38 85 3e cb 92 c8 bd 75 0b ee 3d
       -0.0042223153 0.2601986 -0.097936235 0.11623279
000190 96 55 4e 3e 1b 73 a2 bc 09 c4 03 be 7b fb 4e 3e
       0.20149836 -0.019830277 -0.1286775 0.2021312
0001a0 9d 90 90 3e 15 63 00 bd 73 be 85 bc b6 a8 c4 3c
       0.2823533 -0.031344492 -0.016326165 0.024006229
0001b0 38 5a a4 be 71 0d 72 3e 06 17 4f 3e 53 1b 2f be
       -0.3210008 0.2363794 0.20223626 -0.17100267
0001c0 da 5f 2b 3e 27 8c 08 be 21 5b d5 3e a7 fe b7 3e
       0.16735783 -0.13334714 0.41671088 0.35936472
0001d0 67 b7 30 be e1 6d 73 be 9d 94 9c 3e 6e 63 7d 3e
       -0.17257462 -0.23772384 0.30582133 0.2474496
