Lab1/model/model_CIFAR10_10iters/conv_params_tanh.pth (torch, 251958 bytes, 10 tensors)

conv_layers.0.weight f4 [6, 3, 5, 5]
0	0x3b1a37b0	0.0023531727
1	0x3e01620f	0.12635063
2	0x3f001efd	0.50047284
3	0x3e908c7b	0.28232178
4	0x3e6dd1a6	0.23224506
5	0x3dce44fc	0.100717515
6	0xbdc8b00d	-0.09799204
7	0xbc887eb1	-0.016661974
8	0x3e7b0e1a	0.24517098
9	0x3f08c28a	0.53421843
10	0x3e9b1369	0.30288246
11	0x3da45d03	0.08025553
12	0xbef8d872	-0.48602635
13	0xbdd58762	-0.10426213
14	0x3f2ebb63	0.6825468
15	0x3e4227cc	0.18960494
16	0x3e1e3c65	0.15452726
17	0xbeef150b	-0.46695742
18	0xbec1661e	-0.37773222
19	0x3ec0b1c0	0.37635612
20	0xbe022b20	-0.12711763
21	0xbc8cd882	-0.017193083
22	0xbed650b4	-0.41858447
23	0xbf06d040	-0.52661514
24	0xbcefd40b	-0.029275915
25	0xbeeb8549	-0.46000126
26	0xbed3c394	-0.41360152
27	0xbe9eead2	-0.3103853
28	0xbd63fe9a	-0.05566273
29	0xbdc8dc2d	-0.0980762
30	0x3d240948	0.040047914
31	0xbf283b97	-0.65715927
32	0xbf2c0bf5	-0.67205745
33	0x3d976002	0.07391359
34	0x3ed30f2a	0.41222507
35	0x3e394b88	0.18095219
36	0xbee245b4	-0.44193804
37	0xbf9a16ad	-1.203817
38	0xbedb6e80	-0.42857742
39	0x3f50a154	0.8149617
40	0x3ede1a9a	0.4337967
41	0xbcc3ee6e	-0.023917403
42	0xbf60ed86	-0.8786243
43	0xbf21ba76	-0.6317514
44	0x3f07170a	0.5276953
45	0x3edb5779	0.42840174
46	0x3e87dce1	0.26535705
47	0xbe7c1794	-0.2461837
48	0xbebf0872	-0.3731113
49	0x3e8e94bd	0.27847853
50	0xbe9b2d7a	-0.30308133
51	0xbeb00d18	-0.3438499
52	0x3e242a38	0.1603173
53	0x3e814215	0.2524573
54	0x3d2c7a51	0.042108838
55	0xbd6b4c73	-0.057445955
56	0xbf0b954d	-0.5452469
57	0xbe8df4d0	-0.2772584
58	0x3ea205ba	0.31644994
59	0x3f3b25ab	0.7310435
60	0x3e8020b2	0.25024945
61	0xbeb08d62	-0.34482867
62	0xbf68e548	-0.90974855
63	0xbe99758e	-0.299725
64	0x3f56e6c1	0.8394585
65	0x3f03e786	0.5152515
66	0x3ea7f358	0.32802844
67	0xbf24b47c	-0.643379
68	0xbefca232	-0.49342495
69	0x3ed8c94d	0.4234108
70	0x3ef09029	0.46984985
71	0x3ef553b1	0.47915414
72	0x3d10bdb8	0.03533718
73	0xbe479b54	-0.19492847
74	0x3e27b5d4	0.16377956
75	0xbe3417a4	-0.17587143
76	0xbcc9b16e	-0.024620738
77	0xbe2eaa0f	-0.1705706
78	0xbddfbbd9	-0.10924501
79	0x3d5ed585	0.054402847
80	0xbe7fd864	-0.2498489
81	0x3e983dbe	0.29734606
82	0xbdeb9e8c	-0.1150485
83	0xbee32c2c	-0.44369638
84	0x3e0cc3a7	0.1374651
85	0xbe5f101f	-0.21783493
86	0x3f4b3b5a	0.7938744
87	0x3e36be28	0.17845976
88	0xbf62ae34	-0.8854706
89	0xbe7f0727	-0.24905072
90	0xbea433cb	-0.32070765
91	0x3f11413b	0.5674016
92	0x3e895d0a	0.26828796
93	0xbf4280ff	-0.7597808
94	0xbea16caf	-0.31528232
95	0xbe4f5e4a	-0.20250812
96	0x3e902688	0.28154397
97	0x3e3c90d0	0.18414617
98	0xbe6c711a	-0.2309002
99	0x3be3018a	0.0069276737
100	0x3e619445	0.22029217
101	0x3e76f13f	0.24115466
102	0x3c2ca47d	0.010537264
103	0x3d5d1595	0.05397566
104	0x3d0605a2	0.032720216
105	0x3ea91daa	0.33030444
106	0x3f16ad66	0.58858335
107	0xbdc8a21a	-0.097965434
108	0xbf01f35b	-0.50761956
109	0xbd34f9f0	-0.04418367
110	0x3e901c0e	0.28146404
111	0x3f889361	1.0669976
112	0x3e929654	0.28630316
113	0xbf5222ab	-0.8208415
114	0xbdc29c42	-0.0950246
115	0x3db5231b	0.088445865
116	0x3f537bd0	0.826108
117	0x3f0495f3	0.51791304
118	0xbf3ab572	-0.72933114
119	0x3cb43183	0.021996265
120	0x3e695597	0.22786556
121	0x3ecbbe05	0.3979341
122	0x3eb96c3b	0.36215386
123	0xbe1f7e57	-0.15575539
124	0x3e4d59fb	0.20053856
125	0x3e1f8852	0.15579346
126	0x3d41c5ca	0.047307767
127	0xbe25405b	-0.16137831
128	0x3e064ea5	0.13115938
129	0xbdf7bc37	-0.12096446
130	0x3d9df17d	0.07712076
131	0x3eb56fe9	0.35436943
132	0xbe3ef065	-0.1864639
133	0xbf05f59e	-0.5232791
134	0x3ded205e	0.11578439
135	0xbd013199	-0.03154144
136	0x3f16655e	0.58748424
137	0x3d108f04	0.03529264
138	0xbf2eda35	-0.6830171
139	0xbdcafd08	-0.09911543
140	0xbe69c9b4	-0.2283085
141	0x3eb1115d	0.3458356
142	0x3e52ad0c	0.20573825
143	0xbf422dbd	-0.7585104
144	0xba27f46b	-0.00064069655
145	0xbe9df642	-0.30851942
146	0xbdeee58e	-0.11664878
147	0xbe4386b1	-0.1909435
148	0xbed4da72	-0.4157291
149	0x3e36b2ba	0.17841616
150	0xbe52e594	-0.2059539
151	0x3e4a0ba0	0.19730997
152	0x3eb69bc1	0.35665706
153	0x3e7e27b9	0.2481984
154	0x3e5d7ee4	0.21630436
155	0xbdded7bc	-0.10880992
156	0x3da04a49	0.07826669
157	0x3ead4f73	0.33849677
158	0x3e9dd5be	0.30827135
159	0x3e3fa3ad	0.18714781
160	0xbd41fbe9	-0.04735938
161	0xbc946f32	-0.018119428
162	0xbd9e12be	-0.077184185
163	0x3de7c24a	0.113163546
164	0xbd732efa	-0.059370972
165	0x3e6bf653	0.23043184
166	0x3e0c918c	0.13727397
167	0xbdf9625d	-0.121769644
168	0x3cb69bf4	0.022291161
169	0xbe0de096	-0.13855204
170	0x3d89d819	0.067306705
171	0x3d4e00eb	0.050293844
172	0xbe80e324	-0.25173295
173	0xbddcc884	-0.10780433
174	0xbdcde7ac	-0.100539535
175	0x3e131fbe	0.14367577
176	0x3f273dec	0.6532886
177	0x3ee91786	0.4552576
178	0x3eb44a79	0.35213068
179	0xbdbdb275	-0.092625536
180	0x3cf4ac9f	0.029867468
181	0x3eb30fe9	0.34973076
182	0x3e716708	0.2357446
183	0x3eaa5a85	0.33272186
184	0xbe23b750	-0.15987897
185	0xbe0f7f37	-0.14013372
186	0x3d10f6ee	0.03539174
187	0xbd0b8bf2	-0.03406901
188	0xbe06efd7	-0.13177429
189	0xbefa7fa8	-0.4892552
190	0x3e0105dc	0.12599891
191	0x3d7bea8a	0.06150297
192	0xbe31c68f	-0.173609
193	0xbebbce05	-0.36680618
194	0xbf03c2c5	-0.5146907
195	0xbda6778e	-0.08128272
196	0xbe4024a6	-0.1876398
197	0xbeadd404	-0.33950818
198	0xbf0b1fb9	-0.5434528
199	0xbedae497	-0.42752525
200	0xbdc513f1	-0.09622944
201	0x3eb07d50	0.34470606
202	0x3ea60601	0.32426456
203	0x3eaa9345	0.33315483
204	0xbe5e2e66	-0.21697387
205	0xbe247291	-0.16059329
206	0x3ea49c9b	0.3215073
207	0x3e8d0b38	0.27547622
208	0x3ed426ec	0.41435945
209	0xbe0f48b1	-0.13992573
210	0xbe6fbe1f	-0.23412369
211	0x3dae1067	0.08499222
212	0x3d735aa5	0.059412617
213	0x3d3814df	0.04494178
214	0xbeae407f	-0.34033582
215	0xbd60e15e	-0.054902427
216	0x3d4a67a7	0.049415257
217	0xbd92d95e	-0.07170366
218	0xbe1318cf	-0.14364932
219	0xbe99b49d	-0.3002061
220	0xbdd25c35	-0.10271493
221	0xbe115040	-0.14190769
222	0xbe972f48	-0.2952826
223	0xbede7e39	-0.43455675
224	0xbe9efe3b	-0.31053337
225	0x3efd0425	0.49417225
226	0x3eee745c	0.4657315
227	0x3ed36aee	0.41292518
228	0x3e800838	0.2500627
229	0x3e088162	0.13330606
230	0x3adc1644	0.0016791304
231	0xbe5a5ad7	-0.21323715
232	0xbe2ed5b0	-0.17073703
233	0xbd8f1a07	-0.06987386
234	0x3e868cdb	0.2627934
235	0xbf11fa2f	-0.57022375
236	0xbf687798	-0.90807486
237	0xbf4b3fb8	-0.793941
238	0xbf36eed6	-0.71458185
239	0xbe9a9d51	-0.30198148
240	0xbeea5954	-0.45771277
241	0xbf472053	-0.777837
242	0xbf574cda	-0.8410164
243	0xbf320bcf	-0.6954927
244	0xbec61c25	-0.38693348
245	0x3e8ece9b	0.27892002
246	0x3e488eed	0.19585772
247	0x3ea5e389	0.32400158
248	0x3e32a69b	0.17446367
249	0x3e662f4a	0.22478977
250	0xbda58370	-0.0808171
251	0x3e76fce8	0.24119914
252	0x3e2ebe4a	0.17064777
253	0xbd3c3866	-0.045952223
254	0xba006e4a	-0.0004899247
255	0x3d9cd567	0.07657891

conv_layers.0.bias f4 [6]
0	0xbfd07007	-1.6284188
1	0xbf495b00	-0.7865448
2	0xbf82a085	-1.0205237
3	0xbf1f29a8	-0.6217294
4	0xbe4aef10	-0.19817758
5	0xbfc7a6cb	-1.5597776

conv_layers.1.weight f4 [16, 6, 5, 5]
0	0x3e025082	0.12726024
1	0xbe8d0c18	-0.2754829
2	0x3e9eefed	0.31042424
3	0xbd8b9281	-0.06815053
4	0x3e039c03	0.12852482
5	0x3d898651	0.06715072
6	0xbf18e8fe	-0.5973052
7	0x3e89e847	0.26935026
8	0xbe1e93db	-0.1548609
9	0x3d5ebec8	0.054381162
10	0x3e077cf9	0.13231267
11	0xbee9635a	-0.45583612
12	0x3eabb8c0	0.3353939
13	0xbe93f2f8	-0.28896308
14	0xbdc7bd67	-0.097529225
15	0xbd1782b1	-0.03698987
16	0xbeaca4fc	-0.33719623
17	0x3ea831bc	0.32850444
18	0xbf16ad2d	-0.58857995
19	0xbb64e5f1	-0.0034927095
20	0xbe0d750f	-0.13814186
21	0xbed843fa	-0.42239362
22	0xbdf219a9	-0.118213005
23	0xbec82842	-0.39093214
24	0xbd2062bd	-0.039156664
25	0x3dc55b10	0.096365094
26	0x3d303a5b	0.043024402
27	0x3de69842	0.112595096
28	0xbd4086ca	-0.047003545
29	0x3cf90466	0.030397605
30	0x3d402510	0.046910346
31	0x3de0c437	0.10974925
32	0xbdeeb9ba	-0.11656518
33	0xbc9bc6f0	-0.01901576
34	0xbca3612d	-0.019943798
35	0xbd519fd2	-0.051177807
36	0x3e94616e	0.28980583
37	0xbe489ef4	-0.19591886
38	0x3dd1b1e5	0.10239009
39	0xbdc4f1be	-0.09616421
40	0x3d390b7d	0.04517697
41	0x3eb9fa40	0.36323738
42	0xbec07918	-0.37592387
43	0x3ef2301b	0.47302327
44	0xbea0832f	-0.31350085
45	0x3d972101	0.07379342
46	0xbca131e2	-0.019677106
47	0xbf0a44f9	-0.54011494
48	0x3eae2a63	0.34016714
49	0xbf112bc9	-0.56707436
50	0xbd9c85c3	-0.076427005
51	0x3e88ebb0	0.26742315
52	0xbcae5ba7	-0.021283938
53	0xbe131ee9	-0.1436726
54	0x3e20a463	0.15687709
55	0xbe6c1872	-0.230562
56	0x3e364d0c	0.17802829
57	0xbe8e0928	-0.2774136
58	0xbd896b2f	-0.06709897
59	0x3d10a42a	0.03531281
60	0xbec71125	-0.38880268
61	0x3ea03a89	0.3129466
62	0xbe4700e1	-0.19433929
63	0x3d5870a6	0.052841805
64	0x3e298fe6	0.16558799
65	0xbcc62484	-0.024187334
66	0x3e332945	0.17496212
67	0xbe3b7d3a	-0.18309489
68	0x3ed09e3f	0.40745732
69	0x3e93fad4	0.28902304
70	0x3e67fd88	0.22655308
71	0x3df9ab26	0.12190847
72	0x3dc58e1b	0.09646245
73	0x3ed22d1c	0.4105004
74	0xbdbdf517	-0.09275263
75	0xbd0de01e	-0.034637563
76	0x3d2ecb42	0.04267431
77	0x3dae8fcd	0.085235216
78	0x3d8702b5	0.06592313
79	0xbcc850b8	-0.024452552
80	0xbd1e0486	-0.038578533
81	0x3d104df9	0.03523061
82	0x3ea662a8	0.32497144
83	0x3e0227b7	0.12710463
84	0xbdcf49a4	-0.10121468
85	0xbdcca1c2	-0.0999179
86	0x3d7f3845	0.062309522
87	0x3cfb4cc5	0.030676255
88	0x3d22ac8a	0.039715327
89	0xbe1a8282	-0.15088847
90	0xbe8714cb	-0.2638305
91	0x3e3a6885	0.18203934
92	0x3ebbac79	0.36655024
93	0x3e6723dc	0.22572273
94	0xbe33ef47	-0.17571746
95	0xbe6da3ac	-0.23206967
96	0x3dc96fcf	0.09835779
97	0xbd79ac40	-0.060955286
98	0xbe74f166	-0.23920211
99	0xbf45cdab	-0.7726695
100	0xbeb18047	-0.3466818
101	0xbde6f400	-0.11277008
102	0xbcc9bc6a	-0.024625976
103	0x3e390d15	0.18071397
104	0x3ea0e5e0	0.3142538
105	0xbe242a2d	-0.16031714
106	0x3e428fd9	0.19000186
107	0x3d8d5429	0.06900818
108	0x3d888918	0.066667736
109	0x3dd27aa2	0.102772966
110	0xbde4f5c2	-0.11179687
111	0xbd061641	-0.032736067
112	0x3d80ca43	0.06288578
113	0x3e493717	0.19649921
114	0x3c169d51	0.009192781
115	0xbe24d049	-0.1609508
116	0xbe058c20	-0.13041735
117	0xbd139eab	-0.03603999
118	0xbdad9e00	-0.08477402
119	0x3cfd30e9	0.030907111
120	0xbc2f0eb8	-0.010684662
121	0xbbed79f5	-0.0072472044
122	0x3e3e4d07	0.18584071
123	0x3e0626f1	0.13100792
124	0x3e87e999	0.26545408
125	0x3e65ab3b	0.224286
126	0x3d97b51d	0.074075915
127	0xbe090eff	-0.13384627
128	0x3d9aba77	0.075550966
129	0x3e0296f0	0.1275289
130	0x3dceac92	0.10091509
131	0x3db0fe11	0.08642209
132	0xbd960c7a	-0.073265985
133	0x3d9dac66	0.07698898
134	0x3e111674	0.14168721
135	0x3e59a50e	0.2125437
136	0x3de50bdf	0.11183905
137	0x3da75187	0.08169847
138	0x3d95e93c	0.073198766
139	0x3e283304	0.16425711
140	0xbe46a1b1	-0.19397618
141	0xbed9b77d	-0.42522803
142	0xbe824375	-0.2544209
143	0xbdab7987	-0.08372789
144	0xbd034162	-0.032044776
145	0x3d993285	0.07480339
146	0x3ed16ac7	0.40901777
147	0x3efed5aa	0.49772388
148	0x3e9eb50f	0.30997512
149	0x3eb74556	0.35795087
150	0xbdac9bda	-0.08428164
151	0x3e25c4e2	0.16188386
152	0xbd0b438b	-0.03399996
153	0xbcb2ea30	-0.021840185
154	0x3e1824a4	0.14857727
155	0xbe396712	-0.18105724
156	0x3e8347c2	0.25640684
157	0xbe0af822	-0.13571218
158	0x3d8b29c2	0.06795074
159	0x3ea0a44e	0.31375355
160	0xbe5ac0ca	-0.21362606
161	0x3ed563af	0.41677615
162	0xbe1810a9	-0.14850105
163	0x3e623e25	0.22094019
164	0x3e43642d	0.19081183
165	0xbe87b5af	-0.265058
166	0x3e273e06	0.16332254
167	0xbe49dc92	-0.19713047
168	0x3e17d090	0.14825654
169	0x3e5c3ed8	0.21508348
170	0xbd961c87	-0.0732966
171	0x3e5877b2	0.2113941
172	0xbce9ff12	-0.02856401
173	0x3e65487f	0.22390936
174	0xbd4c2fef	-0.0498504
175	0x3c5a474a	0.013322661
176	0xbe32cd0d	-0.17461033
177	0xbdae372c	-0.08506617
178	0x3e6d4085	0.23169143
179	0xbd4c6e48	-0.04990986
180	0x3e1c8bdb	0.15287726
181	0xbe2eb286	-0.17060289
182	0xbdec2947	-0.115313105
183	0x3eae503d	0.34045592
184	0xbdbebd90	-0.093135
185	0x3ebef237	0.3729417
186	0xbe4dec4e	-0.20109674
187	0xbd954603	-0.07288744
188	0x3e9ce864	0.3064605
189	0xbeb82836	-0.3596818
190	0x3dd351fa	0.1031837
191	0xbed413bc	-0.41421306
192	0xbe8cef19	-0.27526167
193	0x3e829575	0.25504652
194	0xbe2b73d6	-0.16743407
195	0x3c83789b	0.01604872
196	0xbeaff414	-0.34365904
197	0x3c1d2330	0.009590909
198	0x3ee6867e	0.45024484
199	0x3e9a9ff2	0.30200154
200	0xbd060459	-0.03271899
201	0xbe6cdce1	-0.23131134
202	0x3c66ea7b	0.01409399
203	0xbd52a703	-0.051428806
204	0xbe22fe37	-0.15917288
205	0x3e2f9ed8	0.17150438
206	0xbe1efd52	-0.15526322
207	0x3d5ac97b	0.053414803
208	0x3dce9981	0.10087872
209	0x3d8ec9f0	0.0697211
210	0x3e26be8a	0.16283622
211	0xbeb66f98	-0.35632014
212	0x3ca07836	0.019588571
213	0x3e2fb0ea	0.17157331
214	0xbe3f4ce3	-0.18681674
215	0x3e0d2707	0.13784419
216	0xbef8652a	-0.48514682
217	0x3e212b29	0.1573912
218	0x3e1658c7	0.14682303
219	0x3d33c9bd	0.043893564
220	0x3e8c1f77	0.27367756
221	0xbea0dbe4	-0.31417763
222	0x3e05acbc	0.13054174
223	0xbc839466	-0.016061973
224	0xbd9996fc	-0.07499501
225	0x3ecf4f52	0.40490204
226	0x3e5d3f84	0.2160626
227	0x3e730e5d	0.23735948
228	0x3e2287eb	0.15872161
229	0x3e3495c2	0.17635253
230	0xbddfa4e5	-0.10920123
231	0x3c4b36ec	0.012403231
232	0x3e3fd98c	0.18735331
233	0x3e055421	0.13020374
234	0x3e1d421a	0.15357247
235	0xbd30a59a	-0.04312668
236	0xbd7a51ae	-0.061113052
237	0x3e8aaead	0.27086392
238	0xbbe7cfe1	-0.0070743416
239	0x3dcec7e8	0.10096723
240	0xbeff2f48	-0.4984076
241	0xbe65c904	-0.22439963
242	0xbe320e25	-0.17388208
243	0xbe7cc846	-0.24685773
244	0xbe1ea90e	-0.15494177
245	0x3daaaba2	0.083335176
246	0x3e08d70f	0.13363288
247	0x3ec330a8	0.3812306
248	0x3dcb7acf	0.09935533
249	0x3e070046	0.13183698
250	0x3e5c0855	0.21487553
251	0x3d77d8d2	0.06050951
252	0x3e196c1a	0.14982644
253	0x3e1d5e7e	0.15368077
254	0x3cbe0a6c	0.023198329
255	0x3df964cf	0.12177431

conv_layers.1.bias f4 [16]
0	0xbf95d134	-1.1704469
1	0xbfbdee96	-1.4838436
2	0xbfd1204c	-1.6337981
3	0xbfb5d362	-1.4205134
4	0xbe9d662c	-0.30742013
5	0xbfef9c26	-1.8719528
6	0xbede76ba	-0.43449956
7	0xbf0e47c2	-0.55578244
8	0xc01a0664	-2.40664
9	0xbfaff168	-1.3745546
10	0xbf58ca58	-0.8468375
11	0xbe84bc2c	-0.25924814
12	0xbfb68175	-1.4258257
13	0xbf84df5a	-1.0380661
14	0xbf164781	-0.58702856
15	0xc028cea9	-2.6376135

fc_layers.0.weight f4 [120, 400]
0	0x3c9fc271	0.019501897
1	0x3d3327d0	0.04373914
2	0x3e85a5bd	0.2610301
3	0x3dca787e	0.09886263
4	0x3b9d1fd5	0.0047950544
5	0xbd5cf01a	-0.053939916
6	0xbcb3352c	-0.02187594
7	0x3ddac799	0.106826015
8	0x3daf1918	0.08549708
9	0x3cd84e78	0.026404604
10	0xbd41b218	-0.047288984
11	0x3dd4e044	0.10394338
12	0x3de90475	0.11377803
13	0x3e184bc3	0.14872651
14	0xbce0c313	-0.027436769
15	0x3d48fa1c	0.049066648
16	0xbbcc2634	-0.00623014
17	0x3dd57f88	0.10424715
18	0x3dab318b	0.08359059
19	0x3d33e740	0.04392171
20	0xbe025bac	-0.12730283
21	0xbcb40eb4	-0.021979667
22	0x3d25120c	0.040300414
23	0x3c99c040	0.01876843
24	0x3d5378ba	0.051628806
25	0x3bcfda2f	0.006343148
26	0x3d2c5935	0.042077262
27	0x3b8ed680	0.0043590665
28	0xbd3b07c6	-0.04566171
29	0xbd8dfa04	-0.06932452
30	0x3d3fd6b7	0.046835627
31	0x3cd7c231	0.026337715
32	0x3e02f3a9	0.12788261
33	0x3d4084d5	0.04700168
34	0xbda11f72	-0.07867326
35	0x3dc07fd1	0.09399379
36	0x3da7a820	0.08186364
37	0x3dea2c9c	0.1143429
38	0x3d830415	0.06397263
39	0xbce990b6	-0.028511386
40	0x3e0ac985	0.13553436
41	0x3d1411ee	0.03614991
42	0x3deade15	0.1146814
43	0x3d040417	0.032230463
44	0xbdf2b3ff	-0.11850738
45	0xb87e4a95	-6.062778e-05
46	0xbc30c86c	-0.010789972
47	0x3dc4da55	0.09611956
48	0x3d404251	0.046938244
49	0xbe1fc8bb	-0.15603916
50	0xbd24be89	-0.04022077
51	0xbd73f985	-0.059564132
52	0xbc242fc0	-0.01002115
53	0x3d6ede9e	0.058317773
54	0xbdd0b1dd	-0.10190175
55	0x3c93576e	0.017986026
56	0xbd4e72e4	-0.050402537
57	0x3c704533	0.014664936
58	0x3d934ab9	0.071919866
59	0xbd99484d	-0.074844934
60	0x3d0971b4	0.0335557
61	0x3d96db92	0.073660985
62	0x3cb3e6f4	0.021960713
63	0x3d984f8f	0.074370496
64	0xbd5f9b09	-0.054591212
65	0x3d932443	0.07184651
66	0x3dafe768	0.08589059
67	0x3d4ba41e	0.04971706
68	0x3ceec8b5	0.029148439
69	0xbd7b8677	-0.061407533
70	0xbb97e963	-0.004635976
71	0xbd686878	-0.056740254
72	0x3b82e00c	0.0039939936
73	0x3d7a4f10	0.061110556
74	0xbd2d245e	-0.04227101
75	0xbd39c306	-0.045352004
76	0x3db96dfb	0.0905418
77	0xbd2e70ff	-0.04258823
78	0x3d92bf0c	0.071653455
79	0xbd4278fc	-0.04747866
80	0xbdea6c12	-0.11446394
81	0xbd8fc2fd	-0.07019613
82	0xbe5cc202	-0.21558383
83	0xbd29ae3f	-0.04142594
84	0xbd3322e1	-0.043734435
85	0xbb6da300	-0.0036260486
86	0xbe44a5c9	-0.19203867
87	0xbdbff0c8	-0.09372097
88	0xbb8ddaed	-0.0043290765
89	0xbcb74b03	-0.022374636
90	0xbe1b090c	-0.1514017
91	0xbe2083a4	-0.15675217
92	0xbdfe6ad7	-0.12422722
93	0xbd05ccae	-0.0326659
94	0x3c41f1e4	0.011837456
95	0xbd9ffd91	-0.07812036
96	0xbe208f66	-0.15679702
97	0xbe1b02ce	-0.15137789
98	0xbd72b71c	-0.059256658
99	0x3d7d8e61	0.06190336
100	0xbdd07be6	-0.10179882
101	0x3d7d7291	0.061876837
102	0x3e1c9fb9	0.15295304
103	0x3dbdd8a9	0.0926984
104	0x3d6033c8	0.054736882
105	0x3c6a4861	0.014299483
106	0x3e231f3b	0.15929882
107	0x3d1ffd14	0.039059713
108	0x3b64a7e6	0.0034890114
109	0x3d9a6ef5	0.075406946
110	0xbc46d52f	-0.012135788
111	0xbc693e8b	-0.014236103
112	0xbdd47dad	-0.10375533
113	0xbd4790e3	-0.04872216
114	0x3d4c2a75	0.049845178
115	0xbd108070	-0.035278738
116	0xbda3334d	-0.07968769
117	0xbd6de20d	-0.058076907
118	0xbde09ab2	-0.10967006
119	0xbd585e3d	-0.052824248
120	0x3c9d2674	0.019183375
121	0x3d1297d9	0.035789344
122	0xbc50c10c	-0.012741338
123	0xbd34c34c	-0.044131562
124	0xbca29789	-0.019847648
125	0x3dcd0dca	0.10012396
126	0xbdd5e620	-0.104442835
127	0xbd16ed57	-0.03684744
128	0xbd3cc530	-0.04608649
129	0x3ccf0461	0.025270643
130	0x3e43a5cf	0.1910622
131	0x3c6c447a	0.014420623
132	0x3daa6dda	0.08321734
133	0xbdd9a530	-0.1062721
134	0x3d795664	0.060873404
135	0x3dcce3d6	0.10004394
136	0x3d8d623a	0.06903501
137	0x3d9516fc	0.072797745
138	0xbd12c5ee	-0.03583329
139	0xbdde1138	-0.10843128
140	0x3bb864f7	0.0056272703
141	0x3cc6a9e6	0.024250936
142	0x3dd33db1	0.10314501
143	0x3d42b10a	0.04753212
144	0x3c897185	0.016777763
145	0x3dea2047	0.11431938
146	0x3dd3f476	0.103493616
147	0x3e59c51d	0.21266599
148	0x3e0ef6fd	0.13961406
149	0x3dbfe3ff	0.09369659
150	0xbce51805	-0.027965555
151	0x3dc702f8	0.09717363
152	0x3c17788a	0.009245047
153	0x3cfdb7aa	0.030971367
154	0xbdaa58a6	-0.083176896
155	0xbc7b0bd9	-0.015322649
156	0xbd38d031	-0.04512042
157	0xbd186364	-0.03720416
158	0xbd6783b9	-0.056522105
159	0xbda013c7	-0.07816272
160	0xbb7d3080	-0.0038633645
161	0x3d27e88f	0.04099327
162	0xbe21d155	-0.1580251
163	0xbdc4ba5a	-0.09605856
164	0x3c2c1c71	0.010504828
165	0x3dcdd9f4	0.10051337
166	0xbd0e8659	-0.034796093
167	0xbd845f8d	-0.06463537
168	0xbce4eb96	-0.027944367
169	0x3dc09852	0.09404053
170	0xbd9dc625	-0.07703809
171	0xbd276ec9	-0.040877137
172	0xbb11b8dc	-0.002223543
173	0x3d4f4f87	0.050612953
174	0x3d4eddee	0.050504617
175	0x3dbd8a61	0.09254909
176	0x3cc25111	0.023720296
177	0x3d5074a2	0.05089248
178	0x3db08fac	0.08621153
179	0x3e191402	0.14949039
180	0x3c4d0e7f	0.012515663
181	0xb9833257	-0.00025023773
182	0xbd267678	-0.040640324
183	0xbd0f66c8	-0.03501013
184	0xbd2220c9	-0.039582048
185	0xbd6568a6	-0.056008004
186	0xbde31886	-0.11088662
187	0x3d939de5	0.0720785
188	0xbdcedd52	-0.10100807
189	0xbcf5fa64	-0.030026622
190	0x3e198600	0.14992523
191	0x3d7aebfa	0.0612602
192	0xbdd4543b	-0.10367628
193	0xbd86c1c6	-0.06579928
194	0x3d916109	0.07098586
195	0x3c92bf3a	0.01791345
196	0xbc86ab95	-0.016439239
197	0x3b889727	0.0041684094
198	0xbdec32b9	-0.11533112
199	0x3ce78120	0.028259814
200	0xbdcc9c2f	-0.09990727
201	0xbdbd14a5	-0.09232453
202	0xbddc149f	-0.10746121
203	0xba58765c	-0.0008257383
204	0xbd123ac4	-0.035700575
205	0x3d90093e	0.07033013
206	0xbda96a4a	-0.08272226
207	0xbd5e8648	-0.05432728
208	0xbce8bbf7	-0.028409941
209	0x3e09c101	0.13452531
210	0xbddcc306	-0.10779385
211	0xbd6a0b35	-0.057139594
212	0xbce788e7	-0.028263522
213	0xbd3c63fe	-0.045993797
214	0xbdbdf450	-0.092751145
215	0x3e06c4db	0.13161032
216	0xbc6723bb	-0.01410764
217	0xbe18d610	-0.14925408
218	0xbe1f4a14	-0.15555602
219	0xbdbf2244	-0.093327075
220	0x3d7f9184	0.062394634
221	0xbdd79800	-0.105270386
222	0xbc043c25	-0.00807098
223	0xbdc8fa38	-0.098133504
224	0xbcbf1381	-0.02332473
225	0xbd30d07b	-0.043167572
226	0x3d465aee	0.04842656
227	0x3e389d28	0.180287
228	0x3da4a523	0.0803931
229	0xbda75109	-0.08169753
230	0x3d07e664	0.033178702
231	0x3d06628d	0.03280883
232	0x3e314e60	0.17315054
233	0x3bfbd461	0.0076852296
234	0xbd25cb10	-0.04047686
235	0x3d8d20e8	0.06891042
236	0xbd551972	-0.05202622
237	0x3ddb2157	0.106997184
238	0x3de2d9e7	0.11076718
239	0xbc30c27a	-0.010788554
240	0x3d5ec64c	0.05438833
241	0xbd96031d	-0.073248126
242	0xbc4e2c4f	-0.012583806
243	0xbccf64d4	-0.025316633
244	0xbdded339	-0.10880131
245	0x3d6aaf7a	0.057296254
246	0x3d0cd774	0.03438516
247	0xbdf8455b	-0.121226035
248	0xbd76894b	-0.060189527
249	0xbde9d508	-0.114175856
250	0xbd7155a0	-0.05891955
251	0x3cf8e2ed	0.030381644
252	0xbe21c806	-0.15798959
253	0x3cfbd552	0.030741367
254	0xbd565fa7	-0.052337315
255	0xbd528e27	-0.0514051

fc_layers.0.bias f4 [120]
0	0x3e529283	0.20563702
1	0x3ddf2c12	0.108970776
2	0x3e4cca40	0.19999027
3	0x3c94b358	0.018151924
4	0xbd188670	-0.037237585
5	0xbd849bda	-0.06475039
6	0xbbcf5ba2	-0.006328062
7	0xbde926ed	-0.11384378
8	0x3dc5cc90	0.09658158
9	0xbd9f4530	-0.07776868
10	0xbda928a2	-0.08259703
11	0xbe7b0ec3	-0.2451735
12	0xbdcc54c6	-0.09977107
13	0xbdcc1078	-0.09964079
14	0xbe9155e4	-0.28385842
15	0x3dee506a	0.116364315
16	0x3d3f07bb	0.04663823
17	0x3d97b2fe	0.07407187
18	0xbe8c92e4	-0.2745582
19	0x3b946c7d	0.0045295344
20	0x3dc0812b	0.09399637
21	0xbe516b12	-0.20451
22	0xbe5d8a6b	-0.21634834
23	0xbe8a3d8b	-0.2700008
24	0xbd7cf17c	-0.061753735
25	0x3e6148e2	0.22000459
26	0xbd86840d	-0.065681554
27	0xbde4d469	-0.111733265
28	0x3dce4fda	0.10073824
29	0x3dca893e	0.09889458
30	0x3d09f797	0.033683386
31	0x3decf4c6	0.11570124
32	0x3e0e8686	0.13918504
33	0x3ddcd862	0.10783459
34	0x3ed96602	0.42460638
35	0x3d685348	0.05672005
36	0xbc825fbf	-0.015914796
37	0xbbb2d578	-0.0054575764
38	0x3cc8c22e	0.024506655
39	0x3c63cccc	0.013903808
40	0x3dff5591	0.12467492
41	0xbdda8eb0	-0.10671747
42	0x3d3a3646	0.045461915
43	0x3d9c45ef	0.07630526
44	0xbab160a9	-0.0013532835
45	0x3da6e43e	0.081490025
46	0x3d14bc5e	0.036312453
47	0xbcaa0b1c	-0.02075725
48	0x3df2d8be	0.118577465
49	0x3e48b77f	0.19601248
50	0x3e16c09c	0.14721912
51	0xbd0c5479	-0.034260247
52	0xbeaba002	-0.33520514
53	0x3e5a6040	0.21325779
54	0x3d83a392	0.06427683
55	0x3e049913	0.12949018
56	0xbe86a817	-0.26300117
57	0x3d6274b1	0.055287067
58	0x3c1f54aa	0.009724775
59	0xbd7792ce	-0.06044274
60	0x3de10140	0.109865665
61	0x3beb0e9c	0.0071733724
62	0xbd33c038	-0.043884486
63	0xbede7368	-0.43447423
64	0xbda95217	-0.082676105
65	0xbd9feb98	-0.07808608
66	0x3e15ac64	0.14616543
67	0x3d66b6e4	0.05632676
68	0x3ced2925	0.028950283
69	0xbdde3e11	-0.10851682
70	0x3e3ca3b0	0.18421817
71	0x3e889b28	0.26680875
72	0x3dc12f71	0.09432877
73	0xbda3701e	-0.07980369
74	0x3de325ac	0.1109117
75	0xbde779cb	-0.11302527
76	0xbd7e7e8f	-0.062132414
77	0x3e2f176c	0.17098778
78	0x3e5d5c43	0.21617226
79	0x3e006c04	0.12541205
80	0x3e147577	0.14497934
81	0x3c57fb6c	0.013182502
82	0xbdd5f289	-0.104466505
83	0xbc9817d4	-0.01856605
84	0x3d9ad751	0.075605996
85	0x3b338477	0.0027392188
86	0x3c1b4863	0.009477708
87	0xbe211ac4	-0.15732867
88	0x3def2fcb	0.11679038
89	0xbe2f586f	-0.17123578
90	0x3daa74ea	0.08323081
91	0xbd91f956	-0.07127635
92	0xbdaed06a	-0.085358456
93	0xbdfbb8a7	-0.12291079
94	0x3e4016fa	0.18758765
95	0xbe335b56	-0.1751531
96	0xbe294dc5	-0.16533573
97	0xbd9fe8be	-0.07808064
98	0xbb8a7a80	-0.004226029
99	0xbd79c081	-0.0609746
100	0x3c4189b3	0.011812615
101	0xbd22a660	-0.03970945
102	0x3e1e3fb7	0.15453993
103	0xbdd140b3	-0.102174185
104	0x3e83ef90	0.2576871
105	0xbd8cd301	-0.06876183
106	0x3bdb371e	0.00668992
107	0x3b7efac6	0.0038906797
108	0xbe171a4c	-0.14756125
109	0x3e45138d	0.1924574
110	0xbca24830	-0.019809812
111	0x3e2bd2a5	0.16779573
112	0xbe036f9f	-0.12835549
113	0xbe965137	-0.29358837
114	0x3d19e80e	0.03757482
115	0x3e6e5170	0.23273253
116	0xbe9cd5fd	-0.3063201
117	0xbdd2bee1	-0.102903135
118	0xbda43d71	-0.080195315
119	0xbd507c0f	-0.05089956

fc_layers.1.weight f4 [84, 120]
0	0x3de74e4f	0.11294233
1	0xbe821591	-0.2540708
2	0x3c82dd6c	0.015974723
3	0x3dd19f87	0.102355056
4	0x3a142158	0.00056507206
5	0xbd51043c	-0.05102943
6	0x3dea39f1	0.11436833
7	0x3da6da8c	0.08147153
8	0xbd91fceb	-0.071283184
9	0xbdcaee38	-0.09908718
10	0x3d4d7295	0.050158102
11	0xbe28d83a	-0.16488734
12	0xbbad7704	-0.005293729
13	0xbdfcdff6	-0.12347405
14	0x3dedf294	0.11618534
15	0xbd2e0bf6	-0.042491876
16	0x3df74c36	0.12075083
17	0x3e378b50	0.17924237
18	0x3d85cfc1	0.065337665
19	0xbdd845b6	-0.10560171
20	0xbd3e5d18	-0.0464755
21	0x3e664841	0.224885
22	0x3e1f0229	0.15528168
23	0xbd75aec8	-0.059981138
24	0x3da8e6f9	0.082471795
25	0x3ccdd4b7	0.025125844
26	0xbd928959	-0.07155103
27	0x3d9f2309	0.07770354
28	0x3d2721b9	0.040803645
29	0xbdc44a50	-0.095844865
30	0x3cbbace8	0.022909597
31	0x3d87f7a2	0.06639029
32	0xbc91b06a	-0.017784316
33	0x3db3971b	0.087690555
34	0xbe5f5a48	-0.21811783
35	0xbe07078f	-0.13186477
36	0x3db3474c	0.08753833
37	0xbb923d31	-0.004462861
38	0x3e12d46e	0.14338848
39	0xbcbd378f	-0.023097781
40	0x3d79681f	0.060890313
41	0x3c3a2cd5	0.011363228
42	0x3e3b01e0	0.18262434
43	0xbdc29e2f	-0.095028274
44	0xbd49eceb	-0.04929821
45	0xbd37582d	-0.044761825
46	0x3e2642ac	0.16236371
47	0x3c707253	0.0146756945
48	0x3d8bb64c	0.0682188
49	0xbcd678d5	-0.026180664
50	0xbdeea9b0	-0.11653459
51	0x3d90c586	0.070689246
52	0x3de02dc6	0.109462306
53	0x3da0ebce	0.07857476
54	0x3db429fc	0.087970704
55	0x3dc7cd74	0.09755984
56	0xbd781407	-0.060565975
57	0x3d5fa997	0.054605093
58	0xbc392a25	-0.011301552
59	0xbda19281	-0.078892715
60	0x3ddd873e	0.10816811
61	0xbd0f6c01	-0.03501511
62	0xbdafe4ce	-0.08588563
63	0xbdb226a7	-0.086987786
64	0xbd712a03	-0.058877956
65	0x3d54a463	0.051914584
66	0x3bf4b0b8	0.0074673556
67	0xbe04db35	-0.12974246
68	0xbe090fe4	-0.13384968
69	0x3d8112da	0.06302424
70	0x3c12a1a5	0.008949672
71	0x3c9983e2	0.018739644
72	0x3d32fb1b	0.043696504
73	0x3d6b782a	0.057487644
74	0xbca27723	-0.0198322
75	0x3e2a4305	0.16627128
76	0x3df1f4b4	0.118142515
77	0x3e007470	0.12544417
78	0xbd9394ff	-0.07206153
79	0x3c963199	0.018334197
80	0x3dab9ae8	0.083791554
81	0x3d6e00f3	0.058106374
82	0x3d879dbe	0.06621884
83	0x3d99853f	0.07496118
84	0xbe107f6e	-0.1411111
85	0x3dfd5995	0.12370602
86	0xbcc94957	-0.024571104
87	0x3e13bf63	0.14428477
88	0xbe1e57d0	-0.15463185
89	0xbdbaf2f3	-0.0912837
90	0xbd5803c2	-0.05273796
91	0x3c10c577	0.008836142
92	0x3ddffb07	0.109365515
93	0x3d9a1c76	0.0752496
94	0xbe392ac6	-0.18082723
95	0x3d23e30a	0.040011443
96	0xbd31e9c4	-0.043435827
97	0x3d72d687	0.05928662
98	0x3e152c26	0.14567623
99	0x3cab04a3	0.020876234
100	0x3d39967d	0.045309532
101	0x3c93d409	0.018045442
102	0xbddbb169	-0.10727198
103	0xbd48cadd	-0.04902159
104	0xbcc004cb	-0.023439785
105	0xbd87c148	-0.06628662
106	0x3c221aec	0.009894114
107	0x3bad1a20	0.0052826554
108	0x3db8a9ee	0.090167865
109	0xbe3a8d3d	-0.1821794
110	0xbab95392	-0.0014139286
111	0xb8ba1960	-8.8738976e-05
112	0x3d798e97	0.060927
113	0x3dd43aad	0.10362754
114	0x3d740cc2	0.05958248
115	0x3dc4d4e9	0.09610922
116	0x3c1b4503	0.009476903
117	0xbe08803e	-0.1333017
118	0xbd8ae4b7	-0.06781905
119	0xbd2ba6e5	-0.04190721
120	0x3e0b590f	0.13608192
121	0x3dd0aa87	0.101887755
122	0x3d0bdf14	0.03414829
123	0x3d6ed566	0.05830898
124	0x3cfe7be0	0.031064928
125	0x3ca411e1	0.020028057
126	0x3d8f931f	0.07010483
127	0xbd560d7b	-0.05225895
128	0x3d7f0ccd	0.062268067
129	0x3c99b914	0.01876501
130	0xbdc133a7	-0.0943368
131	0xbda8ceb8	-0.082425535
132	0x3c318926	0.010835921
133	0xbd6bcf3d	-0.057570685
134	0x3c131597	0.008977315
135	0xbd3d659d	-0.046239484
136	0x3e14660a	0.1449205
137	0x3d298574	0.041387036
138	0x3d89eee2	0.067350164
139	0x3dc5698a	0.096392706
140	0x3d88385e	0.06651376
141	0x3e7a6c65	0.24455412
142	0xbdac2d81	-0.08407117
143	0xbd4f3182	-0.050584324
144	0xbd64c52b	-0.055852097
145	0xbe317396	-0.17329249
146	0x3d92d34b	0.07169207
147	0x3db9c31e	0.09070419
148	0x3e1c076b	0.15237205
149	0xbb2d93ed	-0.0026485876
150	0x3cb841a1	0.022492232
151	0x3d21d6f8	0.03951165
152	0x3dabd0d7	0.083894424
153	0x3cd90623	0.026492184
154	0xbd9070ad	-0.07052741
155	0x3caf2e13	0.021384275
156	0x3e6aa263	0.22913508
157	0xbe575ab7	-0.21030699
158	0x3e13b024	0.14422661
159	0x3d19004c	0.0373538
160	0xbc04607f	-0.008079647
161	0xbde61fda	-0.11236544
162	0x3da93911	0.08262838
163	0x3e43eafd	0.1913261
164	0xbd5657e2	-0.052329905
165	0xbd8293df	-0.063758604
166	0xbe187f0c	-0.14892215
167	0x3c612d6a	0.013743738
168	0x3e3c7cf3	0.1840704
169	0x3c73a175	0.014870037
170	0xbe3cc611	-0.18434931
171	0xbdb4c9fd	-0.08827589
172	0x3d279407	0.040912654
173	0x3e3b82eb	0.1831166
174	0x3dbc6fb3	0.092009924
175	0x3ddb259b	0.10700532
176	0xbdccfdec	-0.10009369
177	0x3e2016c0	0.15633678
178	0xbdf39328	-0.11893302
179	0x3dc2a12a	0.09503396
180	0x3dd83518	0.10557002
181	0xbd208181	-0.039186005
182	0xbcf536c5	-0.029933343
183	0xbdcf0fe5	-0.101104535
184	0xbd218b47	-0.039439466
185	0x3dd194ec	0.10233483
186	0x3e78f0ef	0.24310659
187	0xbe131c2a	-0.14366212
188	0x3ca015f8	0.019541726
189	0x3d0b3452	0.033985443
190	0xbd3bbfdf	-0.04583728
191	0xbdd02392	-0.101630345
192	0x3e8330d2	0.25623184
193	0xbceff671	-0.029292317
194	0x3ccaf464	0.024774738
195	0x3e3cfc89	0.1845571
196	0x3d8b0f02	0.06789972
197	0x3d743bc2	0.059627302
198	0x3e1eb057	0.15496956
199	0x3d39c6b4	0.045355514
200	0x3c32b358	0.010907017
201	0x3daa972d	0.08329616
202	0x3d8cc4be	0.06873463
203	0x3d6b8360	0.057498336
204	0xbdb7907a	-0.089631036
205	0x3e2ad7c2	0.16683868
206	0xbdf280ff	-0.1184101
207	0x3d916040	0.07098436
208	0x3d686d05	0.056744594
209	0xbe524f36	-0.20538029
210	0x3d86fca7	0.06591158
211	0xbe2b1f9d	-0.16711278
212	0xbdf29477	-0.11844724
213	0x3e18ac7f	0.14909552
214	0x3e87af87	0.26501104
215	0x3cc44ad7	0.023961468
216	0xbe0a2ec9	-0.1349441
217	0x3c93c067	0.01803608
218	0xbca85ab1	-0.020551058
219	0xbdd712a1	-0.105016
220	0x3d376683	0.044775497
221	0x3e093018	0.13397253
222	0x3e1bae10	0.15203118
223	0xbd8c5bc1	-0.06853438
224	0xbd820097	-0.06347769
225	0x3d4c4386	0.049869083
226	0xbc56c539	-0.013108545
227	0x3de04b04	0.10951808
228	0x3e51ba51	0.2048123
229	0xbdab84c2	-0.08374931
230	0x3e1c9ae6	0.15293464
231	0xbcf93c3b	-0.030424228
232	0x3dd7dbc9	0.105399676
233	0x3d5865ee	0.052831583
234	0xbdebc9c3	-0.11513092
235	0x3e3c9717	0.18417011
236	0xbe06cf6b	-0.13165061
237	0x3de8e3ca	0.11371572
238	0xbe40dbd7	-0.18833862
239	0x3e4d7aa4	0.20066315
240	0x3e0c4158	0.13696802
241	0x3c006a72	0.007837879
242	0x3d6a9ddd	0.057279456
243	0xbda77b9a	-0.08177872
244	0xbd09ad61	-0.033612613
245	0x3d80e9d9	0.06294603
246	0x3c63519b	0.013874437
247	0xbd0b28b2	-0.033974357
248	0xbdff2a17	-0.124592
249	0x3e6780c8	0.2260772
250	0xbd471783	-0.048606407
251	0xbd3cc2a7	-0.046084072
252	0xbd7b4671	-0.061346475
253	0xbdd8a430	-0.10578191
254	0xbe197924	-0.14987618
255	0xbe08273f	-0.13296221

fc_layers.1.bias f4 [84]
0	0x3e63d24a	0.22248188
1	0x3e8199f0	0.25312757
2	0x3e379284	0.17926985
3	0x3e0ad562	0.13557962
4	0x3c7286d9	0.014802658
5	0x3e86e203	0.26344308
6	0x3cce74d4	0.025202192
7	0xbdf01bb8	-0.11724037
8	0xbe38819e	-0.18018195
9	0xbc8b333d	-0.016992206
10	0x3bc32d94	0.005956361
11	0xbe8fea0b	-0.28108248
12	0x3c3c6cd6	0.011500558
13	0xbe1b12a9	-0.15143837
14	0xbebfbc5c	-0.37448394
15	0xbd403db4	-0.046933845
16	0xbe6972b0	-0.22797656
17	0xbe16aa7f	-0.14713477
18	0xbec66fd1	-0.38757184
19	0xbd74246d	-0.05960505
20	0x3d88d0d2	0.06680454
21	0x3d0e5c2d	0.034755874
22	0x3d1e1f6c	0.038604185
23	0xbd8502e9	-0.06494696
24	0x3e926150	0.2858987
25	0xbdee467e	-0.11634539
26	0xbc425dd4	-0.011863191
27	0xbe9469cd	-0.2898697
28	0x3e9cd68a	0.3063243
29	0x3e8055a8	0.2506535
30	0x3c70b9c1	0.014692725
31	0x3df9ec80	0.12203312
32	0xbd9f494e	-0.07777654
33	0xbd16128b	-0.036638778
34	0xbe7067f6	-0.23477158
35	0xbdb9ae80	-0.09066486
36	0x3e185ad4	0.14878398
37	0xbe6a3c58	-0.22874582
38	0x3ebfeb96	0.37484425
39	0x3e00d598	0.1258148
40	0xbe771016	-0.2412723
41	0xbe49d55e	-0.197103
42	0x3dbfc2d4	0.093633324
43	0xbea4cad5	-0.32186
44	0xbd09ef63	-0.033675563
45	0xbe671894	-0.2256797
46	0xbe6e9292	-0.232981
47	0x3e211c16	0.1573337
48	0xbe07e513	-0.13270979
49	0x3e832703	0.256157
50	0xbde669c8	-0.11250645
51	0xbdad66d3	-0.08466878
52	0xbdb505ac	-0.088389724
53	0x3c454d5c	0.01204237
54	0x3e50bc70	0.20384383
55	0x3e5e12e9	0.21686901
56	0x3ed0144b	0.40640482
57	0x3d19f835	0.037590224
58	0x3e060219	0.13086738
59	0xbd8ba536	-0.06818621
60	0xbde3d97e	-0.11125468
61	0xbd989bec	-0.07451615
62	0xbe27ac46	-0.16374311
63	0xbdbf1789	-0.09330661
64	0xbda4e59d	-0.08051608
65	0x3a29ca79	0.0006477009
66	0x3e753a05	0.23947914
67	0xbdb2aeba	-0.08724733
68	0x3d142524	0.036168233
69	0xbe0c6639	-0.1371087
70	0xbe2c5ab1	-0.16831471
71	0xbd99fe12	-0.07519163
72	0xbc86aa3c	-0.016438596
73	0x3cf5a6b2	0.029986713
74	0xbdf13be9	-0.11779005
75	0xbe5a5b8b	-0.21323983
76	0x3e0a964f	0.135339
77	0xbd0b510b	-0.034012835
78	0x3c5e4faf	0.013568803
79	0xbe6d5b60	-0.23179388
80	0x3d905440	0.070473194
81	0x3c3403aa	0.010987202
82	0xbc57ce38	-0.013171725
83	0x3d9531d0	0.072848916

output_layer.weight f4 [10, 84]
0	0x3e0d7624	0.13814598
1	0x3e60b102	0.21942523
2	0x3dbbd956	0.09172313
3	0x3ee3dfc7	0.44506666
4	0x3e97867b	0.29594788
5	0xbe42c947	-0.19022094
6	0xbed2059f	-0.41019914
7	0xbeaad257	-0.33363602
8	0xbe69c4ab	-0.22828929
9	0xbe1af76b	-0.15133445
10	0x3d535aa2	0.051600106
11	0x3e036c02	0.1283417
12	0xbe48daf8	-0.1961478
13	0xbe2e8741	-0.17043783
14	0xbe927fd9	-0.28613165
15	0xbea7ddaa	-0.32786304
16	0xbef5afc9	-0.47985676
17	0xbe34a7fd	-0.17642207
18	0xbea8c865	-0.3296539
19	0x3d2ac8c4	0.04169537
20	0xbe82f103	-0.25574502
21	0x3e29b112	0.16571453
22	0x3e4a5d13	0.19762067
23	0xbe97db95	-0.29659715
24	0x3e85a9b7	0.26106045
25	0x3e3a6c7b	0.18205445
26	0xbcfcaa7a	-0.030843008
27	0xbe3948c6	-0.18094167
28	0xbeab8944	-0.33503163
29	0xbd3223d6	-0.043491207
30	0xbe6efe4e	-0.23339197
31	0xbde6a081	-0.112610824
32	0xbeaa7f6b	-0.33300337
33	0x3d8f33c6	0.06992297
34	0xbe98b3eb	-0.29824767
35	0xbe2a42c2	-0.16627029
36	0xbdf6f15a	-0.12057753
37	0xbbfb7af1	-0.007674568
38	0x3ea28d2d	0.31748334
39	0xbef16314	-0.47145903
40	0xbea4bfb1	-0.321775
41	0xbe135da5	-0.14391191
42	0x3d79509e	0.0608679
43	0x3eb740a1	0.35791495
44	0x3b83be3f	0.004020482
45	0xbe858f27	-0.2608578
46	0xbdbf1662	-0.09330441
47	0x3eb550d4	0.3541323
48	0xbd8b8aba	-0.06813569
49	0x3b802b81	0.003911436
50	0x3e1f5d0b	0.15562837
51	0xbe1c3665	-0.15255125
52	0x3e1089d8	0.14115083
53	0x3da95606	0.08268361
54	0x3e064a08	0.13114178
55	0xbd947ed2	-0.072507516
56	0x3eced440	0.4039631
57	0x3e42e21d	0.19031568
58	0x3e74f4d6	0.23921522
59	0x3d1e1f93	0.03860433
60	0xbd8d810b	-0.069093786
61	0xbd8c2c81	-0.06844426
62	0xbe8161d9	-0.25269964
63	0x3e95b381	0.29238513
64	0x3d355cfd	0.044278134
65	0x3dd18619	0.10230655
66	0x3da79a24	0.08183697
67	0xbd95bfb7	-0.07311957
68	0x3df13c3e	0.117790684
69	0xbc9ae044	-0.018905766
70	0xbe0e21d5	-0.13880093
71	0xbea783ce	-0.32717746
72	0xbaa69aca	-0.0012710926
73	0x3cb5d18f	0.022194652
74	0xbdb578c3	-0.08860924
75	0x3e97f8cc	0.29682004
76	0x3e214c70	0.15751815
77	0xbebbcd18	-0.36679912
78	0x3ed73351	0.4203134
79	0xbedd0927	-0.43171045
80	0x3e2fb7ff	0.17160033
81	0xbd4a5fc5	-0.04940774
82	0xbdfe830f	-0.12427341
83	0xbddb32ab	-0.107030235
84	0x3d9f89e0	0.077899694
85	0xbe4b509e	-0.19854972
86	0xbe6c05fe	-0.23049161
87	0xbea90ead	-0.3301901
88	0x3ec6a5f0	0.38798475
89	0xbd8c4802	-0.06849672
90	0xbe26f85e	-0.16305682
91	0xbee3092b	-0.44342932
92	0x3e0f1335	0.1397217
93	0xbe53beaf	-0.20678209
94	0x3e1903e6	0.14942893
95	0xbf005b4c	-0.5013931
96	0x3ead05b5	0.33793417
97	0x3e2283fc	0.1587066
98	0xbea0378e	-0.31292385
99	0x3dba4611	0.09095395
100	0xbe20fbf4	-0.15721112
101	0xbefffa38	-0.4999559
102	0xbe92d998	-0.28681636
103	0xbe910d25	-0.2833034
104	0x3c9d24fd	0.019182676
105	0x3e7af76f	0.24508451
106	0x3c0e2428	0.0086756125
107	0xbeaf1cc2	-0.34201628
108	0xbe092cb3	-0.13395958
109	0x3eba6989	0.36408642
110	0x3d5570ed	0.052109648
111	0x3e0ccc03	0.137497
112	0x3eafbe47	0.34324858
113	0x3e131878	0.14364803
114	0xbd90fc4f	-0.07079374
115	0xbf0528d7	-0.5201544
116	0x3d46d001	0.04853821
117	0xbe5d8e60	-0.21636343
118	0xbde28dd3	-0.11062207
119	0x3e6c9dde	0.23107097
120	0x3ea41bf5	0.3205258
121	0xbdc4bcde	-0.09606336
122	0x3e87468f	0.2642102
123	0xba097ce3	-0.0005244745
124	0xbddba088	-0.10723978
125	0xbdff7d81	-0.1247511
126	0x3e866da8	0.26255536
127	0xbe54f6d2	-0.2079728
128	0x3e444a56	0.19168982
129	0x3e48e8d1	0.19620062
130	0xbeaecc76	-0.34140366
131	0xbe889992	-0.26679665
132	0x3ea3a67a	0.3196295
133	0x3ec0d106	0.37659472
134	0xbdb2d7ac	-0.087325424
135	0x3e4b6deb	0.19866149
136	0x3e9f4dde	0.31114095
137	0x3e75830b	0.2397577
138	0xbdd334a7	-0.10312777
139	0x3eaf6069	0.34253243
140	0xbe72c542	-0.2370806
141	0x3c6a2f50	0.014293507
142	0x3dc14aff	0.094381325
143	0x3dc434f9	0.09580416
144	0x3ea49d5c	0.32151306
145	0x3df70c4c	0.12062892
146	0x3ef454a4	0.47720826
147	0xbe30e897	-0.17276226
148	0x3e9c5eec	0.3054117
149	0x3e8a9beb	0.2707208
150	0x3e93a4b8	0.28836608
151	0x3deef26e	0.116673335
152	0xbde3b1be	-0.11117886
153	0xbd73e80e	-0.059547476
154	0x3e4a222e	0.19739601
155	0x3e824877	0.2544591
156	0x3d735abd	0.059412707
157	0x3d7a392b	0.061089676
158	0xbeb31100	-0.34973907
159	0xbe1322b0	-0.14368701
160	0x3de9f1d1	0.11423076
161	0xbe2a7832	-0.16647413
162	0x3d6f217c	0.058381543
163	0x3ebe4cb1	0.37167886
164	0x3dbb2f66	0.091399
165	0xbec74264	-0.3891784
166	0x3e524bdd	0.20536752
167	0x3f008db8	0.50216246
168	0x3db49b7a	0.08818717
169	0xbd940ae1	-0.072286375
170	0x3c6c78d0	0.014433101
171	0x3d5ef9a9	0.054437313
172	0xbd2fbc39	-0.042904112
173	0x3e00c081	0.12573434
174	0x3ece60fa	0.40308362
175	0x3c83e737	0.016101463
176	0x3e8fde52	0.28099304
177	0xbd65a0ca	-0.056061544
178	0xbea7ef2a	-0.32799655
179	0x3dea7f0c	0.114500135
180	0x3e0a092b	0.1348006
181	0xbe90f91e	-0.2831506
182	0xbea4273b	-0.3206118
183	0xbe078d8f	-0.13237594
184	0xbdecbf66	-0.11559944
185	0xbd65a9e9	-0.056070242
186	0xbc3c09bb	-0.011476929
187	0x3e078a58	0.13236368
188	0xbe967f37	-0.29393932
189	0xbe773cb6	-0.24144253
190	0xbe4905d6	-0.19631132
191	0xbc8dc092	-0.017303739
192	0x3ecc7cfa	0.399391
193	0xbe6a65f7	-0.22890459
194	0xbe045868	-0.1292435
195	0x3c998bd6	0.018743437
196	0xbe4980a1	-0.19677974
197	0xbe22ba87	-0.15891467
198	0x3e6ea4f9	0.2330512
199	0x3bf210c6	0.0073872535
200	0x3e64875a	0.22317258
201	0x3df5e389	0.120062895
202	0x3c9f228c	0.019425653
203	0xbe1b591c	-0.15170711
204	0x3e841e44	0.2580434
205	0x3e276147	0.16345702
206	0x3e9aad60	0.302104
207	0x3e425843	0.18978982
208	0xbcb10ce4	-0.021612592
209	0xbdc98f48	-0.09841782
210	0xbe043e65	-0.12914427
211	0xbea10656	-0.31450146
212	0x3daf1ade	0.085500464
213	0xbe73e69c	-0.23818439
214	0xbd4728ab	-0.04862277
215	0x3e25d49c	0.16194385
216	0xbe0fbef1	-0.14037682
217	0x3e33a17d	0.17542072
218	0xbda3d775	-0.080000795
219	0xbbaafacf	-0.005217887
220	0xbdac8273	-0.08423319
221	0xbe7a7966	-0.24460372
222	0x3e316c09	0.17326368
223	0xbe635eda	-0.22204152
224	0xbce8bdc3	-0.028410798
225	0x3d29bec7	0.041441705
226	0xbde2f566	-0.11081962
227	0xbe28d142	-0.16486076
228	0x3e03065a	0.12795392
229	0x3e4efbca	0.20213237
230	0xbe5a7be1	-0.21336319
231	0xbd045205	-0.032304782
232	0x3d72a05c	0.059234962
233	0xbdfd3b0a	-0.123647764
234	0x3e17fd50	0.14842725
235	0xbe8c13bd	-0.2735881
236	0x3e0f2cbd	0.1398191
237	0xbd2c0fac	-0.042007133
238	0xbd7930b0	-0.060837448
239	0xbe27265f	-0.16323231
240	0x3dc53d07	0.09630781
241	0xbca816e8	-0.020518735
242	0xbcabc53b	-0.02096807
243	0x3e5f5757	0.21810661
244	0x3d936a46	0.071980044
245	0xbe312886	-0.17300615
246	0xbde972aa	-0.113988236
247	0xbf053a8c	-0.5204246
248	0x3e5e6f48	0.21722138
249	0x3e9a4a1e	0.30134672
250	0x3e76770f	0.24068855
251	0xbe792e7f	-0.24334143
252	0xbde894a0	-0.11356473
253	0x3e056783	0.13027768
254	0x3e92a0e5	0.28638378
255	0xbdc9d181	-0.09854413

output_layer.bias f4 [10]
0	0x3f22213e	0.63331974
1	0x3dd73408	0.10507971
2	0x3f1cae03	0.6120302
3	0x3e9f6051	0.3112817
4	0xbf009f7f	-0.5024337
5	0x3bdc3b39	0.006720927
6	0xbf04df42	-0.51903164
7	0xbe78ce84	-0.2429753
8	0xbec6bceb	-0.38816008
9	0xbe8abd5d	-0.27097598
