Lab1/model/model_CIFAR10_10iters/conv_params_c3_28.pth (torch, 403140 bytes, 10 tensors)

conv_layers.0.weight f4 [6, 3, 5, 5]
00000000: 04d2 443e d3e6 33be 4866 4b3e dd70 3a3e
00000010: 955e 5d3e 242c bebc c028 77be 0e79 6abe
00000020: 7068 b2be 8123 9b3c 4a9d 54be ded4 0abf
00000030: 488d f3be 293a 0dbf 65d7 fdbd d8ac 76bc
00000040: 3141 c5be b757 eabe f95d fdbe fa81 93bc
00000050: 524d 3c3e 95ac 2cbd 5507 c1bd bfe4 59be
00000060: 70be 223e c62e 19bd 010e 1dbe b408 2c3e
00000070: 1948 5dbd f209 49be e25b 18bc 3477 86bd
00000080: 3b0a 813e 838d 033e 9f3e 33be 058c 0d3e
00000090: dd34 df3d 88b7 643e 6286 683d c174 49bd
000000a0: f78d b03b f723 7dbc 1019 7e3e 76d8 223e
000000b0: 1041 423d 4098 73be 4779 91bd e1a9 f03d
000000c0: cc83 9ebd 99a1 edbd 967b b6bd 365b e73d
000000d0: e558 c33e 483b 713e 4dee 0bbe 0c38 493d
000000e0: b6d7 e83e 2dbe 223f 4864 e23e 4853 46be
000000f0: 137e 2d3e 780a f23e 7243 393f 50e9 fa3e
00000100: 5097 d93d a356 ffbc b92b 793e ade7 173f
00000110: 60cc 063f 35d4 373e 63a1 b9be 9590 8f3d
00000120: a9aa 763e 80e8 cf3c af90 44be 6004 39be
00000130: 1011 083e 6e6b 863d 2e4b 083e 1b4a 47bd
00000140: a4b0 99be 1407 873e 8399 efbe 6251 c23e
00000150: 3e64 e73c 314e 3ebd 4f65 3b3f c2e2 c0bf
00000160: 4835 a23e 75ae fa3e 606a 7fbc bb13 a93f
00000170: 391f dabf e0bd 0cbe 4ae8 163f 96dc aabd
00000180: 0c88 453f 411f 43bf 673c 97bb 48c2 b6bc
00000190: 3f52 dc3d 276a 8d3d 8ae5 1abe e73e 6b3c
000001a0: ccf4 463d 1c4b 1c3e 016b ad3e 1eb7 59bf
000001b0: e626 863e ae17 a0bd 6f9d d33e 9a39 5b3f
000001c0: e513 edbf fe17 713e e462 d83e ad23 f73d
000001d0: f47d aa3f e0f7 e1bf 761b 86be 1eac 0d3f
000001e0: e90d 9c3d 8f28 5f3f 7130 5bbf e015 8cbe
000001f0: cdb2 7a3d ba28 57be 8169 ac3b 7d3c be3d
00000200: 3e65 69bd 6bc1 81be c271 80be 8d97 813e
00000210: ee87 acbe d900 cb3e dd46 3bbe 13bd cc3c
00000220: bf81 333f c9a6 9fbf a070 1a3f 7dfc ec3c
00000230: f60e 93be 2cf0 ab3f 7fd1 abbf 8bca 8dbd
00000240: 864f b93e d834 a0bd 72c3 8a3f 6063 f2be
00000250: b3a7 8f3d 7138 e6bd 2b59 753e acb9 d73e
00000260: 922c 833d 4ec2 85bd 0b59 44be adee 073e
00000270: cdd0 1f3e f457 183d 1afc e03d 4e2e 0d3c
00000280: 78c2 99be 1d96 70be 4ced 373e d7d9 163f
00000290: d286 4a3e 1885 0abe f4f7 51be 3b4e 6a3e
000002a0: fefe cb3e 8fe2 873e 1da7 453c dbbc fd3d
000002b0: 5d0f 083d 9b08 12bd da1e 8dbd 371c 92bd
000002c0: 714d 333d 6231 92be 9ece a8be 7b27 b33d
000002d0: 00ce b7be 5ce6 babe aad3 38be eb39 433e
000002e0: cfc0 be3e 47da 36bf 3369 25bf 287a 1fbe
000002f0: 13ec 093f 9646 aa3e d96f dbbe 9e18 28bf
00000300: 2419 88bd 8ba6 c93e a6c1 503e e01c e83d
00000310: f557 3e3d 3f67 4fbe 2627 c8be 02e9 10be
00000320: 2ed1 873d c561 91bd dc8a 8d3c a7f8 23be
00000330: 663a 7a3d f62d 5dbe 8e26 13be 1f7b 2bbd
00000340: 0c1b a33e 089e aa3e c533 e0be 09d8 1bbf
00000350: 33a2 1e3e 73d5 3a3f 51a7 cb3e 7717 a4be
00000360: 0d2b 02bf 84f1 3a3e 29e1 fe3e 0b42 563e
00000370: d02d 793e 16a7 a43e 3e05 173e 1758 1a3d
00000380: 813a b33c b887 633d a0a3 a0bd c46e 89bd
00000390: c500 e83d 0a3a 77be b431 093e 56c9 5c3c
000003a0: 2713 debe c801 4abf 0948 79be f2ed c03e
000003b0: 2dbf 4abe 5dad 5ebf a551 77bf cdee a7be
000003c0: de13 14bd 1866 f0be c562 ebbd 347f d5bb
000003d0: bb0f debc 9fed 8c3e 2c07 e23e 6daf 3d3f
000003e0: 5b01 0d3f 042c 753e a67e 0a3d 811e 793d
000003f0: 7286 3b3e 7bdf 8c3e 4041 6fbd 0b3a 4f3e
0.1922074 -0.17568521 0.19863236 0.18207116 0.21618111 -0.023214407 -0.24136639 -0.22897741
-0.34845304 0.018937828 -0.20763126 -0.5423106 -0.47568727 -0.5516687 -0.12394599 -0.015055858
-0.385263 -0.45770046 -0.49485758 -0.018006314 0.1838887 -0.042156775 -0.094252266 -0.21278666
0.15892959 -0.037398122 -0.15337373 0.16800195 -0.054023836 -0.196327 -0.00929925 -0.06565705
0.25203118 0.12846951 -0.17504357 0.13822944 0.10898755 0.22335637 0.056768782 -0.04918361
0.0053880173 -0.015450469 0.24814248 0.15902886 0.04742533 -0.23788548 -0.0710321 0.11751152
-0.07739982 -0.11603088 -0.08910291 0.11296694 0.3815376 0.2355777 -0.13665123 0.049125716
0.45477074 0.63571435 0.44217134 -0.19367707 0.16942625 0.47273612 0.7236854 0.49006128
0.10624564 -0.031169241 0.24333085 0.59337884 0.526556 0.17952044 -0.3625594 0.07009999
0.24088539 0.02537942 -0.19195817 -0.18068075 0.13287759 0.06563459 0.13309929 -0.048654657
-0.3001758 0.26372588 -0.46796808 0.37952715 0.028246041 -0.046461288 0.7320146 -1.5069201
0.31681275 0.48961225 -0.015589327 1.3209146 -1.7040778 -0.13744307 0.58948195 -0.08342855
0.77160716 -0.76219565 -0.004615355 -0.022309437 0.10757875 0.069050126 -0.15126625 0.014358259
0.0485733 0.15263027 0.338707 -0.8504504 0.26201552 -0.078170165 0.4133105 0.8563477
-1.8521696 0.23544309 0.42262948 0.120673515 1.3319688 -1.765377 -0.26192826 0.55340755
0.07619841 0.8717126 -0.8562079 -0.2736044 0.061205674 -0.2101163 0.0052616005 0.09288881
-0.056981318 -0.2534288 -0.2508679 0.25310937 -0.33697456 0.39649084 -0.18288751 0.024992501
0.7011985 -1.2472774 0.603281 0.02892899 -0.28722352 1.343267 -1.3423308 -0.06923398
0.36193484 -0.07822579 1.0840895 -0.47341442 0.07014408 -0.11241234 0.23959796 0.42133844
0.064049855 -0.06531201 -0.19174592 0.13274641 0.15606995 0.037193254 0.109855846 0.008616997
-0.3003118 -0.23494764 0.17961615 0.5892615 0.19777992 -0.13527334 -0.20504743 0.22881405
0.3984298 0.26540038 0.012063769 0.12389537 0.033217777 -0.035652738 -0.0689065 -0.07134288
0.043775026 -0.285533 -0.32970136 0.08747765 -0.35899353 -0.36503875 -0.18049493 0.19065063
0.37256476 -0.71426815 -0.64613646 -0.15573943 0.53875846 0.33256978 -0.4285877 -0.6566256
-0.0664542 0.39384875 0.20386371 0.113336325 0.0464706 -0.20254229 -0.39092368 -0.14151385
0.06631695 -0.07098726 0.017278127 -0.16012822 0.06109085 -0.21599564 -0.14370176 -0.041865464
0.31856573 0.33323693 -0.43789497 -0.6087652 0.15491562 0.7298195 0.3977609 -0.32049152
-0.5084694 0.18256193 0.4978116 0.20923631 0.24333882 0.32158726 0.14748093 0.037681665
0.021878483 0.055549353 -0.07843709 -0.0671058 0.11328272 -0.24143234 0.13397866 0.013475737
-0.43373987 -0.7890897 -0.24343885 0.37681538 -0.1979949 -0.8698328 -0.96608955 -0.32799378
-0.03615176 -0.4695289 -0.11493448 -0.006515408 -0.02710711 0.2752504 0.44146097 0.74095803
0.55080193 0.23942572 0.033812188 0.060820106 0.18313006 0.27514252 -0.058411837 0.20236985

conv_layers.0.bias f4 [6]
00000000: 28e3 f63e 2cd4 a5be 9ab5 eabe f433 a9be
00000010: 59ea 3bbf 0e31 17bf
0.4822018 -0.32388437 -0.45841676 -0.3304745 -0.7340446 -0.59059227

conv_layers.1.weight f4 [28, 6, 5, 5]
00000000: 59b2 093e 273b 77bc 453c f43d c05b 183e
00000010: 6836 de3d 4274 3cbe e136 8fba 7924 fdbd
00000020: 4e2d 853d 02e2 473d 5a80 09be 2466 533d
00000030: b1bf c1bd 017e ce3c da30 203b 7bd4 bfbd
00000040: c999 023e 3f7c 213d e7c8 b1bb 5e1c 82bd
00000050: 41d6 b5bd ffe0 c6bc 69db ddbc a8f0 3bbe
00000060: 397d 5cbe 31fe d03e 592a 3e3e 20e2 91bd
00000070: cc16 14be acce a8be 6a49 263f 1021 093c
00000080: e641 05be 06be 8cbe 2c36 93be 4aae 0c3f
00000090: c2fe 033d fd62 f73d a7e7 5ebe 7602 84be
000000a0: 3e58 ea3e 5dd9 613e 5ad2 083e cc5b aabe
000000b0: af3d 8ebe 4975 823e 6ca1 51be db7b cebe
000000c0: c4bc 19bf a5c4 6bbe 26da a33e f031 2f3e
000000d0: 421c 9abd 7bd4 0abe ed3a 1a3b 07df 203d
000000e0: fa19 a5bd 5316 90be 0714 39be b7c2 c1bd
000000f0: dbd7 1e3e 2b4f 13be 3117 babe d33f 3bbe
00000100: e0e7 f03d c971 c73e 476e af3c 9629 82be
00000110: 0b39 67bd ebc6 ecbd 01e0 5c3e 2fa0 3d3e
00000120: 718a 2bbe 6d43 2cbe e0ca 56bd c41e 053e
00000130: f5bc 093e a2c6 39bc 5b57 14bd 3d50 cc3d
00000140: 8b91 cfbd b2b1 23bd 4011 4cbe 5168 cf3d
00000150: 383c c6bb 83b7 a3be 94a1 bdbc 09cd 50bd
00000160: cc0c 0e3e 99a3 f9bc 0570 4dbd ff1f cebd
00000170: efa1 0c3e e59e 733c b8df 4a3c 6552 f13d
00000180: 9572 cdbd 5039 803e 0532 bf3b dd5b 63bd
00000190: 4611 f23d 9332 cebd fd95 e7bd 761a 4c3d
000001a0: 957f c83d 9c00 87bd 0671 41be ff3f 03bd
000001b0: 4442 b13d 5adc 39bc 910e 89be 9194 5ebd
000001c0: cc43 d03d 1f29 873e 9878 513d f190 aabe
000001d0: cb12 2dbd 5641 543e 5f3c 973e 0848 1b3e
000001e0: 83b4 b5be a015 71be 0bef 143d b420 de3d
000001f0: 8b68 86bd aaad acbe e47c 92bd 8559 253e
00000200: d914 c6bd 35c1 f23d d923 02bf fa35 6fbe
00000210: f4c1 1d3d d4e5 0a3e e32e 153d d241 31bf
00000220: 3b5b 0cbf 4958 c5bc 5e23 7cbc 07e2 95bc
00000230: ef31 ddbe 256c 8bbe e2d0 163e 11a5 3c3e
00000240: 43db a23e af75 acbe 27ad 5fbd dfc6 743c
00000250: f743 2d3e f6a2 5c3e c9b8 c6bd 4d4a b83a
00000260: fd82 33be 4604 d43d 45c9 433e 97a8 cf3d
00000270: aded 19bd 7607 b5bc ae33 bfbd 8bc2 c23d
00000280: e314 d93c 526b 593d a71d 2f3d 6099 79bd
00000290: 5533 f13d 7e20 623a bbee 8a3d 99ad bdba
000002a0: 02ae c0bc 0c3b 183e ea09 9cbe aac1 12be
000002b0: 5b56 fabd bcc0 efbd c03f 5abe 6281 1dbe
000002c0: b911 49be 6b57 84be 05a3 01bf 84cf b13d
000002d0: 4a79 50be fb70 49be 1ca0 05bf d97e afbe
000002e0: a305 dcbb 9c54 95bd f67d a33e 8a4a 9cbe
000002f0: 3cb7 833e 5d75 41bc d976 383c 654b cb3e
00000300: aaf6 19bc f4a2 b93e d872 8d3c deeb a0bb
00000310: ce8b b73e 471c f5bd cfee 8a3e 1421 023e
00000320: 286a 18be 39e4 d0bd 0f8b ea3d a39b 5a3c
00000330: 75fd 64bd b7f1 27be b5ae 8d3d 103b 3fbd
00000340: 36df cbbd c1b7 a6be 95fb ec3d a10d 873d
00000350: cd56 133e 6568 3cbe 5f72 323e 737f 4a3e
00000360: 67de e13d f8d4 bcbc db57 c6bd 99c7 9e3e
00000370: 9a44 5a3d b2b4 09bc 1984 343e e9f6 fbbd
00000380: 7c1a b03d 8982 e33d 14ee 623d 09ec a93d
00000390: 43e3 193e 94dc c3bd 3d82 0a3e 3922 b53e
000003a0: a526 c13e d599 843e 570d 1b3e 928c 01bf
000003b0: c6ec 1dbe 3a16 51be 9232 e0be 2d2d 45bf
000003c0: cf98 2bbe dd95 bd3d fb36 0d3e 2f63 373e
000003d0: 0c71 9bbe eec1 d1be 8aa8 bfbe def0 74be
000003e0: f46c aabe 318f fbbe 9531 e7bb d71e 203c
000003f0: 1e9e 063e 1812 453d 6b2c 34bd 4969 07be
0.1344694 -0.015089787 0.11925558 0.1487875 0.10850221 -0.18403724 -0.0010926389 -0.12360472
0.06502782 0.048799522 -0.13427868 0.05161108 -0.0946039 0.025206568 0.002444318 -0.09366699
0.12753977 0.03942513 -0.0054255608 -0.06353067 -0.08878756 -0.024277208 -0.027082162 -0.18353522
-0.21532144 0.40818933 0.18570842 -0.07123208 -0.14461821 -0.32970178 0.6495577 0.008369699
-0.1301342 -0.27488726 -0.28752267 0.54953444 0.032225378 0.120794274 -0.21768056 -0.25783128
0.45770448 0.22055574 0.13361493 -0.3327316 -0.27781436 0.25480106 -0.20471734 -0.4032887
-0.6005366 -0.23024233 0.32002372 0.17108893 -0.07524921 -0.13557617 0.0023533658 0.039275195
-0.08061595 -0.28142032 -0.18074046 -0.09460967 0.1551203 -0.14385669 -0.3634582 -0.18286066
0.11762977 0.38954 0.021414889 -0.25422353 -0.056450885 -0.11561378 0.21569826 0.18518136
-0.1675203 -0.16822596 -0.05243957 0.13000017 0.13450988 -0.011338862 -0.03621612 0.09976242
-0.10135182 -0.039964385 -0.19928455 0.10127319 -0.006049659 -0.31975946 -0.023148336 -0.050976787
0.13872069 -0.030473517 -0.05015566 -0.100646965 0.13733648 0.014869426 0.01238244 0.11783294
-0.100316204 0.25043726 0.00583482 -0.05550753 0.11819701 -0.1006824 -0.11307905 0.049829923
0.09789959 -0.06591913 -0.18890771 -0.032043453 0.08655217 -0.01134404 -0.26768926 -0.054340903
0.10169181 0.2639856 0.051140398 -0.33313707 -0.04225425 0.20728049 0.29538247 0.15164196
-0.35489282 -0.23543406 0.03636078 0.108460814 -0.06562909 -0.33726245 -0.07152727 0.1614743
-0.09671945 0.118532576 -0.5083595 -0.23360434 0.038515046 0.13564235 0.036421668 -0.6924106
-0.54826707 -0.02408995 -0.015389292 -0.018296255 -0.4320216 -0.27230945 0.1472812 0.18422343
0.31807908 -0.33683535 -0.05460849 0.014939993 0.16920458 0.2154654 -0.09703214 0.0014060229
-0.17530437 0.103523776 0.19119747 0.10139578 -0.03758018 -0.022098284 -0.09336029 0.095097624
0.026499217 0.053080864 0.042752888 -0.060937285 0.11777369 0.00086260575 0.067838155 -0.0014471292
-0.023520473 0.14866275 -0.30476314 -0.1433169 -0.12223502 -0.11706683 -0.21313381 -0.15381387
-0.19635667 -0.25847945 -0.50639373 0.086821586 -0.20358768 -0.19672005 -0.5219743 -0.34276465
-0.006714539 -0.072915286 0.31932038 -0.3052562 0.25725734 -0.011807767 0.011258804 0.3970596
-0.009397188 0.36257136 0.017266676 -0.00491093 0.3584885 -0.11968284 0.27135321 0.12707931
-0.14884245 -0.1019978 0.114523046 0.013342771 -0.055905778 -0.164008 0.06918088 -0.046687186
-0.099546835 -0.32562068 0.11571423 0.065943964 0.1438858 -0.18399198 0.17426442 0.1977518
0.11028748 -0.02305077 -0.09684726 0.31011656 0.05328808 -0.0084048975 0.17628516 -0.12302954
0.085988015 0.11108882 0.05540283 0.08296973 0.150281 -0.09563556 0.13526244 0.35377672
0.37724796 0.25898615 0.15141807 -0.5060512 -0.15422353 -0.20418635 -0.43788582 -0.7702206
-0.1675751 0.092571 0.13790505 0.1790893 -0.30359685 -0.4096827 -0.37433273 -0.23920009
-0.3328625 -0.49132684 -0.007055471 0.009772978 0.13146254 0.04811296 -0.043987673 -0.13223757

conv_layers.1.bias f4 [28]
00000000: 75fd 4cbf 65b6 8abf c11a ee3e f4e4 073f
00000010: 5fd1 dbbe 88ab eb3f ade6 1ebe 46de 99be
00000020: 7360 8e3f 0a19 d43b 1519 4ebe 7eec 813e
00000030: 1013 4d3e c890 993e 4525 7e3f fbe3 45bf
00000040: eaeb dd3d b900 7ebe 8367 3bbf d6a3 7cbf
00000050: b022 9abf 2be7 153e 1aa1 393f 6854 3f3e
00000060: 6946 a63b ff20 3a3f 9f04 503f 2e0f 7b3e
-0.80074245 -1.0836912 0.46504787 0.5308373 -0.42933175 1.8411722 -0.15517683 -0.30052394
1.1123184 0.0064727115 -0.20126756 0.25375742 0.20026803 0.29993272 0.9927562 -0.77300996
0.10836013 -0.24804963 -0.7320482 -0.98687494 -1.2041836 0.14638965 0.72511446 0.18684542
0.0050743115 0.727066 0.8125705 0.2451751

fc_layers.0.weight f4 [120, 700]
00000000: 8591 f23c 6d4f 513e e959 eb3d d650 ab3d
00000010: 95d2 8c3d 9102 a8bc b68d 4c3e 5221 8b3d
00000020: 246a ee3d 1f1b 4f3e 1c4e d3bd 4c8b 07bd
00000030: 482c ff3d 6b50 ae3d 7fc5 21ba 889a cabd
00000040: 56fc 6abe e32d e6bd eb4f b7bd ef7a 89be
00000050: c2a2 12be 78e9 d0bd 3fb3 ecbc d5b2 c13d
00000060: 765f a53c 87d7 763d 9505 9e3d 735b 883b
00000070: cb62 b33d d206 f4bc 74a6 2a3e 9f03 e03d
00000080: 2ef1 3bbd 716d f23d 3485 1d3d 7538 53bb
00000090: 1f53 dfbd 7bb5 07be 357d 983c 59fa 713d
000000a0: 42e2 a8bd 007f 12be a8e6 8abd ae76 6bbc
000000b0: 6ce3 103e 14a3 98bd 6ba8 a4bd 6acd b53d
000000c0: 84b3 793d 942a 75bd 734f 633d 4ece e9bd
000000d0: 6e73 cabd 1cb4 0b3c e511 c53c 10ea 843c
000000e0: c23f 92bd f1b1 08be fae7 13be 4ccf 09bc
000000f0: 4ab5 a3bc 8962 b3bd 5403 83bb 6bc3 15be
00000100: 21f0 85bd d980 fabd 9024 afbd 67ae 39bd
00000110: cecd 453d 76c8 ca3d bde7 e4bd 9dcf 9bbc
00000120: 2150 d0bc 344e 1e3d 6cbf a03a ff08 91bc
00000130: a85c 5139 cd02 adbb 1f94 733c abe2 a03d
00000140: fdbf 9a3d 2f44 923d 7588 0bbb 5574 34bd
00000150: 61cb dfbb 9509 87bd 52d5 4bb9 07cd c43d
00000160: 9d80 053d ca41 a63c 7303 27bd 71ab 68bd
00000170: 9835 f4bd c88d dabd 1820 60bc 4f91 19bd
00000180: 6f66 39bd 7d84 48bd ca3b 8dbd 7a2d 0dbe
00000190: c18f 9abc 3129 0bba c9b2 8bbb c792 663c
000001a0: 0d42 f9bd fb95 3abd 3bdd b6bd e78f 39bc
000001b0: 4cbf c9bc d681 5dbd 070a 8ebd a135 ce3d
000001c0: c1ec 823b 69d8 75bd e2c7 eabc 3fad e53c
000001d0: 3311 493e 6a05 4c3e 2959 3a3d 0650 0c3d
000001e0: 7e02 2cbd bd73 aa3d 4f2a 87bb 9a96 30bd
000001f0: 94ba db3d 1a69 8cba 77a8 85bd f0a7 773d
00000200: db1d dabc 4f2f e7bd fd60 b23d 2c06 a43d
00000210: 272a 853d f233 7dbd b1f7 a0bd 0216 12be
00000220: 1ecf 5ebd 90d7 c83d 3b7d fdbc f901 f9bd
00000230: b3fd d0bd 5420 69bd cbd1 38bc b29e e43b
00000240: 6f74 6cbd 739f 8dbd 5fe0 22bd b153 77bd
00000250: 986d 4fbc 0b96 c8bd 7791 973d 167c 45bd
00000260: 3789 223d 8885 33bd 9506 803a 8445 743d
00000270: 8540 873d 0157 6b3d 4ccb 723b 7c30 e3bd
00000280: 2d03 21be dded fbbd 5abc 2cbe 6e0c 49bd
00000290: ddea b3bd f580 63be 8ddf 79bd a32a be3c
000002a0: be39 2fbb b4cb 433d 7383 c9bc 5259 fe3d
000002b0: 66da bc3d 16a6 9a3c e27d 813c 804b 853d
000002c0: bd64 23be 9ee8 bfbb ee4f 893d f85f 063e
000002d0: f214 d4bd 9412 11be 32cc e8bd 70d6 cf3d
000002e0: ee21 183e 9d84 75be 68bc b0bd eb16 56bd
000002f0: a8ad 863d 28e3 b33d 6a2c 083d 9929 163e
00000300: 270a 0d3c 4e4f d73d cfaf d6bd 27f2 fe3d
00000310: 3704 423d b9e6 b3bd f9d4 223d 671c 3c3d
00000320: 82ac 0fbc c760 96bd 365a 37bd 0f1c 49bd
00000330: 4d88 dd3d 2c7c 233d 41f3 553d d881 38bd
00000340: e650 4cbd 06d7 a83b 9af9 1cbb 59ae 253e
00000350: 2ca6 1c3e f307 353d 089d a8bd 2899 253d
00000360: f04a bbbc e57f b93c 3390 92bd cbe5 1fbe
00000370: 28f7 9bbd 2448 30bd 7956 33be 045b f5bc
00000380: 646c 53be ed87 453d 691e cabc cce1 21be
00000390: cf66 80bd 498b 6e3d 8947 c9bb 81ae 01be
000003a0: 4538 0e3c e270 13bd 7212 85bc 0efb bcbc
000003b0: 0c3f 9bbd 9ba3 893d 89df 74bd cf22 bebd
000003c0: 540d b8bc 6a1f 383d 4bee fd3c 8913 05be
000003d0: 8e17 61bd db6e 173b 9302 c0bd 1920 49bd
000003e0: b152 d1bd 2dc8 06be 8de7 7e3d 4a2e 57bd
000003f0: 10e3 7abc 406d bcbd 23c3 11be 55f0 5f3d
0.029610405 0.20440455 0.114917584 0.083650276 0.06876103 -0.020509036 0.19975933 0.06793465
0.116413385 0.2022519 -0.103176326 -0.03309183 0.12459618 0.08511432 -0.0006171092 -0.09892756
-0.22947821 -0.11239221 -0.0895079 -0.26851603 -0.143199 -0.10200781 -0.028894065 0.09457938
0.02018712 0.060264137 0.077159084 0.004161292 0.08759078 -0.029788408 0.1666506 0.10938191
-0.045884304 0.118372805 0.03845711 -0.0032229696 -0.10904526 -0.13252823 0.01861439 0.05907664
-0.0824628 -0.14306259 -0.067822754 -0.014371557 0.14149255 -0.0745298 -0.08039936 0.0887707
0.060962215 -0.05985506 0.05549569 -0.114163026 -0.09885298 0.008526828 0.024056384 0.016224891
-0.07141067 -0.1334913 -0.14443961 -0.00841124 -0.019983906 -0.087590285 -0.0039981995 -0.14625327
-0.065399416 -0.12231607 -0.085518956 -0.04533234 0.048291974 0.09901516 -0.11177013 -0.019019896
-0.025428833 0.0386488 0.0012264079 -0.017704485 0.0001996631 -0.005279875 0.014866858 0.078557335
0.0755615 0.07141911 -0.0021291052 -0.044056255 -0.0068296646 -0.065936245 -0.00019439057 0.09609418
0.03259336 0.020295043 -0.040774774 -0.056804124 -0.11924285 -0.10671574 -0.013679527 -0.037492093
-0.045263704 -0.048954476 -0.068961695 -0.13786879 -0.018867375 -0.0005308567 -0.004263256 0.01407308
-0.12170801 -0.04555319 -0.08928915 -0.011325813 -0.02462735 -0.0540789 -0.06935506 0.10068823
0.0039955084 -0.060020838 -0.028659765 0.028036712 0.19635467 0.1992394 0.045495186 0.034256004
-0.041994564 0.083228566 -0.0041249166 -0.043112375 0.10728946 -0.0010712475 -0.06526273 0.060462892
-0.026625564 -0.1128832 0.08709905 0.0800899 0.065021805 -0.061817117 -0.078597434 -0.14266208
-0.05439674 0.0980674 -0.030943504 -0.121585794 -0.10204639 -0.056915596 -0.011280487 0.006976926
-0.057728227 -0.06915178 -0.03976476 -0.06038255 -0.0126604065 -0.097942434 0.07400792 -0.04821404
0.03968164 -0.043828517 0.0009767587 0.059636608 0.06604103 0.05745602 0.0037047444 -0.11093232
-0.15723868 -0.12301228 -0.16868725 -0.04908412 -0.08785031 -0.22217162 -0.06100421 0.02321369
-0.0026737298 0.04780169 -0.024598813 0.1241938 0.09221344 0.018878024 0.015807096 0.06508541
-0.15956397 -0.0058565876 0.067046985 0.13122547 -0.103555575 -0.14167243 -0.11367072 0.101483226
0.14856693 -0.23976369 -0.08629686 -0.05226795 0.06576091 0.08783561 0.03324548 0.14664306
0.008608378 0.10513173 -0.104827516 0.12448531 0.0473673 -0.08784241 0.039753888 0.045925524
-0.008769156 -0.073426776 -0.044763766 -0.049099024 0.10817013 0.03991334 0.052233938 -0.045045704
-0.04988184 0.005152586 -0.0023952485 0.1617979 0.15297765 0.044197034 -0.08233076 0.040429264
-0.022862881 0.022643993 -0.0715641 -0.15615003 -0.07615501 -0.04303755 -0.17513455 -0.029950626
-0.20646816 0.048225332 -0.024672704 -0.15808791 -0.06269609 0.0582383 -0.006142561 -0.12664224
0.008680408 -0.035996325 -0.016244147 -0.023068931 -0.075803846 0.067206584 -0.059783492 -0.09283983
-0.022467293 0.044951834 0.030997416 -0.12995733 -0.054954104 0.0023106846 -0.09375491 -0.049102876
-0.1022085 -0.13162299 0.062232543 -0.05253438 -0.015312925 -0.09200525 -0.14234595 0.054672558

fc_layers.0.bias f4 [120]
00000000: 8dae d63c dc20 6cbd 0981 c93e 18b2 4d3e
00000010: fa2b 76be e5d9 f3be 9c2a 50be c85a a83e
00000020: 21f1 21be 4dc5 983d bf47 8a3e b456 18be
00000030: 16ce bd3e 27d6 3bbd 0aff cb3d cb4f 2a3e
00000040: 8315 07bd 1f9d a9bd 198a 29bd 8768 473d
00000050: 297b a73e 712c 33be af89 243c 1213 ca3e
00000060: 3039 c6be fa74 b93e 2c1f 0dbc 55f8 dfbd
00000070: cdcf dc3c 001c 483e a1b7 03be 37db f33d
00000080: 6faf dc3d 78c4 713e 7f8a 253c 15ca 303e
00000090: 22fa ff3c 0f49 063e 691c 5b3d b804 66be
000000a0: f561 863c c65e df3d 1763 38bd d9cd abbd
000000b0: a65d e03d ce35 4bbd 5690 61bd d105 98be
000000c0: f25a f63c 3def a63e 5a4a 7ebc e080 103e
000000d0: 6b12 323e a89b 233d 5b30 aebd 8c1d 0c3e
000000e0: 5e26 dc3d 82e9 2cbe 1eab 0b3e 4be1 0e3e
000000f0: 0fb8 23be fcc7 7e3e 25b1 9bbd 0780 993c
00000100: 83c2 1bbd 9652 823e 5df3 323e ba3b cdbd
00000110: b58d 13be 258b 113d 8a36 b93c d6ea ddbc
00000120: 153d 9bbd 1c83 533e 108a 553e 1990 10bd
00000130: 8a1c fe3c 2e4c bdbd 76ca be3d 90a4 43be
00000140: 3947 80ba 34ec 65bd f493 573e 3cd2 8d3d
00000150: 26f2 db3d 69a8 51bd c7c1 333e 500c c93b
00000160: 2cbe 0bbe e045 9e3d f42a 84bc 3d59 183e
00000170: a6a3 b93b 1d10 01be 951b bcbe a4da 8b3e
00000180: 0d96 68bc ae0d 673d 0135 023d 1fc3 a03e
00000190: a6af 2d3d c8b8 5ebe aa07 953c 7185 a63d
000001a0: 0f16 003e 70f8 2bbd d87c 40be e29d 903c
000001b0: 9d7f 6cbc dd64 113e d886 e6bc b9d6 603e
000001c0: 321b 293d 6da1 593d 772f 9dbd da43 d43d
000001d0: 944b 26bd 3bea bd3e 54d8 743e 7236 e6bc
0.02620628 -0.057648525 0.3935626 0.20087469 -0.24040213 -0.47627178 -0.20328754 0.3288176
-0.1581464 0.07459507 0.27007863 -0.14876825 0.37071294 -0.04585853 0.09960754 0.16632001
-0.0329795 -0.082819216 -0.041391466 0.04868367 0.3271115 -0.17497422 0.010042592 0.39467674
-0.38715506 0.3622206 -0.008613389 -0.109360375 0.026954556 0.19541931 -0.12863018 0.11907046
0.10775649 0.23610103 0.010103821 0.17264588 0.031247202 0.13113807 0.05349389 -0.22462738
0.016404131 0.109067485 -0.045016374 -0.08388872 0.10955362 -0.04961186 -0.05506929 -0.29691938
0.030072663 0.326044 -0.0155206565 0.14111662 0.17389838 0.039943367 -0.08505317 0.13683146
0.107495055 -0.16885951 0.13639495 0.1395313 -0.15988182 0.24880975 -0.07602147 0.018737806
-0.038027298 0.25453633 0.17475648 -0.100211576 -0.14409526 0.03553309 0.022609014 -0.027089518
-0.0758001 0.20655483 0.20853448 -0.035293672 0.031019468 -0.09243046 0.0931596 -0.19105744
-0.0009786851 -0.056133464 0.21052533 0.06924865 0.107395455 -0.051186 0.17554389 0.006135501
-0.13646764 0.07728171 -0.016133763 0.14877792 0.0056652604 -0.12603803 -0.36739793 0.27315247
-0.014195931 0.05640953 0.03178883 0.31398866 0.04240384 -0.21750176 0.018192131 0.08130921
0.12508415 -0.041984975 -0.18797624 0.01765341 -0.014434722 0.14198633 -0.02814047 0.2195691
0.0412857 0.053132463 -0.07675069 0.10364504 -0.04059942 0.37092766 0.23910648 -0.028102133

fc_layers.1.weight f4 [84, 120]
00000000: b195 b0bd b114 913c 68dd acbd 3d26 743d
00000010: c27e 953d a574 ea3c 8b31 62bd e9f3 cabd
00000020: 50d3 21bd 1845 5cbd a0aa 6ebd b6d0 b6bb
00000030: af13 ba3c 5250 923c 356e 77bc cc86 183c
00000040: 3195 e83d c45e 0f3d 7cfe 9a3d 8c81 393c
00000050: d75b a1bb 8bbe 88bd 6447 6f3c ccd1 abbd
00000060: 71f3 59bd 5eb8 04bc b1f7 cdbd 3e87 b03d
00000070: 9ce2 d0bd 00bb 303c 41e1 98bc a420 40bc
00000080: fadd 493c a091 09bd fc09 0cbd 2142 073d
00000090: 6f9d 003e 80f4 d3bd 8376 77bd 1ee0 973d
000000a0: d022 8fbd 5e67 a3bd a4d1 e9bb fb29 93bd
000000b0: 9630 a63d d51c 05bd 3f4e 0f3e 1de1 26bd
000000c0: ff67 eb3c 33bf 47bd f3e8 233b f457 183d
000000d0: b3e7 ff3c 7279 8dbb 36ec 07be 7aca 1b3d
000000e0: a198 153c 22bb 44bd a477 373c 09c6 25bd
000000f0: ae2f b5bc 8b56 b83c bbcf 813d 615c 7ebd
00000100: 4581 93bd 1ed2 9cbd e6da 98bd 9969 72bd
00000110: 87c8 8bbd 2f3d aabd e79e a1bd aa32 36bd
00000120: 1d46 f23c e042 1abd 329e 40bd 8bca 203d
00000130: c40e 6f3d 4f02 4bbd de9d bf3d d2b9 fd3c
00000140: e229 5cbd 1983 1bbc 7cc4 2b3c c64b 8d3d
00000150: f38c 4fbd 7b7c 70bd d004 9a3d 7ffd 823d
00000160: f96d cebd 32cb d5bc 9fb2 48ba 0c2d 4cbd
00000170: 6652 743d f393 643d 8b98 0d3b 808a 87ba
00000180: fb2d 56bd 828d 2e3e 852c 6fbd fc1d 4b3d
00000190: 53bd e4bc e199 6fbd 09e5 593d 3241 c9bd
000001a0: 599b 9dbc 94f6 7abd 3ada 3bbd 058f de3c
000001b0: 6d81 0e3e ef00 dbbb a1ea 1e3d 103b d6bd
000001c0: 1c48 e43c 42e6 99bd b29f c0bd 5a4e 60bc
000001d0: a003 e0bd ea84 95bd 6ea2 1cbd fbe3 69ba
000001e0: ad84 ef3c 5ff2 9abc 3d2f e63b 3d62 cbbd
000001f0: 294b 4bbd 9e9c 14be e2c8 4ebe a222 4f3e
00000200: c7d2 7bbc 18d7 c23d 14ba 363e 7330 59be
00000210: 1f54 873e 0aa1 bc3b 440f 043d 7561 833d
00000220: dd2e 093d e55c 1bbe a256 97bb 4b26 e6bd
00000230: 91cb 57bd 12e0 0fbe 3619 143e b460 09be
00000240: 2ace 80be 9f03 213e 8f70 53bd c8b8 7fbd
00000250: 7e24 d6bb d99a 81bc aecb d2bc 9176 8b3d
00000260: 2093 83bd 7a49 4c3e 60a0 623d 6130 2dbd
00000270: f06b 16be b83a 84bd 4e3a 0bbb 98c5 83be
00000280: ce82 c43d e5b1 c13b 42d5 52bc 53b2 36bd
00000290: 2f4f 683e 5018 563e 8031 e4bd 9618 83be
000002a0: c2c4 1dbe 5a52 a83c ca75 643c b1e9 42bd
000002b0: 8f69 fb3c 63a3 3bbd 5455 073d b6bf 3fbd
000002c0: c71b 683d 5e07 b2bc 0504 ecbc 5166 0ebe
000002d0: b9e8 28be 1a99 253e 97bb 0dbd 5525 843e
000002e0: 7a5c 53be 82b6 adbd 5bc7 07be f163 a6bd
000002f0: ce40 a9bd f062 c83d 226d 1bbe 180b 6b3d
00000300: 0b01 3bbe 4701 7a3d 4dc8 113e 52de 483d
00000310: c216 6a3d f62a 9bbd c286 793d c060 32bb
00000320: b835 6dbd 0382 f4bd be5d 33be 14fc 5fbe
00000330: ff54 3dbc 8742 96bc a1ce bbbd d935 e1bc
00000340: 4689 803d 2146 e73d e22d 97bc 5f44 51be
00000350: e29e 943c 1219 0ebe f311 fbbd 1c0c 51be
00000360: a2f1 2abe c23e f83d 247a 4ebc 4b81 49bd
00000370: d9c8 843d 507c 6dbe fe5b 99bd 9733 1fbe
00000380: b319 473e 1289 12be 702e a4bd c2b3 59bb
00000390: 0b0d fe3c fccd 093e d915 babd 02f3 943e
000003a0: 401b eebc 6fa3 58bd 3c30 3b3e a82e 093e
000003b0: 655e 2b3d fea1 41be 998e 00be 9074 52be
000003c0: 912f b9bd cdf7 173e 039d edbc 0854 d6bd
000003d0: 5ad6 d4bd 2ae2 193d 56ee 023d 06c5 183c
000003e0: 6fd5 84bd b780 10be 8446 96bd 0b5d 273e
000003f0: b3b2 a9bd c049 a3bc 79fc a03d 86c6 fdbd
-0.08622301 0.017710062 -0.084406674 0.05960678 0.07299568 0.028620074 -0.05522303 -0.099098034
-0.039508164 -0.05377683 -0.05826819 -0.0055790795 0.022714464 0.017860565 -0.015101959 0.009309482
0.11356581 0.035002485 0.0756807 0.01132239 -0.0049242782 -0.06676968 0.014604423 -0.08389625
-0.05321068 -0.008100597 -0.10057009 0.086195454 -0.10199472 0.010786772 -0.018662097 -0.011726532
0.01232099 -0.033586144 -0.03418921 0.03302205 0.12560056 -0.10349369 -0.060415756 0.07415794
-0.06989062 -0.079787 -0.007135587 -0.071857415 0.08114736 -0.0324982 0.13994692 -0.04074203
0.028736113 -0.048766326 0.0025010675 0.037193254 0.031238412 -0.004317456 -0.13273701 0.038034894
0.009130628 -0.048030026 0.011197958 -0.040472064 -0.022117462 0.022502204 0.063384496 -0.06209982
-0.072023906 -0.07657264 -0.074636266 -0.059182737 -0.06825357 -0.08312451 -0.07891636 -0.04448191
0.029574448 -0.037661433 -0.047025867 0.03925566 0.05836369 -0.04956275 0.09356283 0.030972395
-0.05375088 -0.009491705 0.010483857 0.06899218 -0.05067153 -0.058712464 0.07520449 0.06396007
-0.10079569 -0.026097868 -0.0007656011 -0.049847648 0.059648894 0.055805158 0.0021605815 -0.0010340959
-0.052289944 0.17046168 -0.058392067 0.049589142 -0.027922308 -0.05849636 0.05319694 -0.09826888
-0.019239115 -0.06127031 -0.045862414 0.027167806 0.1391656 -0.006683461 0.03879798 -0.10460484
0.027866416 -0.07514621 -0.094054595 -0.0136905555 -0.109381914 -0.07300742 -0.038240843 -0.00089222164
0.02923807 -0.0189144 0.007024674 -0.09930847 -0.049632225 -0.1451287 -0.20193818 0.20228055
-0.015370077 0.09513682 0.1784442 -0.21209888 0.26431367 0.005756502 0.03224112 0.06415073
0.033491958 -0.15172155 -0.0046184817 -0.112377726 -0.05268437 -0.1405032 0.14462742 -0.13415796
-0.2515729 0.15724038 -0.051621016 -0.06243208 -0.006535112 -0.015820907 -0.025731888 0.06809724
-0.06424546 0.19949904 0.055328727 -0.042282466 -0.14689612 -0.06456512 -0.002124447 -0.2573669
0.095952615 0.0059110993 -0.012868227 -0.044603657 0.22686456 0.20907712 -0.11142254 -0.25604695
-0.15407088 0.02054708 0.013944099 -0.047586147 0.030689983 -0.045810115 0.03304036 -0.04681369
0.056667116 -0.021732029 -0.02881051 -0.13906218 -0.16495027 0.16171685 -0.034602728 0.25809732
-0.20640746 -0.08482076 -0.13259642 -0.08124531 -0.08264314 0.09784496 -0.1517835 0.057383627
-0.18262117 0.061036374 0.14236565 0.049040146 0.05715061 -0.075765535 0.06091953 -0.0027218312
-0.05791256 -0.1193886 -0.17516229 -0.21873504 -0.011555909 -0.01834227 -0.09170271 -0.027491497
0.06276183 0.11292673 -0.018454496 -0.20436238 0.018142167 -0.13876751 -0.12259283 -0.20414776
-0.16693738 0.12121345 -0.012602363 -0.04919557 0.06483621 -0.23191953 -0.07488249 -0.15547024
0.19443397 -0.143101 -0.0801667 -0.0033218716 0.031012079 0.13457483 -0.09086198 0.2909165
-0.029065728 -0.052890237 0.18280119 0.13396704 0.04183807 -0.18909451 -0.12554397 -0.20552278
-0.09042276 0.14840622 -0.029005533 -0.104652464 -0.10392447 0.037569202 0.031965576 0.009324318
-0.06486022 -0.14111601 -0.073376685 0.16344087 -0.08286037 -0.019932628 0.07860655 -0.12391381

fc_layers.1.bias f4 [84]
00000000: a8bb 71bd 308a 2f3e 7861 2a3d a802 2e3d
00000010: 19f5 04bc 6ec7 893e 0696 013f 7e19 e63e
00000020: 423f a13e eecd 523e e5df 2f3f 5abd b23e
00000030: 7e01 c3ba e696 2b3d c637 f4bd 0528 133e
00000040: 48a1 223e fe97 8b3e 1265 05be 28c1 a93e
00000050: 1c25 b6bd f6a0 d03e 922a 1e3e 8b54 a63e
00000060: f243 01be 26c8 acbd 11e3 8a3e 2b8d d83c
00000070: 2efc ce3d 5985 4ebd 0607 d4bc 4719 1d3e
00000080: f818 49be 9fa9 573e c404 1e3f 3e38 2e3f
00000090: 3902 b73d b699 043d 0afd 343d a067 ddbd
000000a0: 2642 293f 3281 8e3e 983c ab3e f7ad 793e
000000b0: e0fb 09bd e790 f6bd 7253 8e3e c592 a23d
000000c0: 364d 93bd eab4 5ebd ed46 0d3e 61a8 923d
000000d0: f37e 0f3f 0245 713e 4840 7c3e 417e 6b3e
000000e0: 7367 7f3e a0a5 013f dfcc 4ebd 851d 0fbe
000000f0: a393 6a3f 5b03 58bd 7a73 473f 2676 f33d
00000100: 3531 e5bc d0d9 76bd e79f 81bd c5e3 0e3e
00000110: 2d22 51be b139 0f3e 6de5 d63c 7798 063e
00000120: ec17 1d3f 0dba 4c3e 6741 8cbd 7d4e e83b
00000130: 783f 363e 78af febd 11e0 e73d bcae 133e
00000140: 152a eb3c b47b 2b3f 2987 163c fa32 9dbb
-0.059016854 0.17142558 0.04159686 0.042483002 -0.008115076 0.26909965 0.5061954 0.44941324
0.31493574 0.20586368 0.6870101 0.3491009 -0.0014877764 0.041891955 -0.119247004 0.14370735
0.15881836 0.27264398 -0.13026837 0.3315518 -0.08893797 0.40747803 0.15445927 0.32486376
-0.12623575 -0.08436613 0.27126363 0.026434502 0.10106693 -0.05042014 -0.025882255 0.15341674
-0.19638431 0.21060799 0.6172602 0.6805457 0.08935971 0.032373153 0.04418663 -0.108107805
0.6611656 0.27832943 0.33444667 0.24382769 -0.033687472 -0.12039357 0.2779804 0.0793815
-0.07192461 -0.05437175 0.13796587 0.07161022 0.56053084 0.2356148 0.24633896 0.22997381
0.24941806 0.5064335 -0.05048835 -0.13976105 0.91631526 -0.052737575 0.7791058 0.118877694
-0.027977565 -0.060266316 -0.06329327 0.13954075 -0.20423193 0.13986851 0.026232446 0.13144098
0.61364627 0.19992848 -0.06848412 0.0070894347 0.17797649 -0.12435812 0.11322034 0.14422125
0.02870659 0.6698563 0.009187498 -0.0047973366

output_layer.weight f4 [10, 84]
00000000: 8a06 4e3d b4c5 8c3d 4c5d d7bd e123 fdbd
00000010: 4f53 3a3e 29d6 473d 17ed 8abe 8345 c6be
00000020: cc00 453e d055 503e 6f8f 5dbe d403 a7bd
00000030: fec3 d1bd 5213 47be a9d6 833e 18d7 833e
00000040: c1a4 f5bc 3dfa 083e a3a3 523e c243 babc
00000050: a003 c5bd 8e2d df3d cb82 bc3d 154c 1b3d
00000060: 556a d03c cfc3 92bd 3a71 cabd bc3b 913d
00000070: f9ec b73d 1596 103e 5979 233d ea7c 2d3e
00000080: 02dc f83d eeb7 6d3d 3bc9 9abd 74ee b8bd
00000090: cc3b 6a3e b943 9abd 7d49 1fbb 1bf4 473d
000000a0: 2555 4f3e 24b2 b13d 17db 1abe d5e0 cfbd
000000b0: 82a0 cbba 4a5e 683d 40ed d9bd 09a5 8abe
000000c0: 5234 b4bd 0325 843e f6f8 35be fd98 8bbc
000000d0: 3d66 4cbd 4def 5dbd 3b67 a33d 8449 5ebc
000000e0: 62dc bb3d bfd8 8ebe b018 46be 06f7 673d
000000f0: 73ed c4be 296b 523d 8adf 8b3e 689f 06be
00000100: 54e4 7c3e 073a 773e 0440 fd3b 7355 873e
00000110: 34a3 6a3e 3862 953d 2c56 df3d dd32 a4bd
00000120: ecf7 ad3e 2b1a 25be ac83 7f3e c23e bfbd
00000130: 7ead 873e 53fb 693e c891 bfbc 2401 8abe
00000140: f80d 1d3e 7e0b acbe f081 333e 5ed9 403c
00000150: c39f 5e3d 7e1b f839 2eca 723e 451c 12bd
00000160: c863 7ebe 1af8 98be 97a6 df3d 8545 073e
00000170: aee9 503d 78c5 0a3d 17c4 89be 40ca a9bd
00000180: 0c22 87bb 9ae1 4c3e 1cf3 7dbc 7ef6 8e3e
00000190: c924 d8bd ad3b 81be e6fb c73d 259e 843e
000001a0: fe36 b1bd e331 59be 4358 f13d 1de0 233e
000001b0: 7858 d33d 8760 49bd 64b2 55bd 5599 aebd
000001c0: 3a1a 0a3c c93c afbd 9fb4 533e c237 f63c
000001d0: c8b6 22be ea9b 833e 701c 4bbe 59e0 8cbe
000001e0: d704 6bbe 0201 493e 5842 8c3e bc60 c4bd
000001f0: 26f8 14be d67d 9cbc 53f5 043e 3bb5 18be
00000200: b197 443e 18ed b63e 342c f1bd 2984 7f3e
00000210: 945c 4ebd 24c1 2f3e 51a5 5fbe 7d02 8dbe
00000220: 2fbb 183c bf90 cebd e6ee 93be b91f 24be
00000230: 70c1 323e 2e64 cdbd 877e 113c fff5 993e
00000240: 54fd 1cbe 2d7c 423e c857 83be 9971 013e
00000250: a3ca 243c 8575 85be 5546 833c a6c6 6c3d
00000260: 8c67 f2bd 1156 06be d6a1 143e be21 17be
00000270: eb7c 2f3e a507 36be 1fba ae3e 16f9 fb3d
00000280: 326d 803d f43a aa3d 49b5 a53d 0e48 b93d
00000290: 7ace 8c3e 0157 eabe e104 663e 662f aebd
000002a0: 92fa 9dbd 5a1c cf3c eddd 463d c1f1 75ba
000002b0: 5f30 043e ffde 203d e862 45bd 4c7a 4f3e
000002c0: b97c 19be a9a8 853e 3fb3 b63e 26db 56bd
000002d0: 741a a13d 7661 653e 59be 2d3d 9e37 eebd
000002e0: afef 20bd d454 203e b90e 5c3e 2f08 49be
000002f0: fe54 cabc ef76 d93d 6118 0e3e 9a14 babd
00000300: e3d3 09be 35c8 373e a4c9 be3d c314 40be
00000310: eb24 6b3e e6de 4b3e 0ee4 0abd bacb 5abd
00000320: ddf2 033e 6851 663d 0cce 46be f7e2 c13d
00000330: 5b73 383e 0d2d 363e 431b a5bd 3ad3 b4bd
00000340: 15d9 0f3e 08ec 1a3e 7bea edbd 04d2 81bd
00000350: 98c7 37be c641 15be e923 8e3d 020a 093e
00000360: 8f8d 8f3d f79e 7ebd bb8f 653e 98a9 5e3e
00000370: b6c4 59be a2d5 e43d 8fcb 4f3e e934 e5bc
00000380: 5cc5 ea3c 8770 5f3e 5c15 fe3d ec2e 683e
00000390: c9e9 433d 5ee1 1a3e 6002 d23d 16d3 8dbc
000003a0: 9a6a 573d 6d8e 723e f699 8c3d ca73 b73d
000003b0: 114f 663c f262 85be b0aa 9a3d cd29 89bd
000003c0: 63f8 84be 45df 18be 14cf 5ebd 2e43 e9bc
000003d0: 546f 143e 7896 2cbc 6fe6 1e3e 0d41 60bb
000003e0: a7fc b0bd b8eb 2c3e c131 d1bd 680c 9e3d
000003f0: c16b 063d ef45 423e 1ae6 f6bb 61fd f93a
0.050299205 0.068736464 -0.10515842 -0.12360359 0.18195842 0.048788223 -0.2713401 -0.38724908
0.19238585 0.20345235 -0.21636747 -0.08155027 -0.10242461 -0.19440964 0.2574971 0.2575004
-0.029985787 0.13376708 0.20570235 -0.022737388 -0.09619832 0.10897361 0.09204634 0.037914354
0.025441328 -0.07166254 -0.098848775 0.070914716 0.08980746 0.14119752 0.039910648 0.16942182
0.12151338 0.058036737 -0.07557913 -0.09029856 0.22874373 -0.07532448 -0.0024305277 0.04881678
0.20247324 0.08676556 -0.15122639 -0.10150305 -0.0015535506 0.056730546 -0.10640955 -0.27079037
-0.08799042 0.25809488 -0.17770752 -0.017040724 -0.04990219 -0.054183293 0.07978674 -0.013567332
0.09172894 -0.2789974 -0.19345355 0.056632064 -0.3846241 0.051371727 0.27318984 -0.13146746
0.24696475 0.2414323 0.0077285785 0.2643238 0.2291382 0.07294124 0.10905108 -0.08017514
0.33978212 -0.16123264 0.24952573 -0.09338142 0.26499552 0.22849779 -0.023384944 -0.26953995
0.1533736 -0.33602518 0.17530036 0.011770574 0.05435158 0.0004732273 0.23709938 -0.03567149
-0.24842751 -0.29876786 0.10920446 0.13210113 0.051004104 0.033879727 -0.26907417 -0.08290529
-0.0041239318 0.20007935 -0.015499856 0.27922434 -0.10553891 -0.25240842 0.09764843 0.25901905
-0.08653067 -0.21210437 0.11784413 0.16003461 0.103196084 -0.04916432 -0.05217208 -0.085253395
0.008429104 -0.08556516 0.2067437 0.030055884 -0.15890038 0.2570489 -0.19835067 -0.27514914
-0.22951065 0.1962929 0.27394366 -0.09588763 -0.14547786 -0.019102972 0.12984209 -0.14912884
0.1919849 0.35727763 -0.11776009 0.24952759 -0.050381258 0.17163521 -0.21840407 -0.2754096
0.009321972 -0.10086202 -0.28893203 -0.16027726 0.17456603 -0.100288734 0.008880264 0.30070493
-0.15331012 0.18992682 -0.2565291 0.1264099 0.010058078 -0.26066223 0.016024748 0.057806633
-0.11836156 -0.13118769 0.1451486 -0.14758965 0.17137496 -0.17776354 0.34126374 0.12303369
0.06270827 0.08312026 0.08091218 0.090469465 0.2750128 -0.45769504 0.22462799 -0.08505134
-0.07713808 0.025282074 0.04855149 -0.00093820324 0.12909077 0.039275166 -0.048190027 0.20261496
-0.14988984 0.2610524 0.3568363 -0.05245509 0.07866374 0.2240046 0.042417858 -0.11631702
-0.03929108 0.1565736 0.21489991 -0.19632028 -0.02469873 0.10618388 0.13876487 -0.09085961
-0.13459735 0.17947467 0.09315804 -0.1875792 0.22963302 0.19909248 -0.033908896 -0.053416945
0.12885614 0.05622998 -0.19414538 0.09467118 0.18012755 0.17790623 -0.080618404 -0.08829351
0.14047654 0.15129101 -0.11616989 -0.063388854 -0.17947233 -0.14575872 0.06940443 0.13382724
0.07009422 -0.06216332 0.2241811 0.21744382 -0.21266446 0.1117356 0.20292495 -0.027979331
0.028658561 0.2182027 0.12406418 0.2267415 0.047830377 0.15125033 0.10254359 -0.017312568
0.052591898 0.23687144 0.06865303 0.08957632 0.014056937 -0.26052052 0.07552087 -0.06697426
-0.25970754 -0.1492892 -0.054396704 -0.028474417 0.14495593 -0.010533921 0.15517591 -0.003421846
-0.086419396 0.16886795 -0.10214568 0.0771721 0.032817606 0.1897199 -0.0075347545 0.0019072705

output_layer.bias f4 [10]
00000000: b63c dbbe 0b68 67bf 5b74 b5be 1374 203f
00000010: 718d 6e3f 4ecc 50bd b56c b63e 8f6a 2dbe
00000020: 09c8 c83e bc21 8bbe
-0.42819756 -0.9039313 -0.35440335 0.62677115 0.9318457 -0.05097609 0.35629812 -0.1693518
0.39215115 -0.27174175
