Lab1/model/model_CIFAR10_10iters/conv_params_sigmoid.pth (torch, 252000 bytes, 10 tensors)

conv_layers.0.weight f4 [6, 3, 5, 5]
-0.05514032 0.08681483 0.08443323 0.058928464 -0.12763235 0.009275983 -0.113181114 0.0010261729
-0.08829454 -0.102127634 0.012031044 -0.03643827 -0.061000623 0.069821134 0.062366094 0.044214
0.05237259 -0.02333812 -0.01902728 -0.0027938753 0.01051973 -0.06197064 0.024543002 -0.07610913
0.025192253 -0.052898295 0.046060417 0.012756473 0.0019502853 0.012956596 -0.0295619 -0.02170862
0.08171205 -0.0013178828 -0.053349283 0.005394309 -0.03691888 -0.12369001 0.013873256 0.015134774
-0.06502264 -0.077148214 -0.05609811 0.04350222 0.04496229 0.064049035 -0.04789389 0.04072463
-0.089855745 0.0445858 -0.100095816 -0.13730843 -0.16414435 -0.12161842 0.048052154 -0.13815601
-0.08030387 0.046334572 -0.16036783 -0.11898645 -0.15744841 -0.03619177 -0.15878959 -0.14371957
-0.14417602 -0.11605619 0.034761164 -0.15292738 -0.016016569 -0.00757882 -0.09360872 0.057595406
-0.082906805 -0.10813872 -0.08856197 0.053713482 -0.09183645 0.031067159 -0.108847775 -0.061678484
-0.100352064 0.11257972 -0.013260256 -0.07018949 -0.063122496 -0.016088633 -0.036675837 0.003796247
0.056454353 -0.017720386 -0.056625497 -0.0993137 -0.05340115 -0.012043114 -0.04724468 0.052196607
0.049899302 -0.012520848 0.08099785 0.063246496 -0.014325614 -0.060672585 -0.09060691 0.09679071
0.12466988 0.020981204 0.11207603 0.096304365 0.052039858 0.10431734 -0.0669343 0.11330159
-0.03441505 0.08951758 -0.03268284 0.025377452 0.09091987 0.02539995 -0.0075697647 0.12403505
-0.017142441 0.1026193 0.07310393 0.010116463 -0.0021610495 0.019102847 -0.020641219 0.0975169
-0.029143346 0.021399029 0.15349098 -0.053880278 0.07955907 0.077772 0.07899826 -0.053530622
0.15243982 0.075966224 -0.0073992745 0.08512265 0.108387634 0.15125196 0.045469962 -0.045870632
-0.022779742 -0.021811841 0.109872356 0.085736334 -0.017815603 0.07744429 -0.10417622 -0.07639324
-0.058727086 0.0013593963 0.09023334 0.08833573 0.042560264 -0.09639379 -0.046735663 -0.080865234
-0.08770187 -0.021306867 -0.054157373 0.016816465 0.101668894 0.033259865 0.0547345 0.07277713
-0.043553036 0.021007406 0.050670717 -0.0725755 0.07292312 0.043070927 0.029882504 -0.016365707
-0.033584088 0.058185123 -0.06654857 -0.014527735 0.048526496 0.097859055 0.013186569 0.072009094
0.108880416 0.117841855 0.10800825 0.12658705 -0.08121496 0.026679581 -0.04423734 -0.06679329
-0.027445748 0.09866593 -0.053369455 0.045218788 -0.073308825 0.030076457 0.1223283 0.014336912
0.14837463 0.17597723 0.09722005 0.00032190996 0.07246185 0.15780349 0.021167662 0.14430317
0.15264916 0.02157349 0.16209571 0.1574228 -0.04449025 0.122814134 0.09322257 0.16206926
0.03264824 0.01814799 0.07802389 0.090355285 0.1568373 0.038815565 0.16307859 0.09372178
0.10314649 -0.012774105 -0.07385029 0.01375424 0.0019081781 -0.018575147 0.04942783 0.057946723
-0.07820308 0.120350406 -0.04123667 0.08057207 0.08531028 -0.07392652 0.10073468 -0.07075611
-0.06717632 0.011954257 0.002530623 -0.085683934 -0.013992287 0.07691146 -0.00088040583 0.0141441105
0.11597988 -0.06577535 0.13863909 0.12958343 0.019482717 -0.06325594 -0.048371278 0.12503962
00000000: d1da 61bd f9cb b13d 54eb ac3d f95e 713d
00000010: 0eb2 02be 4bfa 173c 80cb e7bd a680 863a
00000020: c5d3 b4bd 4b28 d1bd db1d 453c 4c40 15bd
00000030: cadb 79bd 62fe 8e3d 9773 7f3d bd19 353d
00000040: a484 563d 962f bfbc 19df 9bbc 7319 37bb
00000050: f25a 2c3c edd4 7dbd 680e c93c 1bdf 9bbd
00000060: fc5f ce3c e2ab 58bd d9a9 3c3d 8700 513c
00000070: b7a0 ff3a e747 543c cc2b f2bc 47d6 b1bc
00000080: a658 a73d cfbc acba c784 5abd bec2 b03b
00000090: 4038 17bd 3051 fdbd a74c 633c d8f7 773c
000000a0: 972a 85bd e2ff 9dbd 22c7 65bd 622f 323d
000000b0: 612a 383d 242c 833d 622c 44bd dfce 263d
000000c0: 4a06 b8bd 9a9f 363d 09ff ccbd 959a 0cbe
000000d0: 7515 28be 1413 f9bd 56d2 443d c578 0dbe
000000e0: 5b76 a4bd 52c9 3d3d 7737 24be 2baf f3bd
000000f0: 283a 21be d23d 14bd bd99 22be 392b 13be
00000100: e1a2 13be deae edbd b961 0e3d ff98 1cbe
00000110: 2e35 83bc c057 f8bb eeb5 bfbd 29e9 6b3d
00000120: 0bcb a9bd d577 ddbd fa5f b5bd ab02 5c3d
00000130: c014 bcbd 8e80 fe3c 95eb debd 94a2 7cbd
00000140: 6285 cdbd 3290 e63d 8b41 59bc 82bf 8fbd
00000150: 5e46 81bd 4fcc 83bc 6739 16bd 75ca 783b
00000160: ae3c 673d 582a 91bc 23f0 67bd fb64 cbbd
00000170: 2abb 5abd 7b50 45bc a383 41bd 1ccc 553d
00000180: 3663 4c3d 3e24 4dbc 33e2 a53d 6187 813d
00000190: fbb5 6abc d183 78bd 1e90 b9bd 353a c63d
000001a0: ec52 ff3d c6e0 ab3c 1e88 e53d 393b c53d
000001b0: bf27 553d 54a4 d53d da14 89bd aa0a e83d
000001c0: ccf6 0cbd fe54 b73d 71de 05bd 60e4 cf3c
000001d0: 3234 ba3d 8e13 d03c ca0b f8bb 1706 fe3d
000001e0: 4e6e 8cbc 112a d23d 83b7 953d 85bf 253c
000001f0: 65a0 0dbb 937d 9c3c c617 a9bc f1b6 c73d
00000200: 07be eebc 044d af3c bd2c 1d3e 91b1 5cbd
00000210: deef a23d ed46 9f3d d7c9 a13d ed42 5bbd
00000220: 2f19 1c3e 2e94 9b3d 9d75 f2bb c954 ae3d
00000230: 56fa dd3d cbe1 1a3e b63e 3a3d d8e2 3bbd
00000240: 959c babc bfae b2bc c204 e13d 8896 af3d
00000250: 07f2 91bc 1d9b 9e3d 585a d5bd 0f74 9cbd
00000260: d08b 70bd c52d b23a 42cc b83d 5de9 b43d
00000270: ac53 2e3d 1b6a c5bd e56d 3fbd ac9c a5bd
00000280: 0a9d b3bd bd8b aebc 1fd4 5dbd afc2 893c
00000290: c837 d03d 7f3b 083d 4831 603d 2d0c 953d
000002a0: ab64 32bd b917 ac3c 198c 4f3d 77a2 94bd
000002b0: b758 953d 246b 303d 27cc f43c 6011 86bc
000002c0: 788f 09bd 8653 6e3d 9e4a 88bd bd05 6ebc
000002d0: b8c3 463d 546a c83d 7b0c 583c 8179 933d
000002e0: b2fc de3d 1257 f13d 6e33 dd3d 09a0 013e
000002f0: 0754 a6bd 238f da3c 3732 35bd ecca 88bd
00000300: e8d5 e0bc 5d11 ca3d ee99 5abd 5637 393d
00000310: f022 96bd e762 f63c 4287 fa3d 5ee5 6a3c
00000320: 85ef 173e 6033 343e 4e1b c73d 06c6 a839
00000330: e166 943d 3d97 213e ce67 ad3c 36c4 133e
00000340: 1050 1c3e e3ba b03c 6bfc 253e 7133 213e
00000350: 693b 36bd fa85 fb3d 7aeb be3d 7cf5 253e
00000360: 29ba 053d 18ab 943c fdca 9f3d 310c b93d
00000370: f599 203e 12fd 1e3d 13fe 263e 34f1 bf3d
00000380: 783e d33d 7b4a 51bc d23e 97bd 7759 613c
00000390: d51b fa3a e82a 98bc d674 4a3d 8b59 6d3d
000003a0: f028 a0bd 467a f63d c8e7 28bd f802 a53d
000003b0: 28b7 ae3d ca66 97bd fc4d ce3d 94e8 90bd
000003c0: bd93 89bd cadb 433c cfd8 253b 0f7b afbd
000003d0: e83f 65bc c183 9d3d 09cb 66ba b3bc 673c
000003e0: dc86 ed3d 3ab5 86bd 68f7 0d3e 85b1 043e
000003f0: 389a 9f3c 558c 81bd f620 46bd 630a 003e

conv_layers.0.bias f4 [6]
0.044644527 -0.040329047 0.010087069 0.076904915 0.06440455 -0.031369463
00000000: 2edd 363d 1230 25bd 3c44 253c 5380 9d3d
00000010: 88e6 833d 447d 00bd

conv_layers.1.weight f4 [16, 6, 5, 5]
-0.09959831 0.025200702 -0.11571157 0.025842495 -0.08774497 -0.1167997 -0.09914861 -0.057440206
-0.040868413 -0.04506993 -0.011958194 -0.038721904 -0.026361533 0.025028717 -0.03112941 -0.08703539
0.03753287 -0.08342766 -0.012384079 -0.090570174 0.019846695 0.036613088 -0.006769413 -0.08979406
0.04105743 0.050204944 0.04721739 0.04997549 0.014491943 0.018514512 -0.025404396 0.07638531
-0.023495901 -0.06650282 -0.039388683 -0.051448867 0.07379003 0.078500494 -0.060078096 0.06823477
0.01851841 -0.02390533 -0.029515412 0.013848429 -0.046846494 -0.04505955 0.05241756 0.04937122
0.006872327 -0.023717627 0.005935312 -0.03778606 0.094154395 -0.019294959 -0.015463027 0.07656968
-0.021654459 0.10292484 0.02365648 -0.01585037 -0.056016102 0.085879415 0.10276971 0.10488669
-0.034587502 -0.018146748 -0.009081393 0.010516571 0.07847194 0.035461437 0.03368734 0.063193604
0.062108673 -0.049241044 0.024653172 -0.035277817 0.00066076516 0.048303016 -0.031428397 0.031578477
0.026474688 0.030336821 0.03883 0.047816522 0.047575682 0.0881254 -0.029117392 0.05556635
0.06267007 0.03179381 0.036576584 0.0699918 0.07154821 -0.0040203985 -0.026790572 0.017701026
0.05678506 -0.035571497 -0.07135175 -0.038386047 -0.031809192 0.064089976 0.09112179 -0.009471376
0.09080865 0.050888546 -0.01806371 -0.03599432 -0.004546546 0.0110600665 -0.0077563045 0.015079373
-0.010739107 0.08284048 -0.018647933 0.06996618 0.0017518016 0.07203247 -0.01625707 0.0028649438
-0.07086896 0.01617532 0.024164688 0.009114301 -0.00046042865 -0.007489295 0.020632122 -0.031758696
-0.0251196 0.08521753 0.035576172 -0.06725221 0.016253125 0.035246357 -0.046534695 -0.0039002628
0.018795846 0.038279977 -0.035752714 -0.047661744 0.030369194 0.050112758 -0.009343083 -0.041976847
0.08540625 0.026985565 0.05993685 -0.04472062 -0.03290807 -0.06288665 0.018555911 -0.07482285
-0.089069046 0.048297957 0.059242677 -0.025472356 -0.041134432 -0.040028132 -0.05423174 -0.01820681
-0.08079501 -0.00047961163 -0.08383203 -0.015899837 0.021749241 -0.08322272 0.06142713 0.04257003
0.013626779 0.062035102 -0.025547529 0.04116302 0.019925304 0.06879445 0.0090537425 0.061981376
0.07961983 0.022631742 0.012249084 -0.019522004 0.06047239 0.04903346 -0.0017428597 0.058541663
-0.054246485 -0.0631389 0.024993667 -0.058150165 -0.031642977 0.013879022 -0.044530727 0.010810128
-0.054895382 -0.03793271 -0.008834626 -0.0420961 0.07658981 -0.06490873 0.05867213 0.011438129
0.06117596 0.0788938 -0.0072803563 0.046254482 0.032053858 0.015286478 0.06885342 0.07527887
0.06602953 0.038913585 0.081388414 0.075588964 0.0019868787 -0.014015509 -0.059640586 -0.039544914
-0.0655686 -0.042964716 0.0011399684 -0.055342715 0.0076187537 -0.01573829 -0.027670976 0.055394333
0.059065703 0.086339936 0.06952166 0.03722133 0.007440337 0.024461081 0.08143524 0.041901927
0.019979747 -0.017002022 0.08377397 0.07765783 -0.06856134 -0.006718121 0.022931965 0.020590553
-0.0570072 -0.04077044 0.016281685 0.0843862 0.043721717 -0.036804743 -0.023050588 0.07949869
0.06901713 -0.012954718 -0.05209364 -0.054038603 0.01623296 0.017387554 0.06011347 0.05837467
00000000: 33fa cbbd b471 ce3c 30fa ecbd a4b3 d33c
00000010: a3b3 b3bd ae34 efbd 6d0e cbbd 6c46 6bbd
00000020: a365 27bd 3f9b 38bd 4dec 43bc dc9a 1ebd
00000030: 24f4 d7bc 0609 cd3c 1b03 ffbc 9c3f b2bd
00000040: 11bc 193d 1fdc aabd 98e6 4abc db7c b9bd
00000050: 8995 a23c 9bf7 153d f4d1 ddbb f3e5 b7bd
00000060: d62b 283d b3a3 4d3d 0667 413d 19b3 4c3d
00000070: 9d6f 6d3c bfab 973c e11c d0bc e76f 9c3d
00000080: 7a7a c0bc a132 88bd 0756 21bd 0cbc 52bd
00000090: 3a1f 973d dec4 a03d 7314 76bd acbe 8b3d
000000a0: ecb3 973c 1cd5 c3bc 4eca f1bc 85e4 623c
000000b0: 1ce2 3fbd 5d90 38bd ccb3 563d 7a39 4a3d
000000c0: 4231 e13b 784b c2bc 017d c23b 8ec5 1abd
000000d0: 05d4 c03d 7610 9ebc a358 7dbc 90d0 9c3d
000000e0: b164 b1bc 42ca d23d 3ccb c13c a3d8 81bc
000000f0: 2471 65bd 8ce1 af3d ed78 d23d d5ce d63d
00000100: a0ab 0dbd 7da8 94bc 1fca 14bc b24d 2c3c
00000110: e5b5 a03d 0340 113d bcfb 093d a66b 813d
00000120: aa65 7e3d fab0 49bd 73f5 c93c 797f 10bd
00000130: 3337 2d3a 62d9 453d 10bb 00bd 6f58 013d
00000140: 72e1 d83c ed84 f83c 350c 1f3d 42db 433d
00000150: b8de 423d 177b b43d 9987 eebc 8b99 633d
00000160: 2a59 803d 3a3a 023d 54d1 153d dc57 8f3d
00000170: de87 923d 8cbd 83bb e777 dbbc be01 913c
00000180: 7397 683d 6bb3 11bd de20 92bd b03a 1dbd
00000190: 5b4a 02bd 9b41 833d 109e ba3d d52d 1bbc
000001a0: e3f9 b93d 8270 503d 58fa 93bc c86e 13bd
000001b0: 31fb 94bb 4835 353c 9928 febb 790f 773c
000001c0: 14f3 2fbc 45a8 a93d 8dc3 98bc 6e4a 8f3d
000001d0: b59c e53a c285 933d 8c2d 85bc c8c1 3b3b
000001e0: bf23 91bd 1b82 843c 06f5 c53c 2654 153c
000001f0: b065 f1b9 c368 f5bb b204 a93c 6815 02bd
00000200: 9fc7 cdbc 8786 ae3d 52b8 113d 87bb 89bd
00000210: 4625 853c 7c5e 103d 2a9b 3ebd 8d9b 7fbb
00000220: bff9 993c 77cb 1c3d 7071 12bd f638 43bd
00000230: d1c8 f83c 0943 4d3d bb13 19bc eaef 2bbd
00000240: 79e9 ae3d d510 dd3c 5880 753d f82c 37bd
00000250: 9dca 06bd b7ca 80bd 9102 983c b93c 99bd
00000260: d569 b6bd 14d4 453d 73a8 723d 67ab d0bc
00000270: 947c 28bd 8af4 23bd 1a22 5ebd 7326 95bc
00000280: db77 a5bd 6274 fbb9 21b0 abbd 6040 82bc
00000290: 772b b23c ac70 aabd 049b 7b3d e95d 2e3d
000002a0: db42 5f3c 8518 7e3d 0d49 d1bc 8e9a 283d
000002b0: 643a a33c 1be4 8c3d 2656 143c 2fe0 7d3d
000002c0: b90f a33d 3466 b93c 62b0 483c 9cec 9fbc
000002d0: e6b1 773d 4fd7 483d ab70 e4ba 62c9 6f3d
000002e0: 9031 5ebd f84e 81bd 85bf cc3c de2e 6ebd
000002f0: 119c 01bd d664 633c da65 36bd f71c 313c
00000300: fbd9 60bd 545f 1bbd 1bbf 10bc f66c 2cbd
00000310: 1edb 9c3d deee 84bd 3052 703d fd66 3b3c
00000320: a593 7a3d 1393 a13d 0e90 eebb 5775 3d3d
00000330: e84a 033d 2374 7a3c 0603 8d3d cf2b 9a3d
00000340: 7d3a 873d da63 1f3d f8ae a63d 63ce 9a3d
00000350: 4b36 023b 4ea1 65bc b049 74bd d9f9 21bd
00000360: d548 86bd c5fb 2fbd fe6a 953a 0baf 62bd
00000370: bda6 f93b 96ed 80bc 3eae e2bc 2be5 623d
00000380: e1ee 713d fed2 b03d 5f61 8e3d 6575 183d
00000390: 12ce f33b 9b62 c83c 85c7 a63d 5ba1 2b3d
000003a0: 91ac a33c d347 8bbc b091 ab3d 120b 9f3d
000003b0: e369 8cbd af23 dcbb d1db bb3c 85ad a83c
000003c0: 6280 69bd e8fe 26bd 2b61 853c acd2 ac3d
000003d0: 8b15 333d 92c0 16bd 96d4 bcbc 36d0 a23d
000003e0: da58 8d3d 0740 54bc 2460 55bd 9557 5dbd
000003f0: fcfa 843c 5870 8e3c 8b39 763d 471a 6f3d

conv_layers.1.bias f4 [16]
0.020673446 0.018197658 0.03492322 -0.031423062 0.024918431 0.027780874 0.013613249 0.07958688
0.00834554 -6.99355e-05 -0.1028426 -0.07652067 0.084599964 -0.015227336 -0.064483516 -0.07663247
00000000: 5c5b a93c 4113 953c a60b 0f3d 78b5 00bd
00000010: bd21 cc3c b794 e33c 1b0a 5f3c 72fe a23d
00000020: bbbb 083c 56aa 92b8 249f d2bd deb6 9cbd
00000030: bf42 ad3d 147c 79bc ef0f 84bd 7cf1 9cbd

fc_layers.0.weight f4 [120, 400]
-0.037307695 -0.029198017 0.012284982 -0.020130422 0.02305507 0.026028456 0.03327031 0.023643702
0.01152905 0.01601716 -0.016527193 -0.034367293 -0.0091984095 0.0024806475 -0.01441782 -0.03317528
-0.0101090735 0.046504587 0.0029883357 -0.02970488 -0.016365618 0.039523534 0.04697934 0.03053198
0.023332788 -0.03614136 -0.041347418 0.025020989 0.03931225 0.02327951 -0.03161248 0.036885902
0.008931447 -0.0063610603 0.029134108 0.031828184 -0.04276038 0.028177364 0.013031108 -0.03854344
0.026954431 -0.034829203 -0.008557099 -0.021656655 0.037852343 0.05082413 -0.007993869 0.03300714
-0.0056994236 0.053855263 -0.03494488 0.0005177013 0.032737605 0.043233883 0.012018003 -0.009178428
0.015878968 -0.029313441 0.010423574 -0.03792379 -0.03798425 0.048692547 0.036329206 -0.042043425
0.046167392 -0.028642636 0.02261033 -0.015936747 0.0032900996 0.03425428 0.0071384204 -0.01806489
-0.009291428 -0.04046898 0.03338247 0.04639574 0.022818863 0.004342641 0.009975101 -0.009631509
-0.043495007 0.009017439 -0.0052270927 -0.026492344 -0.035474677 -0.025653498 -0.0007084668 0.05205964
-0.021809673 -0.0004958113 -0.04280416 -0.04749471 -0.011954757 0.0018748415 0.029250888 0.02375357
-0.04680212 -0.04742304 -0.042966686 0.018212259 0.02825201 -0.037371833 0.021137403 0.038708936
-0.043481957 -0.02006015 0.0022137295 0.027068933 -0.032584414 -0.033139944 0.046587814 0.005919673
-0.024273144 0.007035638 0.023928985 0.028890612 0.024109362 -0.03108072 -0.001327792 0.022374645
-0.016547665 0.044378214 -0.017293429 -0.03841993 -0.009051803 -0.003290376 -0.01902509 -0.011335818
0.034613464 -0.039553072 -0.014568263 -0.0074245883 0.027266579 0.04597283 -0.030285083 0.011692787
-0.03308764 0.02241991 -0.028915972 0.02599126 0.05044175 0.03165875 0.05546722 0.04870237
0.034508474 0.018112281 0.04659474 -0.019015422 0.007445769 -0.008004291 -0.033895742 0.0048212097
0.0373316 0.021505835 0.016372353 0.05498607 0.056785144 0.0150570115 0.022182547 -0.03907531
-0.012870983 -0.006297679 0.043454293 -0.00914527 -0.028538918 0.010516736 -0.0043299426 -0.025110027
0.039366715 -0.003416318 0.026748922 0.034374285 0.027295241 0.015208053 -0.038570486 0.042346306
-0.021647561 0.05125854 -0.020061025 0.025141055 0.013812675 -0.037932597 0.028478067 -0.034089603
-0.009162344 0.020765502 0.030930474 -0.017304434 -0.028675813 -0.026716415 0.022160044 -0.017217277
-0.004857492 -0.011727165 0.030172601 0.03366266 -0.046881903 0.020536201 -0.036662295 0.028606938
-0.03662515 -0.024398055 0.018985206 0.011153355 0.023497758 0.030734712 -0.017151155 -0.011648876
0.03571753 0.045812067 -0.0321456 -0.0073139635 -0.028671902 -0.003929354 0.02269843 -0.02899271
-0.023805078 0.041437894 0.047435816 0.018427668 -0.0069106026 0.043862887 0.05147531 -0.04196037
-0.04274318 0.041070838 0.004747591 -0.027897166 0.03478863 -0.029262 0.05177145 -0.03312168
0.049856067 -0.009998144 -0.038385473 0.042535696 0.05287542 -0.014945983 0.03154055 0.04674515
-0.012947882 -0.011418525 -0.011514897 0.035700362 -0.023855243 -0.010104032 -0.043708984 0.027785292
-0.025007349 -0.014080921 0.026907837 0.059582125 0.022055011 0.015190121 -0.005019116 0.0054422943
00000000: f4cf 18bd ae30 efbc f346 493c 8ee8 a4bc
00000010: fcdd bc3c a139 d53c 7346 083d 70b0 c13c
00000020: 57e4 3c3c 6b36 833c 0964 87bc b8c4 0cbd
00000030: edb4 16bc 5c92 223b b838 6cbc cde2 07bd
00000040: 87a0 25bc 987b 3e3d f4d7 433b a657 f3bc
00000050: 3011 86bc 6ee3 213d 696d 403d 341e fa3c
00000060: 6724 bf3c f608 14bd e95b 29bd d1f8 cc3c
00000070: e205 213d acb4 be3c 167c 01bd ac15 173d
00000080: 3455 123c 7170 d0bb a7aa ee3c 455e 023d
00000090: 8225 2fbd 37d4 e63c 6e80 553c badf 1dbd
000000a0: 8acf dc3c 11a9 0ebd 1333 0cbc 4c69 b1bc
000000b0: 0f0b 1b3d f72c 503d b7f8 02bc 7f32 073d
000000c0: 3bc2 babb 5697 5c3d 5d22 0fbd 59b6 073a
000000d0: de17 063d 0316 313d 28e7 443c 1e61 16bc
000000e0: 9c14 823c be22 f0bc a3c7 2a3c fa55 1bbd
000000f0: 5f95 1bbd d671 473d efcd 143d ba35 2cbd
00000100: 051a 3d3d f6a3 eabc 4c39 b93c c88d 82bc
00000110: b69e 573b 374e 0c3d 69e9 e93b d2fc 93bc
00000120: 133b 18bc cdc2 25bd 0fbc 083d 7609 3e3d
00000130: a0ee ba3c b74c 8e3b 9b6e 233c 7acd 1dbc
00000140: d227 32bd e1bd 133c 0848 abbb 7906 d9bc
00000150: e54d 11bd 4927 d2bc 67b8 39ba 7d3c 553d
00000160: 33aa b2bc 55f9 01ba 6a53 2fbd d089 42bd
00000170: e3dd 43bc 3ebd f53a 8f9f ef3c d996 c23c
00000180: 94b3 3fbd a93e 42bd d6fd 2fbd e031 953c
00000190: c270 e73c 3513 19bd 5928 ad3c 438d 1e3d
000001a0: 231a 32bd 2f55 a4bc 3814 113b abbf dd3c
000001b0: 3c77 05bd c0bd 07bd ddd2 3e3d d1f9 c13b
000001c0: 79d8 c6bc 368b e63b b806 c43c 01ac ec3c
000001d0: ff80 c53c fe9c febc 4e09 aeba 084b b73c
000001e0: f88e 87bc eec5 353d f3aa 8dbc 375e 1dbd
000001f0: 034e 14bc 59a3 57bb 81da 9bbc deb9 39bc
00000200: d9c6 0d3d 6702 22bd b9af 6ebc f649 f3bb
00000210: 295e df3c 024e 3c3d 6c18 f8bc 1a93 3f3c
00000220: e886 07bd f6a9 b73c 30e1 ecbc 9feb d43c
00000230: 029c 4e3d 9bac 013d 9831 633d 237c 473d
00000240: c258 0d3d 3560 943c 20da 3e3d 3bc6 9bbc
00000250: a3fb f33b 6e24 03bc 43d6 0abd 3dfb 9d3b
00000260: 05e9 183d 012d b03c 501f 863c 1339 613d
00000270: 8a97 683d afb1 763c 2cb8 b53c 6f0d 20bd
00000280: d1e0 52bc c35c cebb 21fd 313d 0bd6 15bc
00000290: 73ca e9bc 634e 2c3c 31e2 8dbb 8bb3 cdbc
000002a0: fe3e 213d 4ee4 5fbb 8e20 db3c 0dcc 0c3d
000002b0: 459a df3c 332b 793c 16fc 1dbd 5273 2d3d
000002c0: 3a56 b1bc 7af4 513d 0557 a4bc 9df4 cd3c
000002d0: 8f4e 623c 365f 1bbd d64a e93c 8aa1 0bbd
000002e0: a81d 16bc 6a1c aa3c e861 fd3c 07c2 8dbc
000002f0: 8ae9 eabc 62dc dabc fb88 b53c 3f0b 8dbc
00000300: 992b 9fbb 4c23 40bc 882c f73c dbe1 093d
00000310: 3d07 40bd 893b a83c 342b 16bd 1959 ea3c
00000320: 4104 16bd 6ede c7bc dd86 9b3c 90bc 363c
00000330: 5f7e c03c 5dc7 fb3c 9480 8cbc edda 3ebc
00000340: 8b4c 123d 6fa5 3b3d 1bab 03bd f9a9 efbb
00000350: 56e1 eabc cfc1 80bb 0ff2 b93c 1f82 edbc
00000360: de02 c3bc c8ba 293d 0f4c 423d 9ff5 963c
00000370: 5672 e2bb 92a9 333d c6d7 523d a3de 2bbd
00000380: 7913 2fbd e539 283d ae91 9b3b 9988 e4bc
00000390: 867e 0e3d ddb6 efbc 4d0e 543d 99aa 07bd
000003a0: e035 4c3d 41cf 23bc 163a 1dbd e939 2e3d
000003b0: e593 583d ffdf 74bc aa30 013d d877 3f3d
000003c0: 5a23 54bc c414 3bbc fba8 3cbc 8b3a 123d
000003d0: 126c c3bc 628b 25bc 3108 33bd fb9d e33c
000003e0: 36dc ccbc aab3 66bc d36d dc3c 630c 743d
000003f0: b6ac b43c fcdf 783c 6677 a4bb 4655 b23b

fc_layers.0.bias f4 [120]
-0.038874157 0.018525703 0.035369933 0.025411353 0.02142421 0.039291095 0.053389627 -0.007907931
0.006666926 -0.03457688 -0.019818502 -0.004718291 -0.040568814 0.0124147395 -0.036019824 0.00058414
0.014634242 0.0007786243 -0.04550414 0.006643907 -0.04721849 0.03889952 -0.0023849385 0.0044490458
-0.02055065 -0.0068381815 0.0061523123 0.042506523 0.004877526 -0.0447501 0.024690295 -0.046889834
0.035683673 0.008175676 -0.03945129 -0.030261446 0.027091768 0.05763786 -0.03856277 0.043930367
-0.03890232 -0.0039929305 0.02941899 -0.008377918 0.0063879923 0.051770754 0.02799668 -0.016471392
-0.023428036 0.013685327 0.017127482 0.035156857 -0.03458703 -0.017984018 0.0030310475 -0.033586554
0.025879454 -0.03291901 -0.0020926713 0.052105807 0.045456976 -0.01733741 0.007948511 0.026174454
0.042551633 -0.015762763 0.043529693 0.035781052 0.024089314 -0.026084358 0.037792493 0.04365365
-0.018555922 -0.03178829 -0.042705256 -0.010638699 0.05361775 0.0023987188 0.03167732 -0.032498285
0.05105689 0.029178519 0.037710175 0.034701232 0.015001645 0.053168017 -0.048338417 0.049191613
0.029117042 0.026914844 -0.016758865 0.023791494 -0.039890792 -0.0013082335 0.051937725 0.039752766
-0.023690471 -0.04115425 -0.016778896 0.010363337 0.058718752 -0.0058146818 0.034853015 -0.029171996
-0.044433687 0.018043261 0.035122346 0.03272883 0.020008862 0.02460734 0.046549406 0.055811875
-0.0024130747 0.005606505 -0.02309156 -0.0005265354 -0.019400537 0.012983955 -0.052972734 0.054019704
00000000: 823a 1fbd 37c3 973c 10e0 103d 782b d03c
00000010: d381 af3c b3ef 203d 15af 5a3d 4490 01bc
00000020: 3b76 da3b 7da0 0dbd 695a a2bc e59b 9abb
00000030: 7c2b 26bd 3167 4b3c 8689 13bd f920 193a
00000040: 76c4 6f3c 981c 4c3a 8d62 3abd 22b5 d93b
00000050: 2d68 41bd 1a55 1f3d a14c 1cbb 4dc9 913b
00000060: d659 a8bc d312 e0bb 5699 c93b 521b 2e3d
00000070: a7d3 9f3b e14b 37bd 4d43 ca3c 8e0f 40bd
00000080: 0b29 123d 45f3 053c ad97 21bd dae6 f7bc
00000090: 8eef dd3c ad15 6c3d fff3 1dbd 54f0 333d
000000a0: 0a58 1fbd 21d7 82bb 1800 f13c 8943 09bc
000000b0: 5d52 d13b 920d 543d 4b59 e53c 03ef 86bc
000000c0: 27ec bfbc 6c38 603c ef4e 8c3c a300 103d
000000d0: 21ab 0dbd 3853 93bc 8aa4 463b 0e92 09bd
000000e0: 2601 d43c 15d6 06bd 3325 09bb e66c 553d
000000f0: 1831 3a3d 2f07 8ebc 793a 023c cf6b d63c
00000100: 9f4a 2e3d e920 81bc 314c 323d 278f 123d
00000110: f456 c53c ddae d5bc 4dcc 1a3d 2bce 323d
00000120: 9702 98bc 7034 02bd b5eb 2ebd f04d 2ebc
00000130: 499e 5b3d d333 1d3b 14c0 013d ec1c 05bd
00000140: 0821 513d ca07 ef3c fc75 1a3d e122 0e3d
00000150: 76c9 753c b5c6 593d 81fe 45bd 257d 493d
00000160: dd86 ee3c 857c dc3c e349 89bc 61e6 c23c
00000170: 8764 23bd 0879 abba a7bc 543d ccd3 223d
00000180: 8512 c2bc 5c91 28bd e573 89bc fcca 293c
00000190: 1383 703d 1689 bebb 09c2 0e3d 1cfa eebc
000001a0: 1900 36bd 76cf 933c 73dc 0f3d aa0e 063d
000001b0: a0e9 a33c 5595 c93c 97aa 3e3d fe9a 643d
000001c0: ad24 1ebb c6b6 b73b 832a bdbc 3107 0aba
000001d0: e0ed 9ebc a8ba 543c f0f9 58bd c443 5d3d

fc_layers.1.weight f4 [84, 120]
-0.10283073 -0.05490902 -0.06393538 -0.0901723 -0.055816624 0.016874129 0.04644567 0.032065537
0.061798103 -0.10765636 -0.06475283 0.060576785 0.048783366 0.018416505 -0.11114479 0.07064637
-0.09109952 0.050082177 0.0051509584 0.002504417 0.0395244 -0.043891933 -0.042789917 -0.08346231
0.0036282702 0.004787571 0.0031805923 -0.05180256 -0.024536626 -0.026126463 -0.045117944 0.056466438
-0.051880177 -0.05216522 0.048906673 0.0031193881 0.0015796791 0.03741989 -0.09220655 0.0036054999
-0.0689838 -0.095412925 -0.0076419157 -0.108028956 -0.036612976 -0.06999401 -0.009172217 -0.06577614
-0.0099604055 0.014493719 0.015333261 -0.067727014 0.031398628 -0.038987495 0.061355103 0.030293923
0.022606565 0.020501714 -0.11185259 -0.026347067 0.058643945 -0.014406715 0.06492698 -0.025725279
-0.036640752 -0.06479077 -0.09416584 0.026579395 -0.09864788 -0.045026697 -0.023689548 -0.0321081
-0.026496848 -0.096617796 -0.103607014 -0.096839875 -0.09373242 -0.062583 -0.031915452 -0.07728434
-0.0778902 0.06457993 -0.0027406325 0.013441238 -0.062787496 -0.059502993 -0.014667127 -0.072588965
-0.106173985 -0.085572004 0.062354002 -0.036049224 -0.08221796 0.038104866 -0.021266324 -0.02715658
0.041197885 -0.0059238286 -0.08331005 -0.05733398 0.024556508 -0.0776649 -0.08933413 -0.048452258
-0.046831824 -0.03449581 -0.099923715 -0.08670691 -0.07995106 0.059999753 -0.10219714 0.036587376
0.06630031 -0.04279649 -0.0028980873 0.031494077 -0.013918712 -0.022596937 -0.0357888 -0.058492035
-0.029648004 -0.09140081 -0.09165022 -0.009076111 0.047267087 -0.0031089552 -0.021616511 -0.060973156
-0.091580585 0.015014905 0.056031946 -0.10354414 -0.018234832 -0.09998194 0.05015601 -0.010693639
-0.03524295 0.014308099 0.013309417 -0.013273352 -0.0027378944 0.033599287 -0.08055621 -0.0697289
-0.059367657 -0.03327314 0.025236037 0.014803458 0.043776073 -0.10357667 -0.10496702 0.018215537
0.010853336 0.045175675 -0.091497585 -0.09593317 -0.03634127 -0.10580048 0.07008442 -0.064992644
0.021620061 -0.09230861 0.012943311 -0.040502984 -0.03256269 -0.0897631 -0.06132539 0.006879706
-0.083121255 -0.068350576 0.026964046 0.0014732355 0.052234 0.042169265 0.03965838 0.017235976
-0.026149563 -0.11340705 -0.10299597 0.044072375 0.0032016367 0.01384364 0.0641905 0.058466703
-0.05112991 0.06292633 0.028154843 -0.034706607 -0.073361084 0.04593929 -0.027071863 -0.05483677
-0.033379525 0.008614855 -0.028721556 -0.032931834 -0.043927174 -0.08931195 -0.059818674 -0.021628128
-0.078792624 0.03272596 -0.0003200184 0.005217628 -0.02946403 -0.011254201 -0.07496075 -0.09768047
-0.006665132 -0.033040408 0.041005313 -0.08140229 0.049206164 -0.10521135 -0.0020040446 -0.049972344
-0.043107662 0.054030243 0.018182687 -0.057285734 -0.03790056 -0.09849423 -0.03195283 -0.06812729
-0.014163382 -0.04912249 0.00016990256 -0.08344195 -0.06315876 -0.09416716 -0.0993991 -0.0015066921
0.0015715526 -0.096184745 0.060029138 -0.07932711 -0.032735817 0.035914782 0.05204496 -0.10136563
0.06950368 -0.06788996 -0.0956474 -0.06254817 0.0056500603 -0.11007038 -0.067351505 -0.079244256
0.055403613 -0.019038316 0.059535284 -0.09739556 0.05919585 -0.05502603 -0.033532437 -0.07251591
00000000: eb98 d2bd 48e8 60bd 8df0 82bd 41ac b8bd
00000010: f99f 64bd 9d3b 8a3c d13d 3e3d 2757 033d
00000020: 0220 7d3d f07a dcbd 229d 84bd 5d1f 783d
00000030: 11d1 473d 36de 963c e19f e3bd 0baf 903d
00000040: 6392 babd f822 4d3d 5fc9 a83b 2521 243b
00000050: 56e4 213d 07c8 33bd 7b44 2fbd 4aee aabd
00000060: 46c8 6d3b 0ee1 9c3b 7c71 503b ec2e 54bd
00000070: 0901 c9bc 2a07 d6bc 98cd 38bd 5a49 673d
00000080: 4f80 54bd 33ab 55bd 5d52 483d a66e 4c3b
00000090: 3c0d cf3a 9945 193d cad6 bcbd 404a 6c3b
000000a0: 6147 8dbd da67 c3bd 0969 fabb 493e ddbd
000000b0: 7df7 15bd 0559 8fbd 1147 16bc a4b5 86bd
000000c0: f830 23bc 1077 6d3c 5c38 7b3c 76b4 8abd
000000d0: d99b 003d 5ab1 1fbd 7d4f 7b3d f62a f83c
000000e0: 6731 b93c 36f3 a73c f912 e5bd ced5 d7bc
000000f0: a234 703d 240a 6cbc 70f8 843d d2bd d2bc
00000100: 9d14 16bd 06b1 84bd 05da c0bd 08bd d93c
00000110: e607 cabd ea6d 38bd 9510 c2bc c883 03bd
00000120: eb0f d9bc 8ddf c5bd ea2f d4bd fc53 c6bd
00000130: c8f6 bfbd 842b 80bd c7b9 02bd 4147 9ebd
00000140: e684 9fbd 7b42 843d 2f9c 33bb a338 5c3c
00000150: bb96 80bd 69b9 73bd 644e 70bc 86a9 94bd
00000160: bf71 d9bd 6040 afbd e966 7f3d 5aa8 13bd
00000170: e461 a8bd d913 1c3d b736 aebc 7a77 debc
00000180: 1dbf 283d ad1c c2bb 769e aabd 09d7 6abd
00000190: bb2a c93c c60e 9fbd d0f4 b6bd e075 46bd
000001a0: bad2 3fbd 7a4b 0dbd cea4 ccbd 6493 b1bd
000001b0: 62bd a3bd 4dc2 753d bc4c d1bd a5dc 153d
000001c0: 75c8 873d 5f4b 2fbd d6ed 3dbb efff 003d
000001d0: 4f0b 64bc 361d b9bc 4797 12bd 5895 6fbd
000001e0: 5fe0 f2bc 5930 bbbd 1cb3 bbbd f8b3 14bc
000001f0: 229b 413d 9dbf 4bbb 1c15 b1bc fdbe 79bd
00000200: 9a8e bbbd 1301 763c c181 653d f30e d4bd
00000210: 3761 95bc 55c3 ccbd 6370 4d3d 5f34 2fbc
00000220: e95a 10bd 846c 6a3c be0f 5a3c 7978 59bc
00000230: 3f6e 33bb 689f 093d a7fa a4bd 07ce 8ebd
00000240: 802b 73bd 6b49 08bd cebb ce3c 348a 723c
00000250: 8a4e 333d 0120 d4bd f3f8 d6bd c038 953c
00000260: 31d2 313c 210a 393d 1663 bbbd 9c78 c4bd
00000270: 95da 14bd ecad d8bd 6c88 8f3d dd1a 85bd
00000280: 8e1c b13c 4c0c bdbd 2e10 543c 75e6 25bd
00000290: 7560 05bd b7d5 b7bd 5530 7bbd 286f e13b
000002a0: 7a3b aabd 63fb 8bbd b4e3 dc3c 9519 c13a
000002b0: 52f3 553d aeb9 2c3d d370 223d 7632 8d3c
000002c0: 9c37 d6bc f541 e8bd 8def d2bd 3c85 343d
000002d0: 8dd2 513b 6fd0 623c 4f76 833d c87a 6f3d
000002e0: 996d 51bd 85df 803d fca4 e63c 8428 0ebd
000002f0: 563e 96bd d62a 3c3d d0c5 ddbc 859c 60bd
00000300: f8b8 08bd 5225 0d3c 7849 ebbc 88e3 06bd
00000310: fbec 33bd 2fe9 b6bd 6d04 75bd 792d b1bc
00000320: 075e a1bd a80b 063d 24c8 a7b9 a3f8 aa3b
00000330: 8d5e f1bc 8a63 38bc 0685 99bd b30c c8bd
00000340: 2e67 dabb 6155 07bd 30f5 273d 3eb6 a6bd
00000350: 678c 493d 0c79 d7bd 4a56 03bb cdaf 4cbd
00000360: a991 30bd d14e 5d3d dcf3 943c 72a4 6abd
00000370: 9e3d 1bbd 58b7 c9bd f8e0 02bd 5286 8bbd
00000380: 880d 68bc aa34 49bd df27 3239 9de3 aabd
00000390: 6159 81bd b6da c0bd c191 cbbd 337c c5ba
000003a0: 8efc cd3a 82fc c4bd 1de1 753d 4076 a2bd
000003b0: fe15 06bd 611b 133d 192d 553d c998 cfbd
000003c0: f257 8e3d e409 8bbd c9e2 c3bd 4119 80bd
000003d0: 2424 b93b 946c e1bd 96ef 89bd d04a a2bd
000003e0: e6ee 623d 3ef6 9bbc 45db 733d 5377 c7bd
000003f0: 5977 723d f962 61bd 4f59 09bd 3983 94bd

fc_layers.1.bias f4 [84]
-0.11813 0.0007886725 -0.12210415 -0.058753148 0.036466196 -0.026476864 0.039662752 0.028659068
-0.027495975 -0.07807052 -0.07975273 0.020720316 -0.12394768 -0.060754213 0.01057152 -0.075032994
-0.09204627 -0.04208624 -0.11664156 -0.053197086 -0.06825375 -0.05871905 0.0023636906 -0.074631505
-0.12535506 -0.11258498 -0.0028993264 -0.101520024 -0.11193355 -0.09928011 -0.08562728 -0.033304952
-0.03481035 -0.009512578 -0.113248445 -0.008846767 -0.07504168 -0.12615779 -0.061828326 0.00066639524
-0.091005296 -0.027910948 -0.06698432 -0.12721504 -0.011513712 -0.05121095 0.046104614 0.037540518
-0.10452377 -0.12946327 0.04745463 -0.0094811795 -0.00018742852 -0.06783036 -0.017926412 0.0039968085
0.019456435 -0.09700956 0.038986392 0.014180125 0.019211594 0.03419316 -0.04548529 -0.053547796
-0.12621783 -0.13195105 -0.0706203 0.0009273206 -0.032322485 -0.06407216 -0.045331877 -0.07902731
-0.063406244 0.027242439 -0.036188796 -0.010623077 0.037183456 0.05277568 -0.108570725 -0.060548887
-0.11960145 -0.12844224 0.013171169 -0.10698726
00000000: 24ee f1bd eabe 4e3a be11 fabd 24a7 70bd
00000010: 945d 153d 02e6 d8bc 6975 223d 6cc6 ea3c
00000020: 3d3f e1bc 70e3 9fbd 6655 a3bd a7bd a93c
00000030: 48d8 fdbd 69d9 78bd 2b34 2d3c e6aa 99bd
00000040: c182 bcbd 9f62 2cbd c5e1 eebd 30e5 59bd
00000050: 9fc8 8bbd 6383 70bd 26e8 1a3b 67d8 98bd
00000060: 145d 00be f492 e6bd a002 3ebb bbe9 cfbd
00000070: 6b3d e5bd 5f53 cbbd 5b5d afbd c66a 08bd
00000080: 4c95 0ebd a5da 1bbc cdee e7bd 08f2 10bc
00000090: 74af 99bd 822f 01be b33f 7dbd 07b1 2e3a
000000a0: fc60 babd 80a5 e4bc 132f 89bd a944 02be
000000b0: 02a4 3cbc 93c2 51bd 31d8 3c3d 16c4 193d
000000c0: 8f10 d6bd 0592 04be c95f 423d f356 1bbc
000000d0: 7688 44b9 a5ea 8abd 69da 92bc a9f7 823b
000000e0: 1a63 9f3c f3ac c6bd 32b0 1f3d c153 683c
000000f0: a261 9d3c 200e 0c3d c94e 3abd ef54 5bbd
00000100: 3f3f 01be 2d1e 07be 60a1 90bd 6f17 733a
00000110: 9564 04bd 4438 83bd ebad 39bd 12d9 a1bd
00000120: 22db 81bd 892b df3c b43a 14bd 6a0c 2ebc
00000130: ae4d 183d 502b 583d 545a debd 1c02 78bd
00000140: 9bf1 f4bd 5d86 03be e3cb 573c 231c dbbd

output_layer.weight f4 [10, 84]
0.009256156 -0.12333673 -0.09724437 -0.13880876 -0.012661366 -0.09361834 -0.026718937 -0.108979024
-0.054327663 0.052705616 -0.0481417 -0.09480135 -0.055539295 0.0015636672 -0.12419479 -0.018042158
0.014341248 0.062473953 0.03608775 -0.11426644 -0.02988234 -0.0030785047 -0.117026106 0.04332714
-0.049720343 -0.0689746 0.06437182 -0.044723652 -0.033640727 -0.092590034 0.04821505 -0.059875477
0.028897228 0.011881666 -0.09643252 -0.01802747 -0.009220528 -0.025037166 -0.033473052 0.0070022033
-0.1075333 -0.019974465 -0.1171048 -0.068965316 0.02655277 0.012435842 -0.08029819 0.009134548
0.057034314 -0.09026106 -0.13381778 -0.103115715 -0.09327471 -0.03990016 -0.033528052 -0.002860671
-0.035537396 0.034638744 0.03117008 0.015047469 -0.13920988 -0.05092543 0.06491382 -0.018384866
0.03821143 -0.06442858 0.03534482 -0.0458853 -0.042865243 -0.029043684 -0.0090833325 -0.035907578
0.020856617 -0.12113363 -0.099604234 -0.09075459 -0.0055468823 -0.028041229 -0.064875446 0.05630274
-0.06443185 -0.11535129 -0.10926884 0.002672622 0.020963209 0.041890156 -0.019046795 0.08839038
-0.055587683 0.0254014 0.039114226 0.016307512 -0.041903205 -0.08622088 -0.026953219 0.049222104
-0.02886581 0.047095504 0.02291272 -0.056423116 -0.05684049 0.04775969 -0.08617281 0.009354162
0.026396649 0.02615929 0.018270297 0.09254273 -0.074200846 0.064775944 0.014736432 -0.05889086
-0.07764037 0.0150920255 0.089038275 -0.021590859 0.020869788 -0.02247469 0.035919577 -0.053299494
-0.09427682 -0.062943794 0.0802718 -0.07642139 0.07396523 0.09019213 0.0072425324 0.086892016
-0.012542626 -0.061243463 0.02707641 -0.032246813 -0.029553793 -0.06238193 -0.0710239 -0.038732305
-0.0933718 0.064174615 -0.06880951 0.0077171014 0.024370745 0.07029912 -0.025320666 0.07030354
-0.016892077 0.056171667 0.042592943 -0.043549683 0.025825823 -0.08055555 -0.068766385 0.070782095
0.0034435415 -0.017034642 0.017771408 -0.09124413 -0.08143658 0.062373117 -0.068679355 0.007293364
-0.02963513 0.078270055 0.05507468 -0.08817472 0.039954472 0.016527493 -0.088646784 -0.03617403
-0.0676796 -0.008136575 0.093682945 -0.06460121 -0.04338094 -0.05966497 -0.0630188 0.06801728
-0.019322563 0.025631314 -0.08049925 0.026181547 -0.029017366 0.02296811 0.018026173 -0.081544265
-0.035729352 0.09479311 -0.06341753 0.07252572 -0.069966815 0.08441474 0.06572091 -0.049109418
0.043161295 0.059702497 -0.080567874 -0.0075453348 -0.07604937 -0.0020904902 -0.033158943 0.058065798
0.056547098 0.07186385 0.0715243 0.08233415 0.016852975 -0.07198799 0.05095996 0.0070194607
0.051062066 0.10479576 -0.069113754 0.04372634 0.093792215 -0.07682497 0.057702053 0.06449968
0.053073626 -0.04388247 -0.020251498 0.091461435 -0.0706829 0.06121093 -0.05101865 -0.018320236
-0.00013823627 -0.061012577 0.054854114 -0.074292675 -0.023708645 -0.018364033 -0.0068868306 -0.026887547
-0.050358627 -0.014677219 0.09646752 -0.07588017 -0.010743232 0.07740331 -0.035312977 -0.07035851
-0.04829438 -0.029646514 0.031021973 0.08120111 0.060879495 0.005766908 0.084682725 0.09777246
0.053435646 -0.023387488 0.04172799 -0.0322177 0.07246962 0.03050065 -0.061514966 0.046068955
00000000: 22a7 173c f897 fcbd 0e28 c7bd e223 0ebe
00000010: 9e71 4fbc f9ba bfbd ace1 dabc 6530 dfbd
00000020: af86 5ebd d8e1 573d 3b30 45bd 3627 c2bd
00000030: 2c7d 63bd f7f3 cc3a d759 febd 26cd 93bc
00000040: 8ef7 6a3c b0e4 7f3d c0d0 133d 8604 eabd
00000050: cfcb f4bc bdc0 49bb 62ab efbd cd77 313d
00000060: 8fa7 4bbd 8e42 8dbd 5fd5 833d 2630 37bd
00000070: dcca 09bd d89f bdbd 257d 453d fd3f 75bd
00000080: e1b9 ec3c 52ab 423c 6a7e c5bd 58ae 93bc
00000090: b311 17bc be1a cdbc 0a1b 09bd bd72 e53b
000000a0: 6b3a dcbd 7da1 a3bc a4d4 efbd b03d 8dbd
000000b0: 3285 d93c b4bf 4b3c 6173 a4bd 12a9 153c
000000c0: d09c 693d cada b8bd 8707 09be 552e d3bd
000000d0: d006 bfbd 5a6e 23bd b654 09bd 187a 3bbb
000000e0: a98f 11bd 5be1 0d3d 6558 ff3c a989 763c
000000f0: 098d 0ebe 2f97 50bd 89f1 843d dc9b 96bc
00000100: 9783 1c3d 22f3 83bd bbc5 103d 39f2 3bbd
00000110: 7793 2fbd 05ed edbc 42d2 14bc d313 13bd
00000120: 7fdb aa3c e914 f8bd 4efd cbbd 8bdd b9bd
00000130: 9fc2 b5bb b8b6 e5bc 6bdd 84bd b49d 663d
00000140: d9f4 83bd 4c3d ecbd 57c8 dfbd 2827 2f3b
00000150: 09bb ab3c 0395 2b3d 0608 9cbc 0406 b53d
00000160: e9af 63bd 9916 d03c 3d36 203d 5597 853c
00000170: b2a2 2bbd 9394 b0bd ffcc dcbc 1e9d 493d
00000180: fe77 ecbc 37e7 403d 75b3 bb3c ed1b 67bd
00000190: 93d1 68bd aa9f 433d 5f7b b0bd 3342 193c
000001a0: c93d d83c 024c d63c 97ab 953c 0b87 bd3d
000001b0: 9df6 97bd 40a9 843d 1371 713c 8b37 71bd
000001c0: ea01 9fbd 8b44 773c b359 b63d 50df b0bc
000001d0: 1ef7 aa3c d71c b8bc 6820 133d 9250 5abd
000001e0: 3514 c1bd ade8 80bd 8b65 a43d d182 9cbd
000001f0: 157b 973d a7b6 b83d c452 ed3b 71f4 b13d
00000200: 967f 4dbc 6dda 7abd 59cf dd3c 3c15 04bd
00000210: cc1a f2bc 3284 7fbd fa74 91bd c4a5 1ebd
00000220: b739 bfbd fb6d 833d 00ec 8cbd bddf fc3b
00000230: 28a5 c73c fcf8 8f3d 496d cfbc 4dfb 8f3d
00000240: 4161 8abc 4314 663d f075 2e3d 2761 32bd
00000250: ad90 d33c 4ffa a4bd 64d5 8cbd 34f6 903d
00000260: 0aad 613b 3c8c 8bbc 5895 913c 34de babd
00000270: 39c8 a6bd f47a 7f3d c3a7 8cbd 2cfd ee3b
00000280: 5fc5 f2bc 0d4c a03d fd95 613d f394 b4bd
00000290: 4da7 233d aa64 873c 728c b5bd 382b 14bd
000002a0: 9a9b 8abd 454f 05bc d8dc bf3d a44d 84bd
000002b0: 36b0 31bd 4163 74bd 0010 81bd a54c 8b3d
000002c0: 5a4a 9ebc c3f8 d13c cadc a4bd af7a d63c
000002d0: d4b5 edbc 9e27 bc3c a0ab 933c ae00 a7bd
000002e0: f158 12bd e422 c23d 0de1 81bd 5d88 943d
000002f0: c34a 8fbd a3e1 ac3d af98 863d f526 49bd
00000300: e6c9 303d 9b8a 743d c500 a5bd db3e f7bb
00000310: c6bf 9bbd 9b00 09bb acd1 07bd 67d6 6d3d
00000320: ee9d 673d 5b2d 933d 557b 923d cf9e a83d
00000330: 400f 8a3c 706e 93bd 64bb 503d 8103 e63b
00000340: 7526 513d 299f d63d 838b 8dbd 641a 333d
00000350: 2216 c03d 6956 9dbd fd58 6c3d 6918 843d
00000360: bb63 593d 1bbe 33bd 78e6 a5bc 2250 bb3d
00000370: 32c2 90bd 50b8 7a3d eff8 50bd 5214 96bc
00000380: 84f3 10b9 53e8 79bd b5ae 603d c226 98bd
00000390: a238 c2bc 2b70 96bc ecaa e1bb 4643 dcbc
000003a0: d944 4ebd b878 70bc c390 c53d 1067 9bbd
000003b0: 6204 30bc a085 9e3d 57a4 10bd 1f18 90bd
000003c0: 54d0 45bd 3fdd f2bc cb21 fe3c c44c a63d
000003d0: c75c 793d 55f8 bc3b 236e ad3d ed3c c83d
000003e0: 56df 5a3d 1e97 bfbc f8ea 2a3d b5f6 03bd
000003f0: f46a 943d 80dc f93c 1ef7 7bbd cdb2 3c3d

output_layer.bias f4 [10]
0.20333828 0.04832822 -0.031723555 -0.15338543 -0.23176628 -0.0856487 -0.36704856 -0.100476556
0.24170801 0.060262047
00000000: e937 503e d0f3 453d 8ff0 01bd 1211 1dbe
00000010: 2454 6dbe 9668 afbd caed bbbe a7c6 cdbd
00000020: 4e82 773e 56d5 763d
