Lab1/model/model_CIFAR10_10iters/conv_params_c1_10.pth (torch, 259588 bytes, 10 tensors)

conv_layers.0.weight f4 [10, 3, 5, 5]
000000 e5 f3 8c be 94 95 ae be c3 65 17 be 7a ae 00 bd
       -0.27529827 -0.34098494 -0.14784913 -0.031416394
000010 0d 9b 6a 3e ac 44 09 be bd 6a 0c bd 32 f1 2c 3e
       0.2291071 -0.13405102 -0.03428148 0.16888884
000020 e0 dd 98 3e 00 59 ce 3d c4 97 a0 3c 92 23 e1 3d
       0.29856777 0.10075569 0.019603617 0.109931126
000030 e0 5b 66 3e f3 65 94 3e 96 75 1b 3e d2 66 12 be
       0.22495985 0.2898403 0.15181574 -0.14297035
000040 c8 b6 88 3d 6c 34 50 3e b6 44 22 3c 83 a2 4d 3d
       0.06675488 0.20332497 0.009904077 0.05020381
000050 b9 59 2c bd 46 e2 02 3e 62 1a 24 3e 36 b6 b1 bd
       -0.042077754 0.12781629 0.16025689 -0.08677332
000060 7d 87 63 bd 73 71 99 bd e4 34 22 be 5f 5c 44 be
       -0.055549134 -0.07492342 -0.15840489 -0.19175862
000070 60 59 34 be af ab 88 bc b9 54 27 be 09 1f 45 be
       -0.17612219 -0.016683428 -0.16340913 -0.1925012
000080 fc e3 18 3d eb 26 f0 3d c6 d5 a4 3d 37 48 2d be
       0.037326798 0.11726173 0.080485865 -0.16922079
000090 ad f5 94 bd fe 5a 29 3e 3e 0d 77 3d 2a 1c ca bc
       -0.072734214 0.16538617 0.060315363 -0.024671633
0000a0 db bc 5d bd 89 d2 f2 bc 22 8e 17 3d 36 15 60 3d
       -0.054135185 -0.029641407 0.037000783 0.05470773
0000b0 3c 07 d0 bd 24 c0 12 be 32 b3 45 bc 7a 09 99 bd
       -0.1015763 -0.14331108 -0.012066649 -0.07472511
0000c0 b6 46 1d be 8e 12 35 be 6a f9 fd bd a7 2f 54 bd
       -0.15359005 -0.1768286 -0.124010876 -0.051803257
0000d0 07 05 25 bd 9b 93 7e 3e 48 6e c8 3e 87 b6 ec bc
       -0.040287998 0.24860995 0.39146638 -0.02889563
0000e0 89 b4 11 be d2 88 24 3e 75 88 d8 3e 1b 90 ab 3e
       -0.14229025 0.16067818 0.42291608 0.3350838
0000f0 4f 01 70 bd 21 5e ce bd be e1 bf 3e d7 38 ad 3e
       -0.058594998 -0.100765474 0.37476915 0.33832428
000100 10 08 46 3e d4 69 af 3d 07 d0 b4 3c da 32 98 3e
       0.19339013 0.08565107 0.022071851 0.29726297
000110 9d a6 45 3d 9c 33 af bd df 45 1d be 09 54 36 bd
       0.048254598 -0.085547656 -0.15358685 -0.044513736
000120 36 0a 15 3e 40 2d 0c bd af 64 18 be 86 45 ab bc
       0.14554676 -0.03422284 -0.14882158 -0.020907175
000130 6d 10 49 be 34 ce 47 be 17 e8 6d bd 5b 13 74 3e
       -0.19635172 -0.19512254 -0.058082666 0.23835509
000140 9a 69 67 be 3b ca e0 be e9 42 89 be c0 3d aa bd
       -0.22598878 -0.4390429 -0.2680886 -0.08312559
000150 fe 9a 58 3e 66 a2 c0 be ca 8d 03 bf ac 07 d9 be
       0.21152875 -0.376239 -0.5138823 -0.42388666
000160 23 bd bb be 25 bb 45 3d f2 f7 77 be 6e b0 83 be
       -0.36667737 0.048274178 -0.24215677 -0.25720543
000170 8d a9 b6 be e5 a5 39 be 54 e6 22 3d c4 9d 1c be
       -0.35676232 -0.1812969 0.03977044 -0.15294558
000180 48 92 b5 be 8e 2f b1 be ad 28 ae bd da b7 35 3e
       -0.35463166 -0.34606594 -0.08503852 0.17745915
000190 ac ba 19 be 88 bf 9b bd d7 e6 cb 3b 58 df 8c 3d
       -0.15012616 -0.07604891 0.0062225866 0.06878537
0001a0 36 1d 14 3e 92 e1 09 3d ee c7 45 3d 01 95 8e 3d
       0.14464268 0.033662386 0.04828637 0.06962014
0001b0 d1 fe 06 3e 1e 31 66 3e 21 a5 ec bc 0f 02 1a bd
       0.13183142 0.22479674 -0.028887333 -0.03759962
0001c0 1c 64 75 3c 43 40 28 3e 9a 2b 42 3e cb 8f c6 3d
       0.014977481 0.16430764 0.18961945 0.09695395
0001d0 5a be 97 3d 3c 53 43 3e 28 cc 17 3e 05 a5 d2 3c
       0.074093536 0.1907472 0.14823973 0.025713453
0001e0 bd d6 36 be e5 f2 1b be 80 58 55 3a d5 73 0e be
       -0.17855354 -0.15229376 0.00081384927 -0.13911374
0001f0 28 33 0b be ec d6 74 3e 22 90 de 3d 4a b2 0a 3e
       -0.13593733 0.23910111 0.10867335 0.13544574
000200 79 ea 97 3d 9e 18 82 be 6c af b8 3e a5 98 de 3e
       0.07417769 -0.25409406 0.36071336 0.43475834
000210 ac ae 33 3e d4 bb 9e 3d 48 04 76 be b1 a5 9c 3e
       0.17547101 0.07750669 -0.2402507 0.30595163
000220 c8 4e f0 3e 68 67 a4 3e 2f b1 0a 3e 46 d0 d1 bd
       0.46935105 0.32110143 0.13544153 -0.10244803
000230 01 90 14 3f f1 ce 08 3f dd 24 0b 3f dc 51 27 3e
       0.5803223 0.5344077 0.54353124 0.1633982
000240 9b b9 63 be ff 53 bd 3e ec 2a f4 3e 88 75 ba 3e
       -0.22238772 0.36978146 0.47688997 0.36417794
000250 b7 ea 08 3e 10 b2 cd be 83 cc 27 bd 60 3f a2 3e
       0.13370787 -0.40174913 -0.040966522 0.31688976
000260 3f 9b 96 3c 52 21 a3 be c5 c4 4c bc eb f5 0a bd
       0.018384574 -0.3186136 -0.012498085 -0.033925932
000270 04 33 3c bd 4c c7 20 bd 9e 72 b0 bc 10 3c b9 bd
       -0.04594709 -0.039252564 -0.021539029 -0.09044659
000280 a4 56 1e be 7d 89 02 be 3b 1d b3 3d c9 e6 7e 3e
       -0.15462738 -0.1274776 0.0874581 0.24892725
000290 b0 62 76 bc de c8 af bd cd b6 bc be 5a 84 00 3e
       -0.015038177 -0.08583234 -0.36858216 0.12550488
0002a0 7c a5 69 3e ca 72 9f bc 09 4c 00 be c4 1d 0c bd
       0.22817034 -0.019463915 -0.12529005 -0.034208074
0002b0 2c be 13 be 7a ee 85 bd bc 3a b9 3d 9d 1f 1c bd
       -0.14428014 -0.065396264 0.09044406 -0.038116086
0002c0 3d 23 c8 3e 7f 42 d5 3d 66 6f 9c bd ad c8 05 3e
       0.39089385 0.10413074 -0.07638435 0.13064833
0002d0 29 a8 68 be 9a d4 60 bb b6 d5 4b 3e 3e 17 3d 3e
       -0.22720398 -0.0034306408 0.19905743 0.18465897
0002e0 65 86 66 3e 9d ab e2 be 05 3d c8 be 1c 2d 8d 3d
       0.22512205 -0.44271556 -0.39109054 0.068933696
0002f0 a0 28 02 3f 14 31 85 3e e7 37 e7 be 9f 83 f3 be
       0.5084324 0.26014006 -0.45159838 -0.47561356
000300 d1 21 b0 b9 1a 13 e7 3e 4e e9 83 3e 2d 11 1d be
       -0.0003359453 0.4513176 0.25763935 -0.15338583
000310 c4 a9 7a be 72 fd 15 be 28 01 38 3c ec b9 db 3e
       -0.24478823 -0.14647463 0.011230744 0.42915285
000320 f3 00 e8 bd d4 b2 de 3d fc 83 cc bd 0d fd 7d be
       -0.11328306 0.108739525 -0.099861115 -0.24803562
000330 2f 55 50 be 78 9b 4f be c0 d5 32 bd b6 33 74 3d
       -0.20344995 -0.2027415 -0.04366088 0.059619628
000340 78 73 60 3e 8f a4 24 3d 9b 38 17 bf e0 4c 8a be
       0.21919048 0.040195998 -0.5907075 -0.27011776
000350 65 48 6c 3e ec d0 d2 3e 1d 54 33 3e 36 a6 bd be
       0.23074491 0.4117502 0.17512555 -0.3704087
000360 66 0d 07 bf 44 d7 04 3e 66 4d b6 3e 2c c1 81 3e
       -0.5275482 0.12972742 0.35605925 0.2534269
000370 95 f4 b8 bc cd fc 51 bd 10 92 ec 3d eb aa 70 3e
       -0.022577563 -0.05126648 0.11551297 0.235027
000380 20 f8 7c 3e 5d 81 f0 3a 90 8f d2 bd 83 fa 2b 3d
       0.24704027 0.00183491 -0.102812886 0.041986953
000390 b6 33 d0 3e 68 41 11 be 39 51 44 be 2b 17 88 3e
       0.40664452 -0.14185107 -0.19171609 0.26580176
0003a0 a0 69 77 be c1 de 4f 3d 4c de 3f 3e 1e f8 e0 bd
       -0.24161386 0.050749544 0.18737143 -0.109848246
0003b0 58 0c 55 3f 61 d8 5c bf bd f7 f0 be 0a 3a 29 3f
       0.8322196 -0.8626767 -0.4706401 0.66104186
0003c0 68 cc 2f 3e d3 4e 63 3f 7b b0 95 bf e2 d1 c6 be
       0.17167819 0.8879215 -1.1694483 -0.38832003
0003d0 41 6c 42 3f b2 64 43 3e de 7b d2 3e a5 e8 7c bf
       0.7594643 0.19081381 0.41110128 -0.9879249
0003e0 9d ef b7 bc 8b a2 b5 3e 47 08 f2 bc 72 ad b0 bd
       -0.022453124 0.35475573 -0.029544963 -0.08626832
0003f0 76 fe e8 bd 5f 79 a8 3c cb 56 fe bd a5 3c 17 3e
       -0.113766596 0.020565687 -0.12418898 0.14769228

conv_layers.0.bias f4 [10]
000000 15 cb 2d be a0 43 08 3f 2f dd d3 be 05 ad be be
       -0.16972001 0.5322819 -0.41379687 -0.37241378
000010 d7 30 25 bf ba 39 56 bf 2b d3 a0 be 26 84 ac be
       -0.6452765 -0.83681834 -0.31411108 -0.3369457
000020 5e 4f 12 bf 8c 1a 5b bf
       -0.57152355 -0.8558738

conv_layers.1.weight f4 [16, 10, 5, 5]
000000 f2 79 a4 bd bc e8 fc 3d bf 44 02 3e b0 54 16 3e
       -0.08031072 0.12349078 0.12721537 0.14680743
000010 e8 8e cd 3d 77 4d 96 3d 5c 6f e4 bc a1 15 fa bd
       0.10037023 0.07338994 -0.027885132 -0.12211157
000020 68 62 20 be fc 97 12 be cc 08 c6 3c 99 92 bc bd
       -0.15662539 -0.1431579 0.024174117 -0.09207649
000030 1f b5 a0 bc 0f fb 2b bd d4 a7 8b 3d a4 ec 81 bd
       -0.019617615 -0.041987475 0.0681912 -0.06343964
000040 41 29 07 bb da 60 e6 3d 78 1e 45 3d 88 8c e1 3d
       -0.0020623954 0.11248942 0.04812476 0.11013132
000050 fa 24 2b 3c 86 0b 9c 3d 8a a2 d9 bc e7 af 4e bd
       0.010445828 0.076193854 -0.026566762 -0.050460722
000060 e0 ef 89 bd 7a f6 d3 3c 8c 34 5d 3d dd 47 85 3e
       -0.06735206 0.025874365 0.05400519 0.2603139
000070 67 77 43 3d be 80 0c 3d f6 c0 ef 3c 13 2e 17 bd
       0.047721293 0.034302466 0.029266816 -0.036909174
000080 53 09 38 3c 73 ec 97 bd be d9 9c bd 45 ba 4c 3a
       0.011232692 -0.07418146 -0.076587185 0.0007809739
000090 49 33 2a 3d ba fb 46 3e de a2 d9 3d 02 1b b9 bc
       0.041552816 0.19431964 0.106267676 -0.022595886
0000a0 24 48 83 bc a0 67 23 3d 2d 30 ca 3c 6d c9 87 3d
       -0.01602561 0.039893746 0.024681175 0.06630216
0000b0 d0 27 4c bd b7 a5 89 be b6 af 46 be 6a 8a 02 be
       -0.049842656 -0.26884243 -0.19402966 -0.12748113
0000c0 fb f0 41 be 19 b7 62 be d0 da 16 3e 06 22 55 3e
       -0.18939583 -0.22140159 0.14731908 0.2081376
0000d0 83 da 9d 3d c8 01 47 bd c7 ff f9 bd 5a e0 35 3e
       0.077076934 -0.048585683 -0.12206989 0.17761365
0000e0 10 61 95 bc 11 b5 27 be 5b c0 92 bd 5b dd b5 3d
       -0.01823476 -0.16377665 -0.07165595 0.08880111
0000f0 5c 6c 9e be a5 aa c6 be 4c d9 2c be 7a b3 ec bd
       -0.30942047 -0.38802066 -0.16879767 -0.1155767
000100 05 65 d6 bc 47 4f 60 be a1 06 bc be a2 bc 8e be
       -0.026171217 -0.21905242 -0.36723807 -0.2787829
000110 77 82 4a be b6 a8 0d be 76 1a 07 bb 9c e7 a8 3c
       -0.19776331 -0.1383389 -0.0020615137 0.020618252
000120 ae 11 2b bc 7e 5a 59 3c fc a1 85 3c 6b ac a5 3d
       -0.010441227 0.013266204 0.016312592 0.08089527
000130 19 19 d8 3c c7 ca 04 3e cc ac a4 3d da 89 75 3d
       0.026379155 0.12967978 0.08040771 0.05994592
000140 06 a0 10 3e 08 05 3d 3e 14 56 c9 3d 33 2a d6 3d
       0.14123544 0.1845895 0.09830871 0.104572676
000150 c0 57 04 3e e5 1e ca 3c 4f a0 8a be 97 4b d3 be
       0.12924099 0.024672935 -0.2707543 -0.41268608
000160 6a 50 fc be 17 16 71 be 48 6a 76 be 8b 6b 2f bf
       -0.492801 -0.23543583 -0.2406398 -0.6852347
000170 d9 be 1e bf 9b 6b 2c bf 59 bc c9 be 7f b8 2c be
       -0.6200996 -0.6735169 -0.3940151 -0.16867255
000180 fa 89 15 bf a3 8c fb be 65 39 e4 be 1a f4 a1 be
       -0.5841366 -0.49130735 -0.4457504 -0.31631547
000190 fc a9 f8 bb 3f 28 e1 3a 22 18 7e bc 95 6d d1 bd
       -0.007588623 0.0017178132 -0.015508683 -0.10225979
0001a0 cb 99 ea bd 27 22 74 bd 3e f7 8a be 5d 81 31 be
       -0.11455115 -0.059602883 -0.27141756 -0.17334504
0001b0 78 b9 38 be 24 aa 97 bd c5 02 2c 3d 22 2d b2 bc
       -0.180395 -0.074054986 0.04199483 -0.021750037
0001c0 dc 03 c8 bb 3f 35 2c 3d 6e 76 f5 bc 8e 58 82 3d
       -0.0061039757 0.042042967 -0.029963698 0.06364547
0001d0 39 70 b1 bb 9f 49 9c bd 50 d1 26 3d ba 4c 81 be
       -0.0054149893 -0.076312296 0.04072696 -0.2525385
0001e0 3f 5f 43 3c bf 0e c8 bc ec e6 d4 bc 4d ac fb bd
       0.011924564 -0.024421094 -0.025989018 -0.12288723
0001f0 af a0 d1 3d be e3 37 3e 0d 87 11 3e dd 97 bb 3d
       0.10235726 0.1795797 0.14211674 0.09159825
000200 b7 b0 8d bd 3b da 84 3d f7 40 94 3e f5 e0 73 3e
       -0.06918471 0.06486937 0.28955814 0.23816283
000210 a1 6a da bd 2d f7 ad bd f1 60 a9 3d 6e c7 8d 3e
       -0.10664869 -0.08494411 0.08270443 0.27691215
000220 c4 a7 cc 3b 70 e0 bd bb e0 d7 3c 3e f3 8b ae 3e
       0.006245585 -0.0057945773 0.18441725 0.34091148
000230 a5 2e 7a 3e 4a cc 11 3e f3 fe b0 bb 4f ba 21 3e
       0.24431856 0.14238086 -0.005401486 0.15793727
000240 bd 9b 3d 3e 30 fe ca 3d ae 36 8a 3e 13 bb 2d 3e
       0.1851644 0.09911764 0.26994842 0.16965894
000250 1a 19 5e 3e a0 c8 0b 3d 73 cc a3 3d c4 1f b8 bd
       0.21689263 0.034126878 0.0799798 -0.08990434
000260 cb 50 8f 3d b7 36 e8 bd 31 b4 e7 bd f2 46 83 3e
       0.06997832 -0.11338561 -0.11313666 0.25640064
000270 d5 5a d4 3d bd e4 41 3e 0b 52 7a 3e b2 2a be 3e
       0.10368887 0.18934913 0.2444536 0.3714195
000280 22 8b 59 3e 37 88 97 3c 2b 3b 44 3d 4b 0c bc ba
       0.21244481 0.01849757 0.04790799 -0.0014346925
000290 c2 41 55 3d be b1 40 3e 31 50 c3 bd b7 bc c6 bd
       0.052064665 0.18817803 -0.0953678 -0.09703963
0002a0 15 d2 69 be eb 14 8a bd 54 48 32 be e1 98 d8 be
       -0.22834046 -0.06742271 -0.17410403 -0.42304137
0002b0 7a 78 48 be 83 91 d4 be c8 3f 8d be 96 0d 1d 3e
       -0.19577208 -0.41517267 -0.27587724 0.15337214
0002c0 31 91 de 3d 19 e3 af 3d 23 55 07 3d 9b 88 16 3e
       0.10867537 0.08588237 0.033040177 0.14700548
0002d0 a2 ab 0d 3e 4b 25 76 bd b5 f2 a8 3d 07 15 b9 3c
       0.13835004 -0.06009416 0.08249418 0.022593034
0002e0 53 6e 79 3d bd c1 6c 3e a0 d5 23 3e 6e 66 33 3e
       0.06089623 0.2312078 0.1599946 0.17519543
0002f0 7f 50 9e 3d 83 39 41 3e f7 a5 9c 3d 4b fc 32 3e
       0.07730197 0.18869595 0.07648843 0.17479055
000300 56 68 01 3e 1a 60 b6 3d f9 78 36 3d 2a 54 b8 3b
       0.12637457 0.08905049 0.044548962 0.0056252675
000310 bc c4 77 3d 89 98 f9 3d fc 94 40 3d 2c 50 0b 3e
       0.060490355 0.12187297 0.047017083 0.13604802
000320 96 6b 70 3e 3c 68 ca 3d 41 49 79 3e fa f0 df 3c
       0.23478541 0.098831624 0.2434435 0.027336586
000330 0b d2 f3 3c e5 92 95 3c 0d e4 aa bc 34 6f 64 bc
       0.029763242 0.018258521 -0.020860696 -0.0139425285
000340 89 78 fe bc 7f 23 0c be 09 f3 cc 3d c0 2c 9d 3c
       -0.031063335 -0.13685416 0.10007293 0.019186378
000350 16 af 23 3d 3b e7 59 3d c2 26 f2 3d a6 e0 99 3d
       0.039961897 0.053199034 0.11823799 0.075135514
000360 bd 01 c5 3d 5a 34 86 3e 21 97 41 3e fc 20 bd 3d
       0.09619472 0.26211816 0.18905307 0.09234807
000370 1e 20 8c bd ce 6a ab bb 86 1f 11 3e 22 90 76 3c
       -0.06842063 -0.005231238 0.14172181 0.015049012
000380 79 9c 23 3e ce 5b 3b 3d c6 24 1d 3d 6c 25 bf bc
       0.15977658 0.04574185 0.038365148 -0.023333274
000390 0e 5b d2 3d 01 1e b8 bd f8 e0 7f bd 74 46 3f be
       0.102712736 -0.08990098 -0.062470406 -0.1867922
0003a0 cf 74 7f be 18 2c 86 be 14 1f 5b be 50 ed 3b be
       -0.24946903 -0.26205516 -0.21398574 -0.18352246
0003b0 39 85 81 be e0 1e a7 be 97 cf 67 be 67 18 cb bd
       -0.25296953 -0.32640743 -0.22637783 -0.09916764
0003c0 14 ab 24 bd 6a 6d ee 3d c1 d3 72 3d 79 88 35 3c
       -0.040202215 0.11641963 0.059283976 0.011079901
0003d0 fd f2 05 3e 3e 45 cb 3d 39 a6 03 3e cf ec 4a 3d
       0.13080974 0.09925316 0.12856378 0.049542245
0003e0 82 34 51 3e 9a 2f 93 3c 94 07 69 3c 92 a2 0b 3e
       0.20430186 0.017967034 0.014222998 0.13636234
0003f0 cf ca 00 3e 39 a7 4d be be 87 ae be 72 13 46 bd
       0.12577365 -0.20083322 -0.34087938 -0.04835839

conv_layers.1.bias f4 [16]
000000 8e 92 b1 3a 8e 0e 8c 3e ec 7a 0e 3f b6 84 d4 3f
       0.0013547705 0.27354854 0.55656314 1.6603
000010 0d 53 83 bf 36 67 1a 3e 92 a5 a9 bf 1e f9 8b be
       -1.025972 0.15078434 -1.3253653 -0.273385
000020 6c ee 39 3e d7 29 81 3d e8 97 ff 3f 28 c0 39 bf
       0.18157357 0.063068084 1.9968233 -0.7255883
000030 e0 27 8e 3f 3c a9 d6 3d 02 07 9f bf e4 95 db be
       1.1105919 0.10481498 -1.2424014 -0.42887795

fc_layers.0.weight f4 [120, 400]
000000 69 fc 4f 3e 58 2d 89 3d 7f be d0 bd 38 79 1e be
       0.2031113 0.06698102 -0.10192584 -0.15475929
000010 4e 94 72 be f4 5e e1 3d 47 ce e1 bb 13 b5 af bd
       -0.23689386 0.11004439 -0.0068910453 -0.08579459
000020 82 62 16 be d5 40 19 be d8 72 c1 3d c6 03 a0 3a
       -0.14686015 -0.14966138 0.09445733 0.0012208156
000030 d1 5f 59 be 17 93 84 be 14 ec 16 be ac 9b 6e 3d
       -0.21227957 -0.2589347 -0.14738494 0.05825393
000040 a2 4f a5 bd 89 8c 5a be 2a 07 cb bd ea 33 40 3d
       -0.080718294 -0.21342672 -0.09913476 0.04692451
000050 90 99 da 3c 7f 7f c1 bd 5a 2b 6c be d9 5b 09 be
       0.026684552 -0.09448146 -0.23063412 -0.13413943
000060 94 ff 5b 3d c0 85 9a 3c 51 b8 dd 3d 23 f3 42 3c
       0.053710535 0.018862605 0.10826171 0.011898789
000070 0a 97 59 bd 88 a6 91 bd fa 6e 11 3e 8d f6 4e bd
       -0.053122558 -0.071118414 0.1420249 -0.050528098
000080 67 f4 a9 bc d5 df 4e bd 1b 4a 20 be 2b 6d 9c 3d
       -0.020746423 -0.05050643 -0.15653269 0.0763801
000090 7c f9 be 3c 1a 57 16 3c f9 5c 2f bd 3c 5f ee bc
       0.023312323 0.00917604 -0.042813275 -0.029098146
0000a0 ed 5c 86 bd 53 16 25 3e 75 c1 2d bd 1e d0 99 3d
       -0.06560693 0.16121797 -0.042420823 0.07510398
0000b0 30 1a c6 3c 66 e6 db bb bf bb 01 3e 9d b4 19 3d
       0.024182409 -0.0067108152 0.12669276 0.037525762
0000c0 53 d4 af 3d 1b a3 d1 bc 0b 79 36 bb 17 e7 ca 3c
       0.085854195 -0.02559047 -0.0027843143 0.024768395
0000d0 e6 68 e4 bc 8a 41 8c bc 81 ce 06 3d 93 fe 99 3b
       -0.02788205 -0.017121095 0.03291178 0.004699537
0000e0 c1 96 b9 3a 14 63 af bc fd 01 35 bd 48 06 70 3d
       0.0014159308 -0.021409549 -0.04419135 0.05859974
0000f0 5f 53 86 bd 9d 77 e3 3d df ff 02 3e d0 00 fe 3d
       -0.065588705 0.11106799 0.1279292 0.12402499
000100 d3 9e d9 3c f8 0c 12 be 9e 02 d8 bd cd 2b b2 3d
       0.026564991 -0.1426276 -0.10547374 0.086997606
000110 95 51 a1 bd 03 2e 84 3b 0c 1e 89 be dc de 1e bd
       -0.07876889 0.0040338053 -0.26780736 -0.038786754
000120 08 db 33 3d e0 fd dd 3c 1e e8 15 3e bf 59 45 be
       0.043910056 0.027098596 0.14639327 -0.19272517
000130 47 d7 9b bd 4f 51 d7 3d 81 58 1a 3e 19 ca 67 3e
       -0.0760942 0.10513555 0.15072824 0.22635688
000140 fd a7 a2 bd e1 5f 1d 3d a8 2f d1 bc 83 83 06 3d
       -0.079421975 0.038421515 -0.02553542 0.032840263
000150 fa b0 0a 3c cf 18 fb 3c e3 61 05 3d 81 ee cf 3c
       0.008465046 0.030651478 0.032564055 0.025382282
000160 88 49 22 3b 5c fc 15 bd 1e 48 88 3d e1 cb 7f 3c
       0.0024763066 -0.03661762 0.0665438 0.015612573
000170 1c 33 36 3e ac 5f b3 bd 2e 5a 19 3d 4f 5b 84 3d
       0.17792934 -0.08758482 0.037439518 0.06462728
000180 01 9c 4d 3c 79 7d 70 bc fd d0 8c 3d 28 1b 36 3e
       0.012549401 -0.0146783525 0.06875799 0.17783797
000190 e2 5a 37 be 4a 13 eb bd e3 0c a3 3c ba 06 28 3e
       -0.17905763 -0.114782885 0.019903606 0.16408816
0001a0 ec b7 5f 3c d9 45 96 bc 21 78 f1 3a 4f 2b 13 be
       0.01365469 -0.018343853 0.0018422642 -0.1437199
0001b0 d2 95 c2 bd 56 d0 bb 3d 0c 6b bc 3c a4 14 31 3d
       -0.09501232 0.09170596 0.023000263 0.043232575
0001c0 b2 f0 5b be fe a1 fe 3c 75 d8 18 3d 7f ec 8f 3d
       -0.21478537 0.031083103 0.037315805 0.0702753
0001d0 8c f9 54 bd 78 c4 2d 3d 5e ab 49 3d 54 36 41 3d
       -0.0519958 0.042423695 0.049235694 0.047170952
0001e0 e9 dc db 3c b0 af 1b 3d 94 10 0a 3d e2 f9 da 3c
       0.026838737 0.038009346 0.033707216 0.026730482
0001f0 d3 5d 01 3e 44 c6 f6 bd a5 79 97 3d 54 8d c3 3c
       0.12633447 -0.12049535 0.07396249 0.023871101
000200 99 ba 41 3d 5e 41 0c be b8 a0 a0 bd e9 2f 63 bc
       0.047297094 -0.1369681 -0.07843155 -0.013866403
000210 1c 35 85 bb 6d 1e 2b bd cf 30 ae bd 0f e9 24 bc
       -0.004065169 -0.041777063 -0.08505403 -0.010065331
000220 ba e8 30 bb 87 43 25 bd 15 05 b1 bd 48 4a 9a 3b
       -0.0026994185 -0.040347602 -0.086435474 0.004708562
000230 b8 85 8e bd f3 dc cc 3d 6c 38 7a 3c e7 20 dc bc
       -0.069590986 0.1000308 0.015272241 -0.026871158
000240 c9 d9 3d 3d 06 99 d1 3d b1 2e ee 3d f4 8d df bd
       0.046350274 0.10234265 0.116299994 -0.10915747
000250 2b 78 9a bc 93 17 9f 3d 83 c5 dd bd 8b 8c 20 3e
       -0.018856129 0.07768168 -0.10828688 0.15678613
000260 7b 41 58 bd 66 34 95 3d 32 e9 6e 3d 4e 87 c6 3c
       -0.052796822 0.07285385 0.05832786 0.02423444
000270 37 ed 03 3e c1 77 14 bd 95 7a b6 bc 83 d2 f4 3c
       0.12883459 -0.03624702 -0.022275249 0.029885536
000280 b8 75 87 bd 93 15 9f 3c bc da 95 3d 0d 08 02 bd
       -0.0661425 0.019419467 0.07317111 -0.03174596
000290 47 d3 79 bd 0b d6 d2 bd 9c 93 67 bd 09 8f ab bc
       -0.060992505 -0.10294732 -0.056537256 -0.020942228
0002a0 c4 4d d0 bd ca 13 2c be f8 2f 86 bd 90 3f c0 bd
       -0.101710826 -0.16804424 -0.06552118 -0.093871236
0002b0 04 ff 81 3d b5 5e d3 3c 00 38 35 bd c1 98 bb bd
       0.063474685 0.025801996 -0.04424286 -0.09159995
0002c0 ca b6 1b be 02 5d ad 3c 64 a9 80 3e ba 73 e8 3d
       -0.15206447 0.021162514 0.25129235 0.11350198
0002d0 e8 7e 25 be 45 eb 33 bd 58 bc 54 3d 9a 3d 12 3d
       -0.16161692 -0.043925542 0.05193743 0.03570328
0002e0 24 aa bb 3d 7b 5c 57 be 8c b1 d1 bb a2 ce b9 3c
       0.09163311 -0.21031372 -0.006399339 0.022681538
0002f0 20 1d 89 bb ab e7 af bd 1a 7c 96 bd c5 02 33 be
       -0.00418438 -0.08589109 -0.07347889 -0.17481525
000300 fc 5b c5 bd 08 7c 04 be 2e e1 9b bd 0f c8 90 3d
       -0.09636685 -0.12937939 -0.07611309 0.07069408
000310 93 e8 75 bc a6 4e 5d bd 4a a8 8a 3d 8b 9a 0c 3e
       -0.015009063 -0.054030083 0.0677038 0.13730828
000320 af fb 11 3d a6 be 4a bd 3d 7f 30 bd 39 04 49 3d
       0.035640415 -0.049498223 -0.043090094 0.049076293
000330 e4 c9 f4 3c 1e 5a 09 3d c5 b3 49 be c2 40 7f bc
       0.029881425 0.033533208 -0.19697483 -0.015579404
000340 5b 38 79 3d e0 d2 48 bd a7 16 33 bd 3b f6 26 be
       0.06084476 -0.04902923 -0.043722775 -0.16304867
000350 f9 85 ff 3b 2a 39 02 3d d7 19 90 bb 21 fa a4 bd
       0.007797953 0.031792797 -0.0043976116 -0.08055521
000360 1a 6f 5e bd 17 1f 1b 3e aa 03 c8 3c f4 01 87 bd
       -0.054305173 0.15148579 0.02441581 -0.065921694
000370 fe e0 11 bd c2 e7 2e 3e 21 5a 6d 3e f6 ff b1 bc
       -0.03561496 0.17080596 0.23178913 -0.021728497
000380 20 bc 1c be 55 cb 45 be ee 1e 20 bd 13 23 50 bd
       -0.15306139 -0.19315846 -0.039091997 -0.0508147
000390 5a 4f 18 3e f2 46 0b 3e be 66 f4 bd 72 b8 76 bd
       0.1487402 0.13601282 -0.11933659 -0.060234495
0003a0 b3 b0 ce bd 17 16 74 bc 39 6b 25 3e fc 05 33 bc
       -0.100922965 -0.014897845 0.16154183 -0.01092672
0003b0 53 fc 35 bc 25 7e 4c 3d 2e 43 31 bd 3f 54 1a 3e
       -0.011107522 0.04992499 -0.04327696 0.150712
0003c0 5d 0b 67 bd 46 d0 80 bc 3c c3 d8 bd c9 51 f9 bd
       -0.05640732 -0.015724313 -0.10584113 -0.121738024
0003d0 54 90 14 3e 47 c7 ce 3d d7 37 4a 3c 6f ea 90 bd
       0.14508182 0.10096603 0.012342415 -0.07075965
0003e0 51 2f 90 bd da 2c b1 3d ab 04 4d 3e fb 00 64 3d
       -0.07040275 0.08651133 0.20021312 0.055664998
0003f0 68 ca 0e bc 9b 9d c3 bd 24 ca 90 be 6a 39 25 3e
       -0.00871525 -0.09551545 -0.2827922 0.16135183

fc_layers.0.bias f4 [120]
000000 88 97 e4 bd 03 c3 30 3c e3 5e 54 bd 64 2b dc bd
       -0.11161715 0.010788682 -0.051848304 -0.107504636
000010 c9 6b 09 3d 42 38 59 3e 12 6e 89 bd ea 73 75 bc
       0.033550058 0.21212867 -0.06710447 -0.014981249
000020 4c ed 2d 3e 54 58 05 3d e2 03 b6 3c 23 f8 a3 be
       0.16985053 0.03255494 0.022218648 -0.3202525
000030 13 78 09 39 fb 23 6c 3d b9 5b 39 3e 1a a5 f3 b9
       0.00013110069 0.0576515 0.18101396 -0.00046471582
000040 11 f4 03 bd b2 d1 39 bd 62 d6 ca 3d 97 4f c6 3d
       -0.03221518 -0.045365997 0.099041715 0.09683149
000050 79 da 34 3e 81 a6 8b bd d6 77 e2 bc 49 2d 8d 3d
       0.17661466 -0.068188675 -0.027645033 0.06893403
000060 42 b8 19 3d e0 f5 65 3d e4 28 fc bd 6d 9c b1 3e
       0.037529238 0.056142688 -0.12312487 0.34689656
000070 4e 45 5c be cd c3 45 3d 11 b7 cc be b5 f8 d1 ba
       -0.21510813 0.048282433 -0.3998342 -0.0016019555
000080 da cf bc bc 97 11 ce 3d d5 0f 66 be c6 18 46 3e
       -0.02304833 0.10061949 -0.22466977 0.19345388
000090 cb e4 f2 3d 71 8c 61 3e b8 95 0a ba 3e 07 10 bd
       0.11860045 0.2202623 -0.0005286592 -0.035163157
0000a0 46 89 8f 3e ef e6 6d 3e 3a 31 22 3d cd 1b 5b bb
       0.2803442 0.23232625 0.039597727 -0.0033433319
0000b0 33 63 26 bd 30 2b b8 3e 81 42 e4 bd 21 0b a0 3d
       -0.040621947 0.3597045 -0.11145497 0.07814623
0000c0 44 87 93 3d f0 76 6b bd 97 07 42 3e 2a f7 10 3e
       0.07203534 -0.057486475 0.18948208 0.14156786
0000d0 e5 fa 21 3e 37 03 a5 3e e2 20 a8 3d ee 8b 04 be
       0.15818365 0.32229015 0.08209397 -0.12944004
0000e0 34 57 3b 3d 4c dc 1c 3d 5b db d8 bd 3c 9b 76 3e
       0.04573746 0.03829603 -0.10588714 0.24082655
0000f0 ca d3 93 bc 73 08 1c bd bc 15 6a 3e 51 4a f3 bc
       -0.018045325 -0.038093995 0.22859854 -0.029698523
000100 9b 38 67 bd be 5f c0 3c 70 2a 6d 3e 52 3c 5b bd
       -0.056450468 0.023483153 0.2316072 -0.053524323
000110 c6 96 6f bd 56 67 fd bd 34 d9 ad be 3c f4 df 3d
       -0.058493398 -0.123732254 -0.33954775 0.10935256
000120 af 67 8e 3e 2f 8c 38 3b 61 84 bd bd 88 04 d1 bd
       0.2781348 0.0028159728 -0.09253765 -0.102059424
000130 2d c2 fc bd 07 ba fd bd 76 41 a9 3e 7e dd 91 3b
       -0.123417236 -0.123889975 0.33057755 0.0044514528
000140 fe e1 2f bc 6e e3 15 bd 8b 38 8d 3c 8b 9b 86 3e
       -0.010735033 -0.036593847 0.017238876 0.26290545
000150 03 50 82 bc e3 bc b6 3d 04 66 de 3d 91 2e 60 be
       -0.015907293 0.08922746 0.10859302 -0.21892764
000160 5f cf 35 3c cf 5d 44 bc 48 b7 a7 3e e3 f1 36 bd
       0.011096804 -0.011985256 0.3275702 -0.044664275
000170 cd c5 be 3c 0e db 55 3d 4f 57 99 bd 53 d8 17 be
       0.023287678 0.05221086 -0.07487356 -0.14828615
000180 f3 b3 79 3d 58 e1 4e bd 35 86 af bc 20 8d 87 3e
       0.06096263 -0.050507873 -0.0214263 0.26474857
000190 24 43 c4 3e a8 19 34 bd 42 de d0 bd b8 13 96 3d
       0.38332474 -0.04396978 -0.10198642 0.0732798
0001a0 85 57 ab 3e 7b d3 ac 3d 61 fe 85 3d 0e 17 5b 3d
       0.3346521 0.08438774 0.065426596 0.053488784
0001b0 6f 7a be bd 8e b4 83 3e 9c fb 41 bc 87 71 a3 bc
       -0.09300696 0.2572369 -0.0118397735 -0.019951595
0001c0 08 14 52 3e 42 30 58 3d 9f e4 42 bc 57 c7 1a 3e
       0.20515454 0.052780397 -0.011895328 0.15115105
0001d0 cd e7 0f 3d 62 f5 c0 bd 94 05 fa 3e 47 a9 87 3d
       0.03513317 -0.09421803 0.4883238 0.06624084

fc_layers.1.weight f4 [84, 120]
000000 fe 70 4c be 47 b4 5c bd 3c a7 a8 3d d4 49 62 3d
       -0.19964978 -0.053882863 0.082350224 0.05524619
000010 1d 9f 19 3e 29 58 8e bd cd 29 17 3d 2e 76 37 3e
       0.15002103 -0.06950409 0.0369051 0.17916176
000020 d1 2b 3d 3e cd a3 c8 bc 5d f5 fd 3b 4f 1b 26 be
       0.18473746 -0.024492169 0.007750197 -0.16221355
000030 36 e4 cc 3b 17 39 f7 3d 8f 87 18 be 54 5b 1d bd
       0.006252791 0.12071436 -0.14895461 -0.038417175
000040 32 40 92 bd b4 99 07 be b2 5a 13 3d 2e e7 5d bd
       -0.071411505 -0.13242227 0.035975166 -0.05417555
000050 95 a3 de bd b2 d8 b7 3d 6b 66 a5 bd a5 b9 81 3b
       -0.108710445 0.08976878 -0.08076175 0.003958898
000060 d0 41 a4 bc 5a ed e8 bd 9d ca a1 3d b6 86 09 3e
       -0.020050913 -0.11373396 0.078999735 0.13430294
000070 ae c8 6a be 73 64 c8 3d 31 7a 45 be 31 2d ee 3c
       -0.22928116 0.09784784 -0.19284894 0.029074283
000080 d6 48 09 3e 0f a0 68 3d 04 93 98 bd 42 b7 11 bd
       0.13406691 0.05679327 -0.07449916 -0.03557516
000090 d5 bd f3 3d 4e 71 e6 bd b2 b4 14 be 5f ae 99 bd
       0.11901442 -0.1125208 -0.14522055 -0.07503962
0000a0 79 c3 4f be 28 95 c5 bd ae f0 12 be 96 86 15 3e
       -0.2028941 -0.0964759 -0.14349625 0.14602122
0000b0 8d b3 02 3d f8 71 0f 3e 11 28 03 3e 34 2a 40 3e
       0.031909514 0.1400832 0.12808253 0.18766099
0000c0 07 bd 28 be e2 95 62 bd 35 ca a3 bc 65 91 e2 3d
       -0.16478358 -0.05531872 -0.01999388 0.11062888
0000d0 bd 4e 0e be 2f c0 ca bd 76 ff 8a bc 61 d6 28 3c
       -0.13897224 -0.09899937 -0.016967516 0.010305018
0000e0 be d3 35 be 04 83 34 3e 6b 08 a9 bd bd 1d a2 3d
       -0.17756554 0.17628103 -0.08253559 0.079158284
0000f0 1f d8 9c 3d c6 37 70 be 6a 53 ba 3d 7c 1d 3f 3e
       0.07658409 -0.23458776 0.09097941 0.18663591
000100 4b fd c5 bd 43 dd a0 3d 2b 91 62 bd 08 ae 1e bc
       -0.096674524 0.07854702 -0.055314224 -0.009685047
000110 10 9d 83 bd 54 27 4b be c8 ab db bd 09 a4 24 ba
       -0.06426442 -0.19839221 -0.10726124 -0.00062805467
000120 87 cf 5d be 25 f8 ac bd 04 65 58 be b0 61 8d 3d
       -0.21661197 -0.08445767 -0.21132284 0.06903398
000130 d3 f3 04 3d 5a a0 72 be 3c f9 a0 bc 6b 63 e8 3d
       0.03245909 -0.23693982 -0.019650094 0.113470875
000140 9d c6 e4 3d 32 cc 37 be 00 0c a3 bd cd 5c fa 3d
       0.11170695 -0.17948988 -0.07961273 0.122247316
000150 c3 7a 21 3d d2 a0 2a 3e 73 74 0a be 57 5b 3e bb
       0.039423715 0.1666291 -0.13520984 -0.0029046142
000160 91 40 52 bd f0 2e 2a 3d 1f 49 12 be bb 6a 99 bd
       -0.051331107 0.04154867 -0.14285706 -0.0749106
000170 ee 26 5c 3d e0 67 74 3e 6d 21 83 bd 65 b5 06 bb
       0.053748064 0.2386775 -0.0640286 -0.0020554897
000180 11 c2 c3 3d 89 2c 9f be 42 82 c4 bd 24 b4 33 3c
       0.095584996 -0.31088665 -0.09595157 0.010968242
000190 84 ae 2d 3d 52 50 ac bc fb 86 87 3d 8f 05 e6 3d
       0.04240276 -0.021034393 0.06617542 0.11231529
0001a0 9b 89 91 bd 79 a6 87 3d 7b 66 35 bd 6c f4 32 3d
       -0.07106324 0.06623549 -0.044287186 0.04369013
0001b0 2d 94 1d 3d 48 0f 10 bd de f6 63 bc 90 a3 74 bc
       0.03847139 -0.035170823 -0.013913838 -0.014931574
0001c0 03 ba 4e be 86 9c 4b 3d 80 22 aa be 77 68 2b 3e
       -0.20188145 0.04970982 -0.33229446 0.16739069
0001d0 e5 6c df bd 6e b2 de bd f1 08 80 3d 19 a7 36 bc
       -0.10909442 -0.108738765 0.062517054 -0.011148238
0001e0 6d 7b 70 3d 6e 8c 3a 3e 53 2f 86 bd ea 73 8d bd
       0.058711458 0.18217632 -0.06551995 -0.069068745
0001f0 65 59 3e 3b f9 0b a9 bc c2 a2 9c 3d 02 e2 73 bd
       0.0029044983 -0.020635592 0.07648231 -0.05954171
000200 cc 1a 66 bd 30 4f 18 bc dd 9a 18 bd 77 bb 8f 3d
       -0.0561779 -0.0092962235 -0.037257064 0.07018178
000210 4d 5a 1f 3d 5d dc 11 be bf 77 e8 bd 06 8a 44 3d
       0.038904477 -0.14244218 -0.11350965 0.047983192
000220 61 69 07 3d bd 21 70 bd 7b 2d 94 3d 5a 4a 1e bd
       0.03305948 -0.058625925 0.07235237 -0.038645126
000230 b8 67 d1 bb b3 1a e3 bc 66 05 98 bd a5 da 06 3b
       -0.006390538 -0.027722692 -0.07422905 0.00205771
000240 fa 24 cb 3d e6 ca 05 be aa 1d 84 bc 5d d7 aa 3d
       0.09919162 -0.13065681 -0.016127426 0.083418585
000250 34 88 b3 bd 0b 6d ff bd 61 d6 b1 3d a3 fc 37 bd
       -0.08766213 -0.1247197 0.08683468 -0.044918668
000260 34 04 95 bd 89 61 23 bc 4b ea b7 bd 4e 3a e5 3d
       -0.07276192 -0.009971985 -0.08980235 0.11192761
000270 e5 0a 81 bd 6a 8a 16 be c0 d9 2f 3d aa 1d 6c 3d
       -0.06300906 -0.14701238 0.042932272 0.057645477
000280 52 f6 ad bd 96 53 d2 bc c2 c8 6d 3d ec 5c ba bd
       -0.084942475 -0.025674623 0.058052786 -0.09099755
000290 a1 4d 12 be 92 59 c4 bc ac 46 86 bd 32 7e 14 3e
       -0.14287426 -0.023968492 -0.06556448 0.14501265
0002a0 24 5f 3e bd 9b fd 2a 3e 0e ba 93 bd 10 9f fc 3c
       -0.046477452 0.16698305 -0.072132215 0.030837566
0002b0 50 fa b8 bc 20 4c ae 3d 52 2d 81 bd b0 44 18 3e
       -0.022580296 0.085106134 -0.06307472 0.14869952
0002c0 a5 4f 74 3d d8 6e 52 be 8f 13 94 bd 1e 8b 0f 3c
       0.059646267 -0.20550096 -0.07230293 0.0087611955
0002d0 db 99 a0 3d be 0a 1a be c1 28 e5 bd 24 75 ac bd
       0.078418456 -0.1504316 -0.11189414 -0.0842078
0002e0 e0 a8 68 bd ee 8f 0d be 0c 47 ac bd 03 20 89 3b
       -0.056801677 -0.13824436 -0.084119886 0.0041847243
0002f0 f8 64 14 bd 7e ad 81 bd 3c d0 b2 3d 28 6e 5b bd
       -0.036229104 -0.06331919 0.08731124 -0.05357185
000300 3e ed 99 bc 5d cc 39 bd 1b 74 97 bd 45 1e 13 3d
       -0.018789884 -0.04536091 -0.07395192 0.03591754
000310 e4 1a 1f 3e 76 34 b8 3d 1c 95 7f 3c 71 2b f7 3c
       0.15537602 0.08994381 0.015599515 0.030172082
000320 4d 0c cf bd 1c 84 80 bd 4d e9 de 3d e1 7c ee bd
       -0.10109768 -0.06275198 0.10884342 -0.116449125
000330 92 20 97 bd 71 6f 67 3d f6 b4 81 bc 3d ed ce 3c
       -0.07379259 0.056502763 -0.01583336 0.025259608
000340 e1 5d 10 bd c0 bc 71 bd 19 e5 0e 3e ff ff e6 bc
       -0.03524578 -0.059017897 0.13954581 -0.02819824
000350 0f 64 35 3d ca 53 07 bd 8f 16 a7 3d ca 0e ce bd
       0.044284876 -0.03303889 0.081585996 -0.100614145
000360 35 35 7a bd 14 75 39 be 7b 43 8e 3d 76 1d 08 3c
       -0.0610859 -0.18111068 0.06946465 0.008307805
000370 80 7e bd bd 58 2d bc 3d 83 21 18 3e 13 04 0f bd
       -0.092526436 0.09188336 0.14856534 -0.034915995
000380 0d 96 50 3d 3f a3 d1 bd 20 5a be bb 49 22 03 bb
       0.05092435 -0.10236215 -0.0058090836 -0.002000945
000390 4e 88 88 3d 33 58 25 3d 58 45 10 3e 81 aa 7a bd
       0.06666623 0.040367316 0.14088953 -0.06119776
0003a0 d0 90 2b bd ed 75 90 bc 5a a4 ce 3d 89 8f b4 bd
       -0.04188615 -0.017634356 0.10089941 -0.0881644
0003b0 da 43 b5 bc 89 28 08 bc ef 0b 48 3c ef ba eb bd
       -0.02212708 -0.008310446 0.012209876 -0.11510264
0003c0 0f 06 4b 3c f4 ce 86 3b 9f 12 85 3c 2e 34 e2 bd
       0.012391581 0.004114026 0.01624423 -0.11045109
0003d0 2b 5c 8f be 11 75 a6 3d 60 91 90 be 91 74 4a bd
       -0.28000006 0.081277974 -0.28235912 -0.049427573
0003e0 41 3e b0 bd 3f 8a 1e 3d 9f 65 75 bd 5f 5a 9d 3d
       -0.08605624 0.03870606 -0.059911367 0.076832525
0003f0 4f bc 92 bd 02 11 0d be 69 ec 45 3d 3f 59 de bd
       -0.07164823 -0.13776019 0.04832116 -0.10856866

fc_layers.1.bias f4 [84]
000000 a8 1d b5 3e 1e c8 b4 bc b5 b6 15 3f 4e 8a c4 bd
       0.35374188 -0.02206808 0.58481914 -0.09596692
000010 10 a8 ee 3e 5c 10 19 bc 2c 1f ab 3e 3a 68 3b bd
       0.46612597 -0.009342279 0.3342222 -0.045753695
000020 17 3c 87 3e 36 9e af bc 0e 8b b1 3e 2b 22 fe 3e
       0.26413032 -0.021437746 0.34676403 0.49635443
000030 c2 51 27 3e e2 d2 16 bd c7 83 d7 3d 60 9f 8b bd
       0.16339782 -0.036822207 0.105231814 -0.06817508
000040 ab 11 f6 3c 4d 8e b1 3e 70 bd 82 bc d2 6b e4 bc
       0.030037722 0.3467888 -0.015959471 -0.027883444
000050 10 b6 1f 3d c7 c8 4f 3e e2 65 c1 bd 7a 48 91 bd
       0.038991988 0.20291434 -0.09443261 -0.07093902
000060 e0 93 58 be 01 42 ba bc 99 1c 25 3f dc 6b 5a bc
       -0.2115016 -0.022736551 0.6449676 -0.01333138
000070 70 03 18 bc c3 4d 4b 3e 2b 20 6d 3f 86 64 4f 3e
       -0.009278163 0.19853882 0.9262721 0.2025319
000080 5c 36 9c 3e b1 49 7c 3e 76 56 28 3e dc 84 51 bd
       0.30510223 0.24637486 0.16439232 -0.051152095
000090 34 3c 3d 3e 84 e7 ae 3d 5b 0e 29 3d 25 83 12 3e
       0.18479997 0.08540252 0.041273456 0.1430784
0000a0 33 a3 85 bc de 71 a7 bc 7a 96 84 3d 53 56 57 3e
       -0.016313171 -0.020440038 0.064740136 0.21029024
0000b0 e2 ed 1c 3f c2 a5 ca 3e 3e 84 30 3d 89 4e 31 3e
       0.6130048 0.39579588 0.043094866 0.17315115
0000c0 6b ab f1 bd ae 62 78 3c 42 35 1c 3f 57 36 3f bd
       -0.118002735 0.015160246 0.61018765 -0.046682682
0000d0 4e 85 87 3e a5 c0 2b 3e 90 1a 40 3e 57 bc ae 3e
       0.2646889 0.16772707 0.18760133 0.34128067
0000e0 fa 9a 4a 3e 1b 34 96 3d 64 df 83 3e 01 05 69 3d
       0.19785681 0.07334157 0.2575637 0.056889538
0000f0 b4 b3 fd 3e 74 c5 bf bd 14 81 ec 3e 3c 77 9a 3d
       0.49551165 -0.09363833 0.4619223 0.075422734
000100 41 5f 0c 3f 38 e3 65 3d 36 18 97 3e 5c cf 0a 3d
       0.54832846 0.056124896 0.2951066 0.03388916
000110 26 98 52 3f 07 9c 97 3d 18 0e e0 3e c2 b4 04 3e
       0.8226341 0.07402807 0.43760753 0.12959579
000120 e2 69 0d 3f 9e 28 33 3e 25 62 55 3f f2 e3 33 be
       0.5523969 0.17495963 0.8335288 -0.17567423
000130 69 aa 9c 3d a9 c7 dc 3e 11 d4 65 be 58 b5 19 3d
       0.07649691 0.4312108 -0.22444178 0.03752646
000140 ef 2a a4 3e a1 9d c6 bd 42 52 e4 bd d5 e1 eb bd
       0.32064006 -0.09698034 -0.11148502 -0.115176834

output_layer.weight f4 [10, 84]
000000 72 c8 96 3d a3 87 fe 3d 30 ef 89 be 32 ce 84 3e
       0.07362451 0.124282144 -0.26940298 0.25938565
000010 0a c8 92 3e 80 bf 43 3e 6d ef ac bd f8 4a f9 bc
       0.28668243 0.1911602 -0.08444104 -0.030431256
000020 ae 3a f9 bd c5 0a 9d 3c fd b3 b8 bd 61 c5 1d 3e
       -0.121693954 0.019170174 -0.09018705 0.15407325
000030 e8 41 fe bd 1a 5c 03 3d 85 68 8b 3d b0 3b 9b bd
       -0.12414914 0.032070257 0.06807045 -0.07579744
000040 5a f5 39 3e 42 2c b0 3d a2 36 45 3d eb 39 18 3c
       0.1816 0.086021915 0.048147805 0.0092911525
000050 aa 80 83 be 42 d1 58 3c 09 2f c6 3d 5e 71 bf bc
       -0.256841 0.013233485 0.0967694 -0.023369487
000060 1a bd a7 3d a4 38 05 3e eb 9f 77 be 81 a5 df ba
       0.08190365 0.13009888 -0.24182098 -0.0017062874
000070 17 74 ea 3d b9 e4 15 3e 54 72 26 be f1 9d 89 3e
       0.11447924 0.14638032 -0.1625455 0.26878312
000080 87 2b 0b 3e e3 ef e8 3d 00 39 7d be 78 f8 65 3c
       0.13590823 0.1137388 -0.24728775 0.01403629
000090 66 6c 7c bd cb d8 0b 3e 7c a6 bf 3c ea f5 99 3c
       -0.061626814 0.13656919 0.023394816 0.018794019
0000a0 31 14 35 bc e0 66 1d bd 24 2c 28 3e 9c 4a 7e 3d
       -0.011052177 -0.038428187 0.16423088 0.06208287
0000b0 e4 66 c8 3d 69 89 24 3e b4 a2 bc bd dd b9 76 3d
       0.0978525 0.16068043 -0.09210721 0.060235847
0000c0 b9 1e 85 bd d0 a6 a6 bd 4a 4a 36 bd 8e 86 da 3d
       -0.065000005 -0.08137286 -0.04450444 0.106701955
0000d0 47 9b 6f 3e 2c 4b 1d be 4c bc 65 bd 15 dd dc bc
       0.23399077 -0.15360707 -0.056087777 -0.026960889
0000e0 45 d6 58 bc e5 57 10 3e 95 dd a7 3e 11 12 7f 3e
       -0.01323468 0.14096029 0.3278624 0.24909236
0000f0 df 83 44 3d 7a ba 31 3d d9 37 ef bd 06 76 0f 3e
       0.047977325 0.04339073 -0.11680574 0.14009866
000100 fc d0 12 3e 34 50 90 3c f4 4a ef 3c 0c ad 62 3e
       0.14337534 0.017616369 0.029210545 0.22136325
000110 84 bf 9b be f3 49 31 3e d7 2c 3b bd 7b 33 d6 bd
       -0.30419552 0.17313366 -0.04569706 -0.10459038
000120 0d 4b a9 be 69 67 c4 bd 7a 88 9d bd 8f dc 07 be
       -0.33065072 -0.095900364 -0.076920465 -0.1326773
000130 9a 0a 31 be be b7 2f be e2 f5 70 bc a9 4a 2a bd
       -0.172892 -0.17159936 -0.0147070605 -0.041575108
000140 0a 2b 31 3e 04 2c 59 3d d4 28 c8 3d 7e 0f f7 3d
       0.17301574 0.053020492 0.09773412 0.12063502
000150 f3 a6 62 3e 0c f8 9b 3d a7 c6 3e be 28 1b 6a 3e
       0.22133999 0.076156706 -0.18630467 0.22861922
000160 c2 3a cf 3d 51 2e 96 be ae f9 58 3d 5c 3c 14 be
       0.10118629 -0.29332212 0.052972488 -0.1447615
000170 c0 ad 8c bd 6c b8 89 bd 6f 51 2b bd f6 49 29 3d
       -0.06869078 -0.06724629 -0.041825708 0.0413303
000180 5a ed ab 3d 48 b9 9e bd 42 0a b8 be c5 e8 8a 3d
       0.083948806 -0.07750183 -0.35945326 0.067826785
000190 bc 6d eb bd 50 bc ae 3c 70 52 df 3c 6f 4a 2a bd
       -0.114955395 0.021330029 0.027260989 -0.04157489
0001a0 12 78 35 3e 4e 74 ac 3e 87 72 02 3d a7 72 08 bd
       0.17721584 0.33682483 0.031847503 -0.033312466
0001b0 99 8c 8a 3e b6 d0 f4 3c b6 e3 48 3d c7 e4 d1 bb
       0.27060392 0.029884677 0.049045287 -0.006405446
0001c0 a8 89 12 3e a0 1c 86 be b6 cb 9b be 29 27 19 3e
       0.14310324 -0.26193714 -0.30428857 0.14956345
0001d0 2b f4 8f bd d3 9b a1 3d 92 7b 55 3e 29 03 20 3e
       -0.07028993 0.07891049 0.2084792 0.15626206
0001e0 e1 07 59 be 62 3e 6e 3e d6 23 f9 3d e0 93 34 be
       -0.21194412 0.23265985 0.12165038 -0.17634535
0001f0 11 8d db bd 97 d2 df bd eb be 2b 3c 55 cf a3 be
       -0.10720266 -0.10928839 0.01048253 -0.3199412
000200 63 3f 54 bd 02 6f 85 bd 35 b4 65 bd 00 e5 d6 3d
       -0.051818263 -0.06515314 -0.056080062 0.10492897
000210 b4 ca f2 3b 6e 7a 63 3e 1a b2 6c be 66 fe 8d 3c
       0.007409418 0.22214672 -0.23114815 0.01733322
000220 35 40 29 bd bc 86 2e be 39 12 28 bd 5e ac 6b be
       -0.041321 -0.17043585 -0.041033003 -0.23014972
000230 5e 1a 91 3e 2e c9 dd bd 4a 80 57 3e e3 d8 40 3e
       0.2834043 -0.108293876 0.21045032 0.18832736
000240 7d 3c c2 3d 15 54 62 3e b7 6e 5e bd 58 01 79 3e
       0.094841935 0.22102387 -0.054304805 0.24316919
000250 13 68 8b be 79 51 cb 3c bd a2 2e 3e 84 f3 ad bd
       -0.2722784 0.024819123 0.17054267 -0.084937125
000260 37 1b c3 bd fb 96 6a 3e c4 cd 8a be 9c 65 ef 3d
       -0.09526675 0.22909157 -0.27110112 0.11689302
000270 30 24 dc bc 07 df f1 bd bd 27 4d bd 1e 3d 8c 3e
       -0.026872724 -0.11810117 -0.050086726 0.2739038
000280 72 eb 2a 3e f8 f3 01 3e 4d 2b 8b 3e 27 5f d3 bd
       0.16691378 0.12690723 0.27181473 -0.10320883
000290 e1 cb 95 be ed f1 71 bd 6b b6 81 be 94 96 b6 3d
       -0.2925711 -0.05906861 -0.25334486 0.08915439
0002a0 a8 73 25 be e0 46 9a bd c7 ba 5a 3c c6 28 b4 bd
       -0.161574 -0.075330496 0.013350195 -0.087968394
0002b0 77 3d 87 bd d5 54 3b bd a0 fa ad 3d 47 14 5e bd
       -0.0660352 -0.0457352 0.084950686 -0.054218557
0002c0 08 c0 7e bd 8b 4f 64 3d 88 22 a3 3d 8b 01 70 3e
       -0.062194854 0.05573992 0.07965571 0.23438089
0002d0 29 3a 89 3d 3b a1 44 3e 2c 23 98 3e 0e 59 b9 3d
       0.06700546 0.1920213 0.29714334 0.09050189
0002e0 52 6c 82 3e 15 4c 72 3e e3 a5 6f 3e 3c d5 92 3e
       0.25473267 0.23661835 0.23403125 0.2867831
0002f0 2d af 86 bd 3a ec 85 be e7 22 37 3e a1 6e 31 3e
       -0.06576381 -0.2615679 0.17884408 0.17327358
000300 c1 f6 4f bd 9e bf 9d bd df 11 25 3e 5e 9e 31 3e
       -0.050772432 -0.07702564 0.16120099 0.17345569
000310 ef 82 2c be a4 9d 98 bc 28 fc 74 3e ed 54 22 3e
       -0.16846822 -0.018629856 0.23924315 0.15852709
000320 75 79 95 bd 0e 8e b5 bc cf 7a d5 3d 95 b6 1e be
       -0.07298557 -0.022162464 0.104238145 -0.15499337
000330 be e0 95 3e 97 2c 96 3d 89 14 df bd c2 9d 0c 3e
       0.29273027 0.073327236 -0.10892589 0.13732055
000340 ec 5c a3 bc 3b 8a 4e be 64 f1 2a 3e 20 ef ca 3d
       -0.01994177 -0.20169918 0.16693646 0.09908891
000350 f7 d5 88 bd 61 83 e1 3d 4e 14 f6 bd 1b 32 8a bd
       -0.066814356 0.11011387 -0.120155916 -0.06747838
000360 80 02 66 3d 2c 90 41 bc 90 f8 2b be 4c 6a 9e bd
       0.056154728 -0.011814158 -0.16794038 -0.07735118
000370 e4 c6 60 3d d5 10 72 3d fa ea 4a bd a2 0f 52 3e
       0.054877177 0.059098084 -0.049540497 0.20513776
000380 13 0b 22 bd 66 4d ad 3d 1a 09 c4 bd 39 50 d5 3d
       -0.039561342 0.08462028 -0.095720485 0.10415692
000390 0d 24 c8 3d c1 38 4a 3d 60 1a 8c 3c 05 f9 ec 3c
       0.09772501 0.04937053 0.01710242 0.028927336
0003a0 70 89 18 bc fd 23 a9 3d 0f 35 99 bd 23 d7 84 3e
       -0.009310111 0.08258817 -0.07480823 0.25945386
0003b0 27 4c 2f 3e 8d 66 b7 bd 5d d5 ec 3c 5d 71 64 3c
       0.17118894 -0.08955107 0.028910333 0.013943044
0003c0 dd 05 0a 3e 72 a7 86 3e eb ff f1 3d 75 65 e9 bc
       0.13478799 0.26299626 0.118163906 -0.028490761
0003d0 3e dc ee 3d 1a 46 04 3e 2c 18 6e 3e f3 a2 a8 bd
       0.116631016 0.12917367 0.23251408 -0.08234205
0003e0 16 55 03 3e 5c 70 41 3e ef 58 0e 3e 14 d9 cc 3d
       0.12825426 0.18890518 0.13901113 0.10002342
0003f0 eb da e5 3d 67 2a 52 be 9f 72 72 3e af 48 14 be
       0.11223396 -0.20523988 0.23676537 -0.14480852

output_layer.bias f4 [10]
000000 52 59 be be 76 b7 7c bf 00 1d ce be 9b c3 2f 3f
       -0.3717752 -0.9871744 -0.402565 0.68657845
000010 d7 ac 33 3f 6b 39 b2 3c 51 c5 48 3e b8 9a a5 be
       0.7018561 0.021755895 0.1960652 -0.32344604
000020 08 f0 98 3e 65 db ec bd
       0.2987063 -0.11565284
