Lab1/model/model_CIFAR10_10iters/conv_params_c3_24.pth (torch, 352772 bytes, 10 tensors)

conv_layers.0.weight f4 [6, 3, 5, 5]
0	0xbe55a903	-0.20865254
1	0xbed86d85	-0.42271057
2	0xbec3ccbc	-0.38242137
3	0x3dfa57ce	0.12223779
4	0xbe14e3cd	-0.14540024
5	0x3daa2c3b	0.083092175
6	0x3ec1e452	0.37869507
7	0x3f110a2d	0.5665615
8	0x3f015f98	0.5053649
9	0xbf082f97	-0.53197616
10	0xbec086d1	-0.37602857
11	0xbf974aa6	-1.1819656
12	0xbf5c6c19	-0.86102444
13	0xbf0778a7	-0.52918476
14	0xbef2c397	-0.47414848
15	0xbdab56cc	-0.083661646
16	0xbecfa696	-0.40556782
17	0xbf32c576	-0.6983255
18	0xbef09b45	-0.4699346
19	0x3f0ba76c	0.5455234
20	0x3e9cf058	0.30652118
21	0x3f9073ed	1.1285378
22	0x3f714d65	0.9425872
23	0x3f179274	0.59207845
24	0x3de1816c	0.110110134
25	0xbd4edfba	-0.05050633
26	0x3dee0d96	0.11623685
27	0x3dbfb5dd	0.093608595
28	0x3ed06084	0.40698636
29	0x3da5e612	0.08100523
30	0x3f0d89fc	0.5528867
31	0x3f56a9e1	0.83852965
32	0x3f941fa3	1.1572155
33	0x3f7ef038	0.99585295
34	0xbe7b7df6	-0.24559769
35	0x3e2d314d	0.16913338
36	0xbf4579d9	-0.7713905
37	0xbeca3921	-0.3949671
38	0xbe0b0710	-0.13576913
39	0xbe92829c	-0.28615272
40	0xbdaabca5	-0.08336762
41	0xbed84500	-0.42240143
42	0xbf399fff	-0.7250976
43	0xbeddc9c2	-0.43317991
44	0x3e8abbd8	0.27096438
45	0xbc1d2791	-0.009591953
46	0x3f4ef408	0.8084111
47	0x3eed9a8d	0.46406975
48	0xbd34a0bd	-0.044098604
49	0xbec426c6	-0.38310832
50	0xbe56990b	-0.20956819
51	0xbe7f17ae	-0.24911377
52	0xbecc5fa9	-0.39916733
53	0xbe38e58d	-0.18056317
54	0x3d123c46	0.035702012
55	0x3f01ea1d	0.50747854
56	0x3f58bca1	0.84662825
57	0x3f2efef3	0.6835777
58	0x3f2824f5	0.6568139
59	0xbe9bdc33	-0.30441436
60	0x3dafd283	0.08585074
61	0xbf21dc42	-0.6322671
62	0xbeccdeb7	-0.40013668
63	0xbe179654	-0.1480344
64	0xbd57b064	-0.052658454
65	0xbdaec7df	-0.08534216
66	0xbecaafb6	-0.39587182
67	0xbf182d83	-0.59444445
68	0xbeee0314	-0.46486723
69	0x3ecd2194	0.4006468
70	0xbe2804ff	-0.16408156
71	0x3f1dfa8a	0.6171042
72	0x3e5d70ff	0.21625136
73	0xbdf6767b	-0.12034317
74	0xbed787e8	-0.42095876
75	0x3ee65c2c	0.44992197
76	0x3e4f0016	0.20214877
77	0xbe42108d	-0.18951626
78	0xbf10bec3	-0.5654108
79	0xbc8c7a5e	-0.017148193
80	0xbe00acd9	-0.12565936
81	0xbeedd6da	-0.4645298
82	0xbf201cfa	-0.62544215
83	0xbea274fe	-0.31729883
84	0x3e820124	0.25391495
85	0xbe8994ef	-0.2687144
86	0xbf0cc789	-0.54991966
87	0xbe22ed67	-0.15910874
88	0x3e1d561f	0.15364884
89	0x3e0b8403	0.13624577
90	0xbd856d7a	-0.065150216
91	0xbd40511f	-0.046952363
92	0x3e8e225c	0.2776059
93	0x3e83eb0c	0.25765264
94	0xbcaa7f72	-0.020812724
95	0x3eb52f75	0.3538777
96	0x3e96b484	0.29434597
97	0x3f00a3fc	0.5025022
98	0x3dba35cd	0.09092293
99	0x3e7604f6	0.2402533
100	0x3e2835e1	0.16426803
101	0x3e37100a	0.17877212
102	0xbef3bacd	-0.47603455
103	0xbf071f51	-0.5278216
104	0x3d7b8c79	0.061413262
105	0xbe30393b	-0.17209332
106	0xbf0f00d5	-0.55860645
107	0xbf3711dd	-0.7151163
108	0xbe9a228a	-0.30104476
109	0x3e03b7a0	0.12863016
110	0xbe8d40cd	-0.27588502
111	0xbf02b844	-0.5106242
112	0xbdca1358	-0.09866971
113	0x3eb6879b	0.35650334
114	0x3e683a55	0.22678502
115	0xbe20bac8	-0.15696251
116	0x3dbef0c7	0.093232684
117	0x3ed7135f	0.42006966
118	0x3e3d893b	0.1850938
119	0xbd877c5e	-0.06615518
120	0x3cbdcf14	0.023170032
121	0x3d7fc116	0.06244
122	0x3e240722	0.16018346
123	0xbd3acb02	-0.04560376
124	0xbe7e005e	-0.24804828
125	0x3daca42b	0.0842975
126	0x3e337a62	0.17527154
127	0xbe9a89df	-0.30183312
128	0xbef17e30	-0.47166586
129	0x3e0789ad	0.13236113
130	0xbe033d5a	-0.12816373
131	0xbeb9ba97	-0.3627517
132	0xbefd0c1b	-0.49423298
133	0xbd26a040	-0.04068017
134	0x3e4e38f5	0.20138915
135	0xbd2fba74	-0.042902425
136	0x3ccc50c3	0.024940854
137	0x3e7f94c2	0.2495909
138	0x3ef847de	0.4849233
139	0x3e3e5e0d	0.18590565
140	0x3e4968b2	0.19668844
141	0x3e8dc87f	0.2769203
142	0x3f013e64	0.50485826
143	0x3e94f75e	0.29094976
144	0x3d2fe4cf	0.04294282
145	0x3e547470	0.20747542
146	0x3df981bc	0.12182948
147	0x3e03d4c7	0.12874137
148	0xbcebe557	-0.028795881
149	0xbdc799e3	-0.097461484
150	0x3d9a3e83	0.075314544
151	0x3d78e389	0.06076387
152	0xbeed4de2	-0.46348482
153	0xbf1cc617	-0.6123976
154	0xbeb7749b	-0.3583115
155	0x3dc06599	0.09394378
156	0x3e0f437e	0.1399059
157	0x3e66a2b2	0.22523001
158	0x3d5b4b59	0.053538654
159	0xbd7fcd77	-0.062451806
160	0xbd2e649e	-0.042576425
161	0xbdb26be7	-0.08711987
162	0x3e97c4d7	0.29642364
163	0x3ea65601	0.3248749
164	0x3e436947	0.19083129
165	0x3e112130	0.14172816
166	0xbda0632c	-0.078314155
167	0x3cccad6b	0.024985036
168	0x3d8a0f6e	0.06741224
169	0x3e29c108	0.16577542
170	0x3e4e35a2	0.20137647
171	0x3e68cd5c	0.22734588
172	0x3ea8c88f	0.32965514
173	0x3e571c8d	0.21006985
174	0x3e4d3431	0.2003944
175	0x3bf58a6e	0.0074933087
176	0x3df5aaf3	0.119954966
177	0xbdcd7600	-0.10032272
178	0xbe590095	-0.21191628
179	0xbd276416	-0.040866934
180	0xbe5d9bdf	-0.21641491
181	0x3e5ab992	0.21359852
182	0x3e9aca7f	0.30232617
183	0x3e4c5a6b	0.19956367
184	0x3ae42f21	0.0017409065
185	0xbe5b2d7b	-0.21404068
186	0xbb5417fb	-0.0032362926
187	0x3d86ac53	0.06575837
188	0x3e8b8952	0.27253205
189	0x3e16b289	0.14716543
190	0xbe4eb26e	-0.20185253
191	0xbe27b036	-0.16375813
192	0x3e15ce24	0.14629418
193	0x3e423d1d	0.18968625
194	0x3da576a4	0.080792695
195	0xbe82681c	-0.25470054
196	0xbdf4e1fd	-0.11957166
197	0xbdbf8552	-0.09351601
198	0xbdf84eea	-0.12124427
199	0xbdeb0b24	-0.11476734
200	0x3e8b1082	0.27161032
201	0x3eddc466	0.43313903
202	0x3e0c6932	0.13712004
203	0xbe76b17a	-0.2409114
204	0xbdd18d68	-0.10232049
205	0xbd03b180	-0.0321517
206	0x3ed71950	0.420115
207	0x3eed8d6e	0.46396965
208	0x3e11a2df	0.14222287
209	0xbe2e1e4c	-0.17003745
210	0xbe42ced5	-0.19024213
211	0x3dc13695	0.09434239
212	0x3e8c66bf	0.2742214
213	0x3ea9fbfd	0.33200064
214	0xbd9080ec	-0.0705584
215	0xbcddd0dd	-0.027077133
216	0xbd8c70fb	-0.06857487
217	0x3e58c502	0.21168903
218	0x3e334cb8	0.17509735
219	0x3bd9a3e8	0.0066418536
220	0xbe080869	-0.13284458
221	0xbdde96fb	-0.10868641
222	0xbdca5b0b	-0.09880646
223	0xbdbf8585	-0.09351639
224	0xbe789b0c	-0.24277896
225	0x3ec7adc0	0.38999748
226	0x3ed105cf	0.40824744
227	0x3d9b2263	0.07574918
228	0x3d65e5a7	0.056127217
229	0x3e190b03	0.14945607
230	0x3efa41d3	0.48878345
231	0x3f817338	1.0113287
232	0x3f98e9d0	1.1946354
233	0x3f776c78	0.96649885
234	0x3f246228	0.64212275
235	0xbe00ab3b	-0.12565319
236	0x3cc0dc0f	0.023542432
237	0x3f115b41	0.5677987
238	0x3f405b47	0.7513928
239	0x3ef2e5bc	0.47440898
240	0xbede1dc3	-0.4338208
241	0xbf044937	-0.51674217
242	0xbf09ed77	-0.5387797
243	0xbeb3fa2c	-0.35151803
244	0x3bfdd75a	0.007746619
245	0xbf275c20	-0.65374947
246	0xbf129513	-0.5725872
247	0xbf35ad26	-0.7096733
248	0xbf40068f	-0.7501001
249	0xbf0d1f6c	-0.5512607
250	0xbdb6aa1a	-0.08919163
251	0xbe602dfc	-0.21892542
252	0xbeab82c6	-0.3349821
253	0xbf25a4cd	-0.6470459
254	0xbea3a37e	-0.31960672
255	0xbe137484	-0.14399916

conv_layers.0.bias f4 [6]
0	0xbeb026a7	-0.3440449
1	0xbecf5579	-0.40494898
2	0x3e733bc0	0.23753262
3	0xbf49522e	-0.7864102
4	0xbefd997c	-0.49531162
5	0x3f15a60c	0.5845649

conv_layers.1.weight f4 [24, 6, 5, 5]
0	0xbe03b005	-0.12860115
1	0xbd8ec7fc	-0.06971738
2	0xbdc94258	-0.09827107
3	0x3d315593	0.0432945
4	0x3e2afd1d	0.16698118
5	0x3e8612bc	0.26186168
6	0x3d0b26dd	0.03397261
7	0x3ca55312	0.020181213
8	0xbd9aebd0	-0.07564509
9	0xbd2af528	-0.041737705
10	0x3c8a4f66	0.016883563
11	0x3e7cdf08	0.24694455
12	0x3e89cc3f	0.2691364
13	0x3e8ae9ad	0.27131405
14	0x3ea93bca	0.33053428
15	0x3e97511e	0.29554075
16	0x3e7e0c15	0.24809296
17	0xbcfff072	-0.031242583
18	0x3deeb531	0.11655653
19	0xbdbc1489	-0.09183604
20	0x3e3ab5da	0.18233433
21	0x3d880c96	0.066430256
22	0xbd05101d	-0.03248607
23	0xbe635c18	-0.222031
24	0xbecfdf0d	-0.40599862
25	0x3d87484a	0.06605585
26	0x3ce4eb9e	0.027944382
27	0x3ddfdb1c	0.10930464
28	0x3e0f5d9a	0.1400055
29	0xbd96d088	-0.07363993
30	0x3cb77b6e	0.022397723
31	0x3e1d39ed	0.15354128
32	0xbaec0c48	-0.0018009031
33	0xbb4b1c53	-0.0030992224
34	0x3c45c3c4	0.0120706
35	0x3e2e156e	0.17000362
36	0x3d908cc7	0.07058101
37	0xbd52e061	-0.051483516
38	0xbdbe0e71	-0.09280098
39	0x3ceb7e09	0.028746622
40	0xbdf7aeac	-0.12093863
41	0x3d91bb88	0.07115847
42	0xbd91a59d	-0.07111666
43	0xbd0507c8	-0.032478124
44	0x3e601611	0.21883418
45	0xbeab73ac	-0.33486688
46	0xbe31b059	-0.17352428
47	0x3d881796	0.06645124
48	0xbd40f4bb	-0.047108393
49	0x3e6941c6	0.22778997
50	0x3e23df1b	0.16003077
51	0x3daf23d6	0.08551757
52	0x3dea0a38	0.1142773
53	0x3e163f12	0.14672497
54	0x3d8cfce8	0.068841755
55	0x3e51c635	0.20485766
56	0x3e3429e9	0.17594112
57	0x3df52265	0.11969451
58	0x3e21b28f	0.15790771
59	0x3bb27bca	0.0054468857
60	0x3c4fc730	0.012681767
61	0x3e2e4080	0.17016792
62	0x3dd0578a	0.10172947
63	0x3c8bd5ca	0.017069716
64	0xbea22ec3	-0.316763
65	0x3e705192	0.23468617
66	0xbae60df6	-0.0017551768
67	0xbcdaf62b	-0.02672871
68	0xbd0e61b8	-0.03476116
69	0xbe891856	-0.2677638
70	0xbcd25d4c	-0.025679253
71	0xbd986599	-0.07441253
72	0xbca8e0fe	-0.020615097
73	0x3cf8a1db	0.030350616
74	0xbe3821e8	-0.17981684
75	0xbdc8789f	-0.09788632
76	0xbd96930a	-0.07352264
77	0x3dde21a1	0.10846258
78	0xbe14bad1	-0.1452439
79	0x3c7cced8	0.015430175
80	0x3d05963b	0.032613974
81	0xbdc79af9	-0.097463556
82	0xbdba6ea3	-0.091031335
83	0xbcdb32ef	-0.026757685
84	0x3eb85804	0.3600465
85	0xbe2700a5	-0.1630884
86	0x3dd55b96	0.10417859
87	0x3e9b81ce	0.3037247
88	0x3e4d66e0	0.20058775
89	0x3e56b77a	0.20968428
90	0x3e833a51	0.2563043
91	0x3de65c71	0.112481005
92	0xbc14315d	-0.009044972
93	0xbcbb5e2e	-0.022872057
94	0xbb043d31	-0.0020178074
95	0x3eb0d11c	0.34534538
96	0x3d80817f	0.062746994
97	0x387566db	5.8508343e-05
98	0x3dc033d9	0.09384889
99	0xbc962e01	-0.018332483
100	0x3d31ecf4	0.043438867
101	0x3e0011c0	0.12506771
102	0x3dba7f51	0.09106315
103	0x3dbaecc3	0.0912719
104	0xbe0de535	-0.13856967
105	0xbec94178	-0.3930776
106	0xbc5cb43b	-0.013470705
107	0xbed057da	-0.40692025
108	0x3d0d46e2	0.034491427
109	0xbe31af86	-0.17352113
110	0xbea368c1	-0.31915858
111	0xbf0490e7	-0.51783603
112	0xbf0b2c1e	-0.5436419
113	0xbec25696	-0.37956685
114	0xbeed914f	-0.46399924
115	0xbe87245f	-0.26394936
116	0xbf038ae7	-0.51383823
117	0xbf0ca7ea	-0.54943717
118	0xbf086dfb	-0.53292817
119	0xbf054dcc	-0.52071834
120	0xbe79dfe0	-0.24401808
121	0xbea91957	-0.33027145
122	0xbf0355b6	-0.5130266
123	0xbee96900	-0.4558792
124	0xbef82447	-0.48465177
125	0x3d46479a	0.04840813
126	0xbd1ae4ad	-0.03781574
127	0xbd46009d	-0.04834043
128	0xbd0b2730	-0.03397292
129	0x3cb31615	0.021861115
130	0x3d818f3a	0.063261464
131	0xbdd1e7bc	-0.10249278
132	0xbe14fa43	-0.14548592
133	0xbdaaec75	-0.08345882
134	0xbb64c5db	-0.003490797
135	0xbc68b71d	-0.014203814
136	0xbdce4935	-0.10072557
137	0xbda1a479	-0.07892699
138	0x3cd01442	0.025400285
139	0x3cb5254f	0.022112517
140	0x3c458a78	0.012056939
141	0xbc81516b	-0.015785893
142	0xbd187896	-0.037224375
143	0xbdbdcffb	-0.09268185
144	0xbe3b3dd0	-0.18285298
145	0x3e31c3e3	0.17359881
146	0x3d310044	0.043213144
147	0x3d8185ad	0.06324325
148	0x3baef55d	0.005339308
149	0x3e2114da	0.1573061
150	0xbe242bfd	-0.16032405
151	0xbe57fd94	-0.21092826
152	0xbe32b03a	-0.17450038
153	0x3da6ce9b	0.081448756
154	0x3f0d6d90	0.55245304
155	0xbe9d4456	-0.307162
156	0xbee33de6	-0.44383162
157	0xbeb0c213	-0.34523067
158	0xbd2de049	-0.042450223
159	0x3e2043cd	0.15650864
160	0xbe2f952b	-0.17146747
161	0xbe984e2a	-0.29747134
162	0xbd0e2a39	-0.034708235
163	0xbde2c225	-0.110721864
164	0xbdfa559e	-0.122233614
165	0x3e1c6376	0.15272316
166	0xbe0af509	-0.13570036
167	0x3dc3484e	0.095352754
168	0x3defa966	0.11702232
169	0xbdb16db8	-0.08663505
170	0x3e6b3800	0.22970581
171	0x3df8e5ba	0.12153192
172	0x3e76622f	0.24060892
173	0x3de61665	0.1123474
174	0x3e577b94	0.21043235
175	0xbc8a3ba0	-0.016874135
176	0xbe2fcd9e	-0.1716828
177	0xbe5f7503	-0.2182198
178	0x3bb56ba4	0.0055365134
179	0xbdfbc819	-0.12294025
180	0xbe7914ad	-0.24324293
181	0xbe76d04f	-0.24102901
182	0xbe0b95fc	-0.13631433
183	0x3e2c1d6f	0.16808103
184	0x3e65372a	0.22384325
185	0xbe710283	-0.23536114
186	0xbe735f0f	-0.2376673
187	0x3c6e1ff8	0.014533989
188	0x3d79b34a	0.060962
189	0x3e1778dd	0.147922
190	0xbca5555e	-0.020182308
191	0xbe7178e8	-0.23581278
192	0xbd1428c0	-0.036171675
193	0x3d93ec2c	0.072227806
194	0x3e2c6060	0.16833639
195	0xbe6340d7	-0.22192703
196	0xbe93f4cb	-0.288977
197	0xbdffb56e	-0.12485777
198	0xbce99a48	-0.02851595
199	0x3cad1d43	0.021132117
200	0xbd55826f	-0.052126344
201	0xbccb4d1b	-0.02481704
202	0xbd393bf4	-0.04522319
203	0xbe3141b6	-0.17310223
204	0xbeaeece5	-0.3416511
205	0xbc378e4d	-0.011203361
206	0xbdbe82a2	-0.0930226
207	0xbe17c207	-0.1482011
208	0xbd0d1c1f	-0.034450646
209	0xbe0fed2c	-0.14055318
210	0xb9b5da74	-0.0003468577
211	0xbe6f3b13	-0.23362379
212	0xbe4ac195	-0.19800408
213	0xbdafcc55	-0.08583895
214	0x3df47a60	0.11937404
215	0xbcba029d	-0.022706324
216	0xbdef99ab	-0.11699232
217	0x3d25c169	0.040467653
218	0xbdba4e7a	-0.090969995
219	0x3dcd1616	0.10013978
220	0x3cbfcf62	0.023414318
221	0xbd8aee0d	-0.06783686
222	0xbbb1fbf2	-0.0054316455
223	0x3daa0218	0.083011806
224	0x3d842e23	0.064541124
225	0xbf02073b	-0.5079228
226	0xbe433aa5	-0.1906534
227	0x3d4a74fd	0.049427975
228	0x3dfadf2b	0.12249597
229	0x3ed39dc5	0.41331306
230	0xbef0cc35	-0.47030798
231	0xbeb56b20	-0.35433292
232	0xbe19659d	-0.14980169
233	0x3e5d3ccc	0.21605223
234	0x3e8b2d68	0.2718308
235	0xbefc80a2	-0.4931689
236	0xbe3b91df	-0.18317364
237	0xbe38af94	-0.18035728
238	0xbd10abf6	-0.035320245
239	0xbe29cf32	-0.16582945
240	0xbdc1b023	-0.094574235
241	0xbcf6bd7a	-0.030119646
242	0x3b015801	0.0019736292
243	0xbdbaa0d8	-0.0911271
244	0xbd74d064	-0.05976905
245	0x3cee40b7	0.029083593
246	0xbcdaea37	-0.02672301
247	0x3d7650a5	0.060135502
248	0x3d138049	0.036011014
249	0x3cb8b680	0.02254796
250	0x3e9fbc60	0.31198406
251	0x3ee7a475	0.45242658
252	0xbd0fa68f	-0.035070952
253	0xbe95683f	-0.29181096
254	0xbdac243c	-0.08405349
255	0x3d87219f	0.065982096

conv_layers.1.bias f4 [24]
0	0x3ecfec92	0.40610176
1	0x3e7b6887	0.24551593
2	0x3f061a2c	0.52383685
3	0xbec6ab65	-0.3880264
4	0x3ffe21a7	1.985402
5	0xbf875e40	-1.0575638
6	0x3ee0250f	0.43778273
7	0x3eb3f10d	0.35144845
8	0x3e15cd79	0.14629163
9	0xbf264992	-0.6495601
10	0x3cdae487	0.026720298
11	0xbd3e35ae	-0.04643791
12	0xbf8b72c9	-1.0894405
13	0xbf1e7330	-0.6189451
14	0x40028260	2.0392075
15	0xbd6454e6	-0.055745028
16	0x3f6aba42	0.91690457
17	0xbe568ca0	-0.20952082
18	0xbe4d649d	-0.20057912
19	0xbf9bc5f5	-1.2169787
20	0x3e262ec0	0.16228771
21	0xbeff9a70	-0.49922514
22	0x3fa2a890	1.2707691
23	0x3f4ebe8b	0.80759495

fc_layers.0.weight f4 [120, 600]
0	0xbd72ea68	-0.05930558
1	0xbd1c21ca	-0.03811816
2	0xbe3d4067	-0.18481599
3	0xbd889b02	-0.066701904
4	0xbe0ec314	-0.13941604
5	0xbe0dde68	-0.13854373
6	0xbd56bdae	-0.052426986
7	0xbd3c43b9	-0.045963023
8	0xbd9fdc92	-0.07805742
9	0xbd14222a	-0.036165394
10	0xbe3b79ef	-0.18308233
11	0xbdca3915	-0.09874169
12	0xbc6d6959	-0.014490449
13	0xbca7346c	-0.020410739
14	0xbda9cd5d	-0.08291123
15	0xbd06f795	-0.032950956
16	0x3e0d88a0	0.1382165
17	0x3d4a29ec	0.049356386
18	0x3e07454a	0.13210025
19	0x3d00981e	0.03139507
20	0xbdc34e02	-0.09536363
21	0xbd382ce3	-0.044964682
22	0x3bafd6ad	0.0053661675
23	0xbcce7156	-0.025200527
24	0xbe38cf2d	-0.18047781
25	0xbd3dbe44	-0.04632403
26	0xbd18fc4d	-0.037349988
27	0xbdfa51d3	-0.12222638
28	0xbd9dfafd	-0.07713888
29	0xbdec8181	-0.115481384
30	0x3d8329f5	0.06404487
31	0xbd54b24f	-0.05192786
32	0x3d3c2602	0.045934685
33	0xbd11ceff	-0.035597797
34	0x3c8d34d5	0.017237106
35	0xbcf65636	-0.030070405
36	0xbdb6eef2	-0.08932294
37	0x3d3673d4	0.044544056
38	0x3d22995c	0.039697036
39	0x3e399de3	0.18126635
40	0xbdf137ef	-0.117782466
41	0xbbeb3907	-0.007178429
42	0xbd59d478	-0.05318114
43	0xbd4ef8c8	-0.050530225
44	0xbd121ed2	-0.035673924
45	0xbd52e8a1	-0.051491383
46	0xbdf6d722	-0.12052752
47	0xbd5b4c89	-0.053539786
48	0x3c9cdd5e	0.019148525
49	0xbdeba4fa	-0.11506076
50	0x3db2d9e1	0.08732963
51	0x3e3b7607	0.18306743
52	0x3db1a346	0.0867372
53	0xbc51af06	-0.0127980765
54	0x3c84423f	0.01614487
55	0x3db12c9b	0.08651086
56	0x3e1cd6a4	0.15316254
57	0x3cb41e03	0.021986967
58	0x3d4fa135	0.05069085
59	0x3e671f7b	0.22570603
60	0x3bd46e95	0.006482909
61	0x3d29d40a	0.04146198
62	0x3c9ff51d	0.019526059
63	0x3da96f7b	0.08273216
64	0x3df7f5a1	0.12107397
65	0xbc8df80c	-0.017330192
66	0xbb8ec983	-0.004357518
67	0xbd884d0a	-0.06655319
68	0x3d6b4be8	0.057445437
69	0xbd36c8bc	-0.04462503
70	0x3d056867	0.03257027
71	0x3cbefbb9	0.02331339
72	0x3e0f84cf	0.14015506
73	0xbdf15ca8	-0.11785251
74	0xbdb7e481	-0.089791305
75	0xbc81a5a0	-0.015826046
76	0xbd1cff01	-0.03832913
77	0x3d4c465b	0.049871784
78	0x3db67850	0.089096665
79	0xbe34d1eb	-0.17658202
80	0x3cda1f96	0.02662639
81	0x3c8b05f3	0.01697061
82	0xbcc23f8b	-0.02371194
83	0xbceac931	-0.028660389
84	0xbe29df67	-0.16589127
85	0xbccfbc79	-0.025358425
86	0xbcb605c3	-0.022219544
87	0x3c3d948e	0.011571063
88	0xbe014332	-0.12623289
89	0xbdb860fd	-0.09002874
90	0xbe33294d	-0.17496224
91	0xbd3ebb62	-0.04656542
92	0xbcc85235	-0.024453262
93	0xbd24b108	-0.040207893
94	0x3e036b4a	0.12833896
95	0xbe68e3be	-0.22743127
96	0xbe452694	-0.19252998
97	0xbca49d27	-0.020094467
98	0xbda0efb4	-0.0785822
99	0xbd6cf30a	-0.057848968
100	0x3e38b249	0.1803676
101	0xbae2d7de	-0.0017306765
102	0x3e3fe9af	0.18741487
103	0x3cfe336e	0.031030383
104	0x3cf6630e	0.03007653
105	0xbda43c62	-0.080193296
106	0xbcae3ad1	-0.02126828
107	0xbd97e6ca	-0.074170664
108	0xbd23b463	-0.039966952
109	0x3d252129	0.040314827
110	0x3cef4cd0	0.029211432
111	0xbcfbc226	-0.030732226
112	0x3c7d8522	0.015473636
113	0x3c8abd3f	0.016935943
114	0x3da9f534	0.08298722
115	0x3e3f05a6	0.18654498
116	0x3e08298f	0.13297103
117	0x3e4a8658	0.1977781
118	0x3da77148	0.081759036
119	0x3c8096c8	0.015696898
120	0x3d32e8b6	0.04367896
121	0x3d4ba5c1	0.049718622
122	0x3d8f092e	0.06984173
123	0x3c82a95b	0.015949896
124	0x3deb8a10	0.11500943
125	0xbdf78c58	-0.12087315
126	0xbda2b92a	-0.079454735
127	0xbdda1a6d	-0.106495716
128	0xbc2b6499	-0.010460996
129	0xbd9fd3de	-0.07804082
130	0xbe1da159	-0.1539358
131	0xbe0d6fc5	-0.13812168
132	0xbc59f5cc	-0.013303231
133	0x3daf3953	0.085558556
134	0x3d21b1f5	0.039476354
135	0x3d063900	0.032769203
136	0xbd8fb126	-0.0701621
137	0xbe1a18ce	-0.15048525
138	0x3ddc33e4	0.10752085
139	0x3db1f917	0.08690088
140	0x3dd2db61	0.102957495
141	0x3cd1ef79	0.025626885
142	0x3cdd7c40	0.027036786
143	0x3e016b25	0.12638529
144	0x3d0c2a87	0.034220245
145	0xbcf1aa55	-0.029500166
146	0x3c92358d	0.0178478
147	0x3e201c39	0.15635766
148	0x3da71e38	0.08160061
149	0xbcce2dfe	-0.025168415
150	0x3c1193b0	0.008885309
151	0xbd3f3294	-0.046679094
152	0x3cd9bab7	0.02657829
153	0x3d9c4505	0.07630352
154	0x3bed7b98	0.0072473995
155	0xbda7ade6	-0.08187465
156	0xbd2ff374	-0.042956784
157	0xbc5b33b4	-0.013379026
158	0x3d722b7e	0.05912351
159	0x3cad10fb	0.021126261
160	0x3ca9ed0c	0.020742916
161	0xbd9ecb87	-0.077536635
162	0xbd218440	-0.039432764
163	0x3d0c2f35	0.034224708
164	0xbe084e71	-0.13311173
165	0xbd044603	-0.03229333
166	0xbdf03c7b	-0.11730286
167	0x3e0afe3e	0.13573548
168	0xb7eb887f	-2.8077744e-05
169	0xbe3ed389	-0.18635382
170	0xbd8809ec	-0.066425174
171	0xbcc06829	-0.023487167
172	0xbd9938d0	-0.07481539
173	0x3c437d25	0.011931692
174	0xbe0409d5	-0.12894376
175	0x3d2be589	0.04196695
176	0xbdb0eca2	-0.08638884
177	0x3d486189	0.04892114
178	0x3da2f6b1	0.07957209
179	0xbda81946	-0.082079455
180	0x3cc71fa8	0.024307087
181	0xbe0b7b6c	-0.136213
182	0xbe080958	-0.13284814
183	0xbca653fc	-0.020303719
184	0x3dea6cef	0.11446559
185	0x3c8c8590	0.017153531
186	0xbd0dccf2	-0.03461928
187	0xbd8d45f6	-0.068981096
188	0x3d9f5171	0.077792056
189	0x3dd3bf89	0.10339267
190	0x3c3b055e	0.011414854
191	0xbaf79a30	-0.0018890556
192	0xbd639aae	-0.055567436
193	0x3b999798	0.004687261
194	0x3dae46b6	0.08509581
195	0x3dac9c6e	0.08428274
196	0xbce63155	-0.028099695
197	0x3d172888	0.036903888
198	0x3d1b9706	0.037985824
199	0xbd402604	-0.046911255
200	0xbd3fab03	-0.04679395
201	0xbdc025c6	-0.09382205
202	0xbe4e1754	-0.20126086
203	0xbd6aa4a5	-0.057285924
204	0xbdb834bf	-0.089944355
205	0x3e322475	0.1739672
206	0x3de49348	0.11160904
207	0xbd81173c	-0.0630326
208	0xbdfd83ec	-0.12378678
209	0x3db11170	0.08645904
210	0x3dddc50b	0.108285986
211	0x3d683206	0.05668833
212	0xbc954d80	-0.018225431
213	0xbd36710a	-0.044541396
214	0xbd13cb0c	-0.036082312
215	0x3db2bbaf	0.08727204
216	0x3db9c5e3	0.09070947
217	0xbe221608	-0.15828717
218	0x3ddbe910	0.107378125
219	0x3dbde8da	0.092729285
220	0xbda56fa2	-0.08077933
221	0x3d317cd5	0.04333194
222	0xbd7af6bf	-0.06127047
223	0xbb9043fe	-0.0044026366
224	0x3d9e97c7	0.07743793
225	0x3d8690b6	0.0657057
226	0xbc902e8c	-0.01760032
227	0x3ce5e73d	0.028064365
228	0xbce588e2	-0.028019372
229	0xbd53ab4c	-0.051677033
230	0x3d21b33a	0.039477564
231	0x3d356a02	0.04429055
232	0xbd06ea51	-0.032938305
233	0x3d940deb	0.07229217
234	0x3cb4b56a	0.022059161
235	0x3df0bd45	0.1175485
236	0x3df22ca2	0.11824919
237	0xbc258c98	-0.010104321
238	0xbcab535d	-0.020913774
239	0x3d85d5a2	0.06534888
240	0xbd3c189b	-0.045921903
241	0x3e585118	0.21124685
242	0x3db1a461	0.08673931
243	0x3ce0de86	0.027449857
244	0x3d5ee5b9	0.0544183
245	0x3be8b3e9	0.007101525
246	0xbc0be2be	-0.008537946
247	0xbdf9ed0a	-0.12203415
248	0x3d9267c6	0.071486995
249	0xbd0a415a	-0.03375373
250	0xbe5cacc4	-0.2155028
251	0xbdb6243b	-0.08893629
252	0xbddf0ba5	-0.10890893
253	0xbd882ea6	-0.066495225
254	0xbd18e17a	-0.037324406
255	0xbced0106	-0.028931152

fc_layers.0.bias f4 [120]
0	0x3dee912f	0.11648785
1	0x3da76146	0.0817285
2	0x3ca087e1	0.019596042
3	0x3e5b3913	0.21408491
4	0xbd3321ca	-0.043733396
5	0x3c80ea0b	0.0157366
6	0xbda23dd8	-0.07921952
7	0xbd4b622b	-0.049654167
8	0x3e8cb54e	0.27482074
9	0x3e615590	0.22005296
10	0xbcd6f0f5	-0.026237944
11	0xbce21c0c	-0.027601264
12	0x3e7622a3	0.2403665
13	0x3e57f5d5	0.21089871
14	0xbd86c2ed	-0.06580148
15	0x3ee145dd	0.43998614
16	0x3c1f4abd	0.009722409
17	0xbdcf0bf8	-0.10109705
18	0x3d3f2891	0.046669547
19	0xbcbaab10	-0.022786647
20	0xbe21405a	-0.15747204
21	0xbc2bc66b	-0.010484318
22	0xbc6acbc6	-0.01433081
23	0xbe28770a	-0.1645166
24	0x3e45d0c3	0.19317918
25	0xbc8377f6	-0.016048413
26	0xbdd043d2	-0.10169186
27	0xbd7f1384	-0.06227447
28	0x3dd62cd9	0.10457773
29	0xbdd49584	-0.1038008
30	0xbe1aa049	-0.15100206
31	0xbcc43d6c	-0.02395507
32	0xbe1b720c	-0.15180224
33	0xbe0d70d1	-0.13812567
34	0x3ea7924a	0.32728797
35	0x3e43fbf7	0.19139086
36	0xbd8c1511	-0.068399556
37	0x3ca50aec	0.02014681
38	0x3e15c84c	0.14627188
39	0xbca944be	-0.020662662
40	0x3e79a4fb	0.24379341
41	0x3b9c2ee2	0.004766331
42	0x3e1b0fe7	0.15142785
43	0x3cc32514	0.023821391
44	0x3d73ac4d	0.05949049
45	0xbd115b34	-0.03548737
46	0xbc30ca92	-0.010790484
47	0x3d467bfa	0.048458077
48	0x3d984bb0	0.07436311
49	0xbce40d7c	-0.027838461
50	0x3dc693b8	0.09696144
51	0x3c9290ae	0.017891254
52	0xbd402f34	-0.046920016
53	0xbde1d1f9	-0.11026377
54	0xbdcec507	-0.10096174
55	0x3e50dd76	0.2039698
56	0x3b7dc818	0.0038724001
57	0xbd44584b	-0.047935765
58	0xbdcb07e9	-0.09913618
59	0x3e774c17	0.2415012
60	0x3e34f6b1	0.1767223
61	0x3d579a05	0.05263712
62	0x3e74fb8e	0.23924085
63	0xbdebc1dc	-0.11511585
64	0x3d7368a6	0.059425972
65	0xbd178cfa	-0.03699968
66	0xbe83a568	-0.25712132
67	0xbd31d4b2	-0.043415733
68	0xbe24f021	-0.16107227
69	0x3e3f577b	0.18685715
70	0x3dbe0db4	0.092799574
71	0xbdd5f778	-0.104475915
72	0x3e81baf8	0.25337958
73	0x3ebc84ea	0.36820155
74	0xbe20fdd3	-0.15721826
75	0xbd345922	-0.044030316
76	0xbd2ef3b1	-0.04271287
77	0xbe4fbc9c	-0.20286793
78	0xbe0f31e6	-0.13983878
79	0x3d28def8	0.041228265
80	0xbe54ba24	-0.20774132
81	0x3db0303b	0.08602949
82	0x3e12d3da	0.14338627
83	0xbd3e85dd	-0.04651438
84	0xbd852581	-0.06501294
85	0x3e787cff	0.24266432
86	0x3d3289fc	0.043588623
87	0xbe0eae8e	-0.13933775
88	0x3edfd5cc	0.43717802
89	0x3eb90fd9	0.36144903
90	0x3e82ebde	0.25570577
91	0xbcb03a59	-0.021512197
92	0x3df80c4a	0.12111719
93	0x3ab24c6c	0.0013603098
94	0x3ebc6644	0.36796772
95	0xbb8ffbf4	-0.004394049
96	0xbd0be2d1	-0.034151856
97	0xbd85c214	-0.06531158
98	0x3dc1496d	0.09437833
99	0x3dab1b44	0.0835481
100	0xbe1b1726	-0.15145549
101	0xbda4077f	-0.08009242
102	0x3e62bf21	0.22143222
103	0xbe027a5b	-0.12741987
104	0x3dad6e27	0.084682755
105	0xbc9e657a	-0.019335497
106	0xbdf83095	-0.12118641
107	0xbb9c9fad	-0.004779777
108	0xbd4977a5	-0.049186368
109	0x3e67979d	0.2261643
110	0x3a94c953	0.0011351503
111	0xbc2b65dc	-0.010461297
112	0x3e23f7b6	0.16012463
113	0x3e0c6b49	0.13712801
114	0x3da31340	0.07962656
115	0xbd2afed7	-0.04174694
116	0x3d8e2f6b	0.06942638
117	0xbdff3431	-0.124611266
118	0xbe6091fd	-0.2193069
119	0xbdd98acf	-0.10622179

fc_layers.1.weight f4 [84, 120]
0	0xbd28a25e	-0.04117047
1	0xbddc3fb2	-0.107543364
2	0xbd1c60c3	-0.038178217
3	0x3e1f5553	0.15559892
4	0x3e16b246	0.14716443
5	0x3e0ae9f3	0.13565807
6	0xbd8341cf	-0.06409036
7	0xbe01ce5f	-0.1267638
8	0x3dd99053	0.10623231
9	0x3c9a08dd	0.018803054
10	0xbd7ffa9e	-0.062494867
11	0x3d82d992	0.063891545
12	0x3e1060d7	0.14099441
13	0x3db5717a	0.088595346
14	0xbdab6704	-0.08369258
15	0xbcf90bd1	-0.030401142
16	0xbcd0213a	-0.025406469
17	0xbd5e20a3	-0.054230344
18	0xbd89609b	-0.06707879
19	0xbe2355d9	-0.15950717
20	0xbd1e6f32	-0.038680263
21	0x3d9a6495	0.07538716
22	0x3e1dc6d6	0.15407881
23	0xbe41a438	-0.189103
24	0xbe1f6c02	-0.15568545
25	0xbdabd243	-0.083897136
26	0xbdb0d8ef	-0.08635127
27	0xbd09e5b8	-0.033666342
28	0xbe6c3f11	-0.23070933
29	0xbcca733c	-0.024713151
30	0x3a5b2f06	0.0008361194
31	0x3c0dad9f	0.0086473515
32	0xbdad30fe	-0.0845661
33	0xbc5dc1d7	-0.013534985
34	0xbcadfa7e	-0.021237608
35	0xbd9b2c03	-0.07576754
36	0xbc8833e8	-0.016626313
37	0xbd7bf067	-0.061508562
38	0x3d8d3d2d	0.06896434
39	0x3c72abfb	0.014811511
40	0xbe5485e8	-0.20754206
41	0x3e67c20a	0.22632614
42	0xbe1579ae	-0.14597198
43	0xbd3a8373	-0.045535516
44	0x3d529f44	0.05142142
45	0xbd85523d	-0.06509826
46	0x3c923db5	0.01785169
47	0x3d59db05	0.05318739
48	0x3d7d7424	0.06187834
49	0x3d2c55fb	0.042074185
50	0xbd1c456f	-0.038152155
51	0xbd6cd546	-0.05782058
52	0xbc691be9	-0.014227846
53	0xbc959cc5	-0.01826323
54	0xbe24d658	-0.1609739
55	0xbe8ad3ee	-0.27114815
56	0xbd4b03d1	-0.049564186
57	0x3ce1fbdb	0.027585914
58	0xbacdd640	-0.001570411
59	0xbe5b3481	-0.21406747
60	0xbd7e3e74	-0.06207128
61	0xbd091a60	-0.03347242
62	0x3da84c86	0.08217721
63	0x3def5281	0.11685658
64	0xbe394bb1	-0.1809528
65	0xbe886d6c	-0.26645982
66	0x3dbba3b2	0.09162082
67	0xbdce6b6d	-0.100790836
68	0xbce36344	-0.027757294
69	0xbdeb4546	-0.11487822
70	0x3d08e993	0.03342588
71	0xbe41a9b2	-0.1891239
72	0xbe957815	-0.29193178
73	0x3d54c0a4	0.05194153
74	0x3d8b9565	0.06815604
75	0xbe84ed94	-0.25962508
76	0x3d2cb3a4	0.042163506
77	0xbc49cb06	-0.012316471
78	0x3e31236b	0.17298667
79	0x3db9b219	0.090671726
80	0xbcb3609d	-0.021896655
81	0xbc2c279b	-0.01050749
82	0x3c0d2c12	0.008616464
83	0x3d259812	0.04042823
84	0x3cb380e6	0.02191205
85	0xbe81e75b	-0.25371823
86	0xbd0b1f2b	-0.03396527
87	0xbd923f7b	-0.07141014
88	0x3cfbdc75	0.03074477
89	0xbdaf2cc0	-0.08553457
90	0xbc4ed94c	-0.01262505
91	0xbe3aab91	-0.1822951
92	0x3d09726f	0.033556398
93	0x3d10e2c4	0.03537251
94	0xbd8410d8	-0.06448525
95	0xbcef9c05	-0.0292492
96	0xbe6a5158	-0.22882593
97	0x3e139d80	0.1441555
98	0x3dcffbb7	0.10155433
99	0xbe578d1e	-0.21049926
100	0x3e369688	0.1783086
101	0xbe70c1a0	-0.23511362
102	0xbe5261e0	-0.20545149
103	0x3dfe4cf4	0.124170214
104	0xbe18f976	-0.14938912
105	0xbd28db49	-0.04122475
106	0x3dec8df8	0.11550516
107	0x3dd557a8	0.1041711
108	0xbc7c1d6c	-0.015387874
109	0xbe3546d0	-0.17702794
110	0x3db85933	0.090013884
111	0xbcc95f65	-0.02458162
112	0x3e4b90e1	0.19879486
113	0xbd38e47b	-0.04513977
114	0xbd9a1306	-0.0752316
115	0x3e73e738	0.23818672
116	0xbe0dd0ca	-0.13849178
117	0x3dac297e	0.084063515
118	0x3dde3265	0.10849456
119	0x3dd95916	0.10612695
120	0x3d5224df	0.051304694
121	0xbdbf88de	-0.09352277
122	0xbde45aff	-0.11150169
123	0xbcbe0cd0	-0.023199469
124	0xbb3fe25a	-0.0029279203
125	0x3e017493	0.12642126
126	0xbc2c17d6	-0.01050373
127	0x3bcc3e53	0.0062330156
128	0xbc911d17	-0.017714066
129	0xbe1c30ea	-0.15253034
130	0xbdd79ef7	-0.10528367
131	0xbd4102fe	-0.047121994
132	0x3e399a9b	0.18125384
133	0x3da40406	0.0800858
134	0xbbd1c554	-0.006401697
135	0xbd2fbc19	-0.042903993
136	0x3cb260b2	0.021774624
137	0xbe81d775	-0.25359693
138	0xbd7a968f	-0.06117874
139	0xbdee4627	-0.11634474
140	0xbe43907a	-0.19098082
141	0x3dd1061f	0.10206246
142	0xbcf5b652	-0.029994164
143	0xbe50386a	-0.2033402
144	0x39e2fa3c	0.00043292518
145	0x3d31134e	0.0432313
146	0xbe1a9b5e	-0.1509833
147	0xbdaa6911	-0.08320821
148	0x3dcd1035	0.10012857
149	0x3ac06614	0.0014678859
150	0x3c017a85	0.007902746
151	0xbd909cb6	-0.0706114
152	0x3d60abbd	0.054851282
153	0x3a39156d	0.00070603826
154	0x3d54e29f	0.051973935
155	0x3e56c65d	0.20974107
156	0x3d9d8859	0.07692022
157	0xbe454e5c	-0.19268173
158	0xbe35fcd2	-0.17772225
159	0x3bc95164	0.0061437357
160	0x3c6c2f6e	0.014415605
161	0xbdcfce45	-0.10146765
162	0x3e7c5313	0.24641065
163	0xbce7d4c8	-0.028299704
164	0x3d1cb4c6	0.038258336
165	0xbdaa8dcb	-0.08327826
166	0x3d8ddd59	0.06926984
167	0xbce6bade	-0.028165277
168	0x3cfd3087	0.030906929
169	0xbde850a2	-0.113435045
170	0xbb0ad083	-0.0021181412
171	0xbe229078	-0.15875423
172	0x3d5d89d7	0.054086532
173	0xbcab43f1	-0.02090642
174	0x3cbab709	0.022792356
175	0x3cae00ce	0.021240618
176	0xbe347243	-0.17621712
177	0xbdb49f6c	-0.0881947
178	0xbe56a3be	-0.209609
179	0x3e6562bb	0.22400944
180	0x3e5140f3	0.20434932
181	0x3d23c6e7	0.03998461
182	0xbd5562e8	-0.052096277
183	0xbdef5665	-0.116864
184	0x3ab2a7d3	0.0013630338
185	0x3d0e9b1c	0.034815893
186	0xbe7c1ce7	-0.246204
187	0xbbeb45af	-0.007179938
188	0xbe10c2b0	-0.14136767
189	0xbd75b498	-0.05998668
190	0xbda99ca0	-0.08281827
191	0xbe02d374	-0.12775975
192	0x3da88a7e	0.0822954
193	0xbe349dff	-0.17638396
194	0xbd05bd0d	-0.032650996
195	0xbcf11647	-0.029429568
196	0x3c8f15e0	0.017466486
197	0xbe3ff388	-0.18745244
198	0x3d794c24	0.06086363
199	0xbe418dda	-0.18901768
200	0xbe3aaace	-0.1822922
201	0x3c1def08	0.009639509
202	0x3d521ca3	0.05129684
203	0xbdb7a48f	-0.08966934
204	0xbe213870	-0.15744185
205	0xbd8edc53	-0.06975617
206	0xbcc59be6	-0.02412219
207	0xbdc648bf	-0.09681844
208	0x3e0d036e	0.1377084
209	0x3e4e796c	0.20163506
210	0xbe267c14	-0.1625827
211	0x3dbefc46	0.09325461
212	0xbe35c202	-0.1774979
213	0x3db61c29	0.0889209
214	0x3e13d1ac	0.14435452
215	0xbd3fcef7	-0.046828236
216	0xbe02637e	-0.12733266
217	0xbe14af09	-0.14519896
218	0xbd5242f2	-0.051333375
219	0x3e7a2425	0.2442785
220	0x3c7f3845	0.015577381
221	0xbe88de38	-0.2673204
222	0x3e181ebb	0.14855473
223	0x3e054bbe	0.13017175
224	0x3e1bccab	0.15214793
225	0x3de4e0eb	0.11175712
226	0xbda1f5ae	-0.07908188
227	0x3dc51b21	0.09624315
228	0xbda382c3	-0.07983925
229	0xbc05d3a1	-0.008168132
230	0xbd5d6b64	-0.054057494
231	0xbc94c62c	-0.018160902
232	0x3d42af69	0.047530565
233	0xbe23e0ea	-0.16003767
234	0xbd13a556	-0.03604635
235	0xbdec03f4	-0.115241915
236	0x3cbccae1	0.023045959
237	0xbc8a8c46	-0.01691259
238	0xbe429df6	-0.1900557
239	0xbc23aae9	-0.009989479
240	0xbe324abf	-0.17411326
241	0xbe930d3d	-0.28721038
242	0x3e31a6c2	0.1734877
243	0xbc43fb0c	-0.01196171
244	0x3d8762ce	0.066106424
245	0xbd0ff6ba	-0.035147406
246	0xbd984a47	-0.07436042
247	0x3d934b93	0.07192149
248	0xbd97872c	-0.07398829
249	0xbdd85125	-0.10562352
250	0x3ce6fc01	0.028196337
251	0xbcbbbfee	-0.022918668
252	0x3d352a51	0.04422981
253	0xbd7f3b05	-0.062312145
254	0xbd4cd3dd	-0.050006736
255	0xbd7b2883	-0.06131793

fc_layers.1.bias f4 [84]
0	0x3e39c387	0.18140994
1	0x3f282c2b	0.65692395
2	0x3d2fa1ed	0.042879034
3	0x3f12fb42	0.5741464
4	0xbce676eb	-0.028132876
5	0xbd991af6	-0.074758455
6	0x3d1fc939	0.03901026
7	0xbda9804e	-0.08276425
8	0x3eb44998	0.35212398
9	0x3de63452	0.11240448
10	0x3ddade76	0.10686962
11	0x3e22c5e2	0.15895799
12	0x3e86e83a	0.2634905
13	0xbcba7d6c	-0.022764884
14	0x3ddeeb2f	0.108847015
15	0x3f1b7bb3	0.60735625
16	0x3d6614a1	0.056172017
17	0x3e64649e	0.22304007
18	0x3e8e5c75	0.27804914
19	0x3e02c37e	0.12769887
20	0xbd26d200	-0.040727615
21	0xbd398894	-0.045296267
22	0x3ed26460	0.41092205
23	0xbd940b9f	-0.07228779
24	0x3bae8440	0.005325824
25	0x3e6e39a9	0.23264183
26	0x3ebaa1cd	0.3645157
27	0x3ed3bc4f	0.41354606
28	0x3f703cc7	0.9384274
29	0x3e490b32	0.19633177
30	0xbe113389	-0.14179815
31	0x3e510dec	0.20415467
32	0x3f14a8be	0.5806998
33	0x3ed2652f	0.41092822
34	0x3e9b43d0	0.30325174
35	0xbe022820	-0.12710619
36	0x3f52bfb0	0.8232374
37	0x3e1a9f62	0.15099862
38	0x3d20093a	0.0390713
39	0x3e1076b2	0.14107779
40	0x3d551708	0.052023917
41	0xbc74b288	-0.014935143
42	0x3e05e7ee	0.13076755
43	0x3f0d4583	0.5518419
44	0x3e0812bb	0.13288395
45	0x3e4cf150	0.20013928
46	0xbdbffd11	-0.093744405
47	0x3eb88d1b	0.36045155
48	0x3e8f39e1	0.27973846
49	0x3da34381	0.0797186
50	0x3efc3d82	0.49265677
51	0x3c339820	0.010961562
52	0xbe66284e	-0.22476313
53	0x3df10fd9	0.11770601
54	0x3e101ee0	0.14074278
55	0x3e6d6416	0.23182711
56	0x3d7a515d	0.06111275
57	0x3e3ac0e3	0.18237643
58	0x3ed751e4	0.42054665
59	0x3f091626	0.5354942
60	0x3f05e682	0.5230485
61	0x3eeaca75	0.45857587
62	0x3d88b27a	0.06674667
63	0xbdb01dea	-0.08599456
64	0xbbbb4910	-0.005715497
65	0x3e54d942	0.20786002
66	0x3dcf6e33	0.10128441
67	0x3e6c1b4f	0.23057292
68	0x3e67cfdf	0.2263789
69	0x3e8c135a	0.27358514
70	0xbe3d7789	-0.1850263
71	0xbd34a085	-0.044098396
72	0xbc0c0786	-0.008546716
73	0x3ed6a38d	0.41921654
74	0x3db56cd2	0.088586465
75	0x3e0d67ef	0.13809179
76	0xbde0b898	-0.109727085
77	0xbb22678b	-0.0024780955
78	0xbe057338	-0.13032234
79	0x3f130ac8	0.57438326
80	0x3e11c461	0.14235069
81	0xbe005a45	-0.12534435
82	0x3cffcf5a	0.031226803
83	0x3d753281	0.059862617

output_layer.weight f4 [10, 84]
0	0xbe061af5	-0.13096221
1	0x3e3daaa1	0.18522121
2	0xbe4a7c0c	-0.19773883
3	0xbea8fb48	-0.33004212
4	0x3e0697d0	0.1314385
5	0xbe528771	-0.2055948
6	0xbce8f2d4	-0.028436102
7	0x3e13a413	0.14418058
8	0x3b96aa39	0.004597929
9	0xbe410209	-0.18848433
10	0x3e7cdd0b	0.24693696
11	0xbdc1c4b8	-0.09461349
12	0x3d6e3ae8	0.058161646
13	0x3dc8ad93	0.09798732
14	0x3e8dde2d	0.2770857
15	0x3c9c1efa	0.01905774
16	0xbd9b3aa5	-0.07579545
17	0xbe16770e	-0.14693853
18	0x3e63fe59	0.22264995
19	0xbdaf913f	-0.08572625
20	0x3e22ceb4	0.15899163
21	0xbde4be8f	-0.11169159
22	0x3d467d79	0.048459504
23	0xbe16f4a4	-0.1474176
24	0x3e0efcbb	0.13963597
25	0x3e068a3e	0.13138673
26	0x3e657f46	0.22411832
27	0x3e0e8d3a	0.13921061
28	0xbf0aa088	-0.541512
29	0x3e1f15a7	0.15535603
30	0xbd40cb29	-0.04706875
31	0x3e6a96d8	0.22909105
32	0xbec5e419	-0.38650587
33	0xbdd30921	-0.103044756
34	0x3e28f73b	0.16500561
35	0x3e3c193b	0.18369
36	0xbe507095	-0.20355447
37	0xbdc45089	-0.09585673
38	0xbddf1b1c	-0.108938426
39	0xbd8f107c	-0.06985566
40	0x3df37d18	0.11889094
41	0x3cbbc2b5	0.022919992
42	0xbdf400ea	-0.11914237
43	0x3e172a13	0.14762144
44	0xbd092492	-0.03348214
45	0xbe611868	-0.21981966
46	0x3e225ce5	0.15855749
47	0x3db50c9b	0.08840295
48	0xbe02992c	-0.12753743
49	0x3e63bb50	0.22239423
50	0xbe157a76	-0.14597496
51	0xbe67f6eb	-0.22652785
52	0x3e0fcd03	0.1404305
53	0x3d9303e0	0.071784735
54	0xbd88f66a	-0.06687625
55	0x3dd74ddf	0.105128996
56	0xbdfeb8f4	-0.12437621
57	0x3e083f55	0.13305409
58	0x3e758593	0.23976736
59	0xbe846ade	-0.25862783
60	0x3d23f903	0.040032398
61	0xbe138785	-0.14407165
62	0x3d9eb4af	0.077493064
63	0x3d979fe9	0.07403547
64	0x3e134dde	0.14385173
65	0x3d21830a	0.03943161
66	0xbca6d916	-0.020367187
67	0x3dd23d7e	0.10265635
68	0x3e6b0ace	0.2295334
69	0xbdc61292	-0.09671511
70	0x3e4e86fa	0.20168677
71	0xbe79dea3	-0.24401335
72	0xbdf8be60	-0.12145686
73	0x3e4ecbf3	0.20194988
74	0xbde68f7b	-0.112578355
75	0x3e1d1184	0.15338713
76	0xbd101fa0	-0.03518641
77	0x3d549944	0.051903978
78	0x3e3cced5	0.18438275
79	0xbe19dccb	-0.15025632
80	0x3d906afb	0.07051655
81	0x3e3f79a3	0.18698744
82	0x3e355914	0.17709762
83	0xbe8040be	-0.25049394
84	0x3d9c81d0	0.07641947
85	0xbdf1f7dd	-0.11814854
86	0x3e6b4c03	0.22978215
87	0xbeb4cd4d	-0.35312882
88	0x3e861a2c	0.26191843
89	0x3d99cbea	0.07509597
90	0xbde2649c	-0.11054346
91	0x3d45d540	0.048299074
92	0xbca9a49e	-0.020708378
93	0xbe529d21	-0.20567752
94	0xbe761254	-0.24030429
95	0x3d14ad17	0.036297884
96	0xbd989ac7	-0.074513964
97	0x3dfcef48	0.12350327
98	0x3e8d4df8	0.27598548
99	0xbe2cf850	-0.16891599
100	0xbaa0aea1	-0.0012259075
101	0x3e143df4	0.14476758
102	0x3e8de849	0.27716282
103	0x3e0565f6	0.13027176
104	0x3e15eebd	0.14641853
105	0x3d60c11c	0.054871663
106	0xbe6ab5f4	-0.22920972
107	0xbd16c5b3	-0.036809634
108	0x3e808ce7	0.251075
109	0x3b9ea81d	0.004841818
110	0x3e81aaa8	0.25325513
111	0x3e900425	0.28128162
112	0xbdaf6e03	-0.08565905
113	0xbe2cff38	-0.16894233
114	0x3d4e8012	0.050415106
115	0xbd099983	-0.033593666
116	0xbceddb29	-0.029035168
117	0x3e509d68	0.20372546
118	0xbe1e7e39	-0.15477838
119	0x3e56f1f7	0.2099074
120	0xbe1bb815	-0.1520694
121	0xbc7ae35d	-0.015312997
122	0xbd7a89f6	-0.061166726
123	0x3c09555d	0.008382169
124	0xbd8acbb6	-0.06777136
125	0xbcbc7889	-0.023006694
126	0xbdee7e97	-0.11645239
127	0xbedbf40b	-0.42959628
128	0x3edb45d8	0.42826724
129	0x3dcfaf7a	0.101408914
130	0xbc78538d	-0.015156639
131	0x3e5fe73e	0.21865556
132	0xbe301563	-0.17195658
133	0xbe259141	-0.16168691
134	0x3d85c84c	0.06532344
135	0x3d69930a	0.057024993
136	0x3e45088b	0.1924154
137	0xbdac1295	-0.08401982
138	0x3e3288a2	0.17434934
139	0x3e2183da	0.15772954
140	0x3e87eeff	0.26549527
141	0xbe34c94a	-0.1765491
142	0x3e41cf27	0.18926679
143	0xbef41260	-0.4767027
144	0xbeaa09d5	-0.33210626
145	0x3db99a95	0.09062687
146	0x3de6e428	0.11273986
147	0x3d573fda	0.052551128
148	0xbdf10037	-0.11767619
149	0xbdff36ef	-0.124616496
150	0xbe92fae8	-0.2870705
151	0x3d110282	0.035402782
152	0xbe9f5ac3	-0.31123933
153	0xbd82ce9a	-0.06387062
154	0x3e024989	0.12723364
155	0xbc3fd8d4	-0.011709411
156	0x3d36b937	0.04461023
157	0xbe85c4b8	-0.26126647
158	0xbe6a3934	-0.22873384
159	0xbe0b1286	-0.13581285
160	0xbca7d2be	-0.020486232
161	0xbda4ea22	-0.0805247
162	0x3d075fd5	0.033050377
163	0x3dc232e0	0.0948236
164	0x3dcf2079	0.101136155
165	0xbdf3af74	-0.118986994
166	0x3c80e4be	0.015734073
167	0x3dba49f4	0.09096137
168	0x3c2f20fb	0.0106890155
169	0xbd2ba8f0	-0.04190916
170	0x3de092f5	0.1096553
171	0x3e8769bd	0.2644786
172	0xbe0330e5	-0.1281162
173	0x3e515e8d	0.20446225
174	0xbd959525	-0.07303838
175	0x3e33ce24	0.17559105
176	0xbde0d31b	-0.10977765
177	0x3e05aae3	0.1305347
178	0xbcccafe8	-0.024986222
179	0xbb073368	-0.0020630006
180	0x3d091744	0.033469453
181	0xbdb8cfd9	-0.09024019
182	0x3d490614	0.049078062
183	0xbd8ff6cf	-0.07029497
184	0x3e564a6b	0.20926826
185	0xbde6e0c0	-0.112733364
186	0xbe4351dd	-0.19074197
187	0xbdca866b	-0.098889194
188	0x3df5461d	0.11976264
189	0x3dd3e60f	0.103466146
190	0x3e20cd0d	0.1570322
191	0xbdbd0d4f	-0.09231054
192	0x3e10ff80	0.14159966
193	0xbd138be2	-0.036022075
194	0xbe8195c0	-0.25309563
195	0x3e00d040	0.12579441
196	0xbdc15307	-0.09439664
197	0x3e88523b	0.26625237
198	0x3e6313df	0.22175549
199	0x3d91ebf6	0.07125084
200	0x3e8e75ca	0.2782424
201	0xbd42df76	-0.04757639
202	0x3e0a2f31	0.13494565
203	0x3db231c4	0.08700898
204	0x3e4dc71b	0.20095484
205	0x3e027c34	0.12742692
206	0x3dca1ed6	0.09869163
207	0x3df1a960	0.11799884
208	0xbd51bc70	-0.0512051
209	0xbdb6f9d1	-0.089343674
210	0xbde813fd	-0.113319375
211	0x3e3490a5	0.17633303
212	0xbd2a2e5c	-0.041548118
213	0xbcd2ee69	-0.025748448
214	0x3dcb8b09	0.09938628
215	0xbda0f19a	-0.07858582
216	0xbe65099f	-0.22366951
217	0x3ddead53	0.10872903
218	0x3e375016	0.17901644
219	0x3df94989	0.12172229
220	0x3dc14f93	0.09439006
221	0x3e49a03e	0.19690034
222	0xbde15774	-0.110030085
223	0xbde7b29c	-0.11313364
224	0xbe08449b	-0.13307421
225	0x3e7bafb2	0.24578741
226	0x3e279a89	0.16367544
227	0x3ded0ebd	0.11575077
228	0xbd111b86	-0.03542664
229	0xbdca06cf	-0.0986458
230	0xbd506d13	-0.05088527
231	0x3db6ea21	0.08931375
232	0x3e6d6895	0.23184426
233	0xbe2feb53	-0.17179613
234	0x3e256a56	0.16153845
235	0xbe337df7	-0.1752852
236	0x3e87a329	0.2649167
237	0xbd7c9b8a	-0.06167177
238	0xbe24fb31	-0.16111447
239	0x3e210b1d	0.15726896
240	0x3c4f4c4b	0.012652467
241	0x3e3f15ee	0.1866071
242	0x3e77f3c3	0.24214081
243	0x3dffaca0	0.124840975
244	0xbcd1ae45	-0.025595794
245	0xbe91a889	-0.28448895
246	0x3d59a9f9	0.053140614
247	0xbdacea51	-0.0844313
248	0xbc8f4855	-0.017490545
249	0x3e1b6470	0.15175033
250	0xbe359ad8	-0.1773485
251	0x3cce8c30	0.025213331
252	0x3dff7111	0.124727376
253	0x3cbedd43	0.023298865
254	0x3c9b7087	0.018974556
255	0x3e8d4a91	0.27595952

output_layer.bias f4 [10]
0	0xbefb828a	-0.4912303
1	0xbf55af0c	-0.83470225
2	0xbebbd89c	-0.36688697
3	0x3ef1eb98	0.47250056
4	0x3f597af7	0.84953254
5	0x3d3804f3	0.044926595
6	0x3e91e411	0.28494313
7	0xbe888e90	-0.26671267
8	0x3e8a9c7c	0.27072513
9	0xbe1f6bb8	-0.15568435
