Lab1/model/model_CIFAR10_10iters/conv_params_c1_8.pth (torch, 255734 bytes, 10 tensors)

conv_layers.0.weight f4 [8, 3, 5, 5]
0.10139129 -0.017616116 0.0050114864 0.087770484 0.08689516 -0.16604292 -0.3209755 -0.3848798
-0.43066245 -0.22295476 -0.39983076 -0.42753175 -0.46172965 -0.34344068 -0.19745275 -0.19734065
-0.38035744 -0.40225047 -0.30229422 -0.23432133 -0.09751607 -0.19226244 -0.36821595 -0.2115742
-0.024979698 -0.011420306 0.12167719 0.09523006 0.09219704 0.07590573 -0.006149471 0.14313808
-0.005119534 0.10567791 -0.010634693 -0.114787064 -0.04480211 0.055988573 0.117318325 0.032531567
-0.04395794 0.07094562 -0.08786628 0.048392747 0.08900675 0.023809716 -0.119630635 -0.118606165
-0.07707762 -0.02085767 -0.23623642 0.14083178 0.17762105 0.26923478 0.09254866 0.013035314
0.18743864 0.16201119 0.23030703 0.14943145 -0.07648896 0.060983665 0.11649568 0.28594214
0.046082962 0.13845424 0.29785275 0.46688956 0.4660891 0.26635316 0.1686269 0.12763259
0.3891418 0.34462777 0.25762117 -0.1920102 -0.18056649 0.0057180594 -0.28716484 -0.23231032
-0.3969341 -0.012072538 -0.4129072 -1.0536417 -0.20351203 -0.1342545 -0.4221224 -0.28640538
-0.007073372 0.5194613 0.25187936 -0.49017516 0.35370487 0.5663963 0.1347661 0.06362636
0.059016015 0.5407556 0.03744037 -0.17096294 0.056157857 0.30110675 0.20985617 -0.041939206
-0.094340436 0.112071976 0.6849636 0.0058542565 -0.46051878 0.124700174 0.4040143 -0.025189577
0.1117504 0.49718228 0.67253935 0.38138926 -0.16105822 0.5723165 0.7287825 0.0321712
-0.0755191 0.2914984 0.5416672 -0.06632632 -0.4990264 0.04752429 -0.084074624 0.17272758
-0.0040612007 0.1810513 -0.08368416 0.289315 -0.30162647 -0.7516797 0.17092498 -0.02129167
-0.34144527 -0.34648904 0.064532846 0.58819133 0.032968108 -0.5641639 0.17007181 0.12740181
-0.3269451 -0.27446884 -0.15478784 0.10188699 -0.35057512 -0.58108914 -0.012427164 -0.14257957
-0.017079988 0.024447544 0.07286755 -0.16098034 -0.15534756 0.07923345 0.09394822 -0.1018594
-0.2282654 0.04221657 0.1944503 0.18956769 -0.103969194 0.11751344 0.03222308 -0.041656513
-0.13349155 -0.23725404 0.12821707 -0.03724481 -0.103117324 -0.16522917 0.0022425682 -0.20194648
-0.23371105 -0.3022116 -0.032617178 -0.0053848876 -0.33054885 -0.23289643 -0.061464842 0.26323992
0.10374904 -0.13913086 0.1107405 0.2569905 0.30861595 -0.10317526 0.07094687 0.18217185
0.1436001 -0.12449139 -0.5153038 0.17465724 -0.032586906 -0.16893844 -0.34880915 -0.2319347
-0.12417261 -0.24878035 -0.0007899479 0.44850063 0.4406938 -0.20842956 -0.13557059 0.3357013
0.52592176 0.35544223 -0.06382517 0.39983988 0.57795745 0.48158392 0.1293736 0.23158325
0.40004495 0.23116557 -0.062404417 -0.3790471 0.28899157 0.2087368 0.0951669 -0.00423801
-0.03048472 -0.34029886 -0.43683562 -0.36416742 -0.20562175 -0.057752147 0.039572906 0.05969286
-0.06350424 0.015088046 -0.06956444 0.30694798 0.46385813 0.39531747 0.25157318 0.002815224
0.16618156 0.08252298 0.074068666 0.27107012 0.11844705 -0.15826407 -0.15992212 -0.10780799
-0.08352379 0.18332933 -0.16117899 -0.3371824 -0.4316512 -0.15642594 0.19435084 -0.025026834
00000000: 3da6 cf3d ac4f 90bc 6537 a43b 03c1 b33d
00000010: 17f6 b13d 2807 2abe e756 a4be f70e c5be
00000020: ca7f dcbe 414e 64be 9eb6 ccbe 71e5 dabe
00000030: d467 ecbe 75d7 afbe 0e31 4abe ab13 4abe
00000040: 36be c2be c6f3 cdbe 4fc6 9abe eef1 6fbe
00000050: 81b6 c7bd 72e0 44be cd86 bcbe e8a6 58be
00000060: 39a2 ccbc 3c1c 3bbc e431 f93d fa07 c33d
00000070: cdd1 bc3d 7774 9b3d 8081 c9bb ca92 123e
00000080: c4c1 a7bb a96d d83d 233d 2ebc 7b15 ebbd
00000090: 6b82 37bd 4654 653d 9744 f03d d23f 053d
000000a0: 3e0d 34bd f04b 913d 3cf3 b3bd 7937 463d
000000b0: 2c49 b63d 980c c33c e800 f5bd cae7 f2bd
000000c0: dfda 9dbd b4dd aabc f6e7 71be 3536 103e
000000d0: 4be2 353e 24d9 893e 278a bd3d 1292 553c
000000e0: eaef 3f3e 43e6 253e 9bd5 6b3e 8f04 193e
000000f0: 3ea6 9cbd 02ca 793d 4995 ee3d 0267 923e
00000100: 7dc1 3c3d f3c6 0d3e 2880 983e 260c ef3e
00000110: 3ba3 ee3e 715f 883e 88ac 2c3e 1eb2 023e
00000120: 983d c73e 0d73 b03e ece6 833e 529e 44be
00000130: 6ce6 38be 8f5e bb3b 4507 93be c2e2 6dbe
00000140: f23a cbbe e5cb 45bc 9368 d3be bbdd 86bf
00000150: 7565 50be 037a 09be 6d20 d8be baa3 92be
00000160: bfc7 e7bb 6afb 043f 55f6 803e 3df8 fabe
00000170: ce18 b53e 59ff 103f 2000 0a3e 894e 823d
00000180: c7ba 713d f66e 0a3f 135b 193d e910 2fbe
00000190: c805 663d aa2a 9a3e 89e4 563e 72c8 2bbd
000001a0: 8f35 c1bd fe85 e53d c659 2f3f 10d5 bf3b
000001b0: 1ec9 ebbe ce62 ff3d f6da ce3e 5f5a cebc
000001c0: 65dd e43d ad8e fe3e 8a2b 2c3f 7445 c33e
000001d0: 72ec 24be 5683 123f 7d91 3a3f f3c5 033d
000001e0: c2a9 9abd 473f 953e b4aa 0a3f 18d6 87bd
000001f0: 6380 ffbe d4a8 423d 512f acbd 80df 303e
00000200: d213 85bb 8365 393e 9a62 abbd 1821 943e
00000210: c96e 9abe 156e 40bf f506 2f3e de6b aebc
00000220: ead1 aebe 0367 b1be cc29 843d b593 163f
00000230: 9109 073d 0c6d 10bf 4e27 2e3e 9f75 023e
00000240: 5965 a7be 2e87 8cbe b480 1ebe 20aa d03d
00000250: 957e b3be 42c2 14bf 4e9b 4bbc 6100 12be
00000260: 55eb 8bbc 3746 c83c 953b 953d 08d8 24be
00000270: 6e13 1fbe 2645 a23d ed67 c03d a99b d0bd
00000280: 68be 69be 48eb 2c3d fb1d 473e 081e 423e
00000290: cded d4bd e3aa f03d 59fc 033d 05a0 2abd
000002a0: 02b2 08be b9f2 72be 564b 033e 048e 18bd
000002b0: 2d2f d3bd d631 29be 0df8 123b 0fcb 4ebe
000002c0: f351 6fbe 7bbb 9abe 9799 05bd b673 b0bb
000002d0: b33d a9be 677c 6ebe 8fc2 7bbd 62c7 863e
000002e0: 607a d43d 5278 0ebe eacb e23d 4294 833e
000002f0: e902 9e3e 8d4d d3bd 984c 913d 428b 3a3e
00000300: e80b 133e 58f5 febd f3ea 03bf 59d9 323e
00000310: d979 05bd 33fe 2cbe 1d97 b2be 4a80 6dbe
00000320: 364e febd 47c0 7ebe 8214 4fba e0a1 e53e
00000330: 9ea2 e13e 8f6e 55be 04d3 0abe 0ae1 ab3e
00000340: cfa2 063f 86fc b53e c5b6 82bd d0b7 cc3e
00000350: 05f5 133f 2b92 f63e 837a 043e 2924 6d3e
00000360: b1d2 cc3e abb6 6c3e c69b 7fbd 7612 c2be
00000370: b4f6 933e 1abf 553e dde6 c23d 01df 8abb
00000380: 17bb f9bc a73b aebe eba8 dfbe 2774 babe
00000390: 828e 52be 848d 6cbd 3317 223d 8080 743d
000003a0: 830e 82bd da33 773c cd77 8ebd 4928 9d3e
000003b0: d07e ed3e 0d67 ca3e 33ce 803e 9f7f 383b
000003c0: 802b 2a3e cf01 a93d 50b1 973d b4c9 8a3e
000003d0: 5e94 f23d fa0f 22be a0c2 23be 6fca dcbd
000003e0: 850e abbd afba 3b3e 1b0c 25be 2ca3 acbe
000003f0: 6301 ddbe 1f2e 20be e803 473e 1305 cdbc

conv_layers.0.bias f4 [8]
0.5831787 -0.062433586 -0.51461 -0.54475015 -0.49477577 -0.609718 -0.98024035 0.47016007
00000000: 334b 153f 5cba 7fbd 7bbd 03bf bf74 0bbf
00000010: 4053 fdbe 7b16 1cbf 08f1 7abf d2b8 f03e

conv_layers.1.weight f4 [16, 8, 5, 5]
-0.36459416 -0.7001816 -0.49875134 -0.08783135 0.4902011 -0.23984882 -0.54660183 -0.27026978
0.18289696 0.719281 -0.16181272 -0.2635115 -0.1233921 0.19271813 0.51467896 -0.09531904
-0.101382956 -0.2319067 0.061186604 0.31738013 -0.1607023 -0.1001084 -0.041879654 0.006155303
0.3589905 -0.029802602 0.05747718 -0.016592585 0.02083926 -0.14325808 0.13768062 -0.1801727
-0.16145071 -0.0046259332 -0.19759217 -0.020064697 -0.37190834 -0.06717038 0.06481912 -0.07031651
0.12413703 -0.09042118 0.018648673 0.049917445 -0.014100311 0.18695022 -0.05831382 0.06424414
0.047680765 0.055493966 -0.31415397 -0.072101764 -0.015602233 0.064284034 0.06611242 -0.09431425
0.05162073 0.14675409 0.09420654 0.15809235 -0.16898125 -0.14725018 -0.12074529 0.047866147
0.06771527 -0.051287703 -0.20460735 -0.06204595 0.1020983 -0.068825185 -0.16642752 -0.14404093
-0.13840489 0.058995314 -0.018151436 -0.5355122 -0.25175717 0.34134367 0.43072996 0.37466303
-0.09714552 0.09382419 0.120259695 -0.062222004 -0.24194661 -0.008652259 -0.07436417 -0.17077777
0.04615207 0.05418853 -0.27876228 -0.16312437 0.08453864 0.15253185 0.114047945 -0.22165576
-0.24088234 -0.051862795 -0.00015608566 -0.04064362 0.026237201 0.37190896 0.18987605 -0.09535216
-0.12801714 0.31940457 0.43843257 -0.030049292 -0.082971506 -0.21777415 0.17447834 0.16726567
0.20175946 0.051953614 0.117974505 0.16552335 0.1401352 0.05838988 -0.08965418 -0.036420193
0.049776766 0.012712296 0.1061835 -0.068423264 0.030890413 0.16106747 -0.50175905 -0.17236961
0.008430471 0.1313187 -0.33280128 -0.49044904 -0.24103476 0.07129274 0.24959879 -0.6015297
-0.30898556 -0.09354856 0.19236451 0.03457205 -0.345941 -0.23798724 -0.27276766 0.02716053
0.14083295 -0.17684604 -0.18137272 -0.14520809 0.0004531187 0.056852534 -0.056893013 0.26683506
0.11521815 0.2615636 0.31936118 -0.09358776 -0.08477431 -0.06147679 0.077623636 0.16007392
-0.13404937 -0.11399852 0.08462763 0.013669414 0.15321244 -0.08280563 -0.1386926 -0.07738506
0.046991903 0.0076627466 -0.08254196 -0.1871014 -0.07784281 -0.056823384 -0.085749835 -0.528415
-0.18415493 0.15432702 0.19364044 0.35789442 -0.33200195 -0.023777593 0.15890917 0.13217758
0.36627582 -0.27856308 -0.07104416 0.036200855 0.055404063 0.1514221 -0.15213034 0.03655823
0.08745242 0.035379596 -0.011894779 -0.034027845 -0.017170127 -0.08077605 -0.064713515 -0.08078648
-0.16788584 -0.240019 -0.40848094 -0.2669946 0.009860714 -0.17198823 -0.25551453 -0.24389572
-0.023517178 0.1631705 -0.45525885 -0.0117441295 0.17113118 0.2801795 0.35989207 -0.2885438
0.19450714 0.33508766 0.40233034 0.27757847 -0.04523959 0.30556902 0.42519754 0.3355291
0.29381692 0.09217702 0.0290365 0.0782979 0.12858698 0.1360616 0.015088566 -0.07523952
0.052664597 0.045687564 -0.22620936 -0.08064153 0.10623446 0.032859284 -0.23309755 -0.41498342
0.3941969 0.24479024 -0.2655233 -0.110342905 -0.19685657 0.11253383 -0.23752885 0.07266045
-0.13556547 -0.35510737 -0.0026608321 0.16074693 0.03240334 -0.15026522 -0.08519089 0.17280713
00000000: 16ac babe 1a3f 33bf 565c ffbe ece0 b3bd
00000010: a3fb fa3e ee9a 75be 19ee 0bbf cd60 8abe
00000020: 5749 3b3e cd22 383f 3cb2 25be fbea 86be
00000030: ffb4 fcbd e757 453e 00c2 033f a136 c3bd
00000040: dea1 cfbd f378 6dbe ce9e 7a3d a67f a23e
00000050: 258f 24be a205 cdbd 008a 2bbd 6db2 c93b
00000060: 9acd b73e 9624 f4bc 316d 6b3d 2ced 87bc
00000070: 19b7 aa3c 3fb2 12be 26fc 0c3e 317f 38be
00000080: 5653 25be 2495 97bb 9a55 4abe b85e a4bc
00000090: c56a bebe a090 89bd e3bf 843d 1a02 90bd
000000a0: 8e3b fe3d bd2e b9bd 1ac5 983c 3c76 4c3d
000000b0: fe04 67bc e16f 3f3e 79da 6ebd 6f92 833d
000000c0: e84c 433d a44d 633d cad8 a0be 17aa 93bd
000000d0: 82a0 7fbc 59a7 833d f365 873d d427 c1bd
000000e0: 4270 533d b446 163e 5cef c03d f6e2 213e
000000f0: 6c09 2dbe c0c8 16be 4e49 f7bd 4b0f 443d
00000100: 4eae 8a3d 0e13 52bd 9784 51be e523 7ebd
00000110: ea18 d13d 38f4 8cbd fa6b 2abe 777f 13be
00000120: 03ba 0dbe 12a5 713d 52b2 94bc 5417 09bf
00000130: 51e6 80be 99c4 ae3e a388 dc3e d5d3 bf3e
00000140: 3bf4 c6bd e626 c03d b74a f63d 80dc 7ebd
00000150: dac0 77be 34c2 0dbc 3e4c 98bd 5ee0 2ebe
00000160: f409 3d3d cbf4 5d3d eeb9 8ebe 130a 27be
00000170: 9822 ad3d 4f31 1c3e f891 e93d baf9 62be
00000180: dca9 76be 156e 54bd edaa 23b9 ed79 26bd
00000190: 66ef d63c da6a be3e de6e 423e fe47 c3bd
000001a0: ed16 03be ff88 a33e 3c7a e03e ef29 f6bc
000001b0: f7ec a9bd 3000 5fbe 73aa 323e b147 2b3e
000001c0: 089a 4e3e 50cd 543d 9e9c f13d f47e 293e
000001d0: 9a7f 0f3e 3a2a 6f3d 9c9c b7bd 572d 15bd
000001e0: b9e2 4b3d 3c47 503c bc76 d93d 7f21 8cbd
000001f0: e40d fd3c dfee 243e 4873 00bf a981 30be
00000200: f51f 0a3c 6978 063e ee64 aabe 231c fbbe
00000210: d1d1 76be ee01 923d d396 7f3e dafd 19bf
00000220: 5b33 9ebe 6396 bfbd 34fb 443e 6c9b 0d3d
00000230: 2e1f b1be edb2 73be 34a8 8bbe c37f de3c
00000240: 8336 103e 2117 35be c5b9 39be 6eb1 14be
00000250: 9090 ed39 34de 683d a608 69bd 9b9e 883e
00000260: 7ef7 eb3d aaeb 853e 4f83 a33e f1aa bfbd
00000270: 279e adbd 16cf 7bbd 24f9 9e3d 6bea 233e
00000280: 3d44 09be 0e78 e9bd 4051 ad3d aef5 5f3c
00000290: b9e3 1c3e 0096 a9bd 6f05 0ebe 0f7c 9ebd
000002a0: 957a 403d c717 fb3b c20b a9bd 8297 3fbe
000002b0: 0d6c 9fbd a3bf 68bd 9c9d afbd 3546 07bf
000002c0: 1c93 3cbe e707 1e3e ae49 463e f03d b73e
000002d0: 29fc a9be 3ac9 c2bc 16b9 223e 8f59 073e
000002e0: 8188 bb3e d29f 8ebe 9a7f 91bd 5947 143d
000002f0: 5fef 623d 650e 1b3e 0ec8 1bbe 15be 153d
00000300: 411a b33d 32ea 103d 52e2 42bc c860 0bbd
00000310: 5ea8 8cbc ea6d a5bd 8588 84bd 6273 a5bd
00000320: 44ea 2bbe 8ac7 75be 6a24 d1be 84b3 88be
00000330: d58e 213c af1d 30be cdd2 82be cdbf 79be
00000340: 19a7 c0bc 2b16 273e b017 e9be 736a 40bc
00000350: 033d 2f3e b073 8f3e c643 b83e 03bc 93be
00000360: e12c 473e 9c90 ab3e 3efe cd3e c41e 8e3e
00000370: 264d 39bd 8b73 9c3e 7eb3 d93e 78ca ab3e
00000380: 2c6f 963e 4ec7 bc3d f4dd ed3c a65a a03d
00000390: 4eac 033e bb53 0b3e 0836 773c 2d17 9abd
000003a0: d5b6 573d e222 3b3d 6da3 67be 6327 a5bd
000003b0: 7491 d93d 7597 063d 20b1 6ebe b578 d4be
000003c0: 2dd4 c93e 4baa 7a3e acf2 87be 76fb e1bd
000003d0: c594 49be 2378 e63d c33a 73be 01cf 943d
000003e0: add1 0abe a2d0 b5be 5b61 2ebb d89a 243e
000003f0: 5db9 043d 20df 19be 9078 aebd 5af4 303e

conv_layers.1.bias f4 [16]
0.714244 -0.23376323 0.040538177 -0.12630403 -0.6612752 -1.2750206 2.2746947 0.41409254
-0.042368274 -0.33761114 -0.89329827 -0.37442055 -0.0780608 0.8754388 1.4388729 0.0011727746
00000000: b2d8 363f a15f 6fbe 5c0b 263d d855 01be
00000010: 5549 29bf e033 a3bf 9994 1140 f003 d43e
00000020: 5b8a 2dbd 5edb acbe 32af 64bf 0db4 bfbe
00000030: 57de 9fbd c21c 603f fd2c b83f c9b7 993a

fc_layers.0.weight f4 [120, 400]
-0.04448221 -0.012556669 -0.023080507 -0.025832988 0.0019420334 -0.12210833 -0.047938198 0.049701355
-0.098841466 -0.05685497 -0.13449597 -0.10132058 -0.011855563 -0.024430532 -0.05427029 -0.0463856
-0.113514155 -0.023679325 -0.008860135 -0.023420108 0.0049274866 -0.051016174 0.13515474 0.026159847
-0.073332645 -0.13262582 -0.018740658 -0.03701545 -0.04878772 0.006021252 -0.12524219 -0.11467232
-0.058462415 0.073188 -0.02640629 -0.086925976 -0.019066345 -0.036505368 0.01665078 0.052724864
0.081279345 0.047683418 -0.0187943 -0.018855846 -0.10233685 -0.0032175174 -0.07534503 -0.08777881
-0.12757538 -0.07634203 -0.033998884 -0.016224314 -0.006781862 0.0034988995 0.05093874 0.0968771
0.063144796 0.0062376717 0.017224165 0.112056844 0.00825944 0.021097885 0.11524029 0.026209913
-0.012636349 -0.12029788 0.03905205 0.046902724 0.04730106 -0.07716516 -0.11414041 0.1093385
0.034576558 -0.0026695272 -0.047463752 -0.001552702 -0.09728267 -0.059662845 -0.06435903 -0.031229844
-0.0045399084 -0.08385853 -0.06308765 -0.020196734 -0.0026602028 0.043265637 0.049010765 -0.035037443
0.010302483 0.00907625 0.08657708 0.08426645 0.0708133 0.101779595 0.07384387 0.01874562
-0.04247514 -0.013578733 0.08894115 0.041733034 -0.11503582 -0.071957275 -0.0073630274 -0.068701394
-0.024041684 0.011444326 -0.07682076 0.043060243 -0.07050967 -0.030232424 -0.093775265 -0.07212447
-0.14883514 0.16818921 0.08565373 -0.060175665 0.09030113 -0.018821344 -0.03554341 0.0046199625
-0.14472581 -0.12074392 -0.093146585 -0.08433906 0.0656118 -0.084133886 -0.09869287 -0.1068386
-0.10117495 -0.12778252 -0.0007396346 0.010123538 -0.049134172 -0.05235797 -0.1680281 0.027239373
0.148759 -0.027172696 -0.046062306 -0.106625736 0.0856535 -0.034620278 -0.08143367 -0.009613416
0.11666552 0.035353918 -0.01798653 -0.04332744 0.06840981 0.07912967 -0.1768171 -0.03347109
-0.12217373 -0.057162732 0.011500966 0.071881205 0.09084628 -0.06119699 -0.06319343 0.025975678
-0.045542132 0.006408126 -0.057192042 -0.029244002 -0.0009559805 -0.08859232 -0.014942252 0.030673644
-0.009478762 -0.015758539 0.029172717 0.0066093365 0.11522914 0.041540198 -0.068840906 -0.06540748
0.0055264053 0.00096586987 -0.09457817 -0.11696167 -0.03837997 -0.05731664 -0.013723739 -0.044625964
-0.08618173 -0.05456526 -0.013184276 -0.058145 -0.01371799 -0.03612275 -0.002806492 0.02313555
-0.051577073 -0.024135983 -0.04293106 0.03514532 -0.063521445 0.030506775 0.05890027 -0.05403607
-0.036301322 0.042033043 -0.08271478 -0.04100987 -0.0059777484 -0.052399326 -0.0697966 -0.04122563
-0.042031594 0.08112 -0.038692497 0.060718186 0.15511522 0.06014382 -0.019340904 0.100996524
0.10536495 -0.05009536 0.01954196 -0.05252407 0.004248228 0.078124866 -0.008179033 -0.033167675
0.09155012 -0.08444509 -0.0051300284 -0.079922624 -0.0071486486 0.10270435 0.076236226 0.07139803
0.094976075 0.07387049 0.058990195 -0.034617268 -0.06281058 0.005659 0.006681609 -0.044694617
-0.032914285 -0.028254634 0.1199137 0.028913653 -0.052018978 -0.06257669 -0.10914768 -0.13762906
-0.06195082 -0.039605 0.121596985 0.111023866 0.07250614 0.03815945 0.077615745 -0.07844899
00000000: fa32 36bd 7dba 4dbc 5513 bdbc b49f d3bc
00000010: d48b fe3a ef13 fabd d85a 44bd a693 4b3d
00000020: 656d cabd c2e0 68bd 50b9 09be 2a81 cfbd
00000030: d63d 42bc 8a22 c8bc 864a 5ebd d4fe 3dbd
00000040: 1c7a e8bd 25fb c1bc 1a2a 11bc 87db bfbc
00000050: c176 a13b 56f6 50bd 0166 0a3e 2d4d d63c
00000060: 6d2f 96bd 10cf 07be 0286 99bc 839d 17bd
00000070: a2d5 47bd ec4d c53b 7d3f 00be 52d9 eabd
00000080: 4976 6fbd 97e3 953d 0152 d8bc 3f06 b2bd
00000090: 0631 9cbc a786 15bd 3767 883c 07f6 573d
000000a0: c975 a63d b04f 433d 81f6 99bc 9377 9abc
000000b0: fb95 d1bd fcdc 52bb 7f4e 9abd 60c5 b3bd
000000c0: 1fa3 02be 3659 9cbd 6a42 0bbd dae8 84bc
000000d0: 623a debb cb4d 653b 24a5 503d 8067 c63d
000000e0: 0f52 813d 6265 cc3b b119 8d3c 0f7e e53d
000000f0: 9a52 073c 79d5 ac3c 1a03 ec3d 2cb6 d63c
00000100: b008 4fbc bc5e f6bd 0bf5 1f3d 121d 403d
00000110: c2be 413d c408 9ebd 73c2 e9bd ddec df3d
00000120: 26a0 0d3d 3cf3 2ebb 5a69 42bd 0984 cbba
00000130: 233c c7bd 0761 74bd abce 83bd bbd5 ffbc
00000140: 83c3 94bb 05be abbd 1934 81bd 9f73 a5bc
00000150: cc56 2ebb 4f37 313d 83bf 483d 6c83 0fbd
00000160: bfcb 283c 8db4 143c 534f b13d e393 ac3d
00000170: 9006 913d d271 d03d 743b 973d 6a90 993c
00000180: 6afa 2dbd 5679 5ebc c726 b63d 42f0 2a3d
00000190: e697 ebbd 565e 93bd 8d45 f1bb 51b3 8cbd
000001a0: 11f3 c4bc fb80 3b3c 3454 9dbd f05f 303d
000001b0: 6067 90bd fda9 f7bc 3f0d c0bd feb5 93bd
000001c0: 3d68 18be cb39 2c3e 396b af3d c27a 76bd
000001d0: cdef b83d 382f 9abc f795 11bd 0e63 973b
000001e0: 0133 14be 9748 f7bd a3c3 bebd f5b9 acbd
000001f0: 7b5f 863d 634e acbd 7d1f cabd 32ce dabd
00000200: d034 cfbd 6cd9 02be 0ae4 41ba 32dd 253c
00000210: ea40 49bd 5075 56bd 8f0f 2cbe 1b25 df3c
00000220: 4754 183e 4699 debc d4ab 3cbd 985e dabd
00000230: 1a6b af3d fecd 0dbd b2c6 a6bd 9781 1dbc
00000240: 55ee ee3d 45cf 103d 7d58 93bc 1d78 31bd
00000250: 711a 8c3d bd0e a23d 8b0f 35be fb18 09bd
00000260: 3836 fabd 7823 6abd 8c6e 3c3c 7436 933d
00000270: 9d0d ba3d b2a9 7abd 8f6b 81bd f2ca d43c
00000280: 638a 3abd 42fb d13b 3442 6abd 1e91 efbc
00000290: c49a 7aba e46f b5bd 59d0 74bc 4b47 fb3c
000002a0: cf4c 1bbc 0d18 81bc 9ffb ee3c 2293 d83b
000002b0: 41fd eb3d 0e26 2a3d 76fc 8cbd 5bf4 85bd
000002c0: d916 b53b 6e32 7d3a 33b2 c1bd 9a89 efbd
000002d0: 5134 1dbd dac4 6abd 89d9 60bc b7c9 36bd
000002e0: 0c80 b0bd d27f 5fbd dd02 58bc 7429 6ebd
000002f0: 6cc1 60bc 73f5 13bd 1fed 37bb c486 bd3c
00000300: 7b42 53bd d3b8 c5bc 7bd8 2fbd 8af4 0f3d
00000310: 8817 82bd 58e9 f93c 6941 713d ed54 5dbd
00000320: b2b0 14bd d72a 2c3d 5e66 a9bd f7f9 27bd
00000330: fde0 c3bb ada0 56bd 85f1 8ebd 35dc 28bd
00000340: 5229 2cbd 3e22 a63d 067c 1ebd a2b3 783d
00000350: 86d6 1e3e 5e59 763d d170 9ebc 44d7 ce3d
00000360: 94c9 d73d cb30 4dbd 7616 a03c 7b23 57bd
00000370: b834 8b3b eeff 9f3d 5a01 06bc d4da 07bd
00000380: a17e bb3d 8cf1 acbd cc19 a8bb 79ae a3bd
00000390: 363f eabb a956 d23d bd21 9c3d 2139 923d
000003a0: d182 c23d 6949 973d b49f 713d d6ca 0dbd
000003b0: d5a2 80bd 226f b93b 66f1 da3b b411 37bd
000003c0: 21d1 06bd 4376 e7bc 5095 f53d 53dc ec3c
000003d0: da11 55bd 3528 80bd d288 dfbd a2ee 0cbe
000003e0: 25c0 7dbd da38 22bd d707 f93d 7b60 e33d
000003f0: 197e 943d 154d 1c3d 01f5 9e3d dda9 a0bd

fc_layers.0.bias f4 [120]
-0.11769822 0.23758501 0.0748768 0.07016992 0.19792433 0.09363044 0.037115425 -0.0124740405
-0.028498815 0.09618363 0.110892825 0.011702219 -0.014906523 0.16554692 0.0969856 0.012258261
0.05871746 0.043187916 -0.09987837 0.01722344 0.19386142 -0.07866633 -0.2151528 0.039546326
0.2513107 0.19282952 0.009710403 -0.10697842 0.18500452 -0.07652904 0.29571488 -0.03928366
0.063898996 -0.010874545 -0.10157111 0.087496206 0.28442827 -0.086852536 -0.069668144 -0.1154679
-0.1452971 -0.037118655 0.039357018 -0.0643273 0.047815107 -0.03184599 0.04907471 0.04520406
-0.02128969 -0.062131464 0.2123693 -0.2573172 0.08462818 0.1364925 0.19995037 -0.071329124
-0.14734629 0.030693715 0.1905647 -0.109518275 0.24342053 0.1747158 0.072251655 0.10966052
-0.05412198 0.03362312 0.18465526 -0.12856287 -0.01257883 0.26620057 -0.046989765 -0.035450913
-0.033586793 0.07597991 -0.0086169485 -0.18119968 0.04048184 -0.14853477 0.26847386 -0.04168943
0.24475485 0.0917689 -0.1996001 0.039210074 0.01496371 0.07608649 0.2670533 0.04066755
0.2095302 0.17337018 0.13521644 -0.07366622 0.44698724 0.21989577 -0.06946313 -0.25331306
-0.0771901 -0.016167024 0.008898637 -0.03659822 0.22106455 0.291265 0.0018730515 0.024587918
0.07086745 -0.24431083 0.051402748 -0.0050403764 -0.015077191 -0.07558165 -0.03987611 -0.0582367
0.16201627 0.046006493 0.15817289 0.053074375 0.04021042 -0.14561479 0.07410912 0.03727774
00000000: c40b f1bd 7c49 733e 0259 993d 3fb5 8f3d
00000010: adac 4a3e 51c1 bf3d 5806 183d eb5f 4cbc
00000020: 5976 e9bc ecfb c43d c71b e33d aaba 3f3c
00000030: 7d3a 74bc 2285 293e 63a0 c63d e0d6 483c
00000040: b881 703d d0e5 303d 088d ccbd 2c18 8d3c
00000050: 9c83 463e d01b a1bd 0451 5cbe 54fb 213d
00000060: ccab 803e 1a75 453e 6218 1f3c 8017 dbbd
00000070: d371 3d3e 42bb 9cbd f167 973e e7e7 20bd
00000080: 7add 823d 262b 32bc 8404 d0bd 3631 b33d
00000090: 95a0 913e bedf b1bd 2cae 8ebd 6f7a ecbd
000000a0: c3c8 14be bb09 18bd d334 213d 08be 83bd
000000b0: c6d9 433d f170 02bd 9002 493d e427 393d
000000c0: b767 aebc 907d 7ebd 5677 593e 14bf 83be
000000d0: 8a51 ad3d b1c4 0b3e cabf 4c3e 0115 92bd
000000e0: f2e1 16be 6371 fb3c 6523 433e 1e4b e0bd
000000f0: 3b43 793e b3e8 323e adf8 933d b295 e03d
00000100: 02af 5dbd 66b8 093d 4516 3d3e fca5 03be
00000110: 7017 4ebc 714b 883e 5778 40bd fa34 11bd
00000120: 4e92 09bd 5b9b 9b3d 1a2e 0dbc 698c 39be
00000130: 49d0 253d 8019 18be 6875 893e 89c2 2abd
00000140: 04a1 7a3e 55f1 bb3d f863 4cbe be9a 203d
00000150: 592a 753c 3cd3 9b3d 36bb 883e 0493 263d
00000160: 168f 563e f487 313e 2e76 0a3e 51de 96bd
00000170: 83db e43e 5b2c 613e af42 8ebd 40b2 81be
00000180: d815 9ebd b570 84bc 97cb 113c 04e8 15bd
00000190: bf5e 623e b020 953e 2e81 f53a 9a6c c93c
000001a0: f422 913d 9e2c 7abe b08b 523d be29 a5bb
000001b0: 5306 77bc 8dca 9abd 2255 23bd 9b89 6ebd
000001c0: 98e7 253e 4e71 3c3d 13f8 213e 8464 593d
000001d0: aeb3 243d 0b1c 15be 86c6 973d 8bb0 183d

fc_layers.1.weight f4 [84, 120]
-0.07776462 -0.23370758 -0.023394264 0.10878376 -0.027121847 -0.13584898 -0.038459323 -0.158638
-0.03985466 -0.0967454 -0.020041885 -0.2484059 0.11748756 0.051254973 -0.094166614 0.07834822
-0.014139787 0.07751034 -0.04091246 -0.049849004 0.019927314 -0.10975838 -0.05850267 -0.12180923
-0.07778876 -0.06645055 0.30327585 -0.16337872 -0.23711267 0.024411066 -0.10887735 0.1298768
-0.110359974 0.026349619 -0.19980063 -0.26024348 -0.008082179 -0.088555805 0.08295696 0.08736796
-0.22757398 -0.097961865 -0.07521379 -0.03219265 0.08482865 0.25821683 0.010590835 3.979634e-05
0.030939301 0.04808604 0.08517378 -0.04445897 0.012583733 -0.011355738 0.17106308 -0.06833296
0.0648378 0.040862102 -0.06487248 -0.12530485 -0.05372796 -0.08751725 0.059934534 0.14175767
-0.080415875 -0.04446653 -0.1648854 0.05575216 -0.072573826 0.08525493 0.07982077 0.10126695
0.12763774 -0.19710493 0.08816171 0.047605257 0.061476287 0.053584073 -0.18697521 0.008097508
-0.022758648 -0.16149424 0.07258466 -0.11088813 -0.020390663 0.02434031 -0.101980545 0.029018668
0.13121544 -0.014221479 0.10424232 -0.09149388 0.01862969 -0.09621833 -0.108665235 -0.103466205
0.30300385 0.069975495 -0.057904508 -0.067301825 -0.016987408 -0.047242083 0.049018 -0.00619812
-0.11007158 -0.1539901 0.11670599 0.08115743 -0.22982419 0.021607665 -0.037686452 -0.2068705
-0.16295308 -0.19606389 -0.023726854 -0.04617941 -0.15752676 -0.04412198 -0.15465514 0.039777167
-0.0032526585 0.049872205 0.049259327 -0.15126903 -0.08904359 0.05363032 -0.06461507 0.06831593
-0.074195966 -0.0029998834 0.041384883 -0.11116673 0.1300307 0.038524065 -0.04059163 -0.002079534
0.003002066 -0.048911054 0.052425828 -0.07393739 0.084823094 0.018325107 -0.066197574 -0.061149888
0.041779872 -0.0057981927 -0.08369457 0.038790133 0.043570787 -0.11934149 -0.09756248 -0.08397178
-0.102350965 0.025156675 -0.05685322 -0.10329614 0.03593301 -0.010340547 -0.08269364 -0.09408388
-0.033226393 0.0808368 -0.21165343 -0.059932563 0.16428787 -0.030181762 -0.14584772 0.22080426
-0.10163405 -0.055185765 0.06676461 -0.080585204 0.04894717 0.020855578 -0.039371993 0.06595805
-0.060677633 -0.059051253 -0.09288011 0.01799144 -0.005066612 -0.095942065 -0.088306196 0.10117858
-0.060637888 -0.10340353 -0.0110932365 -0.14133953 0.08466112 -0.0043974635 -0.078419164 -0.13310403
-0.073411025 -0.0029671302 0.058255356 -0.0036429344 0.1132121 0.10295155 0.055776402 0.040729105
0.010579892 -0.075124666 -0.018445108 0.025862372 -0.047319446 0.1733367 -0.037865806 -0.06764378
-0.1658502 -0.08460477 0.036436066 -0.014855114 -0.0021285794 -0.01994391 -0.0023124502 0.07582988
0.07152097 -0.058969215 -0.05866037 -0.075066015 0.01485726 0.054162968 0.015566658 0.009226707
0.011735462 -0.04637141 0.063212335 -0.013333013 -0.02091365 -0.11856301 -0.06732828 -0.010785117
-0.052712422 -0.056237552 -0.0012533762 -0.09399413 0.108221196 0.018640628 -0.01493651 0.06431561
-0.00045935088 -0.21304204 0.17544186 -0.08892345 0.07232987 0.046455447 -0.093228735 0.108815774
-0.15381812 -0.08896833 -0.039011855 -0.109219685 -0.064069085 -0.09010658 0.108837076 -0.15105331
00000000: 0f43 9fbd 0a51 6fbe 54a5 bfbc 05ca de3d
00000010: a32e debc ff1b 0bbe 8687 1dbd 0072 22be
00000020: a43e 23bd 7422 c6bd e12e a4bc 1e5e 7ebe
00000030: 519d f03d bcf0 513d 6dda c0bd 0875 a03d
00000040: 91aa 67bc bebd 9e3d d393 27bd 782e 4cbd
00000050: 9b3e a33c 00c9 e0bd 7fa0 6fbd 1e77 f9bd
00000060: b74f 9fbd 3a17 88bd f946 9b3e c04c 27be
00000070: aacd 72be b7f9 c73c 17fb debd 6dfe 043e
00000080: 6904 e2bd 28db d73c 8998 4cbe a23e 85be
00000090: 1e6b 04bc bf5c b5bd 57e5 a93d f9ed b23d
000000a0: 2709 69be 3ba0 c8bd b009 9abd 71dc 03bd
000000b0: a5ba ad3d ff34 843e 2e85 2d3c ffea 2638
000000c0: 6b74 fd3c def5 443d 976f ae3d 9c1a 36bd
000000d0: 002c 4e3c 6b0d 3abc 292b 2f3e 27f2 8bbd
000000e0: aec9 843d 055f 273d dddb 84bd ea4f 00be
000000f0: d911 5cbd 3e3c b3bd ea7d 753d ec28 113e
00000100: 14b1 a4bd 8922 36bd b8d7 28be 605c 643d
00000110: 96a1 94bd 239a ae3d 1279 a33d 0c65 cf3d
00000120: 78b3 023e e0d5 49be 208e b43d bbfd 423d
00000130: 8fce 7b3d f97a 5b3d 6e76 3fbe 69ab 043c
00000140: 5870 babc bf5e 25be 44a7 943d 5119 e3bd
00000150: 520a a7bc 5465 c73c 2ddb d0bd 8fb8 ed3c
00000160: 575d 063e 3501 69bc ff7c d53d 2561 bbbd
00000170: 4b9d 983c 1e0e c5bd e18b debd 17e6 d3bd
00000180: 5223 9b3e 504f 8f3d 472d 6dbd 8ad5 89bd
00000190: 2d29 8bbc ea80 41bd 19c7 483d 9919 cbbb
000001a0: 356d e1bd 95af 1dbe 8d03 ef3d de35 a63d
000001b0: 0857 6bbe 8f02 b13c 1c5d 1abd dcd5 53be
000001c0: 2cdd 26be f9c4 48be d25e c2bc 9f26 3dbd
000001d0: b24e 21be 40b9 34bd eb5d 1ebe 62ed 223d
000001e0: 8e2a 55bb cc46 4c3d 26c4 493d 45e6 1abe
000001f0: 7c5c b6bd 77ab 5b3d e854 84bd 39e9 8b3d
00000200: 0ef4 97bd b199 44bb 3283 293d 62ab e3bd
00000210: c526 053e 69cb 1d3d 6943 26bd cb48 08bb
00000220: 4fbe 443b f556 48bd 77bc 563d 7d6c 97bd
00000230: bbb7 ad3d 891e 963c 9892 87bd 4e78 7abd
00000240: 5f21 2b3d c4fe bdbb 0f68 abbd 67e2 1e3d
00000250: 4877 323d 5069 f4bd d6ce c7bd 66f9 abbd
00000260: 629d d1bd 5f15 ce3c ecde 68bd ed8c d3bd
00000270: 7e2e 133d 666b 29bc 485b a9bd 0daf c0bd
00000280: 6618 08bd c48d a53d adbb 58be d97b 75bd
00000290: 143b 283e be3f f7bc 1b59 15be 831a 623e
000002a0: 8325 d0bd 780a 62bd e2bb 883d db09 a5bd
000002b0: d47c 483d 51d9 aa3c 8744 21bd 0415 873d
000002c0: 1c89 78bd badf 71bd ed37 bebd c962 933c
000002d0: d205 a6bb 467d c4bd e1d9 b4bd b736 cf3d
000002e0: 6f5f 78bd 3bc5 d3bd 68c0 35bc 4fbb 10be
000002f0: cf62 ad3d 9918 90bb 3a9a a0bd 6c4c 08be
00000300: 8558 96bd 2f74 42bb 2b9d 6e3d 4cbe 6ebb
00000310: bfdb e73d 43d8 d23d cc75 643d 90d3 263d
00000320: 4957 2d3c f6da 99bd 321a 97bc 53dd d33c
00000330: 09d2 41bd 2d7f 313e 2d19 1bbd d288 8abd
00000340: a3d4 29be 4445 adbd fc3d 153d dd62 73bc
00000350: a37f 0bbb 6961 a3bc 7a8c 17bb b24c 9b3d
00000360: 9679 923d b489 71bd db45 70bd 36bc 99bd
00000370: dd6b 733c fdd9 5d3d 4c0b 7f3c 9d2b 173c
00000380: 1846 403c f3ef 3dbd 7875 813d b672 5abc
00000390: 1a53 abbc 2ad1 f2bd 69e3 89bd 0fb4 30bc
000003a0: fbe8 57bd 5959 66bd 5448 a4ba ff7f c0bd
000003b0: 13a3 dd3d 3bb4 983c 43b8 74bc e7b7 833d
000003c0: 08d5 f0b9 b127 5abe 08a7 333e 7f1d b6bd
000003d0: af21 943d 1148 3e3d b5ee bebd ceda de3d
000003e0: 7f82 1dbe 0735 b6bd e5ca 1fbd 92ae dfbd
000003f0: a736 83bd cc89 b8bd f9e5 de3d b8ad 1abe

fc_layers.1.bias f4 [84]
0.105222836 -0.07627003 0.18186839 0.1873265 0.004827084 -0.014610649 0.11020636 0.12866338
0.19475463 0.018118333 0.2972954 0.19808477 0.44164625 0.3507027 0.027406553 0.05514264
0.5226643 0.18694131 0.10546669 -0.043809872 0.21285301 0.20060988 -0.0012416784 0.020091727
0.49351123 0.20836659 0.41839465 0.45669332 -0.05644699 0.53144836 0.13339655 0.0123850675
0.40651095 -0.14439605 0.20144714 0.40563855 0.116831675 0.6761501 0.25858065 0.053137474
0.5492676 0.043573312 0.20190123 0.07074118 0.06832681 -0.13502507 0.22473894 -0.027471455
-0.05425079 0.027262602 0.5355886 -0.039458647 0.51093656 0.06764717 0.756824 -0.08266576
0.07471955 0.33052933 -0.019924024 0.47064427 0.09876057 0.21274231 0.44494238 -0.033550356
0.05864916 0.37780842 -0.117117696 -0.07731375 -0.1371527 -0.1400285 -0.00034852902 0.10670985
0.21925797 0.096483015 0.758691 -0.0141609935 0.18045202 0.29312366 0.122233525 0.03882508
0.48931673 0.057861656 0.40330267 0.28772625
00000000: 127f d73d 7633 9cbd b53b 3a3e 85d2 3f3e
00000010: 842c 9e3b 8161 6fbc dfb3 e13d 55c0 033e
00000020: c26d 473e e66c 943c 1a37 983e bcd6 4a3e
00000030: 751f e23e 4e8f b33e b583 e03c 40dd 613d
00000040: 54cd 053f 8b6d 3f3e ecfe d73d fb71 33bd
00000050: 24f6 593e ad6c 4d3e d0bf a2ba 6897 a43c
00000060: 81ad fc3e 0d5e 553e d337 d63e b5d3 e93e
00000070: f634 67bd 000d 083f 1b99 083e bdea 4a3c
00000080: 3422 d03e 8fdc 13be 2948 4e3e dbaf cf3e
00000090: 7245 ef3d 2c18 2d3f af64 843e aea6 593d
000000a0: cd9c 0c3f ee79 323d 32bf 4e3e c0e0 903d
000000b0: edee 8b3d 0344 0abe f721 663e d10b e1bc
000000c0: 1436 5ebd d255 df3c 561c 093f 649f 21bd
000000d0: bdcc 023f 998a 8a3d 38bf 413f aa4c a9bd
000000e0: 9006 993d 243b a93e b537 a3bc 49f8 f03e
000000f0: fb42 ca3d 1fd9 593e 7dcf e33e 196c 09bd
00000100: 1a3a 703d 1b70 c13e 67db efbd ac56 9ebd
00000110: c271 0cbe a263 0fbe c6ba b6b9 b28a da3d
00000120: 2985 603e e398 c53d 9339 423f 8303 68bc
00000130: 6ac8 383e 4e14 963e 9255 fa3d 0c07 1f3d
00000140: b987 fa3e 5800 6d3d b07d ce3e db50 933e

output_layer.weight f4 [10, 84]
-0.22258392 -0.012669637 0.17222677 0.1038858 -0.03707826 -0.08837347 -0.061260935 0.23199949
-0.32004884 0.024803516 0.22620933 -0.15300477 0.106777646 -0.12855871 -0.17805246 -0.021899698
0.21832515 0.23379348 -0.0770227 -0.30894408 -0.22759373 0.11206346 0.1538478 -0.12785412
-0.03547143 -0.0018171016 0.118657455 0.19572888 0.05593873 -0.104639605 0.090103045 0.09327595
0.27687994 0.2746098 -0.16640525 -0.090279825 0.12541883 -0.25706562 -0.05405139 0.07486491
-0.079885036 0.015161354 0.20887884 0.09058305 0.23252805 0.12099094 0.041739047 -0.011979808
0.1959921 -0.061457973 -0.073821455 0.21254203 -0.06931592 0.095398724 -0.2333206 0.2488268
0.017252194 0.023581201 -0.028553586 -0.22993071 -0.06534543 0.043765735 -0.09832502 -0.09117967
0.05138492 -0.1521121 0.091283716 0.14624682 0.021542216 0.1570955 -0.07548339 -0.028988792
0.05702787 0.106882684 -0.4346648 0.014360899 0.21658717 0.1750638 -0.10439299 0.1858813
0.22268477 0.1304779 -0.0078596305 -0.045843314 -0.015810989 0.015379941 0.3131828 0.2311824
-0.017027298 0.07443664 0.045766342 0.047060356 0.09611446 -0.14197342 0.036482614 -0.15209746
-0.07836194 -0.14258085 -0.112618305 -0.13932127 -0.09268782 0.1518158 0.2205976 0.18625985
0.049916558 0.13977577 0.2985303 0.05375318 -0.113023594 0.08206059 0.19817826 -0.2642387
-0.10132049 -0.34900585 0.16341367 0.17130843 -0.20228262 -0.03161055 0.18302377 0.04630335
-0.29389352 -0.19985305 -0.1488579 0.2592431 -0.49811032 0.083970465 0.04622782 -0.079475224
-0.24347945 -0.11380768 -0.0754899 0.017936086 0.09818658 -0.037690505 -0.2581961 -0.14741464
-0.13331608 -0.3152324 -0.014263595 0.07344543 0.09996886 -0.05850033 0.047009226 -0.16888438
0.16170102 0.24716152 -0.17601979 0.17177783 0.07779983 -0.061509382 0.16996266 -0.041711032
0.011260897 0.19116515 0.029077716 -0.13834414 -0.24814871 0.34686145 -0.37819326 0.33497962
0.24892235 -0.054859802 -0.14132324 0.1382626 0.059321593 -0.094960995 -0.16314119 -0.12234947
-0.04490878 -0.16988702 -0.1979406 -0.037286673 -0.14106895 0.19746105 0.15284404 0.09800355
0.003130444 0.14809033 0.02780739 0.003087338 0.08542804 0.16005245 -0.027227154 0.04746212
0.111180365 -0.14487153 0.07492785 0.068049885 -0.027754096 -0.12136377 -0.06286374 0.073153414
0.036601502 0.044904526 -0.060765117 0.28815877 -0.09673464 -0.03884096 0.04756144 0.20350623
0.16042008 0.11381598 -0.27458113 0.014589953 0.2405608 -0.034361556 -0.15237468 -0.11683698
0.2880286 -0.16653904 0.022686904 -0.05370801 0.22735813 0.12399151 -0.16965716 -0.073432
-0.096094206 -0.07335074 0.05436792 0.16728717 0.21822473 -0.24188423 0.1785655 -0.07713103
0.13434705 -0.04747123 0.20556651 0.06765029 -0.05203028 -0.13822308 0.22694589 0.071483456
-0.079877965 0.12689105 0.15358749 0.20021825 0.103708565 -0.07772952 0.1637661 -0.18859851
-0.1127163 -0.06074509 0.23452848 0.07681934 0.03722257 0.00612187 0.0015278382 0.13032255
0.0990195 -0.050809767 -0.008196992 0.027756661 -0.046855412 0.09879277 0.058521014 -0.2590337
00000000: 0aed 63be 4f94 4fbc 375c 303e 14c2 d43d
00000010: 60df 17bd 26fd b4bd bfec 7abd 4691 6d3e
00000020: 71dd a3be be30 cb3c 6ba3 673e 48ad 1cbe
00000030: 3dae da3d e5a4 03be 6253 36be ff66 b3bc
00000040: a190 5f3e 8f67 6f3e 14be 9dbd eb2d 9ebe
00000050: 550e 69be 8781 e53d 478a 1d3e 31ec 02be
00000060: 7d4a 11bd d02b eeba ae02 f33d 276d 483e
00000070: 0220 653d 4a4d d6bd f287 b83d 7607 bf3d
00000080: 35c3 8d3e a899 8c3e 2366 2abe a1e4 b8bd
00000090: cb6d 003e 1b9e 83be fe64 5dbd c652 993d
000000a0: c49a a3bd 5467 783c 56e4 553e 9b83 b93d
000000b0: d51b 6e3e 19ca f73d 90f6 2a3d f546 44bc
000000c0: 27b2 483e 5bbb 7bbd b42f 97bd 9ea4 593e
000000d0: 81f5 8dbd 6860 c33d 98eb 6ebe 74cc 7e3e
000000e0: 7954 8d3c 5d2d c13c 36e9 e9bc f572 6bbe
000000f0: d3d3 85bd b343 333d a15e c9bd 68bc babd
00000100: fe78 523d 46c3 1bbe f5f2 ba3d bac1 153e
00000110: 4d79 b03c a5dd 203e 0997 9abd e779 edbc
00000120: 0e96 693d 4fe5 da3d 628c debe fa49 6b3c
00000130: 07c9 5d3e ed43 333e fecb d5bd ab57 3e3e
00000140: 7a07 643e 009c 053e aec5 00bc 33c6 3bbd
00000150: 0c86 81bc 26fc 7b3c 7f59 a03e 14bb 6c3e
00000160: d57c 8bbc 3d72 983d 7d75 3b3d 5cc2 403d
00000170: a8d7 c43d 7b61 11be cb6e 153d 70bf 1bbe
00000180: 3a7c a0bd b700 12be 6da4 e6bd 3caa 0ebe
00000190: 1dd3 bdbd 9a75 1b3e 56e4 613e e7ba 3e3e
000001a0: 4e75 4c3d 6121 0f3e f7d8 983e 4b2c 5c3d
000001b0: ea78 e7bd 620f a83d 3eef 4a3e 4b4a 87be
000001c0: 1e81 cfbd e5b0 b2be ea55 273e 7a6b 2f3e
000001d0: 2d23 4fbe 107a 01bd 956a 3b3e 95a8 3d3d
000001e0: 3679 96be 47a6 4cbe 356e 18be 83bb 843e
000001f0: 5108 ffbe b5f8 ab3d 6259 3d3d e8c3 a2bd
00000200: ad52 79be 0014 e9bd 739a 9abd b3ee 923c
00000210: 0c16 c93d 5c61 1abd 4732 84be ddf3 16be
00000220: 0384 08be 2466 a1be dbb1 69bc 8f6a 963d
00000230: 79bc cc3d 0b9e 6fbd bf8c 403d 07f0 2cbe
00000240: f494 253e e917 7d3e 883e 34be 87e6 2f3e
00000250: 8455 9f3d 43f1 7bbd b10a 2e3e 30d9 2abd
00000260: a07f 383c ccc0 433e 6434 ee3c 16aa 0dbe
00000270: b21a 7ebe d397 b13e 8ca2 c1be 7382 ab3e
00000280: 80e5 7e3e acb4 60bd 0ab7 10be b694 0d3e
00000290: 33fb 723d e97a c2bd 7c0e 27be 5c92 fabd
000002a0: 45f2 37bd ddf6 2dbe f1b0 4abe e9b9 18bd
000002b0: 6174 10be 3b33 4a3e 2683 1c3e 16b6 c83d
000002c0: 2328 4d3b fea4 173e 53cc e33c f054 4a3b
000002d0: e5f4 ae3d cae4 233e 7b0b dfbc a467 423d
000002e0: 88b2 e33d 3459 14be c673 993d bd5d 8b3d
000002f0: 8f5c e3bc 918d f8bd b4be 80bd 75d1 953d
00000300: 75eb 153d cfed 373d d8e4 78bd 8c89 933e
00000310: d01c c6bd b317 1fbd c9cf 423d f063 503e
00000320: 2945 243e 5a18 e93d e695 8cbe b30a 6f3c
00000330: 9255 763e b4be 0cbd 1c08 1cbe 3a48 efbd
00000340: 7c78 933e 3689 2abe e3d9 b93c eefc 5bbd
00000350: 92d0 683e 43ef fd3d 9bba 2dbe 8463 96bd
00000360: 0acd c4bd ea38 96bd e5b0 5e3d 544d 2b3e
00000370: 4e76 5f3e 80b0 77be e0d9 363e e0f6 9dbd
00000380: 4692 093e 3171 42bd 0780 523e 3c8c 8a3d
00000390: b41d 55bd 5a8a 0dbe 8164 683e eb65 923d
000003a0: 0f97 a3bd baef 013e 0a46 1d3e 0306 4d3e
000003b0: 2865 d43d a830 9fbd 4db2 273e f81f 41be
000003c0: ced7 e6bd d8cf 78bd 3c28 703e 7553 9d3d
000003d0: b276 183d f899 c83b be41 c83a 4673 053e
000003e0: bcca ca3d e71d 50bd ad4c 06bc f061 e33c
000003f0: 76eb 3fbd dd53 ca3d bbb3 6f3d 11a0 84be

output_layer.bias f4 [10]
-0.3235251 -0.7926336 -0.044810165 0.7898327 0.70568806 -0.032616556 0.15449126 -0.24467672
0.14155789 -0.34954637
00000000: 15a5 a5be 09ea 4abf dd8a 37bd 7a32 4a3f
00000010: f9a7 343f f098 05bd f532 1e3e 898c 7abe
00000020: 8df4 103e bef7 b2be
