Lab1/model/model_CIFAR10_10iters/conv_params_original.pth (torch, 252014 bytes, 10 tensors)

conv_layers.0.weight f4 [6, 3, 5, 5]
0	0xbe36bed1	-0.17846228
1	0x3eaa5c9b	0.33273777
2	0x3f37d35c	0.71806884
3	0x3f50d6cb	0.8157775
4	0x3eda1cb0	0.42600012
5	0x3ef0d204	0.4703523
6	0x3f37f9ec	0.71865726
7	0x3f5d4b2b	0.8644282
8	0x3efe1d42	0.49631697
9	0x3c4252e5	0.011860584
10	0x3e8a2041	0.26977733
11	0x3ee6f865	0.45111385
12	0x3e9ad3b1	0.30239633
13	0x3d89205f	0.066956274
14	0x3e13a5b4	0.1441868
15	0x3d335b1e	0.043788068
16	0xbc634f9c	-0.013873961
17	0xbe7fc08b	-0.24975793
18	0xbee2ccfb	-0.44297013
19	0x3d825830	0.06364477
20	0xbf076c77	-0.5289988
21	0xbf00d88c	-0.50330424
22	0xbf237360	-0.63847923
23	0xbf091abc	-0.5355642
24	0xbdecf915	-0.11570946
25	0xbedc5605	-0.43034378
26	0xbeb8965f	-0.36052224
27	0xbdef1e87	-0.116757445
28	0xbdabac9d	-0.08382533
29	0xbd803c38	-0.06261486
30	0xbe264d98	-0.16240537
31	0xbeb182e0	-0.34670162
32	0xbebcb2b2	-0.36855084
33	0xbee6d4e0	-0.45084286
34	0xbf49b529	-0.78792053
35	0xbdfdaf84	-0.123869926
36	0xbe766fd6	-0.240661
37	0xbf2d97da	-0.6780983
38	0xbf64375f	-0.8914699
39	0xbee0c64f	-0.43901297
40	0x3e644b3a	0.22294322
41	0xbe2d8acf	-0.16947483
42	0xbf0ca7e8	-0.54943705
43	0xbeebe677	-0.46074268
44	0x3e3226ba	0.17397586
45	0x3ecb6274	0.3972355
46	0xbd978186	-0.073977515
47	0xbe9ccfda	-0.30627328
48	0xbd6673ee	-0.056262903
49	0x3edc596a	0.43036968
50	0xbda83be2	-0.08214547
51	0x3bff7b30	0.0077966675
52	0x3dabeddb	0.08394977
53	0x3d9d9798	0.0769493
54	0x3dfb069e	0.122571215
55	0xbabcf6bb	-0.0014416793
56	0xbda14b5e	-0.07875703
57	0xbc236586	-0.009972936
58	0xbeb0e9d4	-0.34553397
59	0xbee120de	-0.43970388
60	0x3d37ddb1	0.044889156
61	0xbe035f15	-0.1282924
62	0xbed18947	-0.40925047
63	0xbf18d6de	-0.5970286
64	0x3d93f539	0.07224507
65	0x3e982158	0.2971294
66	0x3ded120b	0.11575707
67	0xbea59b2f	-0.32344958
68	0xbdf247eb	-0.118301235
69	0x3f0e3b86	0.55559576
70	0x3f09719f	0.53689
71	0x3e219ef2	0.15783289
72	0x3e44105f	0.1914687
73	0x3eae78c8	0.34076524
74	0x3f8407d2	1.0314887
75	0x3cf64591	0.030062469
76	0xbe8e4a76	-0.27791184
77	0xbdc7fd6c	-0.09765133
78	0xbf0db90f	-0.553605
79	0x3f007d9f	0.5019168
80	0xbe080fc9	-0.13287272
81	0xbbf2489f	-0.007393911
82	0x3f40996a	0.7523409
83	0xbf81b93d	-1.0134655
84	0x3ea1d561	0.31608108
85	0xbe905194	-0.2818724
86	0x3dad96d2	0.08476032
87	0x3f9db347	1.2320336
88	0xbfa23cad	-1.2674767
89	0x3e0b3225	0.13593347
90	0x3e03b546	0.12862119
91	0x3e273ced	0.16331835
92	0x3eb67eec	0.3564371
93	0xbf974cf6	-1.1820362
94	0x3f319b7a	0.69377863
95	0x3e7353b9	0.23762406
96	0xbe2d75e0	-0.16939497
97	0x3dcea2f6	0.10089676
98	0xbe7b003a	-0.24511805
99	0x3edfb8f4	0.43695796
100	0x3e887406	0.2665102
101	0x3de359a7	0.11101084
102	0x3e82159b	0.2540711
103	0xbf0c06e1	-0.54697996
104	0x3e54802e	0.20752022
105	0x3e0e323b	0.13886349
106	0x3e9576d0	0.2919221
107	0x3f4d3548	0.80159426
108	0xbf877e6e	-1.0585458
109	0xbdd0e8a7	-0.10200625
110	0xbcc70b3f	-0.024297355
111	0x3eaefdd3	0.34178028
112	0x3f89073d	1.0705334
113	0xbfb8ebb3	-1.444693
114	0xbe0230d5	-0.1271394
115	0x3e4a6f5c	0.19769043
116	0x3ecc373f	0.398859
117	0x3ecf92bc	0.40541637
118	0xbfa853a4	-1.3150525
119	0x3ec82973	0.39094123
120	0x3e83c893	0.25738963
121	0xbe82cb0b	-0.25545534
122	0xbd0efaa8	-0.034907013
123	0xbf0b034c	-0.54301906
124	0x3e3391ad	0.1753604
125	0xbe001d22	-0.12511113
126	0xbbcd27c1	-0.0062608426
127	0x3e86975b	0.2628735
128	0xbefac105	-0.48975387
129	0x3d348754	0.04407437
130	0xbd8cdfe9	-0.06878645
131	0x3d9d9977	0.07695287
132	0x3f70a62f	0.94003576
133	0xbf6cb81a	-0.92468417
134	0xbe0bacbc	-0.13640112
135	0xbeb2ab2d	-0.34896222
136	0x3ea19d7f	0.31565472
137	0x3fa9f523	1.3277935
138	0xbfa3f0fb	-1.2807916
139	0xbcfea638	-0.031085119
140	0x3d29bcb0	0.041439712
141	0x3edc6007	0.43042013
142	0x3f0a12cc	0.5393493
143	0xbf6a32d7	-0.91483825
144	0x3eefa843	0.4680806
145	0xbc839005	-0.016059885
146	0xbe0b4e72	-0.13604143
147	0x3e0237c6	0.12716588
148	0xbebd9faa	-0.37035877
149	0x3eb00b0c	0.34383428
150	0x3e1a70c2	0.15082076
151	0x3c0ab468	0.008465864
152	0xbd8f4f2e	-0.06997524
153	0xbc38fd42	-0.01129085
154	0x3b2a4952	0.0025983644
155	0x3c7e0c38	0.015505843
156	0xbca403fd	-0.020021433
157	0xbcb102eb	-0.021607837
158	0xbd55553d	-0.052083243
159	0xbc165b5e	-0.009177057
160	0xbe09ff23	-0.13476233
161	0xbda1a3d2	-0.07892574
162	0xbe4f1b75	-0.20225318
163	0xbe39fde6	-0.18163261
164	0xbdac8648	-0.084240496
165	0xbd2a5ef9	-0.04159448
166	0x3e050826	0.1299139
167	0xbd6b58db	-0.057457786
168	0xbe1f9a35	-0.15586169
169	0x3deb4536	0.1148781
170	0x3db796a5	0.0896428
171	0x3e8a2d1d	0.26987544
172	0x3eed3a12	0.46333367
173	0x3e583647	0.21114455
174	0x3e77d2b5	0.24201472
175	0x3ddc2758	0.10749692
176	0x3e13c37b	0.14430039
177	0xbe807cae	-0.25095123
178	0xbe84f1e6	-0.25965804
179	0xbeacd204	-0.3375398
180	0xbc5b5b6a	-0.013388494
181	0x3eabb538	0.33536696
182	0x3da58a62	0.08083035
183	0xbe171d3a	-0.14757243
184	0xbe9a62bd	-0.30153456
185	0xbe433ceb	-0.19066207
186	0x3dfbfc73	0.1230401
187	0x3d8109f9	0.0630073
188	0xbc91f24c	-0.017815731
189	0xbdb89b24	-0.09013966
190	0xbee19d5f	-0.44065377
191	0x3d7a99b9	0.061181758
192	0x3dcd71bb	0.10031458
193	0xbcb29550	-0.021799713
194	0xbdf4df16	-0.11956613
195	0xbf039da6	-0.5141243
196	0xbd998dd0	-0.07497752
197	0x3c996a51	0.018727453
198	0x3db35f71	0.087584384
199	0xba06ebf6	-0.0005146855
200	0x3efb1c6d	0.49045125
201	0x3ee88033	0.45410308
202	0xbdadc0a2	-0.084840074
203	0xbe8d2928	-0.27570462
204	0xbea53557	-0.32267258
205	0x3ec49c01	0.38400272
206	0x3f4fc0c3	0.81153506
207	0x3ee778d9	0.45209387
208	0x3e306485	0.17225845
209	0xbe5d544e	-0.21614191
210	0x3d601d61	0.054715518
211	0x3f05703f	0.521244
212	0x3ec69ce0	0.3879156
213	0x3e11a1d1	0.14221884
214	0xbd3f07a5	-0.04663815
215	0xbe65b65c	-0.22432846
216	0x3e4b7011	0.19866969
217	0x3ed6238c	0.41823995
218	0x3e61c2e4	0.22047001
219	0xbd1601ce	-0.036622815
220	0xbed69889	-0.4191325
221	0xbe3539c2	-0.17697814
222	0x3e1d850b	0.15382783
223	0x3d29c69a	0.041449167
224	0xbb6884e3	-0.0035479597
225	0x3e8e4240	0.2778492
226	0xbec08be1	-0.3760672
227	0xbf10e9b7	-0.5660662
228	0xbebec42d	-0.37259045
229	0xbea11cff	-0.31467435
230	0x3eaa187d	0.33221808
231	0x3f4442b4	0.7666428
232	0xbd8ced98	-0.06881255
233	0xbca82a2b	-0.02052792
234	0x3d8e6f87	0.06954866
235	0xbf28e488	-0.6597371
236	0x3f443f67	0.76659244
237	0x3f87e042	1.0615313
238	0x3f62c3a0	0.8857975
239	0x3d115eb6	0.035490714
240	0xbeef1916	-0.46698827
241	0xbf73aaa1	-0.95182234
242	0xbf352bf0	-0.7077017
243	0xbf2d5b1d	-0.6771715
244	0xbef26345	-0.47341362
245	0x3e93c5f9	0.2886198
246	0x3d76a956	0.060220085
247	0x3c91710e	0.017754104
248	0x3db211d3	0.08694806
249	0x3e9bdfae	0.30444092
250	0x3e8a23dd	0.26980487
251	0xbeac508e	-0.33655208
252	0xbf2b82c0	-0.66996384
253	0x3c8120c0	0.015762687
254	0x3d3e4ccf	0.04645997
255	0x3ea92ca0	0.3304186

conv_layers.0.bias f4 [6]
0	0xbf10be15	-0.5654004
1	0xbea6c8bd	-0.32575026
2	0xbd149a1f	-0.036279794
3	0xbf1debeb	-0.6168811
4	0x3ec263b3	0.3796669
5	0xbe9c229d	-0.30495158

conv_layers.1.weight f4 [16, 6, 5, 5]
0	0x3d8350bd	0.06411884
1	0xbe0abc33	-0.13548355
2	0x3e7bf6e6	0.24605903
3	0x3de3058b	0.110850416
4	0xbb79efcb	-0.0038137313
5	0x3db80a1a	0.08986302
6	0xbe57cd18	-0.21074331
7	0xbe898c5a	-0.26864892
8	0x3ddc9f15	0.1077253
9	0xbdeab174	-0.11459628
10	0xbdec1c81	-0.11528874
11	0xbd651b6a	-0.055934347
12	0xbeb137a7	-0.34612772
13	0xbc86bba4	-0.016446896
14	0xbc9ec7c3	-0.019382363
15	0xbbcb053e	-0.0061956933
16	0x3d857628	0.06516677
17	0xbeb5fb03	-0.3554307
18	0xbe35c0e9	-0.1774937
19	0x3b829ab3	0.0039857267
20	0xbdf77237	-0.12082332
21	0x3de97349	0.11398942
22	0xbd12c5a3	-0.035833012
23	0xbda2d928	-0.079515755
24	0xbe0f74a6	-0.14009342
25	0x3df890b1	0.12136973
26	0x3ea26d03	0.31723794
27	0x3dc5009b	0.09619256
28	0xbdc1bd3f	-0.09459924
29	0x3eb2a80a	0.3489383
30	0xbebba34f	-0.36648032
31	0x3e84e75b	0.2595776
32	0x3ec1ea42	0.37874037
33	0xbd3d08d1	-0.046150986
34	0xbdb1307f	-0.08651828
35	0xbdcee902	-0.101030365
36	0xbee0a4ea	-0.4387582
37	0x3d3972b5	0.04527541
38	0x3e8a750f	0.27042434
39	0xbdce9eed	-0.100889064
40	0xbcf27027	-0.029594494
41	0xbeb43f6f	-0.35204646
42	0xbeae23c1	-0.34011653
43	0xbd8a4c44	-0.06752828
44	0xbd8f45f7	-0.069957666
45	0xbdd2d829	-0.102951355
46	0xbe631749	-0.22176851
47	0xbede6af2	-0.43440968
48	0xbf0d7deb	-0.5527026
49	0xbecd8b66	-0.40145415
50	0x3e245bc3	0.1605063
51	0x3c6af678	0.014340989
52	0xbe1aabdc	-0.15104622
53	0x3e4b0d5c	0.19829315
54	0x3ea6ba72	0.3256412
55	0x3e021180	0.12701988
56	0x3e7c80d3	0.24658518
57	0xbc99b7fe	-0.018764492
58	0xbe20cc4e	-0.15702936
59	0x3e1497f5	0.14511092
60	0xbe30d3a3	-0.17268233
61	0x3dae593f	0.08513116
62	0x3ea948e6	0.3306343
63	0x3df66924	0.12031773
64	0xbeacd239	-0.33754137
65	0x3db8f711	0.09031499
66	0xbd6fd67c	-0.058554158
67	0x3c9e0bc8	0.019292727
68	0x3e0c9851	0.13729979
69	0xbe182cb5	-0.14860804
70	0x3eaf916e	0.34290642
71	0xbdf69a42	-0.12041141
72	0x3c24715a	0.010036791
73	0x3bae7cac	0.0053249206
74	0xbdc10bb6	-0.09426062
75	0x3ced1eee	0.028945412
76	0x3e86e467	0.26346132
77	0x3db21a8a	0.08696468
78	0x3e999372	0.29995304
79	0x3db634de	0.08896802
80	0x3abc5dc1	0.0014371203
81	0x3e3d94b2	0.18513754
82	0x3defc3bb	0.117072545
83	0xbe72cce1	-0.23710968
84	0x3f16e506	0.5894321
85	0xbd986844	-0.07441762
86	0xbed40cb3	-0.4141594
87	0x3e3139f4	0.17307264
88	0x3e6deae9	0.23234142
89	0x3e116315	0.14197953
90	0xbddc862a	-0.10767777
91	0xbe87f600	-0.2655487
92	0xbdce0ecb	-0.10061415
93	0x3e028bb0	0.12748599
94	0x3e898256	0.2685725
95	0xbda8dbc7	-0.08245044
96	0x3cd29c7c	0.025709383
97	0xbbd9e8b6	-0.0066500558
98	0xbe067427	-0.13130246
99	0xbe3bbcca	-0.18333736
100	0xbdad6112	-0.0846578
101	0x3bf2e252	0.0074122334
102	0x3e4d082e	0.20022652
103	0x3d16c3a9	0.03680769
104	0xbc1fa500	-0.009743929
105	0xbe27c65d	-0.16384263
106	0xbeb858a5	-0.3600513
107	0xbe991cb9	-0.29904726
108	0x3e4d0c88	0.20024312
109	0x3e279ba7	0.1636797
110	0x3dc33df9	0.09533305
111	0xbd82a389	-0.06378848
112	0xbda19cba	-0.07891221
113	0xbe6c8005	-0.2309571
114	0x3d4fcbeb	0.05073158
115	0x3d960014	0.07324234
116	0x3c96ddcd	0.01841631
117	0x3decd66c	0.11564335
118	0x3d005964	0.03133525
119	0xbd0d418e	-0.034486346
120	0xbd983474	-0.0743188
121	0xbd1ff176	-0.039048634
122	0xbe0b4fb1	-0.13604619
123	0xbd83c9dc	-0.06434986
124	0xbe151d7f	-0.14562033
125	0x3e21e647	0.158105
126	0x3ea69a69	0.3253968
127	0x3c838b06	0.016057502
128	0xbe44b918	-0.19211233
129	0x3c9f09ab	0.01941379
130	0xbe82ea7d	-0.25569525
131	0x3e3a08cd	0.1816742
132	0x3f05e44d	0.52301484
133	0x3eb7b488	0.35879922
134	0xbec895de	-0.3917684
135	0xbcabde45	-0.02098001
136	0xbec107f0	-0.37701368
137	0xbe82b2ae	-0.25526947
138	0x3ed19b19	0.40938643
139	0x3e4aee06	0.19817361
140	0xbe2c4b80	-0.16825676
141	0x3b937871	0.0045004417
142	0xbdf67278	-0.12033552
143	0x3dfad40d	0.12247477
144	0x3e96497c	0.2935294
145	0xbe7f2e1f	-0.24919938
146	0xbe216976	-0.15762886
147	0xbe1a1b07	-0.15049373
148	0x3d039d07	0.032132175
149	0xbd71423f	-0.058901068
150	0x3e081e78	0.13292873
151	0xbd93d907	-0.07219129
152	0xbe2a9d3d	-0.16661544
153	0xbd7aa84b	-0.061195653
154	0xbde90e38	-0.11379665
155	0x3e268579	0.16261853
156	0x3cdf5e8f	0.027266769
157	0x3db6b24f	0.089207284
158	0x3ea53b9e	0.32272047
159	0x3e498917	0.19681202
160	0x3da163d1	0.078803666
161	0xbe20d8a6	-0.15707645
162	0xbde58cb9	-0.11208481
163	0x3e1a1468	0.15046847
164	0x3e8bb87a	0.27289182
165	0xbe3997a7	-0.18124257
166	0x3db3f257	0.08786457
167	0x3c906efa	0.017631043
168	0x3cb50f72	0.022102091
169	0xbd00fddc	-0.0314921
170	0xbea950f7	-0.33069584
171	0x3c5c9553	0.013463336
172	0x3ea5cf85	0.32384887
173	0x3eb8fd9c	0.3613099
174	0x3e7e8cde	0.24858424
175	0x3caaf65e	0.02086943
176	0xbce16cf8	-0.02751778
177	0xbe29bf11	-0.16576792
178	0xbd87e456	-0.066353485
179	0x3b5685af	0.003273349
180	0xbe92ae6f	-0.28648707
181	0xbddd356e	-0.108012065
182	0xbde46c61	-0.11153484
183	0xbd031e86	-0.03201153
184	0x3c5116ab	0.012761752
185	0xbe518312	-0.20460156
186	0xbec41af2	-0.38301808
187	0xbe540f4b	-0.20708959
188	0x3d99cf15	0.07510201
189	0x3e127a01	0.14304353
190	0x3ed2441c	0.41067588
191	0xbe9e43ba	-0.30911046
192	0xbc947dc8	-0.018126383
193	0x3e2a3789	0.16622747
194	0x3eb982b0	0.3623252
195	0x3f14dc0b	0.5814826
196	0x3e31984c	0.17343253
197	0xbeed4f62	-0.46349627
198	0xbe9aef67	-0.30260774
199	0x3bcc49ea	0.006234397
200	0x3dab8447	0.08374839
201	0xbbf99336	-0.007616426
202	0xbc48e613	-0.012261885
203	0xbdeda96e	-0.11604582
204	0x3d872960	0.065996885
205	0x3d76106b	0.06007425
206	0x3e6d205f	0.2315688
207	0xbd00ec80	-0.031475544
208	0x3c20b0a0	0.009807736
209	0xbd62bf79	-0.055358384
210	0xbe9f0ac5	-0.31062904
211	0x3e7ae7df	0.24502514
212	0x3d73daf7	0.059534993
213	0xbe006525	-0.12538584
214	0x3d7c0d68	0.061536223
215	0xbedabc72	-0.42721897
216	0xbe3ff789	-0.18746771
217	0xbe429fa5	-0.19006212
218	0xbea91b1b	-0.33028492
219	0xbe477d79	-0.19481458
220	0xbbef36a6	-0.007300216
221	0xbea53dd8	-0.32273746
222	0xbf125e03	-0.571747
223	0xbee007b2	-0.4375587
224	0xbe93b01b	-0.28845295
225	0x3e48ea5b	0.1962065
226	0xbd9181d5	-0.071048416
227	0xbdcff5df	-0.10154318
228	0xbd4b5c12	-0.049648352
229	0xbd2dc22a	-0.042421497
230	0x3e802d64	0.2503463
231	0x3c5ae4a6	0.013360178
232	0xbdb947b9	-0.09046883
233	0x3d6c4b5c	0.057689056
234	0x3dd29f30	0.10284269
235	0xbdbf09a9	-0.093280144
236	0x3f2d46f0	0.6768637
237	0xbe22502c	-0.15850896
238	0xbbc75557	-0.0060831713
239	0xbdfa4f1e	-0.12222122
240	0xbd9dba2d	-0.07701526
241	0x3e605f6f	0.21911405
242	0x3f3713d6	0.7151464
243	0x3e609915	0.21933396
244	0xbc2371a0	-0.009975821
245	0x3e11799f	0.14206551
246	0x3def7a56	0.116932556
247	0x3ea36836	0.31915444
248	0x3f0bf9d4	0.5467808
249	0x3e7e9f5e	0.24865481
250	0x3d60aff2	0.054855295
251	0x3d9322d5	0.07184378
252	0xbc0d4040	-0.008621275
253	0xbdb09e56	-0.0862395
254	0x3e80b687	0.25139257
255	0x3d8f8094	0.07006946

conv_layers.1.bias f4 [16]
0	0xbe9902cf	-0.29884955
1	0xbfccaec7	-1.5990838
2	0x40067e80	2.101471
3	0xbeb0b445	-0.34512535
4	0x3f719b3f	0.9437751
5	0xbe0dec7d	-0.13859744
6	0xbfa764bf	-1.307762
7	0xbf632d62	-0.88741124
8	0x3e0f4712	0.13991955
9	0x3f86eea6	1.054158
10	0x3e8ac716	0.27105016
11	0x3f9116b4	1.1335053
12	0x3e2b096e	0.16702816
13	0xbfb198c1	-1.3874742
14	0x3f90af76	1.1303546
15	0xbe82b1ac	-0.25526178

fc_layers.0.weight f4 [120, 400]
0	0xbe044620	-0.12917376
1	0xbda925f5	-0.08259193
2	0x3e231e5a	0.15929547
3	0x3e120c43	0.1426249
4	0x3e0003a2	0.12501386
5	0xbe3492a8	-0.1763407
6	0xbccaeeee	-0.024772134
7	0xbe531c43	-0.2061625
8	0x3dcfa8ab	0.10139593
9	0xbe071c6a	-0.13194433
10	0xbdf9108f	-0.121613614
11	0x3c81a4e9	0.015825706
12	0xbdb25db8	-0.08709282
13	0xbd9b6529	-0.07587654
14	0xbe1ab792	-0.15109089
15	0xbe25f065	-0.16204984
16	0xbc3862c6	-0.011254018
17	0x3df7190f	0.120653264
18	0x3c1471a2	0.009060295
19	0x39dec3b9	0.00042488964
20	0x3c902d72	0.017599795
21	0x3ce171d9	0.027520107
22	0xbd4657a1	-0.048423413
23	0xbe162dba	-0.14665881
24	0xbddbd5fb	-0.10734173
25	0xbe37244c	-0.1788494
26	0xbd80d81c	-0.062912196
27	0x3d0b3845	0.03398921
28	0x3e3da587	0.18520175
29	0x3d1fd64a	0.03902272
30	0xbdf4b8a9	-0.11949284
31	0x3db9d2c1	0.09073401
32	0x3d43a24c	0.0477622
33	0x3d8603f9	0.065437265
34	0xbdab2db8	-0.083583295
35	0xbb449659	-0.002999684
36	0xbd04d3ba	-0.03242848
37	0x3e0898d7	0.13339554
38	0xbc2a25a8	-0.0103849545
39	0xbd14bfde	-0.03631579
40	0xbaaeccfb	-0.0013336235
41	0xbce70025	-0.028198311
42	0x3c5c206f	0.013435467
43	0xbda35c94	-0.07976642
44	0xbd8235c1	-0.06357909
45	0xbd852988	-0.06502062
46	0x3d235cfd	0.039883602
47	0x3b1af706	0.0023645773
48	0xbcd26201	-0.025681498
49	0x3d0ec719	0.034857843
50	0x3e60df3e	0.2196016
51	0xbde2a80c	-0.11067209
52	0xbe07b383	-0.13252072
53	0xbe178bf0	-0.14799476
54	0x3dbae222	0.09125163
55	0x3e1f348c	0.15547389
56	0xbd1a475e	-0.037665717
57	0xbd9ff639	-0.07810635
58	0x3c71f164	0.014767025
59	0x3ca920f9	0.020645605
60	0x3dfef40c	0.12448892
61	0x3de28432	0.110603705
62	0xbd5df6d1	-0.05419046
63	0xbe3be016	-0.18347201
64	0x3db8fbc7	0.09032398
65	0x3e4c0eb0	0.19927478
66	0x3d587780	0.05284834
67	0xbe020b36	-0.12699589
68	0xbd02c308	-0.031924278
69	0x3d322dde	0.043500774
70	0xbd0af016	-0.03392037
71	0xbd87f5b8	-0.06638664
72	0xbe4ca9f9	-0.19986714
73	0xbd824188	-0.06360155
74	0x3d9294d8	0.07157296
75	0x3dbd1f97	0.09234541
76	0xbd3910ad	-0.04518192
77	0xbe5c6f45	-0.21526821
78	0xbd4c8eeb	-0.049940985
79	0xbdfa373e	-0.12217568
80	0x3e1da6f3	0.15395717
81	0x3d77362b	0.060354393
82	0x3d00dc28	0.031459957
83	0xbdb606a3	-0.088879846
84	0xbddf80dd	-0.109132506
85	0xbc08d34c	-0.008351158
86	0x3e19de57	0.15026222
87	0x3e33c720	0.17556429
88	0xbaffdde0	-0.001952108
89	0xbd962cb1	-0.07332743
90	0xbe071c2e	-0.13194343
91	0x3dc0975b	0.09403869
92	0x3e098987	0.13431369
93	0x3e876743	0.2644597
94	0x3daaaa3c	0.08333251
95	0xbd585027	-0.052810814
96	0xbd7874ee	-0.060658388
97	0x3d1808f1	0.037117902
98	0x3c1e8d05	0.009677176
99	0x3e08f96f	0.13376401
100	0xbdc28b19	-0.09499187
101	0x3c9879f6	0.018612843
102	0xbc5f31ee	-0.013622744
103	0x3d3cede1	0.046125297
104	0xbde89689	-0.11356837
105	0xbe1d2283	-0.15345196
106	0xbe05b830	-0.13058543
107	0xbd7fe63c	-0.062475428
108	0xbd1892f2	-0.037249513
109	0xbb1b4b20	-0.00236959
110	0xbe1aa8b8	-0.15103424
111	0xbdc7c179	-0.09753699
112	0xbd5bff4d	-0.05371027
113	0x3cdae6d1	0.02672139
114	0xbcc97540	-0.024592042
115	0xbc88c047	-0.016693247
116	0x3d0bafcf	0.03410321
117	0xbdc73428	-0.09726745
118	0xbcf91411	-0.030405076
119	0xbdb71a3d	-0.089405514
120	0xbe3d6933	-0.18497162
121	0xbdc42096	-0.09576528
122	0xbda07fee	-0.07836901
123	0xbd0891ba	-0.0333421
124	0xbdce012b	-0.100588165
125	0xbe5db333	-0.2165039
126	0xbe207451	-0.15669371
127	0xbd3f2fff	-0.046676632
128	0xbd41f110	-0.047349036
129	0xbdaa4910	-0.08314717
130	0xbd9c38d1	-0.07628024
131	0x3d4a6206	0.04940989
132	0x3d76ca3c	0.06025146
133	0xbdf7e61a	-0.12104435
134	0xbe38b977	-0.18039499
135	0x3d035174	0.0320601
136	0x3dd6f9dc	0.10496876
137	0x3bf58161	0.00749223
138	0x3da7ba0e	0.08189784
139	0x3c785e80	0.015159249
140	0x3e02266b	0.12709968
141	0x3dcff274	0.10153666
142	0x3c384acc	0.011248302
143	0x3c7402a7	0.0148932105
144	0x3d713f2f	0.058898147
145	0xbda4891a	-0.080339625
146	0xbdb09c15	-0.0862352
147	0xbd651123	-0.055924546
148	0x3e107596	0.14107355
149	0xbe0587c8	-0.13040078
150	0x3e02357a	0.12715712
151	0x3d72d791	0.05928761
152	0xbdd4ea0f	-0.10396206
153	0x3d66ba4c	0.05633001
154	0x3d267183	0.040635597
155	0xbdc8246d	-0.09772573
156	0xbe33d95b	-0.17563383
157	0xbc56609b	-0.013084556
158	0x3dcdbe25	0.10046033
159	0xbd3edb75	-0.04659601
160	0x3e58adfd	0.21160121
161	0x3d477ae5	0.048701186
162	0x3c194e2a	0.009357015
163	0x3dcb5be6	0.099296376
164	0xbdc2aacd	-0.09505234
165	0x3d25d619	0.040487383
166	0x3d8a3ce9	0.06749899
167	0x3dbea28f	0.09308349
168	0xbd6f5d09	-0.058438335
169	0xbe1c4a8d	-0.15262814
170	0x39b4419d	0.0003438116
171	0x3bda1a65	0.0066559785
172	0x3dfc8e89	0.12331874
173	0xbd90504e	-0.07046567
174	0xbe255ccd	-0.16148682
175	0xbd9d75d4	-0.076884896
176	0xbd9a8b08	-0.07546049
177	0x3c5701e2	0.0131230075
178	0xbd676f9c	-0.056502923
179	0xbe45c828	-0.19314635
180	0xbd2ea947	-0.042641904
181	0xbd2d51e1	-0.042314414
182	0xbdd96612	-0.106151715
183	0x3d8a5869	0.06755144
184	0x3d520941	0.051278356
185	0xbc7863c3	-0.015160504
186	0xbdb1ae46	-0.08675818
187	0xbdacbedb	-0.0843484
188	0xbd09a495	-0.033604223
189	0x3a2e12cc	0.0006640374
190	0xbdcd730c	-0.10031709
191	0xbd90f93e	-0.07078789
192	0xbda1009c	-0.07861444
193	0xbdd3b087	-0.10336404
194	0x3d3205eb	0.043462675
195	0xbe1f415d	-0.15552278
196	0xbd2ca756	-0.04215177
197	0xbd4d732f	-0.050158676
198	0xbbf7d7bc	-0.0075635593
199	0x3d209a93	0.039209913
200	0x3cd379ca	0.02581491
201	0x3d3cb416	0.04607018
202	0xbdba543b	-0.09098097
203	0x3d9df810	0.0771333
204	0x3e2ed7a2	0.17074445
205	0xbe15cd99	-0.1462921
206	0xbde13107	-0.10995679
207	0x3ca3cd7b	0.019995442
208	0xbd1d2cc6	-0.038372777
209	0x3dbace2c	0.091213554
210	0xbd5acc1c	-0.05341731
211	0x3b61a454	0.0034430223
212	0xbd27471b	-0.040839296
213	0x3d0cbef6	0.034361802
214	0xbd833204	-0.06406024
215	0x3baebd1e	0.005332603
216	0x3c9bf98d	0.019039894
217	0xbd2265d7	-0.039647903
218	0x3e0fbd67	0.14037095
219	0xbd5a10c3	-0.05323864
220	0x3d539daf	0.05166405
221	0x3c169a25	0.009192024
222	0x3d0060a9	0.031342182
223	0xbdc49a0a	-0.09599693
224	0x3df19b98	0.11797255
225	0xbd913c4c	-0.07091579
226	0x3ba53cf1	0.005042665
227	0xbd8fc345	-0.070196666
228	0xbda20665	-0.07911376
229	0xbd86318b	-0.06552418
230	0xbc131a65	-0.008978461
231	0xbc389ca2	-0.011267813
232	0xbe0ca3d7	-0.13734375
233	0xbd80295a	-0.06257887
234	0xbd14168b	-0.03615431
235	0xbd6cb703	-0.05779172
236	0x3d59e60a	0.053197898
237	0x3c0459bc	0.008078035
238	0xbdfec3ea	-0.124397114
239	0xbd995844	-0.074875385
240	0x3bbf514c	0.0058385488
241	0x3cfd2808	0.030902877
242	0x3db33bac	0.08751616
243	0x3c62f68e	0.0138527285
244	0xbe52afc2	-0.20574859
245	0x3dd78c46	0.10524802
246	0x3cfa9aa5	0.030591318
247	0x3dcfc5ce	0.1014515
248	0x3d867d4d	0.06566868
249	0x3d013eb9	0.031553958
250	0xbcadea41	-0.021229865
251	0x3d4b65d3	0.049657654
252	0xbcbf2cfc	-0.02333688
253	0xbdc7b5f8	-0.09751505
254	0xbe0e9491	-0.13923861
255	0xbd9b61f6	-0.07587044

fc_layers.0.bias f4 [120]
0	0x3d696fcd	0.056991387
1	0xbd3d16b6	-0.046164237
2	0x3ca9f6b1	0.020747514
3	0xbe3d0337	-0.18458258
4	0x3e923f8f	0.28564116
5	0x3e71a180	0.23596764
6	0x3debcd34	0.11513749
7	0x3db4fb54	0.088369995
8	0xbb96f80f	-0.0046072076
9	0x3e85e099	0.26147917
10	0xbd6496bf	-0.055807825
11	0xbd448e6f	-0.047987398
12	0x3d8d0053	0.068848275
13	0xbd4cf319	-0.050036523
14	0x3d7d6eab	0.06187312
15	0x3e7cf6ba	0.24703494
16	0xbe9d30f6	-0.30701417
17	0xbe118148	-0.14209473
18	0xbd930ed0	-0.0718056
19	0xbe4f1556	-0.20222983
20	0xbd9f699c	-0.07783815
21	0x3d5ee5bc	0.05441831
22	0x3ead1f09	0.3381274
23	0x3e25040f	0.1611483
24	0xbd803288	-0.06259638
25	0xbe9ea213	-0.30983028
26	0x3e0ffd7c	0.1406154
27	0xbe11b1b4	-0.14227945
28	0xbe613809	-0.21994032
29	0x3b690286	0.0035554483
30	0x3d9c0fa3	0.0762017
31	0x3dd413d7	0.10355347
32	0xbe11618d	-0.14197369
33	0x3e794083	0.24341016
34	0x3da32951	0.07966865
35	0xbd50165f	-0.050802585
36	0x3d4843f6	0.048892938
37	0xbe9042ed	-0.2817606
38	0xbede3b24	-0.43404496
39	0xbb85dea7	-0.00408538
40	0xbd669da0	-0.056302667
41	0xbe868c7f	-0.26279065
42	0xbd87cc65	-0.06630782
43	0x3ca85154	0.020546593
44	0x3e432712	0.19057873
45	0xbc85ab1d	-0.016316945
46	0xbdd0f950	-0.102038026
47	0xbcdfd231	-0.027321907
48	0x3dc2b602	0.095073715
49	0x3be798d3	0.0070677786
50	0x3e397171	0.1810968
51	0x3dff5f2b	0.12469324
52	0xbd2165d2	-0.039403744
53	0x3e0c20ca	0.13684383
54	0xbdda06da	-0.10645838
55	0xbb7e2baf	-0.0038783362
56	0xbe961abd	-0.29317275
57	0x3eb7c4e2	0.35892397
58	0x3e99aa56	0.30012769
59	0x3dd41713	0.103559636
60	0x3e14b344	0.1452151
61	0xbc320a46	-0.010866707
62	0x3d68f8aa	0.05687777
63	0x3e7728ad	0.2413661
64	0xbdf94c13	-0.12172713
65	0xbd2c8efb	-0.042128544
66	0x3b1706dc	0.002304486
67	0x3de0ac44	0.10970357
68	0x3e889a40	0.26680183
69	0xbd9100c9	-0.07080228
70	0x3e74cf7e	0.23907277
71	0x3d733db5	0.05938502
72	0xbe5327c6	-0.20620641
73	0xbdd7b6be	-0.10532902
74	0x3f12d448	0.57355165
75	0xbe40cbc3	-0.18827729
76	0xbdf306a9	-0.11866505
77	0x3ccc83ef	0.024965255
78	0x3dced52f	0.10099255
79	0x3e5df946	0.21677122
80	0x3ef7b61f	0.48381135
81	0x3db822f2	0.0899104
82	0x3e4ad466	0.19807586
83	0x3dd665ad	0.10468612
84	0xbe60628c	-0.21912593
85	0x3c5d9de2	0.013526412
86	0x3e1e01a0	0.15430307
87	0xbd36d546	-0.044636987
88	0x3e4476d8	0.1918596
89	0xbd2421dd	-0.040071357
90	0xbc2b39ca	-0.01045079
91	0x3dde4854	0.10853639
92	0xbdcba266	-0.099430844
93	0xbe027c37	-0.12742697
94	0x3ceee3b8	0.02916132
95	0x3e6c8be9	0.23100246
96	0xbd6541e9	-0.05597106
97	0x3dd990e7	0.10623341
98	0x3e1fd083	0.15606885
99	0x3d55ae16	0.052167974
100	0x3b44536a	0.0029956945
101	0x3e579fc9	0.21057047
102	0x3e5f618f	0.2181456
103	0x3e1ea5de	0.15492961
104	0x3cc27679	0.023738133
105	0xbe4c9cc9	-0.19981684
106	0xbd6b0aa2	-0.057383187
107	0x3e42e493	0.19032507
108	0xbe3cfa6d	-0.18454905
109	0x3e0dbf9c	0.13842624
110	0xbd3134ce	-0.04326325
111	0x3e8ea4a0	0.27859974
112	0xbdc55a2e	-0.09636341
113	0xbe23b367	-0.15986405
114	0xbcc60c38	-0.024175748
115	0x3dd4df1e	0.10394119
116	0x3caf0866	0.02136631
117	0xbc3f413d	-0.011673269
118	0xbdc75b25	-0.09734181
119	0xbac76b3c	-0.0015214453

fc_layers.1.weight f4 [84, 120]
0	0x3ea465ca	0.3210891
1	0xbe3cc6ce	-0.18435213
2	0x3d1f9e7c	0.0389695
3	0xbe1230f1	-0.14276482
4	0x3b5197e8	0.0031981412
5	0x3d90ba53	0.070667885
6	0xbe09fbc1	-0.13474943
7	0xbdd9de0b	-0.106380545
8	0xbe3369fa	-0.17520896
9	0xbe40c6a3	-0.18825774
10	0x3e203d1d	0.15648313
11	0xbdff88ac	-0.1247724
12	0xbe94fb4a	-0.29097968
13	0x3cfd0bb9	0.030889379
14	0x3df8add6	0.121425316
15	0xbe1df2fb	-0.15424721
16	0xbda756a8	-0.08170825
17	0x3d11a277	0.03555533
18	0xbd1cfd66	-0.038327597
19	0xbe321cfc	-0.17393869
20	0xbe2e5332	-0.17023924
21	0x3e8f4cd1	0.27988294
22	0xbde255b0	-0.110515
23	0xbe2b11fa	-0.16706076
24	0x3de7bc3f	0.11315202
25	0xbd040b2d	-0.03223722
26	0x3e397ce7	0.18114053
27	0xbe29801a	-0.16552773
28	0xbde2f05a	-0.11081
29	0xbc04d30e	-0.00810696
30	0x3ae51455	0.0017477373
31	0xbe0c36b4	-0.13692743
32	0xbdc783a1	-0.09741903
33	0xbdfe14ce	-0.12406312
34	0x3c5eabf1	0.013590799
35	0xbdab2ddf	-0.083583586
36	0xbc9ff466	-0.019525718
37	0xbe8ff515	-0.2811667
38	0xbe7c662f	-0.24648355
39	0xbe2d1df4	-0.16905957
40	0xbbb72370	-0.0055889413
41	0x3d9427ed	0.07234178
42	0x3de85454	0.11344209
43	0xbdab2648	-0.08356911
44	0x3c9f579a	0.019450951
45	0xbdb36c5d	-0.08760903
46	0xbdfcda86	-0.123463675
47	0x3ded99d0	0.11601603
48	0x3e2d19cc	0.16904372
49	0xbcdab590	-0.026697904
50	0x3d6daa29	0.058023605
51	0xbe412c0c	-0.18864459
52	0x3d858d70	0.06521118
53	0xb99a3e05	-0.00029419377
54	0x3e036b63	0.12833934
55	0xbe9c3fde	-0.30517477
56	0x3dbf58de	0.09343122
57	0xbd45e84b	-0.048317235
58	0xbe05f000	-0.13079834
59	0xbddabe84	-0.10680869
60	0xbd8dd7b4	-0.06925908
61	0xbce29554	-0.027659096
62	0xbd80b44c	-0.06284389
63	0xbe0a3ea8	-0.13500464
64	0x3c4091d5	0.011753519
65	0xbdf6b44f	-0.1204611
66	0xbcf44a44	-0.029820569
67	0x3d85081f	0.064956896
68	0x3d98c596	0.074595615
69	0xbccaa115	-0.024735013
70	0xbbe017bd	-0.0068387673
71	0x3d67e8a7	0.05661836
72	0xbd8083c3	-0.062751316
73	0xbb8232c7	-0.0039733383
74	0xbe288f3b	-0.16460888
75	0x3dc222de	0.09479307
76	0xbe168faf	-0.14703248
77	0xbde435b6	-0.11143057
78	0x3e470f24	0.1943937
79	0xbc3e0d64	-0.011599872
80	0xbda9455e	-0.08265184
81	0xbc99b60c	-0.018763565
82	0x3dbc1152	0.09182991
83	0x3d47a6b2	0.048742957
84	0x3d20f969	0.039300356
85	0xbe77d55e	-0.24202487
86	0xb96eb3f7	-0.00022764491
87	0x3df66cfd	0.120325066
88	0x3d72f530	0.05931586
89	0x3d46dc37	0.048549857
90	0x3dc0cc7f	0.094140045
91	0xbd79d1c2	-0.060991056
92	0xbd4f5d2f	-0.050625976
93	0xbe16212a	-0.14661089
94	0xbc79d7de	-0.015249221
95	0xbcd140df	-0.025543628
96	0x3df66120	0.12030244
97	0xbe082b20	-0.13297701
98	0xbe238cdb	-0.15971701
99	0xbe29f86a	-0.16598669
100	0xbc2b189b	-0.010442878
101	0xbd9fc3b7	-0.078010015
102	0xbcd9835c	-0.026551895
103	0xbd30815d	-0.04309212
104	0xbd9db893	-0.0770122
105	0xbd0aeb44	-0.033915773
106	0xbce69b8e	-0.028150346
107	0x3e1e8604	0.1548081
108	0x3d676403	0.056491863
109	0xbddbf1d3	-0.10739484
110	0x3e2a3b36	0.1662415
111	0xbd10022f	-0.035158332
112	0xbc86e462	-0.016466323
113	0xbc173a13	-0.009230155
114	0xbd6a4e1c	-0.057203397
115	0x3ce86ea8	0.028373078
116	0x3cbf7095	0.023369113
117	0x3cd65486	0.02616335
118	0xbd8d5022	-0.0690005
119	0x3e0cf67e	0.13765904
120	0xbd68ef5f	-0.056868907
121	0x3d8cb146	0.0686975
122	0x3cb33e27	0.021880222
123	0x3dfbf159	0.12301893
124	0xbe57dfc9	-0.21081461
125	0xbe24604a	-0.16052356
126	0x3e10d478	0.1414355
127	0xbdde52c6	-0.108556315
128	0x3e529fd4	0.20568782
129	0xbc816373	-0.015794491
130	0x3bd46f16	0.006482969
131	0x3d85a90d	0.065263845
132	0x3e048675	0.12941916
133	0xbd92e2f6	-0.071721956
134	0xbd59e0e6	-0.053192995
135	0xbdd844c4	-0.10559991
136	0xbc34eda0	-0.011042982
137	0xbc13e911	-0.009027735
138	0x3d4836b6	0.0488803
139	0xbe321326	-0.17390117
140	0x3d5e0cbf	0.054211374
141	0xbd6160ca	-0.055023946
142	0x3d0e5aac	0.03475444
143	0xbd02bf9a	-0.031921007
144	0x3daa40d5	0.08313147
145	0xbe488fac	-0.19586056
146	0x3e89a1f4	0.26881373
147	0x3cc8e2a7	0.024522139
148	0xbd95cb1b	-0.0731413
149	0xbe3a9723	-0.18221717
150	0x3df3d60d	0.11906061
151	0x3d2f6c28	0.042827755
152	0xbdb26ceb	-0.08712181
153	0xbd93a5f3	-0.07209387
154	0xbdf922b5	-0.12164823
155	0x3e270a12	0.16312435
156	0xbdbe1665	-0.09281615
157	0x3de6e834	0.11274758
158	0x39458235	0.0001883589
159	0xbe16a7a8	-0.14712393
160	0x3e3350e1	0.17511322
161	0xbdcd1193	-0.10013118
162	0xbd92ee40	-0.07174349
163	0xbd488920	-0.048958898
164	0x3bccffd6	0.006256084
165	0x3debf387	0.115210585
166	0x3d7a6b87	0.061137702
167	0xbda45ecd	-0.08025894
168	0xbe1f1acd	-0.15537567
169	0xbd9aa488	-0.07550913
170	0x3e373913	0.17892866
171	0x3c23c996	0.009996792
172	0x3cd3f3c9	0.025873082
173	0x3de372af	0.111058585
174	0xbdc7a85a	-0.097489074
175	0xbccf8fd0	-0.02533713
176	0x3d0d49b2	0.03449411
177	0xbc917bd0	-0.017759234
178	0xbe52347f	-0.20527838
179	0x3d557ffd	0.052124012
180	0x3bc2f95b	0.0059501356
181	0x3e243c0c	0.16038531
182	0xbe166ced	-0.1468999
183	0xbda76fc8	-0.081756175
184	0xbd5331fd	-0.051561344
185	0xbe0e5932	-0.13901213
186	0x3da9e058	0.08294743
187	0x3dcc8581	0.09986401
188	0xbdd0f236	-0.10202448
189	0xbe43308e	-0.19061491
190	0xbdb75b7a	-0.08952995
191	0xbc966d3d	-0.018362636
192	0xbde313b6	-0.11087744
193	0xbd2be3bf	-0.041965242
194	0x3de05c47	0.109551005
195	0xbdb8bbdc	-0.09020206
196	0x3da52f20	0.08065629
197	0xbdaab669	-0.08335573
198	0xbe16d9b8	-0.1473149
199	0xbde3c8f1	-0.11122311
200	0x3cc9245a	0.024553467
201	0x3d6bd772	0.05757851
202	0xbc7b0a78	-0.01532232
203	0x3e25e3e6	0.16200218
204	0xbd82261c	-0.06354925
205	0x3bca3c41	0.0061717336
206	0xbd163d90	-0.036679804
207	0xbe72f931	-0.23727871
208	0x3d369d92	0.044583865
209	0xbd560c93	-0.052258085
210	0xbd9238b2	-0.0713972
211	0x3e6e32c7	0.23261558
212	0xbd78861e	-0.06067478
213	0x3d5ed83f	0.054405447
214	0x3d83b468	0.06430894
215	0xbc2ba0d8	-0.01047536
216	0xbcae3390	-0.021264821
217	0xbca389df	-0.019963203
218	0xbd9dfc80	-0.07714176
219	0x3e034442	0.12819007
220	0xbd4db96c	-0.05022566
221	0xbcc94e5d	-0.0245735
222	0xbc8ac93a	-0.016941655
223	0xbe729ef9	-0.23693456
224	0x3da6e43d	0.08149002
225	0xbb460be8	-0.00302195
226	0xbcba9b7d	-0.02277922
227	0xbe806203	-0.25074777
228	0xbdd5bf4f	-0.1043688
229	0x3dda27c8	0.10652119
230	0x3d8efc79	0.06981749
231	0xbd56627b	-0.052340012
232	0x3e284dbb	0.16435902
233	0xbda9275e	-0.08259462
234	0xbdb0ec4e	-0.086388215
235	0x3de71381	0.11283017
236	0xbcc29218	-0.023751304
237	0x3d77203d	0.06033348
238	0xbceab6c7	-0.028651608
239	0x3c5a7b29	0.013335028
240	0xbe140949	-0.14456667
241	0xbc66f4e1	-0.01409647
242	0x3dca8f03	0.098905586
243	0xbd660af2	-0.056162782
244	0xbcecfb37	-0.028928382
245	0xbdf7bd33	-0.12096634
246	0xbd3743c9	-0.04474238
247	0xbd9e1eeb	-0.07720741
248	0xbd9a9281	-0.07547475
249	0xbccaf98b	-0.024777194
250	0x3d94025b	0.07227012
251	0xbc75948b	-0.014989029
252	0x3c8e888e	0.017399099
253	0xbd0a1fa5	-0.033721585
254	0xbce427d6	-0.027851027
255	0xbd567392	-0.05235631

fc_layers.1.bias f4 [84]
0	0x3e27286a	0.1632401
1	0x3df342f3	0.11878004
2	0xbd6375d3	-0.055532288
3	0x3ea7d902	0.3278275
4	0xbd5a14d0	-0.053242505
5	0x3e4f9776	0.20272622
6	0xbceeb581	-0.029139282
7	0xbd3af9a1	-0.04564822
8	0x3d934291	0.07190431
9	0xbd8def15	-0.06930367
10	0x3d9a5efa	0.075376466
11	0x3f018c8b	0.50605077
12	0x3e4b4f2d	0.19854422
13	0x3ec3fd5b	0.38279232
14	0xbc9c3575	-0.019068459
15	0xbdd79ace	-0.105275735
16	0x3e5c7de6	0.21532401
17	0xbd23b492	-0.039967127
18	0x3e76f15a	0.24115506
19	0x3eb8d296	0.36098164
20	0xbd00cce4	-0.0314454
21	0x3e57e769	0.2108437
22	0xbd285cab	-0.041104
23	0x3f02e441	0.5112954
24	0x3f09d647	0.53842586
25	0x3af4ef42	0.0018687027
26	0x3e9f4664	0.3110839
27	0xbd000686	-0.03125622
28	0x3ecf7a0f	0.4052281
29	0xbe158d04	-0.14604574
30	0x3ea27aa1	0.31734183
31	0x3e2fcda2	0.17168286
32	0xbd8426b8	-0.064526975
33	0xbe09b174	-0.13446599
34	0x3ecee323	0.40407667
35	0xbd793095	-0.060837347
36	0x3ef00df0	0.46885633
37	0x3d8b35c0	0.067973614
38	0x3eb2fede	0.34960073
39	0xbde42b11	-0.11141027
40	0x3e195cae	0.1497676
41	0x3eec67c3	0.46172914
42	0x3eb099ed	0.34492436
43	0x3e4dc5cc	0.20094985
44	0x3db23aca	0.087026194
45	0xbdc99a03	-0.098438285
46	0x3e2909bf	0.16507624
47	0x3f6208a9	0.88294464
48	0x3e40075c	0.18752807
49	0x3c0c8686	0.008576995
50	0x3f5df722	0.8670522
51	0x3ef81316	0.4845206
52	0xbd7c5257	-0.061601963
53	0xbcad3fbb	-0.021148553
54	0x3ea768ca	0.32697135
55	0x3f0a16c7	0.53941005
56	0x3d84e7a2	0.06489493
57	0xbd88324c	-0.06650218
58	0x3dca2929	0.09871132
59	0x3dca8c25	0.09890012
60	0xbd9239e9	-0.07139952
61	0x3e4ebc1e	0.20188949
62	0x3ca36041	0.019943358
63	0x3ddb8cfb	0.10720249
64	0x3e05df99	0.13073577
65	0x3e0ede7d	0.1395206
66	0x3f1dc3ca	0.61626875
67	0x3e8db0a1	0.2767382
68	0x3f44ddc0	0.76900864
69	0x3de4482c	0.11146578
70	0xbe1d1dea	-0.15343443
71	0x3e1c1785	0.15243347
72	0x3e6a4c53	0.22880678
73	0xbdf4632f	-0.1193298
74	0x3e9fa7f6	0.31182832
75	0x3f0f3ad0	0.55949116
76	0xbd9ce7fe	-0.076614365
77	0x3cceaae7	0.025227977
78	0xbde2c0a4	-0.110718995
79	0x3f2373bc	0.6384847
80	0xbde4f607	-0.111797385
81	0xbdbff67f	-0.09373187
82	0x3ecf3728	0.40471768
83	0xbb795e55	-0.003805061

output_layer.weight f4 [10, 84]
0	0xbe459f3f	-0.19299029
1	0x3e81dfbb	0.25366005
2	0x3d9482ad	0.07251487
3	0xbe0c97e9	-0.13729824
4	0x3c9aabf4	0.018880822
5	0xbe3ff312	-0.18745068
6	0x3e35281a	0.17691079
7	0x3d328774	0.04358621
8	0xbb0c2484	-0.002138407
9	0xbdcaad33	-0.098963164
10	0x3e631528	0.22176039
11	0xbe10d71f	-0.14144562
12	0x3db675b4	0.08909169
13	0x3e8e4791	0.27788976
14	0xbe49ceea	-0.19707838
15	0xbdbdfd0a	-0.09276779
16	0xbcfad736	-0.030620199
17	0x3e2474d9	0.16060199
18	0x3d90ed42	0.07076503
19	0x3e08167a	0.13289824
20	0x3e11ef93	0.14251547
21	0x3b1f6162	0.002431952
22	0x3e3f4e76	0.18682274
23	0x3deacff1	0.11465443
24	0xbe1954d4	-0.14973766
25	0x3d82c57e	0.06385325
26	0x3d465b82	0.048427112
27	0x3dabb3c1	0.08383895
28	0xbdec4432	-0.11536445
29	0x3e0acc09	0.13554396
30	0x3daeef96	0.08541791
31	0xbc8222f9	-0.015885817
32	0x3db868a2	0.09004332
33	0x3e5836e5	0.2111469
34	0x3d3647d5	0.044502098
35	0x3dd7f8c2	0.10545494
36	0xbdc92cf8	-0.0982303
37	0x3baa0f12	0.005189785
38	0x3e6272bb	0.22114079
39	0x3d0155dd	0.031576026
40	0x3d812786	0.063063666
41	0xbcc2453c	-0.023714654
42	0xbe910c09	-0.28329495
43	0xbdc98279	-0.09839339
44	0xbdc2e430	-0.095161796
45	0x3d734388	0.059390575
46	0xbd707830	-0.05870837
47	0xbecb6dad	-0.39732113
48	0x3c77a5f3	0.015115249
49	0x3e727a68	0.23679507
50	0x3dc22f3a	0.09481664
51	0xbd81f586	-0.06345658
52	0x3d7f4b4b	0.062327664
53	0xbb869134	-0.004106665
54	0xbe3e254c	-0.18568915
55	0xbe98afe6	-0.298217
56	0x3e52b6fd	0.20577617
57	0x3e0bc315	0.13648637
58	0x3ddf694d	0.109087564
59	0x3dc7ed3d	0.097620465
60	0xbd345359	-0.0440248
61	0xbcee4a34	-0.029088117
62	0xbdf4bc30	-0.119499564
63	0x3dc90d27	0.09816962
64	0x3e117445	0.1420451
65	0x3e7a6eae	0.24456283
66	0x3e43e5ab	0.1913058
67	0xbe85919a	-0.26087648
68	0xbd7e6a97	-0.06211337
69	0xba0e36f2	-0.00054250576
70	0x3e3a090c	0.18167514
71	0x3d89bcbc	0.06725451
72	0xbdfba351	-0.122870095
73	0x3e852071	0.26001313
74	0x3e43d8cb	0.19125669
75	0x3e2eaa31	0.1705711
76	0xbdceb3ed	-0.10092912
77	0x3d5aeca9	0.053448353
78	0x3e4f7041	0.20257665
79	0xbf086d61	-0.532919
80	0x3e17932e	0.14802238
81	0xbe061372	-0.13093355
82	0xbdb629bb	-0.08894678
83	0xbd7ee8e1	-0.06223381
84	0xbe2d5ea2	-0.16930631
85	0xbe57783a	-0.21041957
86	0xbdd353d8	-0.10318726
87	0x3aca54f3	0.0015436694
88	0x3e684739	0.2268342
89	0x3e39cfe3	0.18145709
90	0x3e29d2be	0.16584298
91	0x3e29976f	0.16561674
92	0xbb4282c6	-0.0029679998
93	0x3e430484	0.19044691
94	0xbb34c28e	-0.0027581784
95	0xbe16b5e7	-0.14717828
96	0xbdcb0b28	-0.09914237
97	0x3e93b078	0.28845572
98	0x3d59476c	0.05304663
99	0xbd21970d	-0.039450694
100	0x3e51a1c5	0.20471866
101	0xbb3110df	-0.0027018113
102	0xbcafb6f0	-0.021449536
103	0xbd411cbc	-0.047146544
104	0xbdde0342	-0.10840465
105	0x3d1c40d5	0.038147766
106	0xbdfb7820	-0.122787714
107	0xbdbc090c	-0.09181413
108	0xbd9e890d	-0.07740984
109	0xbe004a87	-0.1252843
110	0xbe544f81	-0.20733453
111	0x3cc1985e	0.023632225
112	0xbeb45362	-0.35219866
113	0xbd64f04e	-0.055893235
114	0xbdf23e6d	-0.11828313
115	0xbe825caa	-0.25461322
116	0xbe54ce1e	-0.20781752
117	0x3d8eaaf5	0.06966201
118	0x3c683edf	0.014175146
119	0x3e5a3770	0.2131021
120	0xbe62d9b6	-0.22153363
121	0xbd6478f7	-0.055779424
122	0x3cec5600	0.028849602
123	0x3ea7160a	0.32634002
124	0xbec640c4	-0.38721287
125	0xbdc0a0c6	-0.09405665
126	0xbdc6865e	-0.09693597
127	0x3e4d1ba1	0.20030071
128	0x3cf157ce	0.029460814
129	0x3e1153b9	0.14192094
130	0xbdd7eeae	-0.105435714
131	0xbe6b7bc1	-0.22996427
132	0x3de40548	0.1113382
133	0x3e8536c9	0.2601836
134	0xbc20edf7	-0.00982236
135	0xbdf9d35c	-0.12198517
136	0x3e186b1e	0.14884612
137	0x3e80a1ff	0.25123593
138	0xbcc42e20	-0.023947775
139	0x3e693e8d	0.22777767
140	0xbd64bb38	-0.05584261
141	0x3e0aa72b	0.13540332
142	0xbcdeeaac	-0.02721151
143	0x3e837f2c	0.25682962
144	0x3db0baa7	0.08629351
145	0x3e051bd4	0.12998897
146	0xbb00e02c	-0.0019664867
147	0xbdb46350	-0.08808005
148	0x3e79d543	0.24397759
149	0xbe87b324	-0.2650386
150	0xbedc8641	-0.43071178
151	0x3db3dea7	0.08782702
152	0xbeae53af	-0.3404822
153	0xbdd825fb	-0.10554119
154	0x3e33c3f7	0.17555223
155	0x3e8f07d2	0.27935654
156	0x3ddd52c0	0.10806799
157	0xbb365188	-0.0027819593
158	0x3e6a46c0	0.22878551
159	0xbeae1b6f	-0.34005305
160	0x3e4e1cbb	0.20128147
161	0x3e244589	0.1604215
162	0xbe198cfc	-0.14995188
163	0xbe8a2e38	-0.26988387
164	0x3e0884a9	0.13331856
165	0xbdb84f90	-0.0899955
166	0xbe4f4f00	-0.2024498
167	0x3e1ac952	0.1511586
168	0x3e87cbf2	0.26522785
169	0x3dfeed9a	0.12447663
170	0xbd1d406c	-0.038391516
171	0x3e1281c8	0.1430732
172	0xbcd22792	-0.025653634
173	0xbda39f98	-0.079894245
174	0xbcc2e786	-0.02379204
175	0x3c6eaaf8	0.014567129
176	0xbe18c5f4	-0.14919263
177	0xbe0ccb93	-0.13749532
178	0x3b858e55	0.004075805
179	0x3e40e82e	0.1883857
180	0xbbdfbf84	-0.0068282504
181	0xbbcb82cd	-0.006210661
182	0x3e21238e	0.1573622
183	0x3e1c6acf	0.15275119
184	0x3c88786b	0.016658982
185	0xbcb52dde	-0.022116598
186	0x3d3d7a40	0.046259165
187	0xbdd8c22e	-0.10583912
188	0x3e2fde8f	0.17174743
189	0xbd846869	-0.06465227
190	0xbd8d4ff6	-0.06900017
191	0x3d7866f2	0.06064505
192	0x3d870f6d	0.06594739
193	0x3dfd65d2	0.12372936
194	0x3dc40124	0.0957053
195	0x3d87a81d	0.06623862
196	0xbd119e27	-0.035551216
197	0x3e477610	0.19478631
198	0x3e82afa2	0.25524622
199	0x3e04185f	0.12899922
200	0x3e890638	0.26762557
201	0x3d960af5	0.07326309
202	0xbe8bdb5f	-0.27315804
203	0xbd890243	-0.066898845
204	0x3da25314	0.07926002
205	0x3e3d5c0c	0.18492144
206	0xbdaef635	-0.08543054
207	0xbe8ae1c6	-0.27125376
208	0x3d8d4a55	0.06898943
209	0xbe154862	-0.14578393
210	0x3e85c7c2	0.26128966
211	0xbdc5903c	-0.09646651
212	0xbd617118	-0.055039495
213	0xbc2ce801	-0.010553361
214	0xbe138f1d	-0.14410062
215	0x3e05c2e7	0.1306263
216	0xbe55fe23	-0.20897727
217	0x3db2c271	0.08728493
218	0x3dc1941d	0.094520785
219	0xbc06dba1	-0.008231075
220	0xbddbceb3	-0.10732784
221	0xbdc8aaf5	-0.097982325
222	0x3e818f00	0.25304413
223	0xbd6491d5	-0.05580314
224	0x3d17db4c	0.037074372
225	0x3dd911d7	0.10599106
226	0x3e3a5b83	0.18198971
227	0xbe6de64e	-0.23232386
228	0xbde91892	-0.113816395
229	0x3e139fb3	0.14416389
230	0x3cefa175	0.029251793
231	0x3dddc68f	0.10828888
232	0xbe7eebcd	-0.24894638
233	0x3e31377f	0.17306326
234	0x3e80cdc0	0.25156975
235	0xbe13c10b	-0.14429109
236	0x3ea461af	0.32105777
237	0xbe560c79	-0.20903195
238	0x3e1cbde0	0.15306807
239	0x3c7e5a87	0.015524513
240	0xbd809f01	-0.062803276
241	0xbcf6711c	-0.030083232
242	0xbd9877b3	-0.07444706
243	0xbe3b2b18	-0.18278158
244	0x3d706d6c	0.058698103
245	0x3e20cf95	0.15704186
246	0x3e25fdba	0.1621007
247	0x3d510340	0.05102849
248	0xbe380da3	-0.17973952
249	0x3bca9f5f	0.0061835493
250	0x3d91bf01	0.07116509
251	0x3dde4249	0.10852487
252	0xbd63ccaf	-0.055615123
253	0x3cd56200	0.026047707
254	0xbb9e5e42	-0.0048330138
255	0xbdf79be1	-0.120902784

output_layer.bias f4 [10]
0	0xbec8a712	-0.39189965
1	0xbf3daec5	-0.740948
2	0xbdf8008d	-0.1210948
3	0x3f222ea4	0.6335242
4	0x3f5c7403	0.8611452
5	0x3e232e68	0.15935671
6	0x3e7017f3	0.23446636
7	0xbea42e29	-0.32066467
8	0x3e0c85a8	0.13722861
9	0xbdfb6f18	-0.12277049
